GRNN with input mlp/fgslq4kn/checkpoints/epoch=55-step=560.ckpt (torch, 27725 bytes, 40 tensors)

model.A f4 [4, 4]
0	0xbf089e4d	-0.5336655
1	0x3ed53f15	0.4164969
2	0x3e6732dc	0.22577995
3	0xbf623ec9	-0.8837705
4	0x3f147a18	0.579988
5	0xbd9dfecf	-0.077146165
6	0xbf35d875	-0.7103341
7	0xbe3616c5	-0.17782123
8	0x3f84633d	1.0342785
9	0xbde7be7f	-0.11315631
10	0xbf266e9b	-0.6501252
11	0x3f70c941	0.9405709
12	0xbdfed795	-0.12443463
13	0xbe2bbf6c	-0.1677224
14	0xbeeb0b92	-0.45907265
15	0xbf25b4bb	-0.647289

model.B f4 [4, 1]
0	0x3e8260db	0.2546452
1	0xbeffcdfa	-0.49961835
2	0x3eaadc6d	0.33371297
3	0xbe77aade	-0.24186274

model.D f4 [4]
0	0xbc9b4e03	-0.018958097
1	0xbbbdcad5	-0.0057920017
2	0xbc6cebfb	-0.014460559
3	0xbb58fdc5	-0.0033110243

model.H2X_out_MLP.0.weight f4 [12, 4]
0	0x3e557c3e	0.20848176
1	0x3e217fca	0.15771404
2	0x3da6e9bf	0.08150052
3	0xbe31f17c	-0.17377275
4	0x3e2ca3d1	0.16859366
5	0xbd7053d1	-0.058673684
6	0xbed32fc4	-0.4124738
7	0x3ef0540f	0.46939132
8	0xbee55cd7	-0.44797394
9	0xbe54683e	-0.2074289
10	0x3ee702c8	0.4511931
11	0xbc673f4f	-0.014114215
12	0x3e3499f3	0.17636852
13	0xbe1d6e34	-0.1537407
14	0xbd1d7e8b	-0.03845076
15	0x3d6b2373	0.057406854
16	0xbe14b3ba	-0.14521685
17	0x3efa33ee	0.48867744
18	0xbec91c8b	-0.3927959
19	0xbde476ad	-0.11155448
20	0xbe8f6671	-0.28007844
21	0x3d84128a	0.064488485
22	0x3ece69f5	0.40315214
23	0xbe60ff40	-0.2197237
24	0x3d3f00d0	0.046631634
25	0x3e5b11e1	0.21393539
26	0xbec5c2b4	-0.3862511
27	0xbe821064	-0.2540313
28	0x3ee49f9e	0.44653028
29	0xbe72cd2c	-0.2371108
30	0xbecd8a76	-0.401447
31	0xbd824dae	-0.063624725
32	0xbe8b5e12	-0.27220207
33	0xbe4c5446	-0.19954023
34	0x3ed2217d	0.41041175
35	0x3eb78946	0.3584692
36	0xbe9a3577	-0.30118915
37	0xbef888a3	-0.48541746
38	0x3e569d08	0.2095834
39	0xbee468a6	-0.4461109
40	0xbec41c98	-0.38303065
41	0xbe4c0d72	-0.19927004
42	0xbebc76d0	-0.36809397
43	0xbe7f585f	-0.24936055
44	0xbee61b92	-0.4494291
45	0x3e572c56	0.21013007
46	0xbe5168d6	-0.20450148
47	0x3e06de32	0.13170698

model.H2X_out_MLP.0.bias f4 [12]
0	0xbe97b311	-0.29628804
1	0xbe810f0b	-0.2520679
2	0x3cf0f383	0.02941299
3	0x3d92ffcf	0.07177698
4	0x3de4f1a9	0.111789055
5	0x3c66df77	0.014091364
6	0x3e738399	0.2378067
7	0x3e26520d	0.16242237
8	0x3eb21547	0.34781858
9	0x3c6fdaaf	0.014639541
10	0xbeffd152	-0.49964386
11	0x3ea42090	0.32056093

model.H2X_out_MLP.2.weight f4 [12, 12]
0	0x3d405527	0.046956208
1	0x3e88e8be	0.26740068
2	0xbd0ddb94	-0.034633234
3	0x3e48cd26	0.19609508
4	0x3e58f955	0.21188863
5	0x3c2a5b12	0.010397689
6	0xbd17fcb8	-0.037106246
7	0x3cd41d61	0.025892915
8	0xbbad0e7e	-0.0052812686
9	0x3e8b971e	0.2726373
10	0x3e0f6d79	0.14006604
11	0x3e851f66	0.26000518
12	0xbe11efe1	-0.14251663
13	0xbe643d27	-0.22288953
14	0xbd859478	-0.06522459
15	0x3e6fe252	0.23426178
16	0xbe39fc01	-0.18162538
17	0x3e595a1d	0.21225782
18	0xbe6c9b01	-0.23106004
19	0x3e1de4fb	0.1541938
20	0xbe30d39b	-0.17268221
21	0xbe94abc0	-0.29037285
22	0xbe61f4a9	-0.22065987
23	0x3d87d9bb	0.06633326
24	0x3d8c142b	0.06839784
25	0x3e763cf9	0.24046697
26	0x3d5dfd8e	0.054196887
27	0x3e8beba6	0.27328223
28	0xbe19875a	-0.14993039
29	0x3e6883bd	0.22706504
30	0xbd366d6f	-0.044537958
31	0x3e53a596	0.20668635
32	0x3e675566	0.2259117
33	0x3e8fb855	0.28070322
34	0x3e8521ff	0.260025
35	0x3e02620b	0.12732713
36	0x3e3b4193	0.18286733
37	0xbe2fb47e	-0.17158696
38	0xbc28e5ea	-0.010308722
39	0xbe910c25	-0.28329578
40	0x3de1d5a8	0.1102708
41	0xbe3e0045	-0.1855479
42	0x3e84cf5e	0.2593946
43	0xbe6f29bf	-0.23355769
44	0x3db5994e	0.08867131
45	0x3d982e3d	0.07430694
46	0xbe74021e	-0.23828933
47	0x3dc4f23d	0.09616516
48	0xbe901693	-0.28142223
49	0xbd19971f	-0.037497636
50	0xbdea9915	-0.11454979
51	0xbe7f21c3	-0.24915223
52	0x3e632749	0.22182955
53	0x3e75c97c	0.24002641
54	0xbc673b85	-0.014113312
55	0xbe46a4b8	-0.19398773
56	0x3e0b038b	0.1357557
57	0xbe26b999	-0.16281737
58	0x3e17ce6c	0.14824837
59	0x3e551e39	0.2081231
60	0x3e8ede46	0.27903956
61	0x3e2df7b5	0.16989024
62	0x3e073051	0.13202025
63	0xbcb22fc6	-0.021751296
64	0xbe1b18e7	-0.15146218
65	0xbe52da8d	-0.20591183
66	0xbe27443c	-0.16334623
67	0x3dcf4421	0.101204164
68	0x3e78d791	0.24300982
69	0x3e4663c3	0.19373994
70	0x3e82f459	0.25577047
71	0xbd2477f2	-0.04015345
72	0x3e81cdc1	0.2535229
73	0xbe8c1b4a	-0.2736457
74	0xbde0d0e8	-0.10977346
75	0x3e0f652b	0.14003436
76	0x3e7e29fd	0.24820705
77	0x3e59a690	0.21254945
78	0xbe152d96	-0.14568171
79	0xbd2c4b3d	-0.04206394
80	0x3d926fa8	0.07150203
81	0xbe1e58a1	-0.15463497
82	0x3e64bcf8	0.22337711
83	0xbe7b8fdc	-0.24566597
84	0xbde989dc	-0.11403248
85	0x3e8c7165	0.27430263
86	0x3b210625	0.0024570313
87	0x3e705c46	0.234727
88	0x3e30491a	0.17215386
89	0x3c9b30f8	0.018944249
90	0x3a852447	0.0010157906
91	0x3e87ac94	0.26498854
92	0x3cc75dc9	0.024336712
93	0x3e504b2c	0.20341176
94	0xbd28a7ca	-0.04117564
95	0xbd824dd0	-0.06362498
96	0x3b90922c	0.0044119563
97	0xbd41ebca	-0.047344007
98	0xbe8dc080	-0.27685928
99	0xbe05bf08	-0.13061154
100	0x3e450eee	0.19243976
101	0xbe8a905f	-0.2706327
102	0xbd71f8d7	-0.059075203
103	0xbe22b689	-0.15889944
104	0x3e548283	0.20752911
105	0xbe931a59	-0.2873104
106	0x3e8bac85	0.2728006
107	0x3e6668cc	0.22500914
108	0xbe802a2a	-0.2503217
109	0x3d45434c	0.048159882
110	0xbe54bfc0	-0.20776272
111	0x3e601cd6	0.21886
112	0x3e8adebc	0.27123058
113	0xbe70c2a8	-0.23511755
114	0x3d0482a4	0.03235115
115	0x3d108bcd	0.035289574
116	0x3e264ffe	0.16241452
117	0xbddcc27e	-0.10779284
118	0xbe1a5f96	-0.15075526
119	0x3e1b5d80	0.15172386
120	0x3dc4be4d	0.096066095
121	0xbe666c05	-0.22502144
122	0xbc717274	-0.01473676
123	0xbcbe590e	-0.023235824
124	0x3e007d4c	0.12547797
125	0x3cf54eaa	0.029944737
126	0xbe0b66da	-0.13613454
127	0x3e20f697	0.15719067
128	0x3d219548	0.039449006
129	0xbe5f1608	-0.21785748
130	0x3dd192cc	0.102330774
131	0xbe214ead	-0.15752669
132	0x3e2bd1cb	0.16779248
133	0xbe0181b0	-0.12647128
134	0x3d1bde50	0.03805381
135	0x3d65e424	0.056125775
136	0x3d38ff3d	0.04516529
137	0x3e94d51c	0.2906884
138	0xbe18c4ef	-0.14918874
139	0x3e1acc9f	0.15117119
140	0xbe21cf5b	-0.15801756
141	0xbdd080a0	-0.10180783
142	0x3dc47bc0	0.09593916
143	0x3e2edb32	0.17075804

model.H2X_out_MLP.2.bias f4 [12]
0	0x3e72f7b5	0.23727305
1	0x3e33221e	0.17493483
2	0x3e15bc3b	0.14622585
3	0x3cfcf4dd	0.030878479
4	0x3c1c717d	0.009548542
5	0x3d88d19b	0.06680604
6	0xbe30c6be	-0.17263314
7	0x3e56357c	0.2091884
8	0x3c8eee63	0.017447656
9	0xbd6a11de	-0.057145946
10	0x3dbfde61	0.09368587
11	0xbe8a66c1	-0.2703152

model.H2X_out_MLP.4.weight f4 [1, 12]
0	0x3e7a27e0	0.24429274
1	0xbe2d313c	-0.16913313
2	0xbe395f18	-0.18102682
3	0xbdbd61a6	-0.092471406
4	0x3e7d9b6a	0.24766317
5	0x3dffa8c0	0.124833584
6	0x3e156a1e	0.14591262
7	0xbe8b893c	-0.2725314
8	0x3c703aad	0.014662427
9	0xbcae42ff	-0.02127218
10	0xbda94e75	-0.082669176
11	0x3e702b0a	0.23453918

model.inputMLP.0.weight f4 [12, 1]
0	0x3e5a2299	0.2130226
1	0xbea185c8	-0.3154738
2	0xbf021657	-0.5081534
3	0xbf74dc1d	-0.95648366
4	0x3e1c0818	0.15237463
5	0x3f286f8d	0.65795213
6	0x3f36a916	0.71351755
7	0x3f599fc8	0.8500943
8	0x3f2f0afa	0.68376124
9	0xbf056c8c	-0.52118754
10	0xbd8a5324	-0.06754139
11	0xbf54b2b6	-0.8308519

model.inputMLP.0.bias f4 [12]
0	0x3dd7b9ca	0.10533483
1	0xbb4b9a99	-0.003106749
2	0x3e30c6bf	0.17263316
3	0xbef70f7a	-0.48253995
4	0xbe83de80	-0.25755692
5	0x3e80717a	0.25086576
6	0xbf10a2ff	-0.5649871
7	0x3ea4196e	0.3205065
8	0xbea3429d	-0.3188676
9	0x3e119256	0.14215979
10	0x3c9c65a6	0.019091439
11	0xbf2ea4f4	-0.6822045

model.inputMLP.2.weight f4 [12, 12]
0	0xbcdbf534	-0.02685032
1	0x3e19d722	0.15023473
2	0xbe06f997	-0.13181148
3	0x3e371716	0.178799
4	0xbdd2ab80	-0.10286617
5	0x3e944042	0.28955275
6	0x3e684978	0.22684276
7	0x3e4ddc5f	0.20103596
8	0xbd806cb8	-0.062707365
9	0xbe062887	-0.13101397
10	0xbefb6a90	-0.49104738
11	0xbdd6eb7a	-0.10494132
12	0x3e24c28b	0.16089837
13	0x3e12d2fa	0.14338294
14	0xbe48d2f3	-0.1961172
15	0xbe840fa3	-0.2579318
16	0x3da67dbc	0.08129451
17	0xbde4caa8	-0.11171466
18	0x3e99acd1	0.3001466
19	0x3e1b1789	0.15145697
20	0x3d265959	0.040612552
21	0x3e178fba	0.14800921
22	0xbe6b632a	-0.22987047
23	0xbd624778	-0.05524394
24	0xbd8c7dc0	-0.068599224
25	0xbe0f1724	-0.13973671
26	0xbdda9547	-0.10673004
27	0xbc60ecf1	-0.013728366
28	0xbe82c5d7	-0.25541565
29	0x3d811c14	0.063041836
30	0xbe5aa034	-0.21350175
31	0x3e4858ba	0.19565096
32	0xbd93b0d5	-0.072114624
33	0x3e8b8126	0.2724697
34	0x3e761462	0.24031213
35	0xbe2d0817	-0.16897617
36	0xbe6c66b0	-0.23086047
37	0xbe647f5e	-0.22314212
38	0xbe8410e0	-0.25794125
39	0x3e274faa	0.16338983
40	0xbe426a2c	-0.18985814
41	0x3e262aee	0.16227314
42	0x3d1c7019	0.038192842
43	0xbdca2478	-0.09870237
44	0xbe4d895d	-0.20071931
45	0x3df09e41	0.117489345
46	0x3d85b5ec	0.065288395
47	0xbe8a2d1d	-0.26987544
48	0xbd8e6932	-0.06953658
49	0x3dfd1dd4	0.12359205
50	0xbdf38848	-0.11891228
51	0x3e498d97	0.19682918
52	0xbe27e728	-0.16396773
53	0x3e07155f	0.13191746
54	0x3e2253fa	0.15852347
55	0x3e1997ce	0.14999315
56	0x3d2caea9	0.042158756
57	0x3df29805	0.11845402
58	0x3e21e356	0.15809378
59	0xbe901029	-0.2813733
60	0x3da51336	0.08060305
61	0xbe820c79	-0.2540014
62	0xbd23a64c	-0.039953515
63	0xbdd9bafc	-0.106313676
64	0xbe4b3d02	-0.19847491
65	0x3e98e533	0.29862365
66	0xbe2ba270	-0.16761184
67	0x3e4fccfb	0.20293038
68	0x3e60dd98	0.21959531
69	0x3d3b4b10	0.045725882
70	0xbdfd9b94	-0.1238319
71	0x3be43440	0.0069642365
72	0xbcf419de	-0.02979749
73	0x3c8880aa	0.016662914
74	0x3df2e03a	0.11859174
75	0x3dbe5515	0.09293572
76	0x3ca97480	0.020685434
77	0xbe7c2c87	-0.24626361
78	0x3e4baa94	0.19889289
79	0xbe954fe9	-0.2916253
80	0x3d43dd70	0.0478186
81	0x3e1c2518	0.15248525
82	0xbdaa4c80	-0.083153725
83	0x3e472eb0	0.19451404
84	0xbc031614	-0.008000869
85	0x3e21afeb	0.15789764
86	0x3ca4017a	0.020020235
87	0x3e86a618	0.26298594
88	0xbe3c2dc4	-0.18376833
89	0xbe17bcf2	-0.1481817
90	0x3e40efa7	0.1884142
91	0x3d53a168	0.0516676
92	0xbe809fa0	-0.25121784
93	0xbdd49162	-0.10379292
94	0xbdad2960	-0.08455157
95	0x3e312db4	0.1730259
96	0x3db1fb74	0.08690539
97	0xbe31a7f5	-0.17349227
98	0x3e1d7812	0.15377834
99	0x3d1a0437	0.037601676
100	0xbe8d78ce	-0.2763123
101	0x3de1e081	0.11029149
102	0xbda56ba0	-0.080771685
103	0x3e555ca2	0.20836118
104	0xbdc9c235	-0.09851495
105	0x3e6a1948	0.22861207
106	0xbb2c2280	-0.002626568
107	0xbd9b49e8	-0.07582456
108	0xbc86edd3	-0.016470825
109	0x3d653503	0.05595876
110	0x3e8c27ac	0.27374017
111	0xbe26ebbc	-0.16300863
112	0xbdbce22a	-0.09222825
113	0x3e3d4291	0.18482424
114	0xbe7492d6	-0.23884138
115	0x3e5f9da7	0.21837483
116	0x3e320fd2	0.17388847
117	0xbe8ed22f	-0.27894732
118	0xbd1513cb	-0.03639583
119	0xbe10fc07	-0.14158641
120	0xbe1187cf	-0.14211963
121	0xbdc16a30	-0.09444082
122	0xbe0a20af	-0.1348903
123	0xbe8e481a	-0.27789384
124	0x3e70f3bc	0.23530477
125	0xbe4bbfd3	-0.19897394
126	0x3e89b428	0.2689526
127	0xbe020aed	-0.1269948
128	0xbe6c5d24	-0.23082405
129	0xbda7a64e	-0.08186017
130	0x3e516f78	0.20452678
131	0xbe519856	-0.20468268
132	0xbe71a970	-0.23599792
133	0x3e87c78f	0.2651944
134	0x3dda33b5	0.106543936
135	0x3e3fbd57	0.18724571
136	0xbe034200	-0.12818146
137	0xbe917c33	-0.2841507
138	0x3d188198	0.037232965
139	0xbe3b3c5a	-0.18284741
140	0x3e8d280c	0.27569616
141	0xbd8a1bef	-0.06743609
142	0xbe747439	-0.2387246
143	0xbe01aed2	-0.12664345

model.inputMLP.2.bias f4 [12]
0	0xbe130af1	-0.14359643
1	0x3e905648	0.28190827
2	0x3e06767a	0.13131133
3	0x3e7b68b4	0.2455166
4	0xbc5c99b8	-0.013464384
5	0xbe9335ed	-0.2875208
6	0x3d8e80be	0.069581494
7	0x3e839ef5	0.25707212
8	0xbda9b0f9	-0.08285708
9	0x3d521c37	0.05129644
10	0x3b87cf40	0.004144579
11	0xbcccbd10	-0.024992496

model.inputMLP.4.weight f4 [4, 12]
0	0x3f05ed2e	0.5231503
1	0xbe11a78a	-0.14224067
2	0x3e9322bc	0.28737438
3	0xbe84e669	-0.2595704
4	0xbd9c7230	-0.07638967
5	0xbb32adf0	-0.002726432
6	0xbd8283cb	-0.06372794
7	0x3e17d2df	0.14826535
8	0x3e8cd8f5	0.27509275
9	0xbdd600e8	-0.104493916
10	0xbe903a31	-0.28169397
11	0xbe1594b1	-0.14607503
12	0x3e90b798	0.2826507
13	0x3e9467be	0.289854
14	0x3d04cdb4	0.032422736
15	0xbc86d88d	-0.016460681
16	0x3e18eadd	0.14933343
17	0xbd36d02c	-0.044632122
18	0xbe2f11ea	-0.17096677
19	0x3e6c12f8	0.23054111
20	0x3e47159f	0.19441842
21	0x3e25593e	0.16147324
22	0xbd327880	-0.04357195
23	0xbe55af02	-0.20867541
24	0x3c0860b2	0.008323835
25	0xbe0f06c4	-0.13967425
26	0xbe89a263	-0.26881704
27	0xbe880e14	-0.2657324
28	0xbd9a692c	-0.07539591
29	0xbf085208	-0.5325017
30	0xbe7e2d64	-0.24822003
31	0x3e41ccd4	0.18925792
32	0xbba4563b	-0.0050151623
33	0xbe8a6907	-0.27033255
34	0x3e804230	0.25050497
35	0xbddab554	-0.10679117
36	0xbf0baa8d	-0.54557115
37	0x3d8d0e62	0.06887509
38	0x3e42e4b3	0.19032554
39	0xbe6f3bd4	-0.23362666
40	0xbdd6c6db	-0.104871474
41	0x3e8e6b80	0.2781639
42	0x3cb36f67	0.021903707
43	0x3df3f59d	0.119120814
44	0xbe2a3590	-0.16621995
45	0xbe7baf01	-0.24578477
46	0xbe6663f4	-0.22499067
47	0x3df9b080	0.12191868

model.inputMLP.4.bias f4 [4]
0	0x3b4af3d7	0.0030968094
1	0xbe179c30	-0.14805675
2	0x3e39b528	0.18135512
3	0x3cc4cfbe	0.02402484

exp_avg f4 [4, 4]
0	0x37fe0dc1	3.0285564e-05
1	0x3894a9cd	7.088818e-05
2	0x37085817	8.126742e-06
3	0xb74d4002	-1.2233855e-05
4	0x386002c0	5.3408323e-05
5	0x390210c0	0.00012404006
6	0x374d0972	1.2221151e-05
7	0xb7bb84aa	-2.2353914e-05
8	0xb85a66f7	-5.2071144e-05
9	0xb89a9080	-7.3702075e-05
10	0xb72f194f	-1.0436705e-05
11	0x3814caf0	3.547495e-05
12	0xb8df6ec9	-0.00010654104
13	0xb93ebaf7	-0.00018189462
14	0xb7b436cc	-2.1483189e-05
15	0x388dd198	6.762444e-05

exp_avg_sq f4 [4, 4]
0	0x36a21da5	4.8314273e-06
1	0x36cc4e48	6.088787e-06
2	0x357f4fdf	9.511113e-07
3	0x359a3191	1.148832e-06
4	0x366cc0ea	3.5279031e-06
5	0x374a9688	1.20751865e-05
6	0x351a7930	5.754582e-07
7	0x35557903	7.952478e-07
8	0x377790b7	1.4756041e-05
9	0x3743b995	1.1666115e-05
10	0x36493b1c	2.998574e-06
11	0x36d8bc57	6.4592273e-06
12	0x370e4c2f	8.481597e-06
13	0x3634cfca	2.694304e-06
14	0x36599c13	3.2426367e-06
15	0x366ba39c	3.5112962e-06

exp_avg f4 [4]
0	0x39d1cef3	0.00040017776
1	0x3a32f44f	0.0006826566
2	0xb8faa2cf	-0.000119512544
3	0xba1cb8bf	-0.0005978457

exp_avg_sq f4 [4]
0	0x39d54d2f	0.00040684032
1	0x3a7e4681	0.0009699837
2	0x378adc2e	1.6553411e-05
3	0x3a43eb00	0.00074736774

exp_avg f4 [12, 4]
0	0xb8d6fb09	-0.00010251074
1	0xb9003615	-0.00012227178
2	0xb7fcd0d7	-3.013799e-05
3	0x389b9f76	7.420678e-05
4	0x10e32216	8.958823e-29
5	0x10c6142a	7.81283e-29
6	0x10553719	4.204929e-29
7	0x908fba44	-5.669054e-29
8	0x10cecece	8.1571306e-29
9	0x10b488a5	7.1208016e-29
10	0x10420c77	3.8269356e-29
11	0x9082fdb3	-5.1666844e-29
12	0x117c5122	1.9904296e-28
13	0x116c6bde	1.8650357e-28
14	0x10e3bfa0	8.983096e-29
15	0x911e6488	-1.2494981e-28
16	0xb810b303	-3.4498993e-05
17	0xb82c97f3	-4.114951e-05
18	0xb72a2a31	-1.0142613e-05
19	0x37d17e96	2.4973688e-05
20	0xb823eedf	-3.9084694e-05
21	0xb843896c	-4.6619607e-05
22	0xb740c6fb	-1.1490421e-05
23	0x37ed5778	2.8293332e-05
24	0x38a79be2	7.992216e-05
25	0x38c7eaaa	9.532769e-05
26	0x37c51c56	2.3497425e-05
27	0xb872a908	-5.785472e-05
28	0x384327f3	4.652883e-05
29	0x3868c542	5.549682e-05
30	0x37658380	1.3680081e-05
31	0xb80d4528	-3.3681426e-05
32	0x90b93d94	-7.306451e-29
33	0x90a1af70	-6.377361e-29
34	0x902da854	-3.424791e-29
35	0x106aaac1	4.6279907e-29
36	0x11336802	1.415266e-28
37	0x111cb6a6	1.2362513e-28
38	0x10a8528f	6.639152e-29
39	0x90e36823	-8.969616e-29
40	0x91875e48	-2.135735e-28
41	0x916cb3fb	-1.8672578e-28
42	0x90fdd678	-1.00121346e-28
43	0x112bc03f	1.3548762e-28
44	0x91c1ebd6	-3.0595376e-28
45	0x91a8f64f	-2.6657526e-28
46	0x91360e46	-1.4361667e-28
47	0x11762011	1.941586e-28

exp_avg_sq f4 [12, 4]
0	0x386a3602	5.5840246e-05
1	0x38586a6c	5.1597526e-05
2	0x372b2ef5	1.0203327e-05
3	0x37c8eecf	2.3953062e-05
4	0x3470b083	2.2415956e-07
5	0x343975be	1.7272302e-07
6	0x33504903	4.8495178e-08
7	0x33c3eb79	9.123227e-08
8	0x344b422d	1.8929923e-07
9	0x341cb6b1	1.4595095e-07
10	0x332fbed8	4.0918934e-08
11	0x33a59159	7.70985e-08
12	0x34324e0d	1.6605937e-07
13	0x341ddcbc	1.4702067e-07
14	0x330f71ca	3.3398273e-08
15	0x338f0aaa	6.660896e-08
16	0x36cdb9a2	6.1310866e-06
17	0x36beddc6	5.688259e-06
18	0x359524a7	1.1112032e-06
19	0x36319a7a	2.6464973e-06
20	0x3700b044	7.670435e-06
21	0x36edc828	7.0864517e-06
22	0x35bc1ed6	1.4016066e-06
23	0x365cb476	3.2887597e-06
24	0x3819f210	3.670348e-05
25	0x380debc3	3.383659e-05
26	0x36e2225c	6.739325e-06
27	0x37839924	1.5687729e-05
28	0x3756f3cf	1.281216e-05
29	0x37461375	1.180625e-05
30	0x361e07a5	2.3548284e-06
31	0x36b7a3c3	5.4728894e-06
32	0x34265daa	1.549403e-07
33	0x3400894c	1.1970877e-07
34	0x330f766c	3.3402486e-08
35	0x3387d627	6.3253815e-08
36	0x351a20c0	5.741713e-07
37	0x34eda519	4.4264814e-07
38	0x34054615	1.2412086e-07
39	0x347b1266	2.338289e-07
40	0x35b39d10	1.338225e-06
41	0x358aa0e3	1.0328625e-06
42	0x349b12bc	2.888463e-07
43	0x35127c61	5.4570233e-07
44	0x36375b36	2.7322217e-06
45	0x360d8120	2.1085798e-06
46	0x351e5836	5.898795e-07
47	0x35958273	1.1139331e-06

exp_avg f4 [12]
0	0x3640893a	2.8690106e-06
1	0x8f328f81	-8.8037154e-30
2	0x8f203e46	-7.9006025e-30
3	0x0fceff3e	2.0411484e-29
4	0x358198e0	9.655741e-07
5	0x3592da73	1.0941425e-06
6	0xb61615d3	-2.2364445e-06
7	0xb5aeb653	-1.3017074e-06
8	0x0f10ff9c	7.148977e-30
9	0x8f898cf6	-1.3563539e-29
10	0x0fcd99d6	2.0273816e-29
11	0x1022cd7d	3.210717e-29

exp_avg_sq f4 [12]
0	0x34beeae5	3.5561166e-07
1	0x310fe98b	2.0941993e-09
2	0x30f28056	1.7644293e-09
3	0x30dce1a3	1.6071237e-09
4	0x331f30cb	3.706445e-08
5	0x33555f19	4.9679418e-08
6	0x3481092e	2.4034802e-07
7	0x33b4c690	8.4180215e-08
8	0x30c33e1d	1.4205771e-09
9	0x31b864f6	5.3665827e-09
10	0x325589d1	1.2429568e-08
11	0x32db1583	2.5504738e-08

exp_avg f4 [12, 12]
0	0xb8fa325c	-0.00011930309
1	0x118a021d	2.1773863e-28
2	0x11a3bbda	2.5832638e-28
3	0x8f84c62e	-1.3092541e-29
4	0xb8b4536a	-8.598606e-05
5	0xb7854c4d	-1.5890366e-05
6	0xb8a4fea5	-7.8675606e-05
7	0xb79db017	-1.8797857e-05
8	0x11db0c79	3.4559795e-28
9	0x118884d2	2.1538873e-28
10	0x11debbc9	3.5141156e-28
11	0x11cb597c	3.2082902e-28
12	0x0dd60387	1.3189617e-30
13	0x07c0d192	2.9012124e-34
14	0x0a66db7c	1.11153776e-32
15	0x0d0257e1	4.0165123e-31
16	0x0dcc0d06	1.2575606e-30
17	0x0cc4a5a4	3.0298273e-31
18	0x0e1b7e76	1.9166114e-30
19	0x0db587d5	1.1187687e-30
20	0x0b7e29a8	4.894996e-32
21	0x09a969c2	4.0784724e-33
22	0x00000000	0.0
23	0x8c8c02fb	-2.157221e-31
24	0x38b96d88	8.841889e-05
25	0x914508e6	-1.5543302e-28
26	0x9169bf8d	-1.8439485e-28
27	0x0f41f3c5	9.562583e-30
28	0x3885a4da	6.37264e-05
29	0x3745954d	1.1776877e-05
30	0x38749070	5.830865e-05
31	0x3769bc2f	1.3931697e-05
32	0x919c5a75	-2.4668209e-28
33	0x9142e779	-1.537523e-28
34	0x919f00ca	-2.5086263e-28
35	0x91912ab2	-2.290328e-28
36	0x383d9485	4.519943e-05
37	0x0d9071e2	8.9021015e-31
38	0x0df5d13b	1.5149661e-30
39	0x0ed18d04	5.165827e-30
40	0x3808a2f2	3.257668e-05
41	0x36ca01e7	6.0202906e-06
42	0x37fa0a75	2.9807192e-05
43	0x36eef864	7.121869e-06
44	0x0e37772f	2.2613876e-30
45	0x0dca3a10	1.2463189e-30
46	0x0e02a4ee	1.6103148e-30
47	0x0e3986b0	2.286786e-30
48	0x0d0f1d73	4.4100725e-31
49	0x118cd93d	2.2221989e-28
50	0x11a71a6d	2.636424e-28
51	0x0ccd99cd	3.1677817e-31
52	0x0e42a15a	2.3990034e-30
53	0x0cb22b92	2.7451465e-31
54	0x0e5c375c	2.7143748e-30
55	0x0dbde695	1.1703535e-30
56	0x11df8e7d	3.5271012e-28
57	0x118b5413	2.1982148e-28
58	0x11e35141	3.5864362e-28
59	0x11cf88d8	3.2743178e-28
60	0xb87fb6f7	-6.0967137e-05
61	0x11102a8b	1.1372707e-28
62	0x112b0b2b	1.3492963e-28
63	0x8f0582e9	-6.582619e-30
64	0xb8384da8	-4.394134e-05
65	0xb7083cd2	-8.1203925e-06
66	0xb828a249	-4.020546e-05
67	0xb7212a6a	-9.606223e-06
68	0x1164d4c5	1.8051593e-28
69	0x110e9c83	1.1250054e-28
70	0x1168ab58	1.8354372e-28
71	0x11542bbc	1.6737328e-28
72	0xb895643c	-7.123544e-05
73	0x00000000	0.0
74	0x00000000	0.0
75	0x8f136943	-7.267932e-30
76	0xb857581d	-5.1342056e-05
77	0xb71f2f03	-9.488084e-06
78	0xb845090f	-4.6976897e-05
79	0xb73c4f19	-1.122409e-05
80	0x00000000	0.0
81	0x00000000	0.0
82	0x00000000	0.0
83	0x00000000	0.0
84	0x390b9839	0.0001331278
85	0x91975047	-2.3873074e-28
86	0x91b382aa	-2.8321748e-28
87	0x0f943b9e	1.461689e-29
88	0x38c9388f	9.594962e-05
89	0x3794bec3	1.7731805e-05
90	0x38b81d2e	8.779239e-05
91	0x37aff611	2.097621e-05
92	0x91f0261a	-3.7888805e-28
93	0x9195ada3	-2.3615067e-28
94	0x91f43684	-3.853001e-28
95	0x91def61f	-3.5177108e-28
96	0x12a0d573	1.0150039e-27
97	0x0fb5b18f	1.7916371e-29
98	0x0fd7a00a	2.1262282e-29
99	0x8b5bd1a3	-4.233558e-32
100	0x12252f7c	5.212335e-28
101	0x11845360	2.0877312e-28
102	0x12336edb	5.661908e-28
103	0x1181cc37	2.0478468e-28
104	0x101041ee	2.8449783e-29
105	0x0fb3bfeb	1.7724687e-29
106	0x10129950	2.891153e-29
107	0x1005d5c2	2.6394298e-29
108	0x0c1ba5c9	1.1990655e-31
109	0x0c63e6b0	1.7556864e-31
110	0x0cc1c28b	2.9853445e-31
111	0x0b492d0c	3.874508e-32
112	0x0be93ea0	8.9842563e-32
113	0x0b0f1d3f	2.75628e-32
114	0x0c5c316d	1.6963057e-31
115	0x0c0714b9	1.0406258e-31
116	0x0d1095b4	4.4553625e-31
117	0x0c9f64bc	2.4558456e-31
118	0x0cce22e7	3.1760332e-31
119	0x0d127adb	4.5137605e-31
120	0x382975d1	4.0402465e-05
121	0x00000000	0.0
122	0x09597043	2.617321e-33
123	0x0ebb89b5	4.6231666e-30
124	0x37f4451d	2.911925e-05
125	0x36b491c3	5.381387e-06
126	0x37df80f1	2.6643715e-05
127	0x36d59c01	6.366056e-06
128	0x0ab516e8	1.7438282e-32
129	0x0828bae2	5.077534e-34
130	0x00000000	0.0
131	0x8c1843a6	-1.1730011e-31
132	0xb8f02d29	-0.000114525035
133	0x00000000	0.0
134	0x00000000	0.0
135	0x8f834d6b	-1.2947418e-29
136	0xb8ad1a9c	-8.254239e-05
137	0xb77feb5e	-1.5253985e-05
138	0xb89e6316	-7.552483e-05
139	0xb7975f59	-1.8045002e-05
140	0x00000000	0.0
141	0x00000000	0.0
142	0x00000000	0.0
143	0x00000000	0.0

exp_avg_sq f4 [12, 12]
0	0x3876cd7a	5.8842335e-05
1	0x35b7ece4	1.3703507e-06
2	0x3602d19e	1.9493523e-06
3	0x3091fb04	1.0621481e-09
4	0x377393fb	1.4518383e-05
5	0x361f4531	2.373312e-06
6	0x37a024e1	1.909066e-05
7	0x363b5c16	2.7918773e-06
8	0x366b7da3	3.509086e-06
9	0x35b4788b	1.3446128e-06
10	0x366e2a8c	3.548953e-06
11	0x364623e5	2.9525193e-06
12	0x2e83e642	5.998092e-11
13	0x2287c93c	3.680489e-18
14	0x27988e1b	4.2342546e-15
15	0x2cbc9dde	5.360808e-12
16	0x2e692365	5.3009503e-11
17	0x2c5ef22a	3.1682526e-12
18	0x2f07bb1c	1.2344653e-10
19	0x2e3980da	4.2178573e-11
20	0x299444c6	6.5844506e-14
21	0x2651a4a4	7.273457e-16
22	0x00000000	0.0
23	0x2c2c6e99	2.4504064e-12
24	0x3804f05d	3.169511e-05
25	0x353ae5c9	6.962478e-07
26	0x3584ed7d	9.903885e-07
27	0x301bf0c0	5.67308e-10
28	0x37033ae7	7.821923e-06
29	0x35ab7881	1.2775564e-06
30	0x372c94d3	1.028665e-05
31	0x35c9ecd4	1.5044593e-06
32	0x35ef4799	1.7827725e-06
33	0x3537657f	6.832051e-07
34	0x35f2091a	1.8033054e-06
35	0x35c965e7	1.5005324e-06
36	0x37110131	8.642951e-06
37	0x2e167fc6	3.4219537e-11
38	0x2ed96c94	9.887305e-11
39	0x2f357803	1.6504491e-10
40	0x360eb89c	2.1267106e-06
41	0x34bac8ab	3.4791205e-07
42	0x363c7b19	2.8085835e-06
43	0x34dd6313	4.1236544e-07
44	0x2f70a305	2.1885789e-10
45	0x2e938177	6.7077836e-11
46	0x2ef6a863	1.1216696e-10
47	0x2f8c1d08	2.548648e-10
48	0x2cf3797c	6.919963e-12
49	0x35bf91a4	1.4272996e-06
50	0x36084169	2.0303653e-06
51	0x2c89222d	3.8975685e-12
52	0x2f33c0de	1.6348475e-10
53	0x2c3b45d7	2.6613067e-12
54	0x2f8bef1b	2.5453847e-10
55	0x2e5b39e5	4.9846256e-11
56	0x367546da	3.6549086e-06
57	0x35bbf88c	1.4004922e-06
58	0x3678105f	3.696441e-06
59	0x364e5fea	3.0752221e-06
60	0x3782f1c2	1.5609785e-05
61	0x34c8ee89	3.742646e-07
62	0x350eeabd	5.324071e-07
63	0x2f9a9b4b	2.812278e-10
64	0x36812dd9	3.849837e-06
65	0x352905a1	6.29656e-07
66	0x36a9eeb9	5.0643835e-06
67	0x3546e421	7.409272e-07
68	0x3580a2ad	9.584088e-07
69	0x34c52758	3.6722736e-07
70	0x358216f1	9.692432e-07
71	0x35586f62	8.0628354e-07
72	0x37ad773d	2.0678732e-05
73	0x00000000	0.0
74	0x00000000	0.0
75	0x2fc3084d	3.5476191e-10
76	0x36ab77a1	5.1101238e-06
77	0x35600ca3	8.346489e-07
78	0x36e0f5c1	6.7043297e-06
79	0x35835157	9.783934e-07
80	0x00000000	0.0
81	0x00000000	0.0
82	0x00000000	0.0
83	0x00000000	0.0
84	0x3899553f	7.311487e-05
85	0x35dc9480	1.6434497e-06
86	0x361ce281	2.3377654e-06
87	0x30b61953	1.324944e-09
88	0x3797453a	1.8032839e-05
89	0x3645c28c	2.9468529e-06
90	0x37c715e9	2.3732851e-05
91	0x36691a59	3.4735042e-06
92	0x368d33e8	4.20817e-06
93	0x35d8720b	1.6126445e-06
94	0x368ed324	4.25651e-06
95	0x366dadff	3.541703e-06
96	0x34013150	1.2032001e-07
97	0x3221a2ff	9.408494e-09
98	0x3265f8f2	1.3386158e-08
99	0x2981b9b7	5.760967e-14
100	0x330754e1	3.1509334e-08
101	0x31afcf4c	5.1167373e-09
102	0x3320aa8e	3.740802e-08
103	0x31a98842	4.934038e-09
104	0x32cf04b7	2.4100116e-08
105	0x321e9031	9.229596e-09
106	0x32d13910	2.4356751e-08
107	0x32ade843	2.0245471e-08
108	0x2b0e50ba	5.0560565e-13
109	0x2bb865ae	1.3102208e-12
110	0x2c853201	3.785639e-12
111	0x295e233a	4.9324456e-14
112	0x2afa5ec6	4.4474683e-13
113	0x28f03381	2.6667689e-14
114	0x2b917a58	1.0336827e-12
115	0x2acfaadc	3.6889144e-13
116	0x2d136c37	8.380011e-12
117	0x2c34b8ec	2.568219e-12
118	0x2c971aca	4.2946523e-12
119	0x2d2ba7fa	9.757523e-12
120	0x36e66cc2	6.867195e-06
121	0x00000000	0.0
122	0x25564bc7	1.8587216e-16
123	0x2f116d12	1.3226423e-10
124	0x35e2b2b0	1.6890317e-06
125	0x3494642f	2.764004e-07
126	0x3615c6bf	2.2318416e-06
127	0x34b00483	3.2785837e-07
128	0x28073652	7.505784e-15
129	0x234ff4b8	1.1273314e-17
130	0x00000000	0.0
131	0x2b2f6e3f	6.2325487e-13
132	0x3861db48	5.3848402e-05
133	0x00000000	0.0
134	0x00000000	0.0
135	0x3095dbd4	1.0903656e-09
136	0x375f1833	1.329747e-05
137	0x3611ca71	2.172452e-06
138	0x379287da	1.7467817e-05
139	0x362b527e	2.5529002e-06
140	0x00000000	0.0
141	0x00000000	0.0
142	0x00000000	0.0
143	0x00000000	0.0

exp_avg f4 [12]
0	0x36ca0ac0	6.0213206e-06
1	0x0ea09da3	3.9594844e-30
2	0xb695bb69	-4.4623634e-06
3	0xb6191524	-2.2811082e-06
4	0x10b0f1f9	6.979258e-29
5	0x364e80b5	3.077131e-06
6	0x367147dc	3.5953626e-06
7	0xb6e17246	-6.7188257e-06
8	0x113b748e	1.4787615e-28
9	0x0d570dc9	6.6268583e-31
10	0xb608d4c3	-2.0389423e-06
11	0x36c1f3aa	5.7802145e-06

exp_avg_sq f4 [12]
0	0x35e99b3a	1.740503e-06
1	0x300c381d	5.1011445e-10
2	0x357a82c3	9.332254e-07
3	0x3481fdc9	2.4212775e-07
4	0x3400c6d5	1.1993264e-07
5	0x34f8a4ba	4.6313454e-07
6	0x35185820	5.675265e-07
7	0x36110ae9	2.1613034e-06
8	0x315ef354	3.2443568e-09
9	0x2d13732b	8.381555e-12
10	0x344edddc	1.9265957e-07
11	0x35c8539c	1.4925495e-06

exp_avg f4 [1, 12]
0	0xb8ac9f06	-8.2312195e-05
1	0x8da21c57	-9.990843e-31
2	0x36dc251b	6.5608306e-06
3	0xb93dc15e	-0.0001809648
4	0x12035e4b	4.1452536e-28
5	0xb7c120fd	-2.3022754e-05
6	0xb93bbe01	-0.00017904492
7	0xb7b6bfc2	-2.1785385e-05
8	0x128bef6f	8.831158e-28
9	0x0d1f3b4f	4.906705e-31
10	0xb877ba83	-5.906309e-05
11	0xb8b64cba	-8.692728e-05

exp_avg_sq f4 [1, 12]
0	0x3882d759	6.238995e-05
1	0x2e0928c5	3.1186404e-11
2	0x3880379e	6.113875e-05
3	0x38bf70f5	9.1286296e-05
4	0x36a5d427	4.942081e-06
5	0x384c5c7a	4.8723516e-05
6	0x38b5d7ec	8.670971e-05
7	0x3708d091	8.154792e-06
8	0x36b35a97	5.3451618e-06
9	0x2d526caf	1.1961251e-11
10	0x379ffa81	1.9070927e-05
11	0x37ba360b	2.2198094e-05

exp_avg f4 [12, 1]
0	0x35f026f5	1.7892731e-06
1	0x338a0d88	6.428587e-08
2	0x371109ee	8.644985e-06
3	0x06eb7e9f	8.858323e-35
4	0x00000000	0.0
5	0xb7195770	-9.139869e-06
6	0xb2b08612	-2.0550065e-08
7	0xb5c02113	-1.4314741e-06
8	0x34267e60	1.550593e-07
9	0x36fe4992	7.5783546e-06
10	0x3733f7b7	1.0726907e-05
11	0x00000000	0.0

exp_avg_sq f4 [12, 1]
0	0x3200da8f	7.500275e-09
1	0x2e145c15	3.373309e-11
2	0x3404ca14	1.2366974e-07
3	0x2205b620	1.8121277e-18
4	0x00000000	0.0
5	0x341f74df	1.4850546e-07
6	0x28395ee0	1.0290136e-14
7	0x354ecbba	7.703744e-07
8	0x2cf524c2	6.9673997e-12
9	0x33984f13	7.092435e-08
10	0x3153eb0a	3.0838145e-09
11	0x00000000	0.0

exp_avg f4 [12]
0	0x3791f15f	1.7397744e-05
1	0xb5a56647	-1.2323225e-06
2	0x388663f5	6.4082364e-05
3	0x875517cc	-1.6031332e-34
4	0x00000000	0.0
5	0x389f7909	7.6042554e-05
6	0xb28e9d5e	-1.6602538e-08
7	0x39332a75	0.00017086587
8	0x34e89421	4.3321145e-07
9	0x3869fdb8	5.5787823e-05
10	0xb7c16d21	-2.305821e-05
11	0x00000000	0.0

exp_avg_sq f4 [12]
0	0x352fbbef	6.546606e-07
1	0x3094e4b8	1.0833423e-09
2	0x371ef62e	9.474852e-06
3	0x22be3f5b	5.1566683e-18
4	0x00000000	0.0
5	0x37361acf	1.0854287e-05
6	0x28ab4d90	1.9018451e-14
7	0x3872a86d	5.7854155e-05
8	0x2e2893ed	3.8330162e-11
9	0x36a33ae3	4.864634e-06
10	0x348c7f90	2.6169846e-07
11	0x00000000	0.0

exp_avg f4 [12, 12]
0	0xb7537e55	-1.2605994e-05
1	0x00000000	0.0
2	0x37920105	1.7405031e-05
3	0x00000000	0.0
4	0x00000000	0.0
5	0xb81b3442	-3.700355e-05
6	0xb2cfed74	-2.4205953e-08
7	0xb84829d1	-4.772266e-05
8	0xb489b22a	-2.564787e-07
9	0x378dd465	1.6907414e-05
10	0x36110032	2.1606797e-06
11	0x00000000	0.0
12	0x375fdd0b	1.3343301e-05
13	0x32cdbb6d	2.3950372e-08
14	0x378f61f6	1.7092545e-05
15	0x0617fcd6	2.8585698e-35
16	0x00000000	0.0
17	0x38085d70	3.2511947e-05
18	0x314fa04a	3.0213578e-09
19	0x382e662d	4.157999e-05
20	0xb44abce5	-1.8881435e-07
21	0x375b3a35	1.306697e-05
22	0x35e9dcaf	1.742408e-06
23	0x00000000	0.0
24	0x36bc405f	5.6103304e-06
25	0x33493d7a	4.6854872e-08
26	0x371ee99e	9.471927e-06
27	0x06d496fb	7.996738e-35
28	0x00000000	0.0
29	0x375d1c0d	1.3179158e-05
30	0x320ff296	8.378853e-09
31	0x378d2186	1.682412e-05
32	0xb4aae40f	-3.1830902e-07
33	0x36f61bce	7.334608e-06
34	0x358313e3	9.766048e-07
35	0x00000000	0.0
36	0x36e5b134	6.845361e-06
37	0x332f03bf	4.074877e-08
38	0x36fdbb45	7.5617886e-06
39	0x06f14899	9.0760797e-35
40	0x00000000	0.0
41	0x378e0380	1.6929349e-05
42	0xb2349931	-1.0512211e-08
43	0x37b5c15a	2.1666918e-05
44	0xb2b55473	-2.1109576e-08
45	0x36bfeb32	5.719624e-06
46	0x354cfee7	7.6366854e-07
47	0x00000000	0.0
48	0x378ca500	1.6766135e-05
49	0x323df863	1.10577245e-08
50	0x37aafd32	2.0383482e-05
51	0x05cf517e	1.9496122e-35
52	0x00000000	0.0
53	0x382c608d	4.1097916e-05
54	0xb1a17969	-4.6995194e-09
55	0x385c8540	5.2576186e-05
56	0xb3a7b01e	-7.808579e-08
57	0x37827360	1.5550933e-05
58	0x360b2f71	2.0740229e-06
59	0x00000000	0.0
60	0xb4db35b2	-4.0830997e-07
61	0x00000000	0.0
62	0x00000000	0.0
63	0x00000000	0.0
64	0x00000000	0.0
65	0xb59b3a86	-1.1565432e-06
66	0x3251c2ef	1.2209724e-08
67	0xb5c7e3cc	-1.4892953e-06
68	0xb4b2312a	-3.3190855e-07
69	0x00000000	0.0
70	0x00000000	0.0
71	0x00000000	0.0
72	0x337a5079	5.828085e-08
73	0x32138724	8.587254e-09
74	0x34058be4	1.2437482e-07
75	0x06ee0998	8.9539747e-35
76	0x00000000	0.0
77	0x340f8b9c	1.3368702e-07
78	0x00000000	0.0
79	0x34370209	1.7043944e-07
80	0x00000000	0.0
81	0x33e36ba1	1.0590089e-07
82	0x326dbe40	1.38384735e-08
83	0x00000000	0.0
84	0x376db3d0	1.4168167e-05
85	0xb2fe5ed4	-2.9612615e-08
86	0x3796d967	1.798263e-05
87	0x86c8fab5	-7.560002e-35
88	0x00000000	0.0
89	0x38110a85	3.458049e-05
90	0x31b8f49e	5.3829146e-09
91	0x383982b6	4.422917e-05
92	0xb3a35336	-7.605415e-08
93	0x3766ff6e	1.376854e-05
94	0x35f6590b	1.8354343e-06
95	0x00000000	0.0
96	0x382740ce	3.9876257e-05
97	0xb0ba0577	-1.3534834e-09
98	0x384f1a2c	4.937702e-05
99	0x0441cbeb	2.2780676e-36
100	0x00000000	0.0
101	0x38cca0f5	9.7574586e-05
102	0xb1fe7511	-7.405682e-09
103	0x3902e0eb	0.00012481555
104	0xb4458b91	-1.8397829e-07
105	0x381e4480	3.773393e-05
106	0x36a8d3f4	5.0314648e-06
107	0x00000000	0.0
108	0x37f2d3c5	2.8947261e-05
109	0x33318a92	4.1337053e-08
110	0x38144f80	3.535999e-05
111	0x06eb827b	8.85889e-35
112	0x00000000	0.0
113	0x3894b972	7.091732e-05
114	0xb23dddb5	-1.1051658e-08
115	0x38be41b0	9.072141e-05
116	0xb4392407	-1.7242574e-07
117	0x37e25153	2.6979169e-05
118	0x36717904	3.5982239e-06
119	0x00000000	0.0
120	0x00000000	0.0
121	0x00000000	0.0
122	0x00000000	0.0
123	0x00000000	0.0
124	0x00000000	0.0
125	0x00000000	0.0
126	0x00000000	0.0
127	0x00000000	0.0
128	0x00000000	0.0
129	0x00000000	0.0
130	0x00000000	0.0
131	0x00000000	0.0
132	0xb15404f4	-3.0852876e-09
133	0xb25f70b7	-1.3005937e-08
134	0xb331c343	-4.1388613e-08
135	0x064a32f5	3.8029415e-35
136	0x00000000	0.0
137	0xb0849907	-9.647757e-10
138	0x00000000	0.0
139	0xb0636adb	-8.273397e-10
140	0x00000000	0.0
141	0xb325169f	-3.843763e-08
142	0xb1acfc22	-5.034523e-09
143	0x00000000	0.0

exp_avg_sq f4 [12, 12]
0	0x31423bce	2.826471e-09
1	0x00000000	0.0
2	0x311ae447	2.253971e-09
3	0x00000000	0.0
4	0x00000000	0.0
5	0x3298ef2d	1.7803893e-08
6	0x2621f0fc	5.618469e-16
7	0x32faa183	2.9177277e-08
8	0x2c5cbdd0	3.1369247e-12
9	0x30a8d878	1.2285133e-09
10	0x2d44f513	1.11957275e-11
11	0x00000000	0.0
12	0x34b034ac	3.2820878e-07
13	0x2cdd3144	6.2866674e-12
14	0x34821548	2.422987e-07
15	0x21550349	7.2171555e-19
16	0x00000000	0.0
17	0x36108d3b	2.153988e-06
18	0x24903a2b	6.2548586e-17
19	0x366e813e	3.5539992e-06
20	0x2b9a1bc0	1.095006e-12
21	0x34044c3a	1.2321189e-07
22	0x30b2951d	1.2993585e-09
23	0x00000000	0.0
24	0x33c49a13	9.154987e-08
25	0x2de15750	2.5618313e-11
26	0x3383107e	6.103163e-08
27	0x225aa0ab	2.9629566e-18
28	0x00000000	0.0
29	0x352246a2	6.0452487e-07
30	0x259f29a8	2.761033e-16
31	0x3585eef2	9.978814e-07
32	0x2c899c43	3.9111227e-12
33	0x3300c509	2.9981525e-08
34	0x2fb80d86	3.3479014e-10
35	0x00000000	0.0
36	0x331971bf	3.572654e-08
37	0x2dc87116	2.2787588e-11
38	0x32b9e4f6	2.1640954e-08
39	0x22614f17	3.0535056e-18
40	0x00000000	0.0
41	0x347dbc0c	2.3630872e-07
42	0x250e2875	1.2330244e-16
43	0x34d16567	3.9003064e-07
44	0x2c184e26	2.164388e-12
45	0x32321f0a	1.0368021e-08
46	0x2ee050fd	1.0200727e-10
47	0x00000000	0.0
48	0x35166019	5.6019195e-07
49	0x2bc7c84f	1.4195397e-12
50	0x34e26009	4.2165655e-07
51	0x206d4004	2.0095862e-19
52	0x00000000	0.0
53	0x3676d1aa	3.6778897e-06
54	0x243c9b83	4.0897725e-17
55	0x36cba591	6.069146e-06
56	0x2a98101d	2.7011805e-13
57	0x3467894c	2.15635e-07
58	0x31212ef8	2.3455282e-09
59	0x00000000	0.0
60	0x2b64225f	8.104957e-13
61	0x00000000	0.0
62	0x00000000	0.0
63	0x00000000	0.0
64	0x00000000	0.0
65	0x2cd3f79f	6.024472e-12
66	0x25c0838c	3.339583e-16
67	0x2d2fcef6	9.993553e-12
68	0x2aaff90a	3.125905e-13
69	0x00000000	0.0
70	0x00000000	0.0
71	0x00000000	0.0
72	0x2eb30726	8.1412474e-11
73	0x2dd0daa1	2.3743953e-11
74	0x309dfcd4	1.1495112e-09
75	0x225ad574	2.965751e-18
76	0x00000000	0.0
77	0x2fc62948	3.6045322e-10
78	0x00000000	0.0
79	0x301e7df6	5.7659066e-10
80	0x00000000	0.0
81	0x307cf45f	9.202434e-10
82	0x2d1c64fd	8.889997e-12
83	0x00000000	0.0
84	0x350f21da	5.332091e-07
85	0x2d66e616	1.3125076e-11
86	0x34e2bb72	4.2232165e-07
87	0x2200c1a9	1.7449758e-18
88	0x00000000	0.0
89	0x366a7fb9	3.4943062e-06
90	0x241894c7	3.3085765e-17
91	0x36c177e9	5.7658076e-06
92	0x2bf1259c	1.7134519e-12
93	0x346be39f	2.1968889e-07
94	0x3125fe57	2.4155236e-09
95	0x00000000	0.0
96	0x36853b88	3.970639e-06
97	0x29126fa7	3.2515355e-14
98	0x364b1ac3	3.0264935e-06
99	0x1b6c1516	1.9528276e-22
100	0x00000000	0.0
101	0x37dad0c1	2.6084834e-05
102	0x253da615	1.6449408e-16
103	0x38349068	4.3049833e-05
104	0x2bd0f907	1.4848408e-12
105	0x35d0761a	1.553158e-06
106	0x32956f9e	1.739664e-08
107	0x00000000	0.0
108	0x35e70473	1.7212136e-06
109	0x2dc64aba	2.2543179e-11
110	0x35ab347e	1.275577e-06
111	0x22632827	3.0785493e-18
112	0x00000000	0.0
113	0x373dd0c9	1.1313889e-05
114	0x255dddee	1.9243887e-16
115	0x379ca153	1.8671772e-05
116	0x2c2cb181	2.4541205e-12
117	0x352e23db	6.487223e-07
118	0x31f58782	7.145844e-09
119	0x00000000	0.0
120	0x00000000	0.0
121	0x00000000	0.0
122	0x00000000	0.0
123	0x00000000	0.0
124	0x00000000	0.0
125	0x00000000	0.0
126	0x00000000	0.0
127	0x00000000	0.0
128	0x00000000	0.0
129	0x00000000	0.0
130	0x00000000	0.0
131	0x00000000	0.0
132	0x2863c817	1.2644419e-14
133	0x2a6259c4	2.0103976e-13
134	0x2c52de36	2.9966147e-12
135	0x2120207f	5.4253117e-19
136	0x00000000	0.0
137	0x2689416b	9.524016e-16
138	0x00000000	0.0
139	0x25c8a090	3.480327e-16
140	0x00000000	0.0
141	0x2c36d6cd	2.5982994e-12
142	0x28fdc176	2.8172543e-14
143	0x00000000	0.0

exp_avg f4 [12]
0	0xb7d82322	-2.5765567e-05
1	0x38f48b98	0.00011660828
2	0x38694af2	5.5621327e-05
3	0x386cd339	5.64635e-05
4	0x39162c84	0.00014321698
5	0xb5bb6a67	-1.3963553e-06
6	0x3526b0fe	6.2097376e-07
7	0x39010105	0.00012302778
8	0x39b3cbb8	0.00034293323
9	0x3981eb25	0.00024779994
10	0x00000000	0.0
11	0xb3f6ebed	-1.1498182e-07

exp_avg_sq f4 [12]
0	0x342df863	1.6202243e-07
1	0x37ac16b2	2.0514566e-05
2	0x36bb0cd5	5.574528e-06
3	0x360d73cb	2.1078038e-06
4	0x3813f8be	3.527919e-05
5	0x2da1a0af	1.8374939e-11
6	0x3294a375	1.73038e-08
7	0x380ee81d	3.407161e-05
8	0x3983d0a6	0.00025141722
9	0x38e28b41	0.00010802458
10	0x00000000	0.0
11	0x2dcc35d1	2.3216014e-11

exp_avg f4 [4, 12]
0	0xb76fe7e1	-1.4299499e-05
1	0x39011046	0.00012308461
2	0x38c0b02c	9.188088e-05
3	0x38acbdfa	8.236985e-05
4	0x37e1181f	2.6833322e-05
5	0xb57aa145	-9.3366936e-07
6	0xa97d1f7e	-5.62046e-14
7	0x38bbaf23	8.9494766e-05
8	0x38078467	3.2309817e-05
9	0x389cd86e	7.478973e-05
10	0x00000000	0.0
11	0xa51f9082	-1.3840013e-16
12	0xb7b66d11	-2.1746879e-05
13	0x395ceca7	0.00021068995
14	0x392515c6	0.00015743737
15	0x3913852e	0.00014068626
16	0x3844a496	4.6883324e-05
17	0xb5ac54ce	-1.283968e-06
18	0x2dfe9ec0	2.8946956e-11
19	0x391feace	0.00015250893
20	0x3869ef2c	5.5774275e-05
21	0x39077f75	0.00012922085
22	0x00000000	0.0
23	0x29b2a339	7.9331026e-14
24	0x36d596ba	6.3654415e-06
25	0xb817fac0	-3.6234735e-05
26	0xb7e0d83d	-2.6803575e-05
27	0xb7ce062a	-2.4559984e-05
28	0xb6ef9517	-7.1401114e-06
29	0x3575cab0	9.156456e-07
30	0x33400c03	4.4714408e-08
31	0xb7e2a6f3	-2.7019041e-05
32	0xb7167ba7	-8.969487e-06
33	0xb7b04400	-2.10125e-05
34	0x00000000	0.0
35	0x2f996fbf	2.7909938e-10
36	0x378038d4	1.5285252e-05
37	0xb942958c	-0.00018556992
38	0xb911c668	-0.0001390219
39	0xb9015348	-0.00012333423
40	0xb83351ff	-4.275329e-05
41	0x3473fea7	2.272378e-07
42	0xb1c6ae86	-5.7823994e-09
43	0xb90ba325	-0.00013316849
44	0xb851b627	-4.9999126e-05
45	0xb8f2a5c4	-0.000115703355
46	0x00000000	0.0
47	0xadfb64ab	-2.8580102e-11

exp_avg_sq f4 [4, 12]
0	0x2ee0a85a	1.0216246e-10
1	0x3823ab1a	3.902158e-05
2	0x37b0ef79	2.1092348e-05
3	0x37908807	1.722948e-05
4	0x360e6ed7	2.1224166e-06
5	0x2a491420	1.7859368e-13
6	0x2cf78462	7.0348597e-12
7	0x379d5f51	1.8760244e-05
8	0x361efeb3	2.369209e-06
9	0x37873d83	1.6121898e-05
10	0x00000000	0.0
11	0x280cac39	7.808906e-15
12	0x2f7d7c53	2.3054385e-10
13	0x38c36d67	9.318702e-05
14	0x38535511	5.0385544e-05
15	0x382c85a1	4.1132447e-05
16	0x36aab9dd	5.088032e-06
17	0x2abcd426	3.3542716e-13
18	0x2d6d23e2	1.3479858e-11
19	0x383c0139	4.482383e-05
20	0x36bf0f4a	5.6940235e-06
21	0x38218e00	3.851764e-05
22	0x00000000	0.0
23	0x2884686c	1.470023e-14
24	0x2e0f070c	3.2520694e-11
25	0x35d9511b	1.6191365e-06
26	0x356c6d97	8.8076325e-07
27	0x353fba26	7.1423926e-07
28	0x33d2762f	9.8003845e-08
29	0x2a4112a7	1.7148315e-13
30	0x30b470bd	1.3128766e-09
31	0x354ce426	7.632792e-07
32	0x33df874f	1.0408859e-07
33	0x353e5d0b	7.091591e-07
34	0x00000000	0.0
35	0x285f0bfe	1.2381587e-14
36	0x2f012ebb	1.1749084e-10
37	0x38967463	7.174236e-05
38	0x3822acd8	3.8784783e-05
39	0x3804d5c5	3.167034e-05
40	0x36832b9e	3.909182e-06
41	0x2a0b8358	1.2391249e-13
42	0x2ba97d0f	1.2042883e-12
43	0x3810b412	3.449998e-05
44	0x36929d89	4.3694786e-06
45	0x37f8afa1	2.9645687e-05
46	0x00000000	0.0
47	0x25c813af	3.4707808e-16

exp_avg f4 [4]
0	0x39d1cef3	0.00040017776
1	0x3a32f44f	0.0006826566
2	0xb8faa2cf	-0.000119512544
3	0xba1cb8bf	-0.0005978457

exp_avg_sq f4 [4]
0	0x39d54d2f	0.00040684032
1	0x3a7e4681	0.0009699837
2	0x378adc2e	1.6553411e-05
3	0x3a43eb00	0.00074736774
