Covid prediction Graph 300 train days/4s4apyp3/checkpoints/epoch=5-step=222.ckpt (torch, 720524 bytes, 24 tensors)

model.A f4 [91, 91]
-0.036290206 0.03626974 -0.032425433 0.04069421 0.108307265 0.10915495 0.03754472 0.18000951
0.06905653 0.0394808 0.00017463586 -0.03136229 0.16807128 0.116386324 0.030527512 0.07093528
-0.03973298 -0.28543445 0.06830609 -0.046527784 0.044758394 0.14170161 0.20805481 0.0867793
-0.025242431 -0.03939567 -0.04036413 -0.18416041 -0.010516735 -0.21069932 0.02716895 0.05617068
-0.09191146 -0.10987177 -0.1659297 -0.071463436 0.040980887 -0.039408233 -0.0036595329 0.12416511
-0.07710545 0.24227981 -0.013245673 -0.017570673 0.08856629 -0.11190998 -0.048346385 0.12582396
0.092755176 -0.037299037 0.22730155 0.059442036 -0.10798298 0.058394805 0.027354293 0.12125196
0.066541746 -0.05829018 0.078455605 -0.15427217 0.020172704 0.008459109 0.024020981 0.17633499
0.06097406 -0.15295786 0.12482664 0.0073346957 -0.0020430894 -0.08827359 0.05120952 0.009542061
0.0521353 -0.15126917 0.017677624 0.14806323 0.1300135 0.011257479 0.02823409 -0.07486181
0.10776418 0.04533797 -0.026668448 -0.17575975 0.022454385 0.045147758 0.01944871 -0.1775998
-0.019016627 0.08239453 -0.087520346 -0.09477018 -0.13139324 -0.17558746 -0.07532837 0.11831359
0.010931842 -0.17396513 -0.14877944 0.024128124 -0.16335002 0.1268767 -0.053298347 0.14554888
-0.0048951395 -0.009655764 0.14620264 0.11981889 0.07126231 0.08714266 0.09303401 0.012824883
-0.12469897 0.03778 -0.2551479 0.10529633 0.14478038 0.03765146 -0.019618 -0.16173397
-0.04353429 0.10333981 0.15999064 -0.16819587 -0.101944506 -0.10711386 -0.08819674 0.064090595
0.18644212 -0.12495057 0.077520974 -0.14842899 -0.20409495 -0.115267694 0.15821975 0.05025459
0.052581042 -0.04877068 0.16530861 0.13048238 -0.062394246 -0.12619917 -0.12524077 0.028180415
0.10969478 -0.11337802 -0.16197959 -0.09433102 -0.079350136 0.08821813 -0.118558414 0.09173771
0.119177975 -0.007055606 -0.0009268218 -0.13654755 -0.1381832 -0.17823529 -0.0039780634 0.18433581
0.07733678 0.019395279 -0.107677795 -0.15415911 0.111113325 0.21049719 -0.06263235 -0.023188561
-0.11450589 0.044818945 -0.23259014 0.10631776 0.14765075 0.04435283 0.08046447 -0.06189097
-0.08282022 -0.15279959 -0.09077811 -0.0942583 0.10227843 -0.09819186 -0.039171737 -0.18280676
-0.026623445 0.27809072 -0.16757454 0.07534093 0.09174407 0.015818302 0.09290785 -0.08258628
-0.029854845 -0.02354383 -0.11460234 0.0925686 -0.1273021 0.13616556 0.13495654 -0.056622006
-0.017598303 -0.22184491 -0.09112908 -0.26238707 -0.18112868 0.12195529 0.027758544 0.2274859
0.10624549 -0.050323617 -0.26409596 -0.16512235 0.03350282 -0.006426575 0.03433756 -0.3525944
-0.043552224 0.1368727 0.054025814 0.2689108 0.13038826 0.011232458 0.007773446 -0.066489995
-0.053186957 0.16467732 -0.059233673 -0.009304499 0.08480913 -0.10269634 0.17696092 0.12193296
0.060206555 0.18208636 0.1997642 0.022322848 0.01934348 -0.029068032 -0.16692577 -0.10094721
-0.12604395 -0.034853768 0.055261057 -0.16885267 0.0857432 -0.007885813 0.19965525 0.036502525
0.053796884 -0.095836915 0.124979235 0.15974793 -0.05030842 0.10137688 -0.062322795 -0.1426813
00000000: 0aa5 14bd 948f 143d 88d0 04bd f9ae 263d
00000010: 33d0 dd3d a18c df3d 7ec8 193d 6a54 383e
00000020: 836d 8d3d 9fb6 213d 751e 3739 bf75 00bd
00000030: e11a 2c3e f45b ee3d d514 fa3c 8446 913d
00000040: 0dbf 22bd 7724 92be 10e4 8b3d eb93 3ebd
00000050: 9454 373d 3a1a 113e 520c 553e 58b9 b13d
00000060: 37c9 cebc 5b5d 21bd dc54 25bd 8c94 3cbe
00000070: 624e 2cbc 90c1 57be 6b91 de3c 3a13 663d
00000080: 133c bcbd 7304 e1bd 7ae9 29be 6c5b 92bd
00000090: 93db 273d 876a 21bd c6d4 6fbb 474a fe3d
000000a0: 76e9 9dbd 3318 783e 6104 59bc 5ff0 8fbc
000000b0: 3e62 b53d 0f31 e5bd dc06 46bd ffd7 003e
000000c0: 6df6 bd3d e0c6 18bd bdc1 683e 7e79 733d
000000d0: 2e26 ddbd 642f 6f3d 1c16 e03c f352 f83d
000000e0: 0a47 883d afc1 6ebd 55ad a03d 86f9 1dbe
000000f0: 3a41 a53c 1398 0a3c a6c7 c43c 2991 343e
00000100: f0bf 793d fca0 1cbe 1ca5 ff3d e357 f03b
00000110: 5ae5 05bb c9c8 b4bd 13c1 513d 4e56 1c3c
00000120: d38b 553d 4ee6 1abe aad0 903c e39d 173e
00000130: 4222 053e 4a71 383c 2e4b e73c 2651 99bd
00000140: 77b3 dc3d 4fb4 393d ca77 dabc 5dfa 33be
00000150: 42f2 b73c dbec 383d e752 9f3c b9dc 35be
00000160: c2c8 9bbc 77be a83d de3d b3bd de16 c2bd
00000170: f38b 06be 33cd 33be c345 9abd 654e f23d
00000180: 781b 333c ea23 32be a359 18be 58a8 c53c
00000190: 3a45 27be f7eb 013e 5e4f 5abd c40a 153e
000001a0: 6867 a0bb 3633 1ebc 25b6 153e 9b63 f53d
000001b0: f9f1 913d da77 b23d 9d88 be3d 751f 523c
000001c0: 2c62 ffbd 34bf 1a3d bfa2 82be 9aa5 d73d
000001d0: 4f41 143e 6b38 1a3d eeb5 a0bc 979d 25be
000001e0: 0351 32bd d3a3 d33d 96d4 233e 8a3b 2cbe
000001f0: 48c8 d0bd 835e dbbd 7ea0 b4bd ee41 833d
00000200: afea 3e3e 16e6 ffbd 51c3 9e3d c5fd 17be
00000210: 44fe 50be 7811 ecbd 5c04 223e c2d7 4d3d
00000220: 385f 573d c4c3 47bd a946 293e 2c9d 053e
00000230: 1c91 7fbd 5b3a 01be 1e3f 00be 9dda e63c
00000240: a8a7 e03d bc32 e8bd fadd 25be 9f30 c1bd
00000250: 5382 a2bd b5ab b43d c1ce f2bd fbe0 bb3d
00000260: 9513 f43d b732 e7bb f5f5 72ba 1fd3 0bbe
00000270: e67f 0dbe 5083 36be 6a5a 82bb 87c2 3c3e
00000280: bf62 9e3d d9e2 9e3c 2d86 dcbd e3db 1dbe
00000290: 628f e33d 938c 573e 6445 80bd f0f5 bdbc
000002a0: 1082 eabd 1294 373d 1c2c 6ebe 20bd d93d
000002b0: c231 173e 50ab 353d 8eca a43d 6381 7dbd
000002c0: a69d a9bd 7f77 1cbe e0e9 b9bd 7f0a c1bd
000002d0: 5a77 d13d d018 c9bd 8b72 20bd b231 3bbe
000002e0: 6919 dabc e861 8e3e a998 2bbe 584c 9a3d
000002f0: 51e4 bb3d 6295 813c 7946 be3d ff22 a9bd
00000300: 2692 f4bc fdde c0bc a2b4 eabd 9b94 bd3d
00000310: 7b5b 02be fc6e 0b3e 0c32 0a3e 7aec 67bd
00000320: 512a 90bc 502b 63be e2a1 babd 9957 86be
00000330: cc79 39be b2c3 f93d e365 e33c 10f2 683e
00000340: 3c97 d93d 2320 4ebd 9637 87be d515 29be
00000350: 413a 093d 0596 d2bb 8ba5 0c3d 4187 b4be
00000360: d163 32bd 5b28 0c3e 2c4a 5d3d adae 893e
00000370: 8084 053e 5808 383c 64b8 fe3b e82b 88bd
00000380: 91da 59bd 2ca1 283e 029f 72bd e671 18bc
00000390: 69b0 ad3d 7552 d2bd 3e35 353e fdb7 f93d
000003a0: 269b 763d d974 3a3e fd8e 4c3e 68de b63c
000003b0: 3876 9e3c 1520 eebc 97ee 2abe 69bd cebd
000003c0: aa11 01be d3c2 0ebd 6b59 623d b7e7 2cbe
000003d0: 219a af3d 7f33 01bc 6d72 4c3e ac83 153d
000003e0: 1f5a 5c3d 2546 c4bd 1df5 ff3d f694 233e
000003f0: 3410 4ebd af9e cf3d 3046 7fbd 0c1b 12be

model.B f4 [91, 1]
-0.052323677 -0.18874875 0.05423114 0.2140155 -0.019951234 0.032215778 -0.2367091 -0.14714667
-0.1098761 0.16480272 -0.15574591 0.15853757 0.05717284 -0.21681176 0.033373713 0.047667377
0.08616882 0.034827247 0.16739401 -0.07891725 -0.01994637 -0.15543047 -0.083505996 0.028381286
-0.025521036 -0.058519125 0.056673527 -0.057883274 0.14790443 -0.03837503 0.15485284 -0.111531764
-0.09983128 -0.035866167 -0.13283136 -0.30481642 0.2915946 0.09665066 -0.22625111 0.19091071
-0.25303972 0.15146177 0.18226913 0.030053873 -0.13343742 0.2173725 -0.21964128 0.028992718
-0.09710068 -0.25879028 0.15554067 -0.16344012 0.06825532 0.07461377 0.15812282 -0.18788256
-0.03337799 -0.1969858 -0.02609089 -0.120662294 -0.20093098 -0.03764405 -0.19433315 0.15365869
-0.0120775895 -0.039085478 -0.05945083 0.10876414 -0.008712671 0.07798758 0.114011884 -0.060620945
0.09626421 0.16183695 0.029842969 -0.024631083 -0.0016101386 -0.024921877 0.2387771 -0.051088143
0.046858713 0.16865891 0.14577246 0.08761026 -0.17891173 0.21768112 0.087959684 -0.16620061
-0.12125841 -0.097075164 -0.23206133
00000000: 5a51 56bd 5a47 41be 7921 5e3d e126 5b3e
00000010: c570 a3bc b1f4 033d df63 72be 9ead 16be
00000020: b906 e1bd 0bc2 283e db7b 1fbe ac57 223e
00000030: 112e 6a3d e703 5ebe e0b2 083d de3e 433d
00000040: 4779 b03d 04a7 0e3d 5669 2b3e 5e9f a1bd
00000050: 9266 a3bc 2a29 1fbe 3105 abbd df7f e83c
00000060: 7e11 d1bc c0b1 6fbd 8022 683d 0317 6dbd
00000070: 4274 173e 232f 1dbd be91 1e3e c46a e4bd
00000080: 5874 ccbd 67e8 12bd f204 08be e610 9cbe
00000090: e34b 953e c8f0 c53d 5fae 67be 197e 433e
000000a0: 6c8e 81be cb18 1b3e c2a4 3a3e 8a33 f63c
000000b0: d2a3 08be e696 5e3e a5e9 60be 2382 ed3c
000000c0: b9dc c6bd 2980 84be 0e46 1f3e d95c 27be
000000d0: 72c9 8b3d 1bcf 983d f3ea 213e 4964 40be
000000e0: 5cb7 08bd a5b6 49be 90bc d5bc cb1d f7bd
000000f0: dac0 4dbe a630 1abd 45ff 46be b458 1d3e
00000100: 15e1 45bc 1818 20bd b782 73bd bcbf de3d
00000110: 97bf 0ebc f4b7 9f3d 107f e93d ab4d 78bd
00000120: 2c26 c53d 96b8 253e 3e79 f43c 20c7 c9bc
00000130: 490b d3ba f728 ccbc fc81 743e cd41 51bd
00000140: ecee 3f3d ecb4 2c3e 6045 153e 026d b33d
00000150: a334 37be cde7 5e3e 3524 b43d 7e30 2abe
00000160: 5456 f8bd 58cf c6bd 7ca1 6dbe

model.D f4 [91]
-0.040763292 -0.048931383 -0.07076938 -0.06858407 -0.04840836 0.058304366 0.021075392 0.055284735
0.031083891 -0.06311591 0.033609126 -0.0695989 0.025077056 0.019218888 -0.049686972 -0.06836491
0.036833473 0.06632684 -0.051815607 0.042957205 -0.06818618 -0.018332826 0.025769545 -0.002180694
0.039374217 -0.079838626 -0.020088485 -0.042433757 -0.06332449 0.11005119 -0.052360598 -0.030874537
-0.070410185 0.04257742 0.092412494 -0.07700653 0.031968705 -0.026747512 0.048606396 0.0656036
0.060392916 -0.047532983 -0.043154866 0.036354315 -0.046845004 0.108103245 0.01666634 -0.06801931
-0.07567162 -0.05290547 0.01317924 0.041724917 0.015883375 0.023649013 -0.047567826 0.03014412
0.005016526 -0.05883119 -0.044028528 -0.04129976 0.033343073 0.08057005 0.046361342 -0.07309219
-0.013760144 0.052988138 0.049374606 0.06046053 0.05315991 -0.11096653 -0.06193791 0.074967
-0.027202068 0.06487793 0.008587421 0.07059864 0.055619206 -0.032201566 0.07842008 -0.098404855
-0.078911394 0.022963023 -0.02929117 0.0045671766 -0.090902366 0.02122245 -0.0597576 0.04795883
-0.06054599 -0.08017072 0.061022997
00000000: 69f7 26bd 466c 48bd 89ef 90bd ce75 8cbd
00000010: d847 46bd 8fd0 6e3d 4da6 ac3c 3f72 623d
00000020: a5a3 fe3c ea42 81bd b9a9 093d de89 8ebd
00000030: 666e cd3c ee70 9d3c 9184 4bbd e702 8cbd
00000040: b2de 163d 5ed6 873d 9a3c 54bd e5f3 2f3d
00000050: 32a5 8bbd b92e 96bc a71a d33c f9e9 0ebb
00000060: dc46 213d 6f82 a3bd 9b90 a4bc 05cf 2dbd
00000070: 45b0 81bd 8562 e13d 1178 56bd 99ec fcbc
00000080: 3733 90bd a965 2e3d c342 bd3d 99b5 9dbd
00000090: 9ef1 023d 991d dbbc 8017 473d 2e5b 863d
000000a0: 905e 773d f2b1 42bd 28c3 30bd 43e8 143d
000000b0: 8ce0 3fbd 3c65 dd3d d987 883c b54d 8bbd
000000c0: b9f9 9abd 68b3 58bd bded 573c bfe7 2a3d
000000d0: da1d 823c 93bb c13c 7bd6 42bd cdf0 f63c
000000e0: ac61 a43b f9f8 70bd 4257 34bd f029 29bd
000000f0: bf92 083d e901 a53d 64e5 3d3d 5cb1 95bd
00000100: 3a72 61bc 170a 593d 073d 4a3d 76a5 773d
00000110: 35be 593d 6c42 e3bd 9bb2 7dbd 4c88 993d
00000120: dfd6 debc b8de 843d 41b2 0c3c 0596 903d
00000130: f7d0 633d cae5 03bd b59a a03d 7c88 c9bd
00000140: 4c9c a1bd f31c bc3c 09f4 efbc 41a8 953b
00000150: 052b babd b4da ad3c 63c4 74bd 7a70 443d
00000160: 12ff 77bd 8c30 a4bd 40f3 793d

model.H2X_out_MLP.0.weight f4 [182, 91]
-0.075600386 0.047968213 -0.039893925 0.05190057 -0.040755194 0.05339447 0.035776705 0.10359804
-0.15471981 0.024348184 0.032828435 -0.023357933 0.044175636 -0.12539688 0.07435704 -0.14259878
0.111187994 0.08325578 0.081057325 0.09810461 -0.06864927 -0.1488883 -0.13531888 0.10568456
0.0070569287 0.13122824 -0.10103873 -0.06940884 -0.0671119 0.11699189 -0.002880111 0.021130806
-0.005734987 0.04782102 0.11189182 0.0089939255 0.043970503 0.06724099 -0.19924149 -0.026137881
-0.014848386 -0.060541056 0.15595026 -0.022343088 0.022808438 0.07265449 -0.16061406 0.040090136
0.08051558 0.016990284 -0.059971225 -0.18873538 -0.0032847454 -0.04678292 0.15841687 -0.055882845
0.11371384 -0.09072121 0.16555767 -0.086858034 -0.13445063 0.12804927 -0.14380515 -0.046194263
-0.086516 0.025356306 -0.022079308 0.03647445 0.09803601 -0.056400727 0.018219508 -0.080282465
0.11977414 0.02565211 0.07172474 -0.027381312 -0.12019681 -0.16071662 0.052016314 -0.06314051
0.104436785 0.10720922 0.028571632 0.16717722 -0.07111557 0.18263288 -0.019117553 -0.104832955
-0.07055015 -0.17526619 -0.0893983 -0.19638535 -0.09384455 0.0023812524 -0.026691426 -0.13730437
0.17703615 -0.13514286 0.050197113 -0.048503503 0.017842751 0.041697975 -0.0053609353 0.2246599
-2.808679e-06 0.031969164 -0.061003502 -0.04760866 -0.068868086 -0.03422905 0.04431567 -0.04325025
-0.064142175 -0.048133545 0.17223652 0.1096787 0.11809866 -0.06880969 -0.13964073 -0.04642658
-0.072623834 0.20887169 -0.052422095 -0.04073824 -0.12160158 -0.066694595 0.16527328 -0.014852836
0.22882603 -0.035790663 0.023663552 -0.044066995 0.023330687 0.008458162 -0.049844235 0.017179318
-0.15037745 -0.0411353 0.117028676 0.07528177 0.018447416 0.054000806 -0.1230196 0.044680323
0.13495488 0.17717496 -0.0250245 0.05664565 -0.18507606 -0.085430294 -0.19808134 -0.25684372
-0.008093088 0.019994225 -0.15041004 -0.093035385 -0.12790301 0.073546536 0.029141277 0.084525496
0.022352293 0.07275533 -0.11623967 0.194224 -0.14177336 0.04184794 0.014455704 -0.13307776
-0.15822142 -0.12561685 0.08236676 0.17886259 0.028801188 0.0971547 0.08792969 -0.019217407
-0.04511639 -0.079800606 -0.15633212 -0.16225646 -0.15330328 0.0646626 -0.08452244 -0.20910136
0.021888725 0.0496757 -0.06880519 -0.04696918 0.08249498 0.025351297 -0.07899664 -0.06648296
-0.16840519 0.12703942 0.051690612 0.0016122512 0.039892424 -0.02742501 0.11489025 0.033842802
0.02211444 0.021882178 -0.068514496 -0.04868911 -0.19582365 0.14433424 0.024921095 0.048513982
0.032353204 -0.1494233 0.08011348 -0.1354469 -0.052241493 -0.14698198 0.031606313 -0.026129361
-0.057607595 0.020827048 -0.00034426653 0.14948505 0.01895147 0.08842606 0.031165954 -0.07871918
-0.12755202 0.017473761 -0.10342681 -0.0061508776 -0.03651478 0.009542661 0.07996649 -0.036864128
0.029445635 -0.028182039 -0.17348042 0.07806512 0.24347903 0.11274304 -0.010335181 -0.13104396
0.03051728 -0.114443615 -0.08883055 -0.15119322 0.1399042 -0.05874331 -0.039654728 -0.056144785
-0.06711675 0.1706786 0.017149482 0.02331603 0.14024925 0.004410217 0.07435145 -0.057834562
00000000: 60d4 9abd 517a 443d d067 23bd b195 543d
00000010: ebee 26bd 29b4 5a3d 988a 123d 362b d43d
00000020: df6e 1ebe d875 c73c 1c77 063d 2359 bfbc
00000030: 83f1 343d 0a68 00be 8148 983d 6a05 12be
00000040: 88b6 e33d 0282 aa3d 6201 a63d 12eb c83d
00000050: fd97 8cbd 2d76 18be 0891 0abe 2671 d83d
00000060: cf3d e73b b260 063e 65ed cebd 3926 8ebd
00000070: f771 89bd 7299 ef3d 3fc0 3cbb 831a ad3c
00000080: 8fec bbbb f9df 433d 8a27 e53d 425b 133c
00000090: 6a1a 343d a5b5 893d f605 4cbe 1c1f d6bc
000000a0: a546 73bc e6f9 77bd 6db1 1f3e da08 b7bc
000000b0: c3d8 ba3c e1cb 943d 0378 24be 8e35 243d
000000c0: 5ae5 a43d 352f 8b3c 63a4 75bd d943 41be
000000d0: e244 57bb 729f 3fbd 0838 223e 69e5 64bd
000000e0: cde2 e83d 0bcc b9bd f387 293e a0e2 b1bd
000000f0: 6dad 09be 591f 033e a841 13be 3236 3dbd
00000100: 4d2f b1bd 07b8 cf3c aadf b4bc 3c66 153d
00000110: 1bc7 c83d 7304 67bd 1441 953c 226b a4bd
00000120: 254c f53d 6024 d23c 6ce4 923d c64e e0bc
00000130: bf29 f6bd e692 24be 0f0f 553d d04f 81bd
00000140: f4e2 d53d 8290 db3d 0e0f ea3c 8130 2b3e
00000150: 0aa5 91bd 1d04 3b3e 6a9c 9cbc a9b2 d6bd
00000160: 997c 90bd fb78 33be 7516 b7bd 3e19 49be
00000170: 9231 c0bd c90e 1c3b faa7 dabc 8499 0cbe
00000180: f748 353e e462 0abe 7d9b 4d3d 9cab 46bd
00000190: f62a 923c 7fcb 2a3d c9aa afbb 3f0d 663e
000001a0: bd7c 3cb6 19f2 023d cfde 79bd 4c01 43bd
000001b0: b60a 8dbd c333 0cbd 5984 353d 2d27 31bd
000001c0: f95c 83bd ae27 45bd c55e 303e 3a9f e03d
000001d0: b6dd f13d 18ec 8cbd fbfd 0ebe cc29 3ebd
000001e0: cebb 94bd 76e2 553e 8db8 56bd 24dd 26bd
000001f0: 400a f9bd 2d97 88bd 663d 293e 4f59 73bc
00000200: 5f51 6a3e 3b99 12bd 11da c13c 987f 34bd
00000210: ff1f bf3c 1a94 0a3c 7829 4cbd a4bb 8c3c
00000220: 8cfc 19be 7d7d 28bd bbac ef3d 542d 9a3d
00000230: 091f 973c f32f 5d3d b3f1 fbbd b702 373d
00000240: 9d31 0a3e 5a6d 353e 2e00 cdbc 4505 683d
00000250: 9484 3dbe 14f6 aebd d6d5 4abe 0581 83be
00000260: df98 04bc eeca a33c 1705 1abe 5689 bebd
00000270: 02f9 02be 919f 963d b0b9 ee3c b41b ad3d
00000280: 281c b73c bf00 953d 100f eebd a8e2 463e
00000290: 092d 11be bf68 2b3d 9ed7 6c3c 8945 08be
000002a0: cc04 22be b4a1 00be e7af a83d c127 373e
000002b0: 78f0 eb3c 0bf9 c63d 7b14 b43d d36d 9dbc
000002c0: f7cb 38bd 806e a3bd 8715 20be 8f26 26be
000002d0: 89fb 1cbe d36d 843d 1a1a adbd ab1e 56be
000002e0: fc4f b33c bf78 4b3d bce9 8cbd c162 40bd
000002f0: 21f3 a83d 86ad cf3c fec8 a1bd 3828 88bd
00000300: 6972 2cbe 9f16 023e 89b9 533d 2c52 d33a
00000310: 3d66 233d 6aaa e0bc 944b eb3d c09e 0a3d
00000320: 5829 b53c 4142 b33c 5451 8cbd 3b6e 47bd
00000330: ff85 48be 5bcc 133e 5327 cc3c 99b6 463d
00000340: cb84 043d 6c02 19be 8912 a43d 98b2 0abe
00000350: 2dfb 55bd 7282 16be 9f75 013d 3e0d d6bc
00000360: f1f5 6bbd 7c9d aa3c ac7e b4b9 9c12 193e
00000370: 1d40 9b3c b918 b53d be4f ff3c 8537 a1bd
00000380: ff9c 02be 2225 8f3c 6fd1 d3bd 4d8d c9bb
00000390: 8690 15bd d258 1c3c 79c5 a33d d7fe 16bd
000003a0: f937 f13c 05de e6bc daa4 31be 9be0 9f3d
000003b0: 9152 793e d3e5 e63d e454 29bc 6330 06be
000003c0: 60ff f93c 6a61 eabd cbec b5bd 65d2 1abe
000003d0: 0c43 0f3e d39c 70bd ff6c 22bd 13f8 65bd
000003e0: 8274 89bd 5fc6 2e3e 127d 8c3c 4201 bf3c
000003f0: 809d 0f3e 9583 903b 9345 983d efe3 6cbd

model.H2X_out_MLP.0.bias f4 [182]
-0.041251067 -0.10275804 -0.045124397 -0.11123777 -0.013873602 -0.015264694 -0.02618198 -0.2010436
0.0028957187 -0.12648205 0.0035864483 -0.012817586 -0.16144565 0.04645233 -0.088333406 0.012271341
-0.049562287 -0.02326469 -0.13419893 -0.13996984 -0.12665784 -0.0082486635 0.029070763 -0.1127111
-0.06653182 -0.08817603 -0.007557397 -0.096930414 -0.16982721 0.0036648007 -0.007613842 -0.076709405
0.14077078 -0.014466139 0.12582882 -0.07286794 -0.020528553 0.040457804 0.014513281 0.051652346
0.029856002 -0.0035816894 -0.11627518 -0.16606133 0.059187256 0.04096393 -0.043933697 -0.018467393
-0.11491178 -0.032139156 -0.069739774 0.06668844 -0.04512697 0.04218836 0.014762492 -0.11564836
-0.063725956 0.009094267 -0.14887218 -0.088417955 -0.0973609 0.058044754 -0.055367917 -0.010735643
-0.07754196 -0.071618155 -0.12569033 -0.034873445 0.039479323 -0.0020531083 0.14222118 -0.15130681
-0.030026399 -0.1523308 -0.06914141 -0.078658566 0.026166303 -0.10690575 -0.055519637 -0.13805975
-0.11743675 -0.086068526 -0.13074799 -0.0406313 -0.09496069 0.024131665 -0.0754581 -0.0827698
-0.08476764 -0.15657409 -0.08634869 -0.13032205 -0.15158263 0.041244388 -0.06662458 -0.11310038
-0.013365168 -0.06370159 -0.011030063 -0.11755946 0.056295417 -0.118091434 0.038046565 -0.047367506
-0.1759806 -0.03279442 0.02275074 -0.10870524 -0.09632834 -0.15160504 -0.031431235 -0.1094418
-0.19836722 -0.02110977 -0.08122646 -0.075801805 -0.13183317 -0.000591465 -0.13635063 0.06919128
0.00468344 -0.11683698 -0.14402977 -0.1274486 -0.11024758 -0.05387886 -0.14731383 0.017333325
-0.09015457 -0.012358939 0.1178755 0.028425999 -0.12270883 -0.043478142 -0.05491473 0.048780438
-0.109061 -0.1415093 -0.029502925 0.0015698071 0.012720053 -0.023556171 -0.1555101 0.0150115285
0.015837817 -0.025927374 -0.05936833 -0.15977356 -0.10776037 -0.13034423 -0.0010614289 -0.06583075
-0.13668332 0.03405702 -0.049930084 -0.09704613 0.029504523 -0.038172573 -0.135242 -0.028083948
-0.061690845 -0.07797499 -0.06930317 -0.1419403 -0.15513685 -0.0070039304 -0.060748275 -0.081996925
-0.03438294 0.041365877 -0.1694322 0.012351437 -0.07640996 0.103072576 -0.03286544 -0.19323549
-0.12969752 0.016416319 0.053557374 -0.097197965 -0.0042835376 -0.0049086805
00000000: e1f6 28bd cf72 d2bd 5cd4 38bd a1d0 e3bd
00000010: 1b4e 63bc c418 7abc 977b d6bc 60de 4dbe
00000020: 19c6 3d3b 8384 01be 9e0a 6b3b da00 52bc
00000030: 0252 25be cc44 3e3d 25e8 b4bd bc0d 493c
00000040: d301 4bbd 9795 bebc 726b 09be 4154 0fbe
00000050: 98b2 01be 6725 07bc cf25 ee3c 14d5 e6bd
00000060: d641 88bd a295 b4bd 0aa4 f7bb 7483 c6bd
00000070: 2fe7 2dbe 272d 703b 897d f9bb d219 9dbd
00000080: 3726 103e 6203 6dbc 45d9 003e c93b 95bd
00000090: 7f2b a8bc 15b7 253d 1dc9 6d3c 6991 533d
000000a0: 9394 f43c c7ba 6abb ae21 eebd fb0b 2abe
000000b0: 566e 723d cbc9 273d d2f3 33bd ee48 97bc
000000c0: de56 ebbd 59a4 03bd bad3 8ebd f393 883d
000000d0: 0fd7 38bd b4cd 2c3d 61de 713c 0cd9 ecbd
000000e0: c182 82bd 1f00 153c f371 18be 7914 b5bd
000000f0: 2765 c7bd 56c0 6d3d 78c9 62bd 8de4 2fbc
00000100: 52ce 9ebd 8aac 92bd f7b4 00be 75d7 0ebd
00000110: 12b5 213d 718d 06bb 6ea2 113e 2cf0 1abe
00000120: ecf9 f5bc 9bfc 1bbe 039a 8dbd be17 a1bd
00000130: b75a d63c 67f1 dabd 8f68 63bd 895f 0dbe
00000140: ae82 f0bd b244 b0bd cde2 05be 026d 26bd
00000150: c07a c2bd c5af c53c c789 9abd 3783 a9bd
00000160: a89a adbd f554 20be 95d7 b0bd 2573 05be
00000170: 7a38 1bbe e0ef 283d 7872 88bd 2ca1 e7bd
00000180: 94f9 5abc fb75 82bd 70b7 34bc 04c3 f0bd
00000190: 0696 663d ecd9 f1bd b7d6 1b3d 6e04 42bd
000001a0: 4234 34be 7153 06bd c35f ba3c daa0 debd
000001b0: cb47 c5bd 5a3e 1bbe 0abe 00bd 0623 e0bd
000001c0: c720 4bbe 65ee acbc 0f5a a6bd fa3d 9bbd
000001d0: 46ff 06be 8b0c 1bba 809f 0bbe 28b4 8d3d
000001e0: 8b77 993b 3a48 efbd 8a7c 13be e381 02be
000001f0: 7cc9 e1bd 14b0 5cbd 70d9 16be 9efe 8d3c
00000200: f6a2 b8bd 267d 4abc b668 f13d a4dd e83c
00000210: c44e fbbd 2316 32bd 45ee 60bd ffcd 473d
00000220: 605b dfbd d0e7 10be 1eb0 f1bc fcc1 cd3a
00000230: c567 503c dff8 c0bc 0a3e 1fbe eaf2 753c
00000240: 4fbe 813c a565 d4bc 352c 73bd ae9b 23be
00000250: 78b1 dcbd f578 05be a51f 8bba 46d2 86bd
00000260: b6f6 0bbe 607f 0b3d 7d83 4cbd 1fc0 c6bd
00000270: 78b3 f13c d85a 1cbd e17c 0abe 4f10 e6bc
00000280: 8aaf 7cbd 5ab1 9fbd d2ee 8dbd cc58 11be
00000290: 32dc 1ebe 3a81 e5bb 2fd3 78bd 01ee a7bd
000002a0: 20d5 0cbd 446f 293d a27f 2dbe ae5d 4a3c
000002b0: d37c 9cbd b717 d33d e99d 06bd 86df 45be
000002c0: 6dcf 04be 847b 863c fa5e 5b3d ba0f c7bd
000002d0: eb5c 8cbb ffd8 a0bb

model.H2X_out_MLP.2.weight f4 [182, 182]
0.012001181 -0.036449563 -0.11003562 -0.036909085 -0.094850406 -0.033540476 -0.08555509 -0.096188724
0.037565097 -0.0666871 -0.10322846 -0.14519453 -0.15539476 -0.016211377 -0.13938293 -0.15819342
-0.0053735953 -0.13439941 -0.11942717 -0.021002715 -0.03579239 -0.006484576 -0.09184957 -0.015758844
-0.07589411 -0.05156697 -0.021346245 -0.124012664 -0.03528491 -0.056027997 -0.114834026 -0.007017783
-0.010428248 -0.02804665 -0.09816709 -0.10500425 0.03134862 -0.017171854 -0.046037555 -0.060326744
0.08449195 -0.023956044 -0.0391285 -0.0259282 -0.13496235 0.11484266 -0.029719565 -0.022484997
0.02462191 7.939683e-05 0.020542042 -0.01898491 -0.09792682 -0.021393474 -0.14347902 -0.010132846
-0.048706293 -0.16225772 -0.036311034 -0.12978564 -0.010238039 -0.020863807 -0.016348477 -0.024043353
-0.076913595 -0.037155073 -0.036230594 -0.14077301 -0.08255769 -0.13056563 0.033158276 -0.0020179313
-0.03501849 -0.036460724 -0.06864897 -0.10567662 -0.07144459 -0.09660242 -0.081097774 -0.005675581
-0.14434476 -0.03651942 -0.060062848 -0.11592674 -0.0925873 -0.06454604 -0.0008154588 -0.101513095
-0.15881154 0.04397296 -0.11182293 -0.10831771 -0.06868353 -0.02039558 0.04237917 -0.038587984
-0.015222626 -0.004328485 -0.016642163 0.0114475675 0.0065155844 -0.03044488 -0.08533585 -0.0102466345
-0.09512842 -0.01979475 -0.14044765 -0.046781883 -0.020113783 -0.05915616 -0.022922626 -0.14531529
-0.04789668 -0.07307835 -0.047788613 -0.054951843 -0.05959444 -0.13887899 -0.010813522 -0.05130048
-0.13952161 -0.12410648 -0.08258555 -0.113784365 0.06481609 -0.08067644 0.022596035 -0.0026902854
-0.04381245 -0.019202866 0.022064906 -0.032747176 -0.032033868 -0.1546902 0.017794719 0.014730119
-0.003728945 -0.091651894 -0.10012972 -0.041983485 -0.10248949 -0.15490626 0.023407118 -0.009587856
-0.14511992 -0.023874585 0.01540844 -0.07688925 -0.011738275 -0.021987902 0.018495398 -0.14539547
0.012297451 -0.07650255 -0.017877286 -0.045846008 -0.0059595983 -0.00231906 -0.078635596 -0.06721272
-0.037474327 -0.08410482 -0.0825749 -0.13908784 0.02988396 -0.037093814 -0.066999055 -0.0036284341
-0.07196161 -0.13757369 -0.0012385941 -0.104150064 -0.052547667 -0.03863288 -0.008794874 0.0076083285
-0.11221179 -0.018725393 -0.02979711 -0.077042386 -0.06917165 -0.02290501 -0.10571822 -0.0927318
-0.09997753 0.011446858 -0.045481868 -0.085145906 -0.12012122 0.0025843948 -0.037551735 0.027887633
-0.13707331 -0.051879913 -0.042466704 -0.14097436 0.004805449 -0.06162406 -0.03850974 -0.0024580143
-0.029441513 -0.050488207 -0.027188316 -0.05546896 0.007218396 -0.028567182 -0.1099717 -0.01802745
-0.058378596 -0.092763744 -0.033341188 -0.03489824 -0.029365767 -0.05569493 0.029471157 -0.098137856
-0.10736666 -0.119003065 -0.06478918 -0.10286595 0.02017777 -0.055235714 0.07308992 0.024776682
0.001953362 -0.048811056 -0.024314448 0.07521278 -0.055275608 -0.0007959881 -0.12145298 0.012586209
-0.07713288 0.023235813 -0.09087865 -0.016552268 -0.11696686 -0.055699904 -0.08562338 -0.11183353
-0.071364 0.026641684 -0.03947027 -0.01786071 -0.07315712 -0.04666706 -0.13307051 -0.12070827
-0.006162942 -0.12095668 -0.093158156 -0.013056103 0.013266512 -0.081993684 -0.0453544 0.03524837
00000000: 9aa0 443c 234c 15bd 5b5a e1bd fb2d 17bd
00000010: ee40 c2bd bd61 09bd 8237 afbd 98fe c4bd
00000020: dcdd 193d 3f93 88bd 7169 d3bd e0ad 14be
00000030: ce1f 1fbe b9cd 84bc 66ba 0ebe 75fd 21be
00000040: fc14 b0bb 00a0 09be 3b96 f4bd e30d acbc
00000050: 0b9b 12bd 917c d4bb a11b bcbd b118 81bc
00000060: 5f6e 9bbd e337 53bd 52de aebc 5afa fdbd
00000070: e986 10bd 9d7d 65bd 1a2e ebbd 6ef5 e5bb
00000080: 3edb 2abc 17c2 e5bc d40b c9bd 780c d7bd
00000090: 6967 003d fdab 8cbc e091 3cbd 2d19 77bd
000000a0: 1e0a ad3d 773f c4bc 3545 20bd 6067 d4bc
000000b0: 9233 0abe a132 eb3d 7276 f3bc 7532 b8bc
000000c0: e3b3 c93c d981 a638 c947 a83c 3e86 9bbc
000000d0: db8d c8bd 5e41 afbc 2aec 12be 3d04 26bc
000000e0: 4080 47bd e326 26be e1ba 14bd 87e6 04be
000000f0: 73bd 27bc 93ea aabc 3eed 85bc 91f6 c4bc
00000100: e084 9dbd eb2f 18bd 8866 14bd cd26 10be
00000110: 0214 a9bd ffb2 05be f9d0 073d 453f 04bb
00000120: 8c6f 0fbd d757 15bd d597 8cbd fc6c d8bd
00000130: 8b51 92bd 7dd7 c5bd 9716 a6bd 39fa b9bb
00000140: 1dcf 13be 6395 15bd 7604 76bd 006b edbd
00000150: 699e bdbd b730 84bd 84c4 55ba 19e6 cfbd
00000160: 7e9f 22be fe1c 343d 6c03 e5bd add5 ddbd
00000170: f3a9 8cbd a214 a7bc c895 2d3d 6f0e 1ebd
00000180: 5268 79bc f7d5 8dbb 2555 88bc 948e 3b3c
00000190: af80 d53b 8a67 f9bc 90c4 aebd 80e1 27bc
000001a0: b0d2 c2bd 9928 a2bc 82d1 0fbe 5c9e 3fbd
000001b0: a9c5 a4bc bb4d 72bd 3bc8 bbbc 88cd 14be
000001c0: 4f2f 44bd 1aaa 95bd febd 43bd 2f15 61bd
000001d0: 4d19 74bd 4b36 0ebe 332b 31bc 7420 52bd
000001e0: c1de 0ebe 8a2b febd 9d22 a9bd c707 e9bd
000001f0: 4cbe 843d b039 a5bd 521b b93c 804f 30bb
00000200: af74 33bd 544f 9dbc 76c1 b43c e721 06bd
00000210: f235 03bd 1c67 1ebe 3bc6 913c 9956 713c
00000220: 5161 74bb fdb3 bbbd d010 cdbd e0f6 2bbd
00000230: 02e6 d1bd bf9f 1ebe 49c0 bf3c 6216 1dbc
00000240: 519a 14be a294 c3bc ae73 7c3c 1c78 9dbd
00000250: e551 40bc f91f b4bc a983 973c 8de2 14be
00000260: 3f7b 493c 5ead 9cbd 6373 92bc 06c9 3bbd
00000270: bc48 c3bb 5ffb 17bb b30b a1bd d3a6 89bd
00000280: ae7e 19bd 263f acbd 071d a9bd 0b6d 0ebe
00000290: 35cf f43c afef 17bd cd36 89bd 06cb 6dbb
000002a0: 9c60 93bd 1ee0 0cbe 5258 a2ba a14c d5bd
000002b0: 393c 57bd 833d 1ebd 6018 10bc 494f f93b
000002c0: 4ccf e5bd ff65 99bc 1219 f4bc 66c8 9dbd
000002d0: dea9 8dbd 4aa3 bbbc cb82 d8bd 2cea bdbd
000002e0: 05c1 ccbd 9a8b 3b3c 324b 3abd fa60 aebd
000002f0: 1d02 f6bd f35e 293b d9cf 19bd 9b74 e43c
00000300: f25c 0cbe 0880 54bd 91f1 2dbd 955b 10be
00000310: 0777 9d3b 8369 7cbd 64bc 1dbd a316 21bb
00000320: 542f f1bc b9cc 4ebd 08ba debc 6c33 63bd
00000330: 4b88 ec3b b905 eabc d838 e1bd 4eae 93bc
00000340: 651e 6fbd ebfa bdbd c590 08bd 75f1 0ebd
00000350: 7a90 f0bc 5e20 64bd 7f6d f13c 80fc c8bd
00000360: 0de3 dbbd e1b7 f3bd 31b0 84bd 62ab d2bd
00000370: da4b a53c d83e 62bd 2bb0 953d 78f8 ca3c
00000380: fa03 003b 1aee 47bd 182f c7bc 2809 9a3d
00000390: ad68 62bd dba9 50ba 57bc f8bd 6336 4e3c
000003a0: d8f7 9dbd 0859 be3c 961e babd 9f98 87bc
000003b0: 528c efbd 9525 64bd 505b afbd fa08 e5bd
000003c0: 4a27 92bd a93f da3c 94ab 21bd a050 92bc
000003d0: 66d3 95bd f625 3fbd a343 08be e635 f7bd
000003e0: 81f2 c9bb 23b8 f7bd b4c9 bebd 44e9 55bc
000003f0: c95b 593c 4eec a7bd 89c5 39bd 9860 103d

model.H2X_out_MLP.2.bias f4 [182]
-0.1207823 -0.08776606 -0.03969052 -0.0040600277 0.07752053 -0.055581305 -0.11517557 -0.07959975
-0.10312064 -0.08746881 -0.1291425 -0.111946076 0.020029075 0.029498747 -0.015768308 -0.08238318
-0.2113338 -0.07503899 0.018041687 -0.11056257 -0.15572105 0.012349108 -0.022739898 -0.10694179
-0.1040177 0.004575909 -0.045210678 0.012749912 -0.0981973 -0.04460042 -0.07517207 -0.12934746
-0.05979358 -0.13797976 -0.02164501 -0.12921508 -0.0509452 0.021420646 -0.1524402 -0.026262678
-0.0478309 -0.12042542 -0.07479496 -0.019613592 -0.022236295 -0.016820818 0.0010574771 -0.05376277
-0.13862492 -0.03699114 -0.07358583 -0.07735391 -0.07344466 -0.09018231 -0.039068352 -0.061626855
-0.108161636 0.036119394 -0.06587561 0.017357895 -0.010800975 -0.018336184 -0.124381654 -0.004345958
-0.08851512 -0.007807471 -0.009904434 -0.106923014 -0.0011281365 -0.02779067 -0.113079675 -0.09326462
-0.00064551015 -0.11400515 -0.022955716 -0.05935342 -0.13633852 -0.08407331 -0.0013426056 -0.08156958
-0.07458898 -0.014171068 -0.035232723 -0.0454134 -0.07866405 -0.09582795 -0.03355787 -0.09172745
-0.034748897 -0.07696937 0.015256778 -0.092463784 -0.033418164 0.02476477 0.075528026 -0.014414378
-0.06837799 -0.12204525 -0.016603533 -0.11716639 0.029343063 -0.12343953 -0.11361938 -0.040305953
-0.03626099 0.028448727 -0.0036821894 -0.04439913 -0.091460995 -0.107599966 -0.11417213 -0.08374758
-0.072459444 -0.041592594 -0.0539606 -0.120073184 0.039825957 0.0071484107 -0.15257831 -0.051243607
-0.053412464 -0.007885386 -0.08631513 -0.071575835 0.0055457945 -0.04941638 -0.08154191 -0.028115567
-0.050785407 -0.006091758 -0.20507966 -0.017227465 -0.062200196 -0.08404886 0.0063465955 -0.002169461
-0.09236683 -0.061664555 -0.09414632 -0.09695827 -0.051546477 -0.11343076 -0.04142773 -0.13133618
-0.08701044 -0.1023734 -0.12152649 -0.011177671 -0.101930976 -0.07206913 0.068117596 -0.059092157
-0.04350195 -0.06932443 -0.1002108 -0.032627396 -0.08439003 0.0277114 -0.14205235 -0.07105447
-0.070796184 -0.096809305 -0.11202862 -0.007998427 -0.0075411126 -0.08708034 -0.13724029 -0.08124649
-0.11975035 -0.122444496 -0.09784981 0.021351328 0.022627173 -0.082636476 -0.07823219 -0.022074698
-0.06253015 0.013715425 -0.07876646 -0.036568783 0.072598755 -0.016808167
00000000: b65c f7bd b1be b3bd 8792 22bd fb09 85bb
00000010: 15c3 9e3d 39a9 63bd 2be1 ebbd 3205 a3bd
00000020: ea30 d3bd d922 b3bd ee3d 04be fc43 e5bd
00000030: 0414 a43c 5ba7 f13c 8a2c 81bc 83b8 a8bd
00000040: e367 58be 0bae 99bd 29cc 933c a16e e2bd
00000050: 5775 1fbe ea53 4a3c 0649 babc 4c04 dbbd
00000060: 3b07 d5bd 82f1 953b d52e 39bd 02e5 503c
00000070: ab1b c9bd eeae 36bd d0f3 99bd a973 04be
00000080: 1dea 74bd 914a 0dbe e050 b1bc f550 04be
00000090: eaab 50bd 5a7a af3c 4919 1cbe d424 d7bc
000000a0: 55ea 43bd 9aa1 f6bd 1a2e 99bd afac a0bc
000000b0: e428 b6bc d0cb 89bc 0b9b 8a3a 5a36 5cbd
000000c0: b1f3 0dbe 0684 17bd 2bb4 96bd ba6b 9ebd
000000d0: 276a 96bd 81b1 b8bd 2306 20bd 716c 7cbd
000000e0: d983 ddbd eef1 133d cbe9 86bd 2532 8e3c
000000f0: 93f6 30bc c435 96bc cfbb febd 8a68 8ebb
00000100: 6a47 b5bd d0d5 ffbb 3546 22bc 74fa dabd
00000110: fbdd 93ba 42a9 e3bc 5196 e7bd 8501 bfbd
00000120: 7437 29ba 887b e9bd a00d bcbc 921c 73bd
00000130: 539c 0bbe a12e acbd 5efa afba f40d a7bd
00000140: 1bc2 98bd c42d 68bc 3050 10bd 6703 3abd
00000150: 9e1a a1bd 7241 c4bd fa73 09bd 9adb bbbd
00000160: dc54 0ebd 1ea2 9dbd 91f7 793c a75d bdbd
00000170: 7ce1 08bd 7ddf ca3c 70ae 9a3d 492a 6cbc
00000180: c209 8cbd dcf2 f9bd 2204 88bc eff4 efbd
00000190: dd60 f03c ddcd fcbd 47b1 e8bd db17 25bd
000001a0: 6786 14bd 4e0d e93c e350 71bb dddb 35bd
000001b0: e74f bbbd 5f5d dcbd 14d3 e9bd da83 abbd
000001c0: 9e65 94bd ff5c 2abd ca05 5dbd eee8 f5bd
000001d0: 8b20 233d 373d ea3b 7d3d 1cbe d1e4 51bd
000001e0: 07c7 5abd b531 01bc fdc5 b0bd 5a96 92bd
000001f0: 7fb9 b53b d468 4abd 72ff a6bd 9e52 e6bc
00000200: 5c04 50bd 5f9d c7bb 6700 52be 9d20 8dbc
00000210: a2c5 7ebd cf21 acbd 1af7 cf3b 842d 0ebb
00000220: d22a bdbd f993 7cbd c9cf c0bd 0f92 c6bd
00000230: 6622 53bd 634e e8bd 20b0 29bd fe7c 06be
00000240: 8832 b2bd 25a9 d1bd e1e2 f8bd 8d22 37bc
00000250: 30c1 d0bd fb98 93bd 3d81 8b3d 9e0a 72bd
00000260: 1a2f 32bd f7f9 8dbd 523b cdbd 4ea4 05bd
00000270: aed4 acbd 0503 e33c 2c76 11be 0285 91bd
00000280: 97fd 90bd f543 c6bd 436f e5bd d60b 03bc
00000290: 701b f7bb 2d57 b2bd b888 0cbe 8f64 a6bd
000002a0: ac3f f5bd 2ec4 fabd 7b65 c8bd fbe8 ae3c
000002b0: 9f5c b93c 503d a9bd 3338 a0bd ffd5 b4bc
000002c0: cf0f 80bd a9b6 603c 4f50 a1bd 26c9 15bd
000002d0: a8ae 943d 48b1 89bc

model.H2X_out_MLP.4.weight f4 [1, 182]
-0.034013897 -0.026298383 -0.0035195262 -0.008442051 -0.0010987929 0.027583277 -0.042021655 -0.026268452
-0.05182982 -0.0032152222 0.03361677 -0.0401674 0.045184582 0.009494551 -0.011321815 0.01658844
0.012114132 -0.06660022 0.06467085 0.04519283 -0.039816927 0.03210517 0.020081202 -0.08204506
-0.050760325 -0.05789527 -0.02346903 0.033367205 0.025485784 -0.005547433 -0.026062455 -0.051982455
-0.05074226 -0.026646802 0.030969871 -0.024873575 0.023484627 -0.055472735 -0.03105022 0.051144037
0.006896812 -0.007657562 0.009775769 0.037347913 0.008585215 -0.0440951 -0.033094246 1.3457727e-06
-0.034868512 -0.032620825 -0.000262518 0.031816825 0.029999627 -0.00410538 -0.014202673 -0.03722447
-0.024908083 0.07546187 0.034849912 -0.046227116 0.008187041 0.031083494 0.03709425 -0.019305663
-0.034172677 0.035349473 0.034054887 -0.00197711 0.027459087 0.02898294 -0.040741906 -0.0071638804
0.008070103 -0.023503708 0.0547356 0.031073729 -0.029582838 0.014000894 -0.021980746 0.044138107
-0.0039837686 -0.0076419166 0.005274146 0.013226648 -0.006512647 -0.025103359 -0.01963981 0.028526327
0.01979695 -0.044067163 0.0022248868 0.053998727 -0.0071289237 -0.063242055 0.10146514 0.011798146
-0.020746047 0.008275339 0.020238345 0.01683319 0.0017745025 -0.060245123 -0.042213168 -0.01597553
0.020674627 0.010455632 0.05006218 0.034116704 -0.03130551 -0.021823043 -0.055121124 0.04472899
0.035822753 -0.0029605136 -0.040151116 -0.040265553 0.012887999 0.015170248 -0.032451294 0.032527067
0.0075672707 0.020591468 -0.040574048 -0.031647168 -0.002973903 0.0013007936 0.082083 0.057202753
-0.03273983 -0.014636654 -0.13836041 0.05152403 0.07168077 0.017948003 0.020596895 0.096101485
-0.029038701 -0.03363257 -0.03419735 -0.045467388 0.05249303 -0.057048235 0.05760623 0.065653786
0.007713084 -0.038080513 0.0043783975 -0.020813692 -0.027691554 0.005400075 0.010191731 -0.06913162
0.0068142437 -0.047901005 -0.028503953 -0.06570895 -0.03676251 -0.04213061 -0.05392605 -0.020646796
-0.017906792 0.109028205 0.040460326 0.0059157945 -0.024761718 -0.020273685 -0.051333968 -0.062204115
0.0009050949 0.04561531 0.024166342 -0.01485783 0.0677988 0.0066892593 -0.040328734 -0.029624498
-0.024459438 -0.015103759 0.04786754 -0.04497081 0.09872931 -0.02043463
00000000: 2852 0bbd b56f d7bc daa7 66bb 8750 0abc
00000010: 5f05 90ba 53f6 e13c e61e 2cbd f030 d7bc
00000020: 814b 54bd 7ab6 52bb bdb1 093d 9286 24bd
00000030: 7813 393d 098f 1b3c 227f 39bc 7be4 873c
00000040: 5a7a 463c b265 88bd 2772 843d 1e1c 393d
00000050: 1317 23bd b680 033d 5581 a43c 3e07 a8bd
00000060: 0fea 4fbd 9723 6dbd 2042 c0bc 0dac 083d
00000070: 90c7 d03c 3ec7 b5bb ee80 d5bc 8eeb 54bd
00000080: 1ed7 4fbd 654a dabc 87b4 fd3c abc3 cbbc
00000090: d562 c03c 6137 63bd 085d febc 697c 513d
000000a0: a7fe e13b 49ec fabb 8c2a 203c 20fa 183d
000000b0: 00a9 0c3c 109d 34bd d58d 07bd 66a0 b435
000000c0: 49d2 0ebd 6a9d 05bd 92a2 89b9 5c52 023d
000000d0: c7c1 f53c 6c86 86bb 54b2 68bc b078 18bd
000000e0: 090c ccbc c18b 9a3d c8be 0e3d a558 3dbd
000000f0: f022 063c d0a2 fe3c 24f0 173d e926 9ebc
00000100: a6f8 0bbd 9cca 103d 237d 0b3d 6792 01bb
00000110: e1f1 e03c a16d ed3c fce0 26bd fcbe eabb
00000120: 7738 043c d98a c0bc 7032 603d 558e fe3c
00000130: b557 f2bc 0164 653c f710 b4bc 29ca 343d
00000140: 468a 82bb 0b69 fabb bed2 ac3b 95b4 583c
00000150: 0b68 d5bb 8fa5 cdbc abe3 a0bc 0bb0 e93c
00000160: 372d a23c c57f 34bd 68cf 113b c52d 5d3d
00000170: bf99 e9bb 0d85 81bd f5cc cf3d 034d 413c
00000180: 9df3 a9bc 4a95 073c e3ca a53c c2e5 893c
00000190: 6c96 e83a 97c3 76bd b7e7 2cbd 1ddf 82bc
000001a0: d65d a93c 194e 2b3c 000e 4d3d f5bd 0b3d
000001b0: 353a 00bd 3dc6 b2bc b0c6 61bd bf35 373d
000001c0: e1ba 123d 2d05 42bb 7f75 24bd 7eed 24bd
000001d0: 3028 533c a28c 783c a6eb 04bd 1a3b 053d
000001e0: def6 f73b 70af a83c f930 26bd 76a0 01bd
000001f0: d0e5 42bb 647f aa3a 221b a83d 6f4d 6a3d
00000200: 331a 06bd 94ce 6fbc 5aae 0dbe dc0a 533d
00000210: 5ecd 923d b107 933c d2ba a83c dbd0 c43d
00000220: 92e2 edbc 4ec2 09bd 8512 0cbd 033c 3abd
00000230: ee02 573d 69ab 69bd 83f4 6b3d 7e75 863d
00000240: 0abe fc3b 50fa 1bbd a978 8f3b 7a81 aabc
00000250: 66d9 e2bc 1df3 b03b 38fb 263c e194 8dbd
00000260: 054a df3b d833 44bd 1f81 e9bc 6a92 86bd
00000270: 4994 16bd 2691 2cbd 90e1 5cbd 7823 a9bc
00000280: 44b1 92bc 2e4a df3d bab9 253d 48d9 c13b
00000290: 16d9 cabc 0015 a6bc 9143 52bd bec9 7ebd
000002a0: e443 6d3a 1fd7 3a3d 7ef8 c53c 416e 73bc
000002b0: 19da 8a3d 9331 db3b be2f 25bd 13af f2bc
000002c0: 295f c8bc c275 77bc c110 443d 5033 38bd
000002d0: 9832 ca3d 8666 a7bc

exp_avg f4 [91, 91]
0.00023624119 0.00010047831 -0.00041247415 -0.0005330959 6.882546e-05 -0.00016145401 0.00046187217 0.000634211
0.00033232945 -0.00049851125 0.00034448918 -0.0005388814 -0.0002778659 0.00012768716 -0.000247768 -3.6995527e-05
-0.00061765936 0.00012082442 -0.000640235 0.00052066817 -4.8860922e-05 0.00030563874 -2.3013123e-05 -0.00015897554
-0.00017427029 0.00047777922 -0.00038800668 9.0996575e-05 -0.0002170342 -0.00020171552 -0.00022100049 0.00015265412
0.00010923835 -0.0001260306 0.0005277542 0.0005520328 -0.00064110034 -0.00019847145 0.000317748 -5.8438127e-05
0.00061203795 -0.00022008971 -0.00024578918 -0.00030640487 0.00028651662 -0.0004134562 0.00030054234 -0.0003685808
0.00022100676 0.0003184039 -0.00023532454 0.00050064106 -0.00056280283 -0.00019645623 -3.76265e-05 0.00048131842
0.00037438003 3.1118427e-05 7.818706e-05 0.00064310036 0.00019495572 -0.0001724198 0.00077635073 -0.0006887748
0.00029125295 -9.88399e-06 0.0005571776 -0.00020734046 -3.1099615e-05 -0.0001698833 -0.00041768546 -3.19854e-06
-0.00041717748 -0.00035782316 -0.00040066257 0.0002187385 0.00031628337 0.00019769304 -0.00020508551 7.307637e-05
-0.0003278325 1.5391306e-05 -0.00013199938 -0.00053015107 0.00039206725 -0.00019905601 -0.000509382 0.0003961433
0.00010240735 0.0002580837 0.0006383957 3.5919362e-05 0.00010381374 -1.2404951e-05 -8.577171e-05 -0.00026236486
0.00024881173 0.000114174254 -9.438565e-05 -5.8248545e-05 7.8254525e-05 4.235221e-05 -5.455161e-05 6.568758e-05
-5.6694385e-05 -0.00021379653 7.517714e-05 6.693904e-06 0.0003660762 -0.00013076373 9.153755e-05 -0.000272232
8.4707644e-05 -8.878291e-05 -0.00025784032 -0.00027789784 0.00015198402 -0.00018358445 -0.00021962717 3.425287e-05
-0.00017055531 -7.542892e-06 2.789531e-05 7.526405e-05 -0.00033871818 -9.4233415e-05 9.368762e-05 -4.4382523e-05
3.0080726e-05 -0.0001379004 -0.00027891394 -3.3955264e-05 -0.00015692765 0.00012637586 2.699612e-05 -2.1279022e-06
-9.78643e-05 -4.9446786e-05 -0.00010051353 -1.2202318e-05 -3.572099e-05 -0.00012539928 5.0274888e-05 -0.0001226779
5.021804e-05 1.2878178e-05 7.49769e-05 9.008264e-06 0.00014373423 -0.00025717533 0.000107476044 -2.7118787e-05
-0.0003351426 6.672438e-05 -4.710264e-05 0.00011036827 -0.00014468278 7.899347e-05 8.7482044e-07 -0.00013075968
-3.564037e-05 -2.6967962e-05 -0.00021839597 1.0556984e-05 -8.527241e-05 -0.00010332237 0.00019493613 0.00028007742
0.00017288953 -9.473842e-06 -0.00015370634 -8.202801e-05 -0.00016201063 -1.2196264e-05 0.00012222573 -2.942986e-05
-8.241088e-05 1.0245005e-05 -5.7176596e-05 -3.6648777e-05 -6.7486426e-06 1.6109638e-05 -7.22322e-05 -0.00031235238
-3.868804e-05 -0.00020805733 0.0004019695 -0.0002594358 -2.9038336e-05 0.0005529085 -2.8670604e-05 6.9834874e-05
-6.183296e-05 -0.0002491952 -4.4939557e-06 -0.0004667193 2.6626956e-05 0.00016079686 -0.00026360588 0.0003683922
-0.00082690164 0.00028738833 0.00019250027 -0.00017826169 -0.00042236122 -4.1201773e-05 -0.00025869205 0.00013287563
-0.00033366025 0.00023010123 0.0005056969 2.249659e-05 0.00037082392 8.250971e-05 -4.3776672e-05 -6.351032e-05
3.409329e-05 9.625157e-05 -0.00047753644 0.00021671595 -0.00029330037 -0.00010913772 3.995148e-05 0.00021705932
0.00021769108 0.00019875525 -8.794227e-05 -0.00012435313 -0.00030780424 -6.537536e-05 7.4630334e-05 -0.00015653415
0.00026762934 0.0001766733 -0.00032382392 3.0262601e-05 0.00048667126 0.00014031363 -0.00011494696 -0.00024617973
0.0003249442 0.00032335139 -0.00061006716 -0.0002423054 0.0008992037 -0.00068195234 -1.6339802e-05 -0.00028824914
0.0004062206 0.00068670645 0.00058140134 0.00023910112 -9.540681e-05 0.0001165968 0.00012949007 0.0002894814
00000000: 83b7 7739 e2b7 d238 5841 d8b9 76bf 0bba
00000010: 6356 9038 fb4b 29b9 6f27 f239 2e41 263a
00000020: 813c ae39 86ae 02ba 8e9c b439 b843 0dba
00000030: 88ae 91b9 c3e3 0539 dce6 81b9 a52b 1bb8
00000040: 6bea 21ba 1e63 fd38 72d5 27ba 737d 083a
00000050: 04f0 4cb8 233e a039 4e0c c1b7 acb2 26b9
00000060: 53bc 36b9 717e fa39 606d cbb9 6ad5 be38
00000070: ad93 63b9 9983 53b9 5ebc 67b9 c711 2039
00000080: e516 e538 1527 04b9 fc58 0a3a 4bb6 103a
00000090: 840f 28ba c61c 50b9 6a97 a639 761b 75b8
000000a0: 2c71 203a e2c7 66b9 44dd 80b9 f7a4 a0b9
000000b0: 9c37 9639 27c5 d8b9 1c92 9d39 143e c1b9
000000c0: 0dbe 6739 73ef a639 73c1 76b9 743d 033a
000000d0: 0f89 13ba d1ff 4db9 26d1 1db8 7759 fc39
000000e0: 7048 c439 2885 0238 5cf8 a338 bc95 283a
000000f0: 076d 4c39 96cb 34b9 0484 4b3a e58e 34ba
00000100: 4fb3 9839 6ad3 25b7 8e0f 123a 8869 59b9
00000110: f570 02b8 b322 32b9 cbfc dab9 80a6 56b6
00000120: 9db8 dab9 369a bbb9 0510 d2b9 2b5d 6539
00000130: d6d2 a539 d24b 4f39 390c 57b9 9440 9938
00000140: efe0 abb9 941c 8137 5069 0ab9 d6f9 0aba
00000150: 608e cd39 b1b9 50b9 0c88 05ba 74b1 cf39
00000160: 87c3 d638 684f 8739 035a 273a 1fa8 1638
00000170: 94b6 d938 dc1e 50b7 56e0 b3b8 048e 89b9
00000180: f272 8239 d670 ef38 e9f0 c5b8 e64f 74b8
00000190: 941c a438 57a3 3138 58ce 64b8 c0c1 8938
000001a0: 22cb 6db8 922e 60b9 6ba8 9d38 339c e036
000001b0: eaed bf39 9f1d 09b9 d9f7 bf38 5cba 8eb9
000001c0: 12a5 b138 f630 bab8 be2e 87b9 d1b2 91b9
000001d0: e65d 1f39 9380 40b9 b84b 66b9 bdaa 0f38
000001e0: 18d7 32b9 f318 fdb6 b900 ea37 14d7 9d38
000001f0: fc95 b1b9 2e9f c5b8 287a c438 5f27 3ab8
00000200: de55 fc37 5b99 10b9 323b 92b9 306b 0eb8
00000210: f28c 24b9 c383 0439 ba75 e237 15cd 0eb6
00000220: 7f3c cdb8 1565 4fb8 caca d2b8 8fb8 4cb7
00000230: 1fd3 15b8 9d7d 03b9 40de 5238 19a3 00b9
00000240: 36a1 5238 5a0f 5837 eb3c 9d38 3322 1737
00000250: 5db7 1639 7dd5 86b9 c364 e138 277d e3b7
00000260: 14b6 afb9 61ee 8b38 1390 45b8 8475 e738
00000270: fdb5 17b9 4ca9 a538 34d5 6a35 891c 09b9
00000280: 8e7c 15b8 4239 e2b7 3901 65b9 e71d 3137
00000290: 47d4 b2b8 c6ae d8b8 c567 4c39 5bd7 9239
000002a0: ae49 3539 d7f1 1eb7 3b2c 21b9 7406 acb8
000002b0: 66e1 29b9 8e9e 4cb7 b829 0039 25e0 f6b7
000002c0: 01d4 acb8 f6e1 2b37 e7d0 6fb8 53b7 19b8
000002d0: 6672 e2b6 2f23 8737 5e7b 97b8 3ac3 a3b9
000002e0: f744 22b8 f729 5ab9 6fbf d239 e204 88b9
000002f0: 5a97 f3b7 10f1 103a a781 f0b7 5074 9238
00000300: 51ac 81b8 6aa6 82b9 c9ca 96b6 01b2 f4b9
00000310: f45c df37 949b 2839 9534 8ab9 c424 c139
00000320: 6ec4 58ba 9cac 9639 e6d9 4939 c2eb 3ab9
00000330: 5d70 ddb9 11d0 2cb8 0fa1 87b9 8854 0b39
00000340: 1fef aeb9 5447 7139 bf90 043a 0fb7 bc37
00000350: 256b c239 1009 ad38 d89c 37b8 d830 85b8
00000360: 64ff 0e38 abda c938 db5d fab9 3f3e 6339
00000370: 1cc6 99b9 dee0 e4b8 9391 2738 6b9a 6339
00000380: 0144 6439 f568 5039 a66d b8b8 ca64 02b9
00000390: c960 a1b9 211a 89b8 db82 9c38 5123 24b9
000003a0: 9a50 8c39 6141 3939 e9c6 a9b9 71dc fd37
000003b0: e927 ff39 2721 1339 ae0f f1b8 af11 81b9
000003c0: 465d aa39 7d87 a939 eaec 1fba 5c13 7eb9
000003d0: 8ab8 6b3a 0cc5 32ba 7511 89b7 2520 97b9
000003e0: 02fa d439 1704 343a 2f69 183a 38b7 7a39
000003f0: 2415 c8b8 6e85 f438 bac7 0739 89c5 9739
