GRNN/5dx6khgu/checkpoints/epoch=7-step=1120.ckpt (torch, 34637 bytes, 40 tensors)

model.A f4 [6, 6]
000000 1a 1f 80 3e 89 25 13 bf d2 26 44 3e ff a4 9c 3f
       0.2502373 -0.5747915 0.19155434 1.2237853
000010 37 1f 15 be 62 c9 d1 bd 47 56 08 3e 8f 45 aa 3d
       -0.14562689 -0.10243489 0.13314162 0.083140485
000020 99 f5 af be 42 86 bd 3d c0 5b 22 3e 28 87 c7 bc
       -0.34367064 0.09254123 0.15855312 -0.02435644
000030 d5 94 72 bf f8 93 c1 3d bb db bc 3e b7 42 31 3e
       -0.9475835 0.09452051 0.3688639 0.17310606
000040 49 06 18 3e b5 c2 18 3f b7 48 99 bc fd 46 92 3d
       0.14846148 0.596721 -0.018711431 0.07142446
000050 cb 4d 03 3f 4e 1e f7 be 91 ab 63 3e 76 7b 1b 3e
       0.5129058 -0.48265308 0.22233416 0.15183815
000060 d5 30 44 bf b3 ef 2b 3e f8 b0 8b be 58 d6 57 3e
       -0.7663701 0.16790657 -0.27283454 0.2107786
000070 5f 1e ba bd 15 ca 38 3e b3 f9 80 3d 28 d3 c2 be
       -0.09087824 0.18045838 0.06297626 -0.38051724
000080 2c c6 82 be b9 6a 53 3f 14 95 43 bf 5f 7a 6e 3d
       -0.25541818 0.8258472 -0.7639935 0.05822217

model.B f4 [6, 1]
000000 f4 82 f4 be 22 4f 41 3e 78 4e 16 3e 2e 15 42 bf
       -0.4775616 0.18877843 0.14678371 -0.7581357
000010 25 92 bb be b4 2c 5d 3e
       -0.36634937 0.21599084

model.D f4 [6]
000000 71 78 c2 bb da 9a 50 bc 63 ef 59 bb 67 6a 71 bb
       -0.005934768 -0.012732232 -0.0033254258 -0.0036837102
000010 d6 6b 25 3b 15 0f 1d bc
       0.0025241277 -0.009586115

model.H2X_out_MLP.0.weight f4 [18, 6]
000000 ac b5 bf bd a8 05 8c 3e 30 c6 ab be c8 32 fe 3d
       -0.09360823 0.27348065 -0.33549643 0.124120295
000010 94 1b 78 be 82 6a 94 3e 28 ba 1b 3e 40 ec 87 bb
       -0.2422927 0.2898751 0.15207732 -0.0041480362
000020 78 e0 5e 3e 60 db 2a bc 26 37 97 3e 6a a3 b9 3e
       0.21765316 -0.01042828 0.29534262 0.36257488
000030 98 b8 a8 bd 70 ce 15 3d 8a fa 18 be 70 7e 85 3c
       -0.082383335 0.036573827 -0.14939323 0.016295642
000040 23 00 0e be 7f 0c aa 3e 4e 48 14 3d 69 87 97 bd
       -0.1386724 0.3321266 0.036201768 -0.07398874
000050 b6 aa cd 3e e9 59 2e 3e e5 34 52 3e d9 d5 3f be
       0.40169305 0.17026486 0.2052799 -0.1873392
000060 fa 98 5f 3e 62 06 be be 9b 84 84 be b7 51 cf be
       0.218357 -0.37114245 -0.2588242 -0.4049203
000070 28 a2 86 3e 0c f0 8c 3e 0c d7 bc be d4 ad ba bd
       0.2629559 0.2752689 -0.36882818 -0.09115186
000080 10 71 ad 3e 00 82 94 3c 88 d0 b7 bd 4a 96 ae 3e
       0.33875322 0.018128395 -0.08975321 0.34099036
000090 7e 25 c7 be 8d b1 7f be f8 0e 63 bd 78 aa 14 3e
       -0.38895792 -0.24970074 -0.055434197 0.14518154
0000a0 dc 9c 2a 3e 24 a2 b9 3d b0 b4 3a 3e 2d ba 5c be
       0.166614 0.09064129 0.1823299 -0.21555395
0000b0 bd b5 c9 3d 6c 75 ac be 57 68 9c be e6 d6 c8 3e
       0.09849117 -0.33683336 -0.30548355 0.39226454
0000c0 40 a5 85 be 00 cb e7 3b e4 f8 99 3e e0 72 c6 3d
       -0.26102638 0.00707376 0.300727 0.096898794
0000d0 b2 32 85 3e dc 2b 17 be 2e 46 87 3e 56 8a 9a 3e
       0.2601524 -0.14762825 0.2642073 0.30183667
0000e0 d2 26 c3 3e 78 80 ef 3d 90 dd 42 3e e4 f3 25 3e
       0.38115555 0.11694425 0.19029832 0.16206318
0000f0 46 4a 84 3e e2 f5 29 3e e1 7a 6c 3c 8c 0b ca be
       0.25837916 0.16597703 0.0144335935 -0.39461935
000100 02 ab f4 3c 95 70 43 3e a7 64 87 bb fc b9 13 bd
       0.0298667 0.19085915 -0.0041318717 -0.03606604
000110 b0 32 2e 3e 06 ff 68 3e 01 e0 b9 3d b6 4b c6 bc
       0.17011523 0.22753534 0.090759285 -0.024206024
000120 f5 a5 b1 3e f0 7b c8 bc 13 6a 96 bd 3c 7b 2b 3e
       0.34696928 -0.02447316 -0.07344451 0.16746229
000130 a1 9e ce 3e 01 0a ce be 73 02 69 be 48 fb 58 3e
       0.403554 -0.40242007 -0.2275484 0.21189606
000140 20 74 6f bc 3b 1d a8 be 9a a0 0a be 58 74 c8 3e
       -0.014615089 -0.328348 -0.13537827 0.39151263
000150 ec fd b2 be c8 48 07 3e 70 21 cf bd 01 cc 58 be
       -0.34959352 0.13211358 -0.101137996 -0.21171571
000160 0c 91 4c be f8 c5 b5 3e d3 53 17 3e a6 bf 96 be
       -0.19977206 0.355026 0.1477807 -0.2944309
000170 10 89 90 be c0 c5 36 be be e9 36 3e 52 a6 53 be
       -0.2822957 -0.17848873 0.17862603 -0.20668915
000180 2f 77 c9 be a6 a7 84 3e 28 27 8e 3e 66 c9 8f 3e
       -0.39348742 0.25909156 0.2776425 0.28083342
000190 88 48 b3 3d 33 39 67 be 1f 5a b6 be 24 e0 95 be
       0.087540686 -0.22580414 -0.35615632 -0.29272568
0001a0 10 5d 83 3c 9c da a4 be 06 a1 ae 3e 5c 98 82 be
       0.016035587 -0.32198036 0.34107226 -0.25506866

model.H2X_out_MLP.0.bias f4 [18]
000000 80 39 4c 3e c4 67 cc bd 3b a1 ee bc e4 71 57 bc
       0.1994381 -0.09980729 -0.029129615 -0.013149712
000010 82 7c c4 be 3c b5 ec bd 20 7e 9a be 58 4b ac 3e
       -0.38376242 -0.11558005 -0.3017435 0.33651233
000020 f0 4b 2e 3e c0 8e f0 bd f0 53 49 3d f6 02 b0 3e
       0.17021155 -0.117459774 0.049152315 0.3437726
000030 92 3b c6 be f5 37 3a be f4 fa 7b 3e d0 c8 cf bd
       -0.38717324 -0.18185408 0.2460745 -0.10145724
000040 18 df f3 3d 50 b7 01 be
       0.11907786 -0.12667584

model.H2X_out_MLP.2.weight f4 [18, 18]
000000 d4 c1 4d bd 8c 60 64 3d 40 f6 50 bd e4 2f 6c be
       -0.050233677 0.055756137 -0.051016092 -0.23065144
000010 31 ae f6 bd c0 a0 24 be 3e 32 a4 bd 90 3b 0d be
       -0.12044943 -0.16076946 -0.080173954 -0.13792253
000020 65 eb 16 be b2 7b 26 be 10 b5 33 3c 2c 76 42 bd
       -0.14738233 -0.16258124 0.010968462 -0.04747598
000030 22 0b 00 be c5 f3 23 3e c3 12 15 3e bd cb 53 3e
       -0.12504247 0.1601096 0.14557938 0.20683189
000040 68 4d 57 bd 27 9e 2e 3e 9a 1b ea bd e8 ed 6b bd
       -0.052564055 0.17052518 -0.11431046 -0.057599932
000050 30 9b db bd 39 27 69 be 32 7b 5c be 1c bc 67 3d
       -0.10722959 -0.22768869 -0.2153137 0.05657588
000060 be 4b e5 3d f0 de 51 be 90 05 70 3c 66 df 90 3d
       0.11196087 -0.204952 0.014649764 0.0707386
000070 61 8f 1c be 54 c7 9e bd ea 08 c7 3d 71 d3 44 3e
       -0.1528907 -0.077528626 0.09718497 0.19221283
000080 60 ce d3 bb db 42 14 3e 7c 93 5a 3d 28 1d 58 be
       -0.006463811 0.14478628 0.05336331 -0.21104872
000090 e4 2e 45 3d 9a 39 c9 bd 0e 99 12 3e 8e 49 28 bd
       0.04814042 -0.0982544 0.14316198 -0.041085772
0000a0 d6 d3 0a 3e e0 3c 9b bb 80 9f 15 bc 5e 4e 55 3e
       0.13557371 -0.0047374815 -0.009132266 0.20830676
0000b0 ef 18 47 3e 40 34 30 be 1d 9f 1e 3e 2d 6c 71 3e
       0.19443105 -0.17207432 0.15490384 0.23576422
0000c0 bf 9a cf 3d c9 f2 4a 3e b0 17 9f bd 11 ea 51 bd
       0.10136937 0.19819178 -0.0776819 -0.051248614
0000d0 03 77 1f 3e b6 46 cc 3d 6f 85 6b 3e be f6 fd 3d
       0.15572743 0.099744245 0.2300012 0.12400578
0000e0 d6 9d 84 3d a8 07 59 be 43 ff 64 be f4 6e 6c bd
       0.06475417 -0.21194327 -0.22363 -0.057723
0000f0 40 d2 0b 3b b6 6f 27 be e0 ba c1 3b 9f 8e 46 be
       0.0021335036 -0.16351208 0.00591217 -0.19390343
000100 ac 09 2e 3d a4 ca 34 3d 10 af 97 bc 16 cd a3 3d
       0.042489693 0.044138566 -0.018516093 0.079981014
000110 91 b3 38 3e 9d cb 60 3e 30 ae b7 bd e0 ff 30 bc
       0.18037249 0.21952672 -0.089687705 -0.010803193
000120 0a c2 c2 bd b9 47 23 3e 8a f2 81 3d 62 59 fe 3d
       -0.09509666 0.15945329 0.06345089 0.12419392
000130 c8 e4 6d be 32 4b 29 be 2a e9 e5 3d 60 c6 47 be
       -0.23231804 -0.16532591 0.11226113 -0.19509268
000140 a4 48 d2 bd 9a 8f c2 bd 1c 6c 26 be 3a dd 2a be
       -0.10267761 -0.09500046 -0.16252178 -0.16685954
000150 e0 c4 db bd a2 17 ca 3d 00 ac fc bc 9c e2 2c 3d
       -0.1073091 0.09867789 -0.030843735 0.0422083
000160 db b0 5a be 31 ce 0a 3e 38 9c a9 bd 26 96 88 bd
       -0.21356528 0.13555218 -0.082817495 -0.066692635
000170 46 f7 ce bd ea e3 22 be b2 1e 0d 3e fa cc c3 3d
       -0.101057574 -0.15907255 0.1378124 0.095605806
000180 f4 c3 41 bd 39 14 6b be 44 83 76 3d 40 9d 48 bd
       -0.047306016 -0.22956933 0.06018378 -0.04897809
000190 0e ae 86 bd e9 45 4e 3d 84 c8 2d bb d0 35 54 bc
       -0.06576167 0.05035964 -0.0026517222 -0.012952283
0001a0 00 1c 10 be 50 d7 44 3e 91 9a 48 be 08 8c c1 bc
       -0.14073181 0.1922276 -0.19590212 -0.023626342
0001b0 a0 4e bf bc f9 0b e4 bd 77 7b 5e 3e 85 09 6e be
       -0.023352921 -0.11135096 0.21726786 -0.23245819
0001c0 ee 5e 35 be ec 7b 7b 3d 98 48 2e be 5d 11 33 be
       -0.17711994 0.061397478 -0.1701988 -0.17487092
0001d0 1c e4 1a 3d 2b 77 61 3e ca 1d ac 3d 6a f3 5b be
       0.0378152 0.22018115 0.08404119 -0.21479574
0001e0 40 89 ab bd 27 67 0f 3e 4a 52 e5 bd 6f 42 3d be
       -0.08375788 0.14004193 -0.11197336 -0.18482374
0001f0 19 8d 43 3e cd a1 69 be db 7b 22 3e c8 8a 4a bd
       0.19096793 -0.22815628 0.1586756 -0.04944876
000200 00 76 3d bc dc ea b3 bd 5e 44 00 be c8 77 de bd
       -0.011563778 -0.0878503 -0.1252608 -0.1086269
000210 84 d6 ae bd c0 62 5a be b0 77 41 be be 80 61 be
       -0.08537009 -0.21326733 -0.18893313 -0.22021767
000220 44 12 6e bd 60 eb 9e bc 00 18 5a 3c 88 7c 53 be
       -0.05812289 -0.019399345 0.013311386 -0.20652974
000230 14 cd 38 3d 8e b3 ba 3d 82 eb a4 3d 07 9a 2b 3e
       0.045117453 0.091162786 0.08052732 0.16757976
000240 8a 0b 82 3d 0a 09 b3 bd 29 90 5b bd 5f e8 44 3e
       0.06349857 -0.087419584 -0.05360428 0.19229268
000250 6f e8 66 3e 4c 4f 3e 3d 51 e3 4e 3e cd 28 0c be
       0.22549604 0.046462342 0.20203902 -0.1368744
000260 fa 0d ca 3d cf a7 30 3e 4f 63 3f 3d 51 9a 70 3c
       0.09865947 0.17251514 0.046725567 0.014685229
000270 82 98 79 bd 94 02 34 3d c1 91 4a be 52 1f b7 3c
       -0.06093646 0.04394777 -0.19782163 0.022353802
000280 60 98 db 3b 20 d0 27 be 66 c3 f8 3d c1 b9 1c be
       0.006701514 -0.16387987 0.12146644 -0.15305234
000290 2c c0 3f 3d 0d 27 07 be 50 2c 00 be 47 82 0a 3e
       0.04681413 -0.1319849 -0.12516904 0.1352626
0002a0 80 01 61 3c 90 74 65 be 6c 03 1e be d4 5f 3f bd
       0.013733268 -0.22407746 -0.15430993 -0.04672225
0002b0 c4 63 13 3d fb e7 10 3e 13 14 54 3e 50 b7 77 3c
       0.035983816 0.14150994 0.20710783 0.015119389
0002c0 22 82 24 be 9e 1e 65 be ee 8e 98 3d 8c b3 0b bd
       -0.16065267 -0.22374961 0.07449137 -0.034106776
0002d0 2e bf e8 3d cc 72 38 3d a0 f1 b6 bd c4 00 cb bd
       0.1136459 0.045031354 -0.08932805 -0.099122554
0002e0 90 ea ac bd b9 93 e3 bd aa 47 03 be b6 57 b5 bd
       -0.08443177 -0.1111216 -0.12820306 -0.0885462
0002f0 d2 54 cd 3d 15 42 61 3e 4a e1 d5 3d 9d 62 0f 3e
       0.10025944 0.21997865 0.10443361 0.14002462
000300 2b 60 05 3e 34 e5 50 3d ca 45 95 3d 94 93 1f be
       0.13024966 0.050999835 0.07288702 -0.1558364
000310 58 3a ab 3c ac 57 f5 bd 3b 1a 6d 3e e6 75 b7 3d
       0.020901844 -0.11979613 0.23154537 0.08958034
000320 c8 ad 76 bd cc b3 6f 3d 70 76 db bc 7f 2b 54 3e
       -0.060224324 0.058521077 -0.026789874 0.20719717
000330 75 4a 33 be 67 bf 2c 3e 88 a0 29 be d4 85 e9 bd
       -0.17508872 0.16869889 -0.16565144 -0.11402479
000340 4d d5 45 be 20 fd e5 3d 29 b9 1f be 34 fb 00 3d
       -0.19319649 0.112299204 -0.15597977 0.031489566
000350 51 01 1b 3e 48 33 41 3c ac ad 3c bd 40 7e 0a bb
       0.15137221 0.011792012 -0.046064064 -0.002113238
000360 74 50 04 be 4d 05 5d 3e b7 94 65 bd bd 9c 9b bc
       -0.12921315 0.21584053 -0.05605003 -0.018995637
000370 e1 94 49 3e 1f 23 20 3e 40 e2 0f bb f1 f8 a7 bd
       0.19685699 0.15638398 -0.0021954924 -0.08201779
000380 4d 22 4b 3e 54 5d 55 3d 91 6b 71 3e 0c a8 96 bd
       0.19837303 0.052090958 0.2357619 -0.07356271
000390 f3 d8 3c be 3a 36 40 be 48 df ca bc 41 ae 38 3e
       -0.18442135 -0.18770686 -0.024764672 0.18035223
0003a0 4b f2 20 3e 7d 59 46 3e 00 94 24 3a 50 72 6a bd
       0.15717427 0.19370075 0.0006278157 -0.057237923
0003b0 cf bb 81 3d a2 9b 2a 3e 79 93 f2 3d 68 98 ee 3c
       0.0633465 0.16660932 0.118445344 0.029125407
0003c0 d9 dd 16 be 87 3b da bd 4c 7f 07 bd 5e 9d e6 3d
       -0.14733066 -0.10655885 -0.033080384 0.11260484
0003d0 f2 08 f6 bd 5d d7 27 be ca 37 3c bd 79 3c 41 3e
       -0.12013425 -0.16390748 -0.045951642 0.18870725
0003e0 a3 55 6e be 2a b7 b3 3d be 57 54 be ef 1b 6d 3e
       -0.23274855 0.0877517 -0.20736596 0.23155187
0003f0 ec e2 29 be b8 1a 05 be 50 01 1a 3c 02 92 ee 3d
       -0.1659047 -0.12998474 0.009399727 0.116489425

model.H2X_out_MLP.2.bias f4 [18]
000000 e8 81 1a bd 36 06 93 3d 14 53 e0 3c 00 71 1b be
       -0.037721545 0.07178919 0.027383365 -0.15179825
000010 72 20 d4 3d 66 05 0b 3e f9 2c 6c be 7c 87 02 bd
       0.10357751 0.13576278 -0.2306403 -0.03186749
000020 e6 90 ac 3d 80 fc 6a be ac 38 3b bd ae 1a 21 3e
       0.08426075 -0.22947884 -0.045708343 0.15732834
000030 12 fb 3f 3d 41 68 1d 3e 08 38 70 bd 8a 0a 0b 3e
       0.0468703 0.15371801 -0.058647186 0.13578239
000040 ef c7 10 be b6 59 16 3d
       -0.14138769 0.03670665

model.H2X_out_MLP.4.weight f4 [1, 18]
000000 0a d1 e8 3d 2e aa f9 3d 04 b4 ed 3d 90 b4 01 3c
       0.11367996 0.12190662 0.11606601 0.007916585
000010 94 21 37 3d d2 9a 53 bb c4 1d ff bd ee cf 2b be
       0.044709757 -0.0032288325 -0.12456849 -0.16778538
000020 d0 19 bb bd 9f 05 32 be 79 ba 32 be 96 e2 c8 3d
       -0.09135783 -0.17384957 -0.17453946 0.09808843
000030 b2 89 74 be 85 fd b1 3c 51 64 bf 3d 88 2b 05 3e
       -0.23880652 0.021727333 0.09345306 0.13004887
000040 23 46 49 be 20 06 2c 3e
       -0.19655661 0.16799212

model.inputMLP.0.weight f4 [18, 1]
000000 b2 72 70 bf 9c 43 dd be d8 1c 63 be e1 c0 96 be
       -0.9392501 -0.43215644 -0.22178972 -0.2944403
000010 3e bf d9 3e c8 8e 71 3f 70 da 4b be 3e 14 31 bf
       0.4252872 0.9435849 -0.19907546 -0.6917151
000020 31 65 84 3e f0 6b 5b bf 06 e3 3f 3f 0e ca 09 bf
       0.25858453 -0.85711575 0.74955785 -0.53823936
000030 d7 a3 8f 3e 53 dc 3a 3f b8 31 e9 be db 76 e5 3d
       0.28054687 0.7299244 -0.45545745 0.112043105
000040 80 ac 14 3f 80 be 63 bf
       0.58075714 -0.88962555

model.inputMLP.0.bias f4 [18]
000000 66 70 18 bf f8 9c c3 be 44 ec 48 bf d1 fa be 3e
       -0.59546506 -0.38205695 -0.7848551 0.37300733
000010 55 cf aa 3e dd f6 2a 3f d8 51 f1 be 44 30 03 bf
       0.33361307 0.66782933 -0.47132754 -0.5124552
000020 05 de 3a 3f 0a 92 11 bf 58 02 33 3f 30 2d 10 bf
       0.72995025 -0.5686346 0.6992545 -0.5631895
000030 fe de e6 3d 79 3a 67 3e 39 cd 6e 3c 25 40 47 3f
       0.11273001 0.225809 0.014575296 0.7783225
000040 22 19 25 3e 5c 23 2c bf
       0.16122869 -0.67241454

model.inputMLP.2.weight f4 [18, 18]
000000 47 bb 65 3e 60 5f df bd 8f c4 21 3e b3 bd 0e 3e
       0.22434722 -0.10906863 0.15797637 0.13939552
000010 3a bc 59 be a7 6d 5e be 73 fd 3b 3e 16 06 b3 3d
       -0.21263209 -0.21721517 0.18358402 0.08741395
000020 70 8a 90 bc 3c c8 42 be 3a bd 47 be 75 10 2f be
       -0.017644137 -0.19021696 -0.19505778 -0.17096122
000030 e0 2b d8 3b 92 fd 1d be 82 bc 8a 3d 7b f6 5d 3e
       0.006597027 -0.1542876 0.06774236 0.21676056
000040 d0 8a d0 bd 7d e6 24 3e bb ab 6d 3e e9 69 57 3e
       -0.101827264 0.1610355 0.23210041 0.21036495
000050 db 79 3a be 7d b1 4a 3e a7 9a 63 be 01 c6 0f 3e
       -0.18210547 0.19794269 -0.22226964 0.14040376
000060 02 fd f0 3d 85 20 31 3e 0a be ec 3d d0 f9 4c 3c
       0.117670074 0.17297561 0.115596846 0.012510732
000070 f4 12 36 be 63 c4 61 3e cd 6a 23 be f4 da 12 be
       -0.17780668 0.22047572 -0.1595871 -0.14341336
000080 9c 12 34 be 1a b6 94 bd f2 06 f7 bd be b7 d5 3d
       -0.17585224 -0.072612956 -0.120618716 0.10435437
000090 dc 54 51 bd fd 46 26 3e d5 a5 12 3e b6 a9 44 be
       -0.05110632 0.16238017 0.14321072 -0.19205365
0000a0 bb 0f a0 bd 6e 18 99 bc c0 20 df 3b 2c ee 1d 3d
       -0.078155 -0.018688407 0.006809324 0.038557217
0000b0 39 30 5b be 9b aa 27 3e ea b0 c3 3d 16 76 61 be
       -0.21405114 0.16373675 0.09555228 -0.22017702
0000c0 88 05 32 3e ea d4 ca 3d 00 6b 81 3b f8 d9 17 3e
       0.17384923 0.099038914 0.003949523 0.14829242
0000d0 d2 d8 4e 3e ae 98 fa 3d 02 28 18 be 6c e5 52 3d
       0.20199898 0.122361526 -0.14859012 0.051488325
0000e0 48 ac eb bc fe d5 36 3e fd 2e 64 bd 0d 23 e5 bc
       -0.028768674 0.17855069 -0.055708874 -0.027970815
0000f0 84 89 32 3d e8 fc 50 bd be 33 02 3e 3c 3d 23 3d
       0.043588176 -0.05102244 0.1271505 0.03985332
000100 ee fd 0d be 13 4a 4d 3e 42 c5 cd 3d e6 c0 cc bd
       -0.13866398 0.20047788 0.100473896 -0.0999773
000110 98 60 19 3e 30 a5 2f 3e c5 63 91 3d c2 79 f8 3d
       0.14978254 0.17152858 0.07099108 0.121325985
000120 d6 4c 93 3d 21 0a 0f be 60 f8 47 be 90 df 18 be
       0.0719239 -0.13968708 -0.19528341 -0.14929032
000130 76 ef f2 3d 4f ad 68 bc bd d9 f7 bd b5 93 13 3e
       0.1186208 -0.014201476 -0.12102077 0.14411815
000140 54 2e 44 3e 1f b8 24 3e 01 8a e9 3d e2 15 d6 3d
       0.19158298 0.16085862 0.11403275 0.104533926
000150 af 16 0b be 15 eb bd bd 28 fc 52 3e 76 80 b3 3c
       -0.13582872 -0.09273354 0.20604002 0.02191184
000160 c4 d7 2c 3d 60 0f c7 bd 51 44 05 3e f0 f3 69 3c
       0.042197958 -0.097197294 0.13014342 0.014279351
000170 7c 6e f9 bd 96 66 3a be 82 b3 28 3e 5a 4c a6 3d
       -0.12179276 -0.18203196 0.16474727 0.08120032
000180 e6 e3 a3 3d fc 0b 22 bd 5f 96 32 be 46 9e a1 3d
       0.080024526 -0.03956221 -0.17440175 0.078915164
000190 db 8a 4d 3e 6b 3e 2f 3e 08 85 b1 bd 31 7e b5 bd
       0.200725 0.17113654 -0.08667952 -0.0886196
0001a0 22 d2 55 be 66 fc 43 3e 7c 6e ea bd ba cd 6e be
       -0.2088094 0.19139251 -0.114468545 -0.23320666
0001b0 85 bd 35 3e 88 c5 c3 3c 14 11 49 be 5f 44 0c be
       0.17748077 0.023897901 -0.19635421 -0.13697957
0001c0 84 1d 5b bb be a4 08 3e 62 7e 60 be 8e 98 e2 bd
       -0.003343434 0.13344094 -0.21923211 -0.11064254
0001d0 75 d3 18 be c0 1b 19 3b e5 33 42 3e 26 a1 a1 3d
       -0.14924414 0.0023362488 0.18965109 0.07892065
0001e0 e5 13 fb 3d df 5c 5b be dd 03 3f bb 4b de 1f be
       0.12259654 -0.21422146 -0.002914659 -0.15612142
0001f0 3f 9c 35 3d 29 ef 24 3e 6b dd 51 3e 4a 4c f1 3d
       0.04433846 0.16106857 0.2049462 0.11782129
000200 2e b3 25 be 4e 38 4a be 50 e2 09 bc 4c 71 eb bd
       -0.16181633 -0.19748041 -0.0084157735 -0.11496219
000210 21 77 43 3e 02 98 a1 3d d8 74 82 bd f4 5b 03 3d
       0.19088413 0.07890321 -0.063699424 0.032070115
000220 3b 28 6d 3e a8 4c c7 bc 8a 53 56 be 0c 48 54 3d
       0.23159878 -0.024328545 -0.20930305 0.05182652
000230 b2 61 f7 3d 6c 51 3f 3d 34 9b 77 bd fd 4a 31 3e
       0.12079181 0.04670851 -0.060450748 0.17313762
000240 16 a8 db 3d 50 a8 fb bc 79 45 57 be b8 d4 e7 bc
       0.10725419 -0.030719906 -0.21022595 -0.028299674
000250 60 e6 29 be 98 63 e3 3c a2 97 b6 bd b9 b8 3d 3e
       -0.16591787 0.027757451 -0.089156404 0.18527497
000260 21 17 13 3e 98 63 aa 3c 1e 9a 1e be 09 da 14 3e
       0.14364292 0.020799443 -0.15488479 0.14536299
000270 45 a9 f7 bd 93 a5 4a 3e fd 3a 03 3e d0 05 74 bc
       -0.120928325 0.19789724 0.12815471 -0.014893964
000280 82 5c c6 3d 2a 45 03 be 94 2a 33 3d bc 57 30 bd
       0.09685613 -0.12819353 0.043741778 -0.04305242
000290 39 ae f0 bd 38 6b d9 3c 6b e3 31 3e 1c 78 db bd
       -0.1175198 0.026540384 0.1737191 -0.107162684
0002a0 db 9c 06 3e 58 89 cf bc 42 09 af 3d f8 2f ec 3c
       0.13145773 -0.025334045 0.08546688 0.028831467
0002b0 68 84 85 bd 7a a0 95 bd 42 6d e5 3d fe 68 cc bd
       -0.06519395 -0.07305999 0.1120248 -0.09980963
0002c0 29 e0 4d be 44 e0 83 bd 50 20 45 be 28 55 44 bd
       -0.20105042 -0.0643926 -0.19250607 -0.047932774
0002d0 86 a7 95 3d 2d 4c 07 3e 44 f4 14 be 40 c0 57 3e
       0.07307343 0.13212653 -0.14546305 0.21069431
0002e0 2d f8 6c bd 50 c3 cf 3d 31 d5 5e be e0 ae 8d bc
       -0.057853866 0.10144675 -0.21761014 -0.017295301
0002f0 76 df 73 3e 82 60 36 be d2 3d 6c 3d d1 ec 0b 3e
       0.23815712 -0.17810252 0.057676144 0.13664557
000300 48 28 22 3d de 8b 0e be f9 5c f7 bd 22 79 31 bd
       0.039589196 -0.13920543 -0.1207828 -0.043328412
000310 77 6d 2f bd 7a b7 1e be dd f4 1a 3e a9 3a 3a 3e
       -0.042829003 -0.15499678 0.1513247 0.1818644
000320 6e f9 a0 3d df e2 ab 3d ce 6f c4 3c 6e 76 54 3b
       0.07860075 0.083928816 0.023979094 0.0032419222
000330 ee e2 2a be 38 03 24 be da f8 4a bd ec 17 07 be
       -0.1668813 -0.16016853 -0.04955373 -0.13192719
000340 5a 58 c6 3d 83 01 69 3e 09 e7 00 3e 92 c9 42 bd
       0.096848205 0.22754483 0.12588133 -0.047555514
000350 8f eb 47 bd 58 78 3d 3d 79 98 35 3e ac 14 4c be
       -0.04880863 0.046257347 0.17733945 -0.1992976
000360 22 f3 0b be 12 9f a6 bd 06 75 ef 3d 09 46 f4 bd
       -0.13666967 -0.08135809 0.11692242 -0.11927421
000370 42 1f d2 3d b2 ef 62 be d0 b0 5e be cc fd 2c 3d
       0.10259868 -0.22161749 -0.21747136 0.042234227
000380 bc 99 44 3d 20 ea d7 bb 98 31 0e bd 5b 0e 31 3e
       0.047998175 -0.006589189 -0.034715265 0.17290632
000390 36 ea fd 3d 9e b4 25 be b8 26 a8 bc c6 c5 da 3d
       0.12398188 -0.16182181 -0.020526275 0.106822535
0003a0 f5 b9 48 be 84 26 5b 3d d1 74 17 3e 7b 95 0c be
       -0.19602187 0.05350353 0.14790656 -0.13728897
0003b0 61 8d 24 be 06 37 20 be 21 02 65 3e c0 c9 2a bb
       -0.16069557 -0.1564599 0.22364093 -0.0026060194
0003c0 38 de 3e be a9 66 1d 3e 98 c7 eb bd 28 4e f9 bc
       -0.18639457 0.15371193 -0.11512679 -0.030432776
0003d0 b8 29 92 bd d3 4b 39 be 2e 59 28 be b8 2e b1 bd
       -0.071368635 -0.18095331 -0.1644027 -0.08651489
0003e0 68 fa 5d bd d4 4c c5 bd 02 db c2 3d ca 66 4b be
       -0.054193884 -0.096337944 0.09514429 -0.1986343
0003f0 2d 1d 67 3e aa 5f d1 bd 92 3a b9 3d 0c d2 5c be
       0.22569723 -0.102233246 0.090443745 -0.21564502

model.inputMLP.2.bias f4 [18]
000000 04 67 7d 3d fc e0 20 be 59 fc 28 be d5 e2 48 3e
       0.06186582 -0.15710825 -0.16502513 0.1961778
000010 98 88 a7 3c 78 16 0d bd cb b1 0e 3e 95 28 41 be
       0.020450875 -0.034445256 0.1393501 -0.18863137
000020 90 de c2 bd cf f8 09 be ea 99 d2 3d f9 ea e9 3d
       -0.09515107 -0.13473819 0.10283263 0.114217706
000030 be 52 8d 3d 9d 3c 6d be 52 f3 3a 3e 8d 02 6c 3e
       0.069005474 -0.23167653 0.18256882 0.23047848
000040 04 6b 24 bb 9c f1 e4 bc
       -0.00250882 -0.02794724

model.inputMLP.4.weight f4 [6, 18]
000000 cf 37 65 be 00 ec 0c 3b 91 35 1f be fb 76 74 3d
       -0.2238457 0.0021502972 -0.15547778 0.05968378
000010 52 2f 60 bd 66 08 0e be cc 5b e8 3c fc fe 04 bd
       -0.05473263 -0.13870391 0.028364085 -0.032469735
000020 26 99 85 bd 9a 97 8d 3d 6c 3d 01 be 93 2a 2e be
       -0.06523351 0.06913681 -0.12621087 -0.17008428
000030 00 cf 0a 3b 80 c8 ff 3b cf 45 43 be 8e c1 96 bd
       0.002118051 0.007805884 -0.19069599 -0.073611364
000040 a5 95 f1 3d 04 2d f8 3c 80 c1 15 3b 7b a4 0f 3e
       0.117961206 0.030294903 0.002285093 0.14027588
000050 5c f7 73 3e 84 6e d1 bd fb be 19 3e 59 6d 71 3d
       0.23824829 -0.10226157 0.1501426 0.058942173
000060 b3 65 dc bd a0 96 ab bd e7 71 3b 3e 9a d1 97 3d
       -0.10761585 -0.08378339 0.18305169 0.07413025
000070 19 84 57 be 3d ba fe 3d 62 94 cc 3d 53 9d 5e be
       -0.21046485 0.12437866 0.09989239 -0.21739702
000080 6b f3 0a 3e af e4 4b b9 3b 0f 0d 3e 07 05 4b 3e
       0.13569419 -0.0001944478 0.13775341 0.19826137
000090 12 d6 1e be 57 63 1f 3e 04 3e 53 3d ee 81 3f bd
       -0.15511349 0.15565239 0.051572815 -0.04675477
0000a0 37 12 27 3e ff 47 18 be 4b ff 3b be 93 31 3d 3e
       0.16315542 -0.14871214 -0.18359105 0.18475942
0000b0 38 94 c5 bd e9 2e 07 be f2 16 6c 3e 07 1b 6f be
       -0.09647411 -0.13201489 0.23055628 -0.23350154
0000c0 d9 16 4f 3e ea e3 34 be 72 5e 93 bd 67 9c 9f 3c
       0.2022356 -0.17665067 -0.071957484 0.019483758
0000d0 f1 46 81 3d 30 41 17 bd d4 bb 6b 3d 7d 83 37 3e
       0.06312359 -0.036927402 0.057552174 0.17921253
0000e0 9f c1 a4 3d cc 99 50 bd 09 18 49 3d eb a5 3e be
       0.08044743 -0.050927922 0.049095187 -0.1861798
0000f0 c4 c9 58 be d0 c3 33 3c 0e 1b c1 bd 00 d4 7a bc
       -0.21170717 0.010971978 -0.094289884 -0.015309334
000100 9a 22 04 3e 37 08 18 3e 44 5f 12 3d 13 4e 5a be
       0.12903824 0.14846884 0.035735384 -0.21318845
000110 df c6 61 be 0f b8 61 be dd a8 be bd 16 3b d1 3d
       -0.2204852 -0.22042869 -0.09309552 0.10216348
000120 70 16 de bd 7b d5 1b 3e 7c 3f 54 be 2c 78 c5 bd
       -0.10844123 0.15218155 -0.20727342 -0.096420616
000130 38 84 52 3e b5 02 28 3c bf 88 34 3d 1b 43 61 be
       0.2055825 0.010254552 0.044075724 -0.21998255
000140 b1 b2 0e 3e eb b5 3d 3e ac 57 1c be 51 89 1f bd
       0.13935353 0.18526427 -0.15267819 -0.038949315
000150 9e a2 c7 3d 00 b4 d1 bb 5e bc 02 3e 15 a2 20 3e
       0.09747814 -0.0063996315 0.12767169 0.1568683
000160 56 43 db bd 61 50 ac bd c8 9c 6f bd 1e 6f ed 3d
       -0.10706203 -0.084137686 -0.058499128 0.115934595
000170 18 d2 cc 3d 29 b4 18 be 09 38 44 be 64 d3 4b be
       0.1000101 -0.14912476 -0.19162 -0.19904858
000180 64 cf 2e 3e 5d e6 3c be a7 1c 60 3e c4 b3 62 bd
       0.170713 -0.18447252 0.2188593 -0.05534722
000190 f4 48 95 3c 45 2a c5 bc 89 c9 43 3e a4 6e 07 be
       0.018223263 -0.024068007 0.19119848 -0.132258
0001a0 46 26 74 3d f2 94 c0 3d fc 7d 95 3d 62 a2 27 3e
       0.059606813 0.09403409 0.0729942 0.16370538

model.inputMLP.4.bias f4 [6]
000000 41 b6 b0 bd a3 23 8a 3d 2a 50 64 be bd 13 6b be
       -0.08628512 0.067450784 -0.22296205 -0.22956748
000010 4a 22 7c 3d 34 4a b7 3c
       0.061556138 0.02237425

exp_avg f4 [6, 6]
000000 b4 0d 98 b9 4e be 83 b7 5a 22 3a 39 4b 32 25 38
       -0.0002900191 -1.5705034e-05 0.00017751139 3.9385905e-05
000010 b0 e5 7a 39 c7 ff 86 b9 2a 0f ee 39 e2 9b 12 3a
       0.00023927423 -0.0002574904 0.00045406196 0.00055926864
000020 6e 2b f9 b9 52 5e 0f b8 c1 39 0e ba 2f 01 86 3a
       -0.0004752534 -3.41817e-05 -0.0005425476 0.0010223741
000030 cd a9 89 b8 89 07 4c 39 e8 71 b9 b9 e3 cf 9b b9
       -6.564297e-05 0.00019457763 -0.00035370816 -0.00029718791
000040 3b 01 2c b9 f7 82 a8 39 4b fe 6c b9 f5 3e dc 39
       -0.00016403657 0.00032141033 -0.00022601445 0.00042008577
000050 ce d1 bc b9 d0 e1 b2 b9 5d 0c d9 b8 21 52 ec 39
       -0.0003601447 -0.0003411905 -0.00010349669 0.00045074619
000060 51 4a 52 38 ca e1 4d b7 24 3b e8 35 4a 88 be 37
       5.0137114e-05 -1.2271523e-05 1.7302559e-06 2.271323e-05
000070 11 49 de b7 3b b3 bd 37 c0 cc dd 37 93 c9 51 38
       -2.6498486e-05 2.2614016e-05 2.6440597e-05 5.0017214e-05
000080 ec 79 ba b8 f0 9b 68 b8 13 f2 84 b8 23 e5 00 39
       -8.891881e-05 -5.545834e-05 -6.33934e-05 0.00012292391

exp_avg_sq f4 [6, 6]
000000 84 93 39 39 8d 34 0b 34 b4 80 83 38 03 d3 5d 36
       0.00017697929 1.2964502e-07 6.2705396e-05 3.3054391e-06
000010 a8 54 fa 38 23 aa 0d 39 cf d5 c4 39 84 0c 26 3b
       0.000119366974 0.00013510189 0.00037543333 0.002533705
000020 3a b8 cc 3a 36 7e 87 39 e5 72 88 3a 1e a6 b5 3b
       0.0015618869 0.0002584324 0.0010410218 0.0055434844
000030 32 2e 3a 38 68 25 fd 38 fd 10 19 3a 20 69 8d 39
       4.438888e-05 0.000120709476 0.0005839018 0.0002697194
000040 bb ef 93 39 9c eb 4a 3a ce a9 d9 38 9d 3e 60 3a
       0.00028216638 0.0007740797 0.00010378995 0.0008554252
000050 51 cf a3 3a f4 a5 33 3a 94 e9 ed 39 59 22 19 3b
       0.0012497698 0.0006853037 0.00045378192 0.002336642
000060 4e c7 46 37 3e 97 12 37 6a d3 7e 38 d8 81 cd 37
       1.1848124e-05 8.737492e-06 6.0755214e-05 2.4498368e-05
000070 b4 01 68 38 97 b1 9c 38 72 8e c1 37 24 11 00 38
       5.5314697e-05 7.471738e-05 2.3073724e-05 3.053354e-05
000080 a4 1a 07 39 d4 57 27 38 bb 47 ae 38 d5 56 92 39
       0.00012884528 3.98977e-05 8.3103274e-05 0.00027911985

exp_avg f4 [6]
000000 69 ff f5 b8 b9 bb f6 b9 15 c0 c5 39 a1 28 22 37
       -0.00011730084 -0.0004706064 0.0003771788 9.665412e-06
000010 1d 79 37 b8 58 24 be 38
       -4.3743396e-05 9.0666756e-05

exp_avg_sq f4 [6]
000000 de ba b1 37 33 6d 44 3a ff a3 2c 39 37 1d fb 38
       2.1187061e-05 0.00074930786 0.00016464292 0.00011974054
000010 6c c8 27 36 dc 26 fd 38
       2.50016e-06 0.00012071218

exp_avg f4 [18, 6]
000000 00 00 00 00 00 00 00 00 00 00 00 00 00 00 00 00
       0.0 0.0 0.0 0.0
000010 00 00 00 00 00 00 00 00 00 00 00 00 00 00 00 00
       0.0 0.0 0.0 0.0
000020 00 00 00 00 00 00 00 00 00 00 00 00 00 00 00 00
       0.0 0.0 0.0 0.0
000030 b8 e1 2a b6 63 25 2b 36 6c 9c 53 35 c6 42 69 35
       -2.546336e-06 2.5502748e-06 7.883125e-07 8.689643e-07
000040 db e4 d6 35 d1 a1 1c 33 1d be ed b5 38 bf 16 36
       1.6010848e-06 3.646875e-08 -1.7713206e-06 2.2463046e-06
000050 37 ee 9e 33 c1 fc 3b 34 21 f5 61 35 27 c7 28 35
       7.4007794e-08 1.7507683e-07 8.417574e-07 6.287468e-07
000060 93 33 90 39 26 6f 98 b9 9f 16 9a b8 3c 89 ae b8
       0.00027504246 -0.0002907451 -7.347506e-05 -8.3225284e-05
000070 08 52 2e b9 1b cd a1 b7 00 00 00 00 00 00 00 00
       -0.00016624492 -1.9288205e-05 0.0 0.0
000080 00 00 00 00 00 00 00 00 00 00 00 00 00 00 00 00
       0.0 0.0 0.0 0.0
000090 00 00 00 00 00 00 00 00 00 00 00 00 00 00 00 00
       0.0 0.0 0.0 0.0
0000a0 00 00 00 00 00 00 00 00 53 ec ed b9 14 7d fb 39
       0.0 0.0 -0.00045380238 0.0004796764
0000b0 fc 49 fe 38 ca 02 10 39 00 d1 8f 39 e8 56 05 38
       0.000121254445 0.00013733949 0.00027430803 3.179061e-05
0000c0 00 00 00 00 00 00 00 00 00 00 00 00 00 00 00 00
       0.0 0.0 0.0 0.0
0000d0 00 00 00 00 00 00 00 00 00 00 00 00 00 00 00 00
       0.0 0.0 0.0 0.0
0000e0 00 00 00 00 00 00 00 00 00 00 00 00 00 00 00 00
       0.0 0.0 0.0 0.0
0000f0 ec 19 cb 39 f0 b0 d6 b9 a0 0d d9 b8 e1 d9 f5 b8
       0.0003873849 -0.0004094909 -0.00010349904 -0.000117230935
000100 b7 87 75 b9 a2 c2 e3 b7 15 a3 94 b6 aa a3 bc 36
       -0.00023415578 -2.7151142e-05 -4.429729e-06 5.6218896e-06
000110 a0 51 40 34 cf 5a e8 34 c9 0c 0d 36 6e fc d3 35
       1.7911088e-07 4.327944e-07 2.101808e-06 1.5794192e-06
000120 0c 76 5e b9 23 28 6b 39 73 ba 6d 38 d1 a2 86 38
       -0.00021215546 0.00022426299 5.6678848e-05 6.419945e-05
000130 0f 77 06 39 c6 88 79 37 00 00 00 00 00 00 00 00
       0.00012823589 1.4873402e-05 0.0 0.0
000140 00 00 00 00 00 00 00 00 00 00 00 00 00 00 00 00
       0.0 0.0 0.0 0.0
000150 00 00 00 00 00 00 00 00 00 00 00 00 00 00 00 00
       0.0 0.0 0.0 0.0
000160 00 00 00 00 00 00 00 00 88 c1 01 3a cc 24 09 ba
       0.0 0.0 0.0004949798 -0.00052316184
000170 6a b6 0a b9 48 1b 1d b9 05 e0 9c b9 0b 46 11 b8
       -0.0001322866 -0.0001498285 -0.00029921546 -3.4635927e-05
000180 00 00 00 00 00 00 00 00 00 00 00 00 00 00 00 00
       0.0 0.0 0.0 0.0
000190 00 00 00 00 00 00 00 00 00 00 00 00 00 00 00 00
       0.0 0.0 0.0 0.0
0001a0 00 00 00 00 00 00 00 00 00 00 00 00 00 00 00 00
       0.0 0.0 0.0 0.0

exp_avg_sq f4 [18, 6]
000000 00 00 00 00 00 00 00 00 00 00 00 00 00 00 00 00
       0.0 0.0 0.0 0.0
000010 00 00 00 00 00 00 00 00 00 00 00 00 00 00 00 00
       0.0 0.0 0.0 0.0
000020 00 00 00 00 00 00 00 00 00 00 00 00 00 00 00 00
       0.0 0.0 0.0 0.0
000030 43 10 47 38 de 6f 46 38 4e 5a 80 36 6c 1c 96 36
       4.7460442e-05 4.7311063e-05 3.82521e-06 4.473657e-06
000040 45 2d 99 37 9e ae 1b 33 a1 f3 3c 31 57 89 6a 31
       1.8260102e-05 3.6247563e-08 2.7496088e-09 3.412955e-09
000050 8b b6 99 2d 02 04 9b 2d 10 8b 57 30 a7 ed 1a 2f
       1.7475152e-11 1.762324e-11 7.8414164e-10 1.409065e-10
000060 59 13 07 3a 46 a8 0c 3a 8e c8 c9 37 fb 71 e1 37
       0.00051527243 0.0005365651 2.4054458e-05 2.6875166e-05
000070 74 34 3e 39 74 4a 83 36 00 00 00 00 00 00 00 00
       0.00018139352 3.9127717e-06 0.0 0.0
000080 00 00 00 00 00 00 00 00 00 00 00 00 00 00 00 00
       0.0 0.0 0.0 0.0
000090 00 00 00 00 00 00 00 00 00 00 00 00 00 00 00 00
       0.0 0.0 0.0 0.0
0000a0 00 00 00 00 00 00 00 00 ff a8 02 3b e5 9b 07 3b
       0.0 0.0 0.0019937155 0.0020692286
0000b0 dd df c1 38 a9 9a d7 38 5f 04 38 3a 83 5e 7a 37
       9.244655e-05 0.000102808066 0.00070196943 1.4923166e-05
0000c0 00 00 00 00 00 00 00 00 00 00 00 00 00 00 00 00
       0.0 0.0 0.0 0.0
0000d0 00 00 00 00 00 00 00 00 00 00 00 00 00 00 00 00
       0.0 0.0 0.0 0.0
0000e0 00 00 00 00 00 00 00 00 00 00 00 00 00 00 00 00
       0.0 0.0 0.0 0.0
0000f0 14 c4 4f 3a 65 df 5b 3a 04 f7 27 38 50 c8 3f 38
       0.0007925641 0.00083874754 4.0045954e-05 4.5724504e-05
000100 b9 3a 93 39 cc b7 c5 36 1f e5 af 2e b3 49 f3 2e
       0.00028081777 5.8924543e-06 7.998779e-11 1.1063452e-10
000110 ae d9 41 2a 7e c3 df 2a 05 8e af 2d 37 33 00 2d
       1.7217366e-13 3.9748407e-13 1.9958266e-11 7.28733e-12
000120 ee a1 d0 39 d1 31 d9 39 17 12 99 37 25 64 aa 37
       0.000397935 0.0004142658 1.8247445e-05 2.0312213e-05
000130 54 97 12 39 cf dc 4f 36 00 00 00 00 00 00 00 00
       0.00013980019 3.0973931e-06 0.0 0.0
000140 00 00 00 00 00 00 00 00 00 00 00 00 00 00 00 00
       0.0 0.0 0.0 0.0
000150 00 00 00 00 00 00 00 00 00 00 00 00 00 00 00 00
       0.0 0.0 0.0 0.0
000160 00 00 00 00 00 00 00 00 2b 46 13 3b 9e 88 18 3b
       0.0 0.0 0.0022472243 0.002327479
000170 3b c1 e5 38 8a 73 00 39 6d dc 50 3a 16 44 7f 37
       0.00010955563 0.00012250073 0.00079674163 1.5215037e-05
000180 00 00 00 00 00 00 00 00 00 00 00 00 00 00 00 00
       0.0 0.0 0.0 0.0
000190 00 00 00 00 00 00 00 00 00 00 00 00 00 00 00 00
       0.0 0.0 0.0 0.0
0001a0 00 00 00 00 00 00 00 00 00 00 00 00 00 00 00 00
       0.0 0.0 0.0 0.0

exp_avg f4 [18]
000000 00 00 00 00 00 00 00 00 d1 09 8d b4 36 db 6f b4
       0.0 0.0 -2.627044e-07 -2.2338358e-07
000010 de 1e f8 37 00 00 00 00 00 00 00 00 28 ae 4c b8
       2.9578277e-05 0.0 0.0 -4.8799586e-05
000020 00 00 00 00 00 00 00 00 ce ba 2e 38 6a 0f 16 b5
       0.0 0.0 4.165881e-05 -5.5901785e-07
000030 d0 62 bf b7 00 00 00 00 00 00 00 00 5d 3d 5f 38
       -2.2814987e-05 0.0 0.0 5.3224492e-05
000040 00 00 00 00 00 00 00 00
       0.0 0.0

exp_avg_sq f4 [18]
000000 00 00 00 00 00 00 00 00 a4 e2 0a 35 39 ae 32 2e
       0.0 0.0 5.173881e-07 4.0627255e-11
000010 35 11 ce 36 00 00 00 00 00 00 00 00 c8 19 c7 37
       6.1412816e-06 0.0 0.0 2.3734654e-05
000020 00 00 00 00 00 00 00 00 73 a6 1e 37 26 1d ad 2b
       0.0 0.0 9.456288e-06 1.230048e-12
000030 99 65 9f 36 00 00 00 00 00 00 00 00 6e 09 df 37
       4.750397e-06 0.0 0.0 2.6588063e-05
000040 00 00 00 00 00 00 00 00
       0.0 0.0

exp_avg f4 [18, 18]
000000 00 00 00 00 00 00 00 00 00 00 00 00 00 00 00 00
       0.0 0.0 0.0 0.0
000010 00 00 00 00 00 00 00 00 00 00 00 00 00 00 00 00
       0.0 0.0 0.0 0.0
000020 00 00 00 00 00 00 00 00 00 00 00 00 00 00 00 00
       0.0 0.0 0.0 0.0
000030 00 00 00 00 00 00 00 00 00 00 00 00 00 00 00 00
       0.0 0.0 0.0 0.0
000040 00 00 00 00 00 00 00 00 00 00 00 00 00 00 00 00
       0.0 0.0 0.0 0.0
000050 00 00 00 00 00 00 00 00 00 00 00 00 00 00 00 00
       0.0 0.0 0.0 0.0
000060 00 00 00 00 00 00 00 00 00 00 00 00 00 00 00 00
       0.0 0.0 0.0 0.0
000070 00 00 00 00 00 00 00 00 00 00 00 00 00 00 00 00
       0.0 0.0 0.0 0.0
000080 00 00 00 00 00 00 00 00 00 00 00 00 00 00 00 00
       0.0 0.0 0.0 0.0
000090 00 00 00 00 00 00 00 00 45 f8 f7 b1 e2 9c 11 b5
       0.0 0.0 -7.216871e-09 -5.4245004e-07
0000a0 47 57 f2 b9 00 00 00 00 00 00 00 00 0b 30 0d ba
       -0.00046222864 0.0 0.0 -0.0005385882
0000b0 00 00 00 00 00 00 00 00 09 53 0f b9 66 1a 3f b4
       0.0 0.0 -0.00013668476 -1.7797865e-07
0000c0 bf 67 8c b8 00 00 00 00 00 00 00 00 6f 42 c9 b9
       -6.6950444e-05 0.0 0.0 -0.00038387204
0000d0 00 00 00 00 00 00 00 00 00 00 00 00 00 00 00 00
       0.0 0.0 0.0 0.0
0000e0 00 00 00 00 00 00 00 00 00 00 00 00 00 00 00 00
       0.0 0.0 0.0 0.0
0000f0 00 00 00 00 00 00 00 00 00 00 00 00 00 00 00 00
       0.0 0.0 0.0 0.0
000100 00 00 00 00 00 00 00 00 00 00 00 00 00 00 00 00
       0.0 0.0 0.0 0.0
000110 00 00 00 00 00 00 00 00 00 00 00 00 00 00 00 00
       0.0 0.0 0.0 0.0
000120 00 00 00 00 00 00 00 00 00 00 00 00 00 00 00 00
       0.0 0.0 0.0 0.0
000130 00 00 00 00 00 00 00 00 00 00 00 00 00 00 00 00
       0.0 0.0 0.0 0.0
000140 00 00 00 00 00 00 00 00 00 00 00 00 00 00 00 00
       0.0 0.0 0.0 0.0
000150 00 00 00 00 00 00 00 00 00 00 00 00 00 00 00 00
       0.0 0.0 0.0 0.0
000160 00 00 00 00 00 00 00 00 00 00 00 00 00 00 00 00
       0.0 0.0 0.0 0.0
000170 58 d6 5c 2f 6b ab 81 32 b4 cc 57 37 00 00 00 00
       2.0085034e-10 1.5095528e-08 1.286266e-05 0.0
000180 00 00 00 00 10 73 7b 37 00 00 00 00 00 00 00 00
       0.0 1.4987556e-05 0.0 0.0
000190 00 41 7f 36 a9 2d aa 31 21 0f fa 35 00 00 00 00
       3.8035796e-06 4.952842e-09 1.8630855e-06 0.0
0001a0 00 00 00 00 bf 37 33 37 00 00 00 00 00 00 00 00
       0.0 1.0682211e-05 0.0 0.0
0001b0 00 00 00 00 00 00 00 00 00 00 00 00 00 00 00 00
       0.0 0.0 0.0 0.0
0001c0 00 00 00 00 00 00 00 00 00 00 00 00 00 00 00 00
       0.0 0.0 0.0 0.0
0001d0 00 00 00 00 00 00 00 00 00 00 00 00 00 00 00 00
       0.0 0.0 0.0 0.0
0001e0 00 00 00 00 00 00 00 00 00 00 00 00 00 00 00 00
       0.0 0.0 0.0 0.0
0001f0 00 00 00 00 00 00 00 00 00 00 00 00 00 00 00 00
       0.0 0.0 0.0 0.0
000200 00 00 00 00 00 00 00 00 00 00 00 00 00 00 00 00
       0.0 0.0 0.0 0.0
000210 00 00 00 00 00 00 00 00 00 00 00 00 00 00 00 00
       0.0 0.0 0.0 0.0
000220 00 00 00 00 00 00 00 00 00 00 00 00 00 00 00 00
       0.0 0.0 0.0 0.0
000230 00 00 00 00 00 00 00 00 00 00 00 00 00 00 00 00
       0.0 0.0 0.0 0.0
000240 00 00 00 00 00 00 00 00 f9 2e c3 31 43 3b e5 34
       0.0 0.0 5.680587e-09 4.2697692e-07
000250 d4 c0 be 39 00 00 00 00 00 00 00 00 ef 43 de 39
       0.00036383292 0.0 0.0 0.00042393754
000260 00 00 00 00 00 00 00 00 11 a1 e1 38 21 6c 16 34
       0.0 0.0 0.00010758837 1.4009176e-07
000270 9e 08 5d 38 00 00 00 00 00 00 00 00 bb 6a 9e 39
       5.269853e-05 0.0 0.0 0.0003021563
000280 00 00 00 00 00 00 00 00 00 00 00 00 00 00 00 00
       0.0 0.0 0.0 0.0
000290 00 00 00 00 00 00 00 00 00 00 00 00 00 00 00 00
       0.0 0.0 0.0 0.0
0002a0 00 00 00 00 00 00 00 00 00 00 00 00 00 00 00 00
       0.0 0.0 0.0 0.0
0002b0 00 00 00 00 00 00 00 00 00 00 00 00 00 00 00 00
       0.0 0.0 0.0 0.0
0002c0 00 00 00 00 00 00 00 00 00 00 00 00 00 00 00 00
       0.0 0.0 0.0 0.0
0002d0 00 00 00 00 00 00 00 00 00 00 00 00 00 00 00 00
       0.0 0.0 0.0 0.0
0002e0 00 00 00 00 00 00 00 00 00 00 00 00 00 00 00 00
       0.0 0.0 0.0 0.0
0002f0 00 00 00 00 00 00 00 00 00 00 00 00 00 00 00 00
       0.0 0.0 0.0 0.0
000300 00 00 00 00 00 00 00 00 00 00 00 00 00 00 00 00
       0.0 0.0 0.0 0.0
000310 00 00 00 00 00 00 00 00 00 00 00 00 00 00 00 00
       0.0 0.0 0.0 0.0
000320 bb 8f d1 b1 0a 1e f6 b4 ef cd cc b9 00 00 00 00
       -6.099041e-09 -4.5842927e-07 -0.00039063345 0.0
000330 00 00 00 00 49 a3 ee b9 00 00 00 00 00 00 00 00
       0.0 -0.00045516554 0.0 0.0
000340 d6 3f f2 b8 c0 80 21 b4 bd 50 6d b8 00 00 00 00
       -0.000115513496 -1.5041132e-07 -5.6580397e-05 0.0
000350 00 00 00 00 0f 16 aa b9 00 00 00 00 00 00 00 00
       0.0 -0.00032441362 0.0 0.0
000360 00 00 00 00 00 00 00 00 d4 19 7f 32 e7 cc 95 35
       0.0 0.0 1.4848826e-08 1.1161e-06
000370 77 4f 79 3a 00 00 00 00 00 00 00 00 82 3f 91 3a
       0.00095104374 0.0 0.0 0.0011081549
000380 00 00 00 00 00 00 00 00 3f 72 93 39 53 99 c4 34
       0.0 0.0 0.00028123145 3.6619403e-07
000390 71 71 10 39 00 00 00 00 00 00 00 00 28 0c 4f 3a
       0.0001377517 0.0 0.0 0.0007898235
0003a0 00 00 00 00 00 00 00 00 00 00 00 00 00 00 00 00
       0.0 0.0 0.0 0.0
0003b0 ba ac b9 b0 6c 10 da b3 d0 75 b5 b8 00 00 00 00
       -1.3509613e-09 -1.0154403e-07 -8.652697e-05 0.0
0003c0 00 00 00 00 f0 6f d3 b8 00 00 00 00 00 00 00 00
       0.0 -0.00010082114 0.0 0.0
0003d0 18 a3 d6 b7 29 18 0f b3 f8 43 52 b7 00 00 00 00
       -2.5586734e-05 -3.3316756e-08 -1.2532801e-05 0.0
0003e0 00 00 00 00 02 b3 96 b8 00 00 00 00 00 00 00 00
       0.0 -7.1859e-05 0.0 0.0
0003f0 00 00 00 00 00 00 00 00 00 00 00 00 04 00 00 00
       0.0 0.0 0.0 6e-45

exp_avg_sq f4 [18, 18]
000000 00 00 00 00 00 00 00 00 00 00 00 00 00 00 00 00
       0.0 0.0 0.0 0.0
000010 00 00 00 00 00 00 00 00 00 00 00 00 00 00 00 00
       0.0 0.0 0.0 0.0
000020 00 00 00 00 00 00 00 00 00 00 00 00 00 00 00 00
       0.0 0.0 0.0 0.0
000030 00 00 00 00 00 00 00 00 00 00 00 00 00 00 00 00
       0.0 0.0 0.0 0.0
000040 00 00 00 00 00 00 00 00 00 00 00 00 00 00 00 00
       0.0 0.0 0.0 0.0
000050 00 00 00 00 00 00 00 00 00 00 00 00 00 00 00 00
       0.0 0.0 0.0 0.0
000060 00 00 00 00 00 00 00 00 00 00 00 00 00 00 00 00
       0.0 0.0 0.0 0.0
000070 00 00 00 00 00 00 00 00 00 00 00 00 00 00 00 00
       0.0 0.0 0.0 0.0
000080 00 00 00 00 00 00 00 00 00 00 00 00 00 00 00 00
       0.0 0.0 0.0 0.0
000090 00 00 00 00 00 00 00 00 34 d3 14 2e ee c7 e3 2b
       0.0 0.0 3.383889e-11 1.6184812e-12
0000a0 5e 1e aa 3a 00 00 00 00 00 00 00 00 d6 8c 06 3b
       0.0012979021 0.0 0.0 0.0020530722
0000b0 00 00 00 00 00 00 00 00 bf 4f c5 38 95 1c de 29
       0.0 0.0 9.408546e-05 9.8637387e-14
0000c0 2c fe 79 38 00 00 00 00 00 00 00 00 2b db 77 3a
       5.9602942e-05 0.0 0.0 0.0009454961
0000d0 00 00 00 00 00 00 00 00 00 00 00 00 00 00 00 00
       0.0 0.0 0.0 0.0
0000e0 00 00 00 00 00 00 00 00 00 00 00 00 00 00 00 00
       0.0 0.0 0.0 0.0
0000f0 00 00 00 00 00 00 00 00 00 00 00 00 00 00 00 00
       0.0 0.0 0.0 0.0
000100 00 00 00 00 00 00 00 00 00 00 00 00 00 00 00 00
       0.0 0.0 0.0 0.0
000110 00 00 00 00 00 00 00 00 00 00 00 00 00 00 00 00
       0.0 0.0 0.0 0.0
000120 00 00 00 00 00 00 00 00 00 00 00 00 00 00 00 00
       0.0 0.0 0.0 0.0
000130 00 00 00 00 00 00 00 00 00 00 00 00 00 00 00 00
       0.0 0.0 0.0 0.0
000140 00 00 00 00 00 00 00 00 00 00 00 00 00 00 00 00
       0.0 0.0 0.0 0.0
000150 00 00 00 00 00 00 00 00 00 00 00 00 00 00 00 00
       0.0 0.0 0.0 0.0
000160 00 00 00 00 00 00 00 00 00 00 00 00 00 00 00 00
       0.0 0.0 0.0 0.0
000170 2b ac 7f 28 d8 e3 54 26 4b 2c 3a 34 00 00 00 00
       1.41926765e-14 7.386106e-16 1.7338714e-07 0.0
000180 00 00 00 00 f4 b6 93 34 00 00 00 00 00 00 00 00
       0.0 2.7514e-07 0.0 0.0
000190 14 ab 58 32 8a ce 59 24 7f 12 16 32 00 00 00 00
       1.2611753e-08 4.722932e-17 8.735355e-09 0.0
0001a0 00 00 00 00 37 94 08 34 00 00 00 00 00 00 00 00
       0.0 1.2719907e-07 0.0 0.0
0001b0 00 00 00 00 00 00 00 00 00 00 00 00 00 00 00 00
       0.0 0.0 0.0 0.0
0001c0 00 00 00 00 00 00 00 00 00 00 00 00 00 00 00 00
       0.0 0.0 0.0 0.0
0001d0 00 00 00 00 00 00 00 00 00 00 00 00 00 00 00 00
       0.0 0.0 0.0 0.0
0001e0 00 00 00 00 00 00 00 00 00 00 00 00 00 00 00 00
       0.0 0.0 0.0 0.0
0001f0 00 00 00 00 00 00 00 00 00 00 00 00 00 00 00 00
       0.0 0.0 0.0 0.0
000200 00 00 00 00 00 00 00 00 00 00 00 00 00 00 00 00
       0.0 0.0 0.0 0.0
000210 00 00 00 00 00 00 00 00 00 00 00 00 00 00 00 00
       0.0 0.0 0.0 0.0
000220 00 00 00 00 00 00 00 00 00 00 00 00 00 00 00 00
       0.0 0.0 0.0 0.0
000230 00 00 00 00 00 00 00 00 00 00 00 00 00 00 00 00
       0.0 0.0 0.0 0.0
000240 00 00 00 00 00 00 00 00 77 40 b3 2d 31 25 74 2b
       0.0 0.0 2.0378572e-11 8.6737827e-13
000250 cf e4 3a 3a 00 00 00 00 00 00 00 00 a4 17 93 3a
       0.0007129432 0.0 0.0 0.0011222255
000260 00 00 00 00 00 00 00 00 38 6f 5b 38 27 35 73 29
       0.0 0.0 5.231725e-05 5.400294e-14
000270 f4 10 05 38 00 00 00 00 00 00 00 00 da a2 07 3a
       3.172546e-05 0.0 0.0 0.0005174108
000280 00 00 00 00 00 00 00 00 00 00 00 00 00 00 00 00
       0.0 0.0 0.0 0.0
000290 00 00 00 00 00 00 00 00 00 00 00 00 00 00 00 00
       0.0 0.0 0.0 0.0
0002a0 00 00 00 00 00 00 00 00 00 00 00 00 00 00 00 00
       0.0 0.0 0.0 0.0
0002b0 00 00 00 00 00 00 00 00 00 00 00 00 00 00 00 00
       0.0 0.0 0.0 0.0
0002c0 00 00 00 00 00 00 00 00 00 00 00 00 00 00 00 00
       0.0 0.0 0.0 0.0
0002d0 00 00 00 00 00 00 00 00 00 00 00 00 00 00 00 00
       0.0 0.0 0.0 0.0
0002e0 00 00 00 00 00 00 00 00 00 00 00 00 00 00 00 00
       0.0 0.0 0.0 0.0
0002f0 00 00 00 00 00 00 00 00 00 00 00 00 00 00 00 00
       0.0 0.0 0.0 0.0
000300 00 00 00 00 00 00 00 00 00 00 00 00 00 00 00 00
       0.0 0.0 0.0 0.0
000310 00 00 00 00 00 00 00 00 00 00 00 00 00 00 00 00
       0.0 0.0 0.0 0.0
000320 da c2 d4 2d 52 d5 a3 2b ff 3a 74 3a 00 00 00 00
       2.4188141e-11 1.1641055e-12 0.00093166524 0.0
000330 00 00 00 00 43 37 c1 3a 00 00 00 00 00 00 00 00
       0.0 0.0014741201 0.0 0.0
000340 b0 8b 8d 38 8a 97 9f 29 52 be 33 38 00 00 00 00
       6.749423e-05 7.087306e-14 4.2854175e-05 0.0
000350 00 00 00 00 92 f3 31 3a 00 00 00 00 00 00 00 00
       0.0 0.0006788309 0.0 0.0
000360 00 00 00 00 00 00 00 00 7f ef 1a 2f 17 17 dd 2c
       0.0 0.0 1.4091305e-10 6.2837613e-12
000370 00 ba a7 3b 00 00 00 00 00 00 00 00 88 45 04 3c
       0.0051186085 0.0 0.0 0.008073218
000380 00 00 00 00 00 00 00 00 45 f3 c3 39 3f 4c da 2a
       0.0 0.0 0.00037374548 3.8777485e-13
000390 33 f2 71 39 00 00 00 00 00 00 00 00 77 d3 73 3b
       0.00023073777 0.0 0.0 0.00372049
0003a0 00 00 00 00 00 00 00 00 00 00 00 00 00 00 00 00
       0.0 0.0 0.0 0.0
0003b0 53 88 ad 2b 0a ff 9e 29 1d e2 62 38 00 00 00 00
       1.2330227e-12 7.060852e-14 5.4093183e-05 0.0
0003c0 00 00 00 00 db b8 b4 38 00 00 00 00 00 00 00 00
       0.0 8.617501e-05 0.0 0.0
0003d0 e7 46 81 36 29 b0 96 27 8a 2e 2e 36 00 00 00 00
       3.8527537e-06 4.1824357e-15 2.595511e-06 0.0
0003e0 00 00 00 00 ff 2b 26 38 00 00 00 00 00 00 00 00
       0.0 3.961846e-05 0.0 0.0
0003f0 00 00 00 00 00 00 00 00 00 00 00 00 9f 72 cf 2a
       0.0 0.0 0.0 3.685012e-13

exp_avg f4 [18]
000000 00 00 00 00 00 00 00 00 3f d9 b2 b8 00 00 00 00
       0.0 0.0 -8.528167e-05 0.0
000010 00 00 00 00 e5 42 1f 36 00 00 00 00 00 00 00 00
       0.0 2.3731784e-06 0.0 0.0
000020 d4 c6 8c 38 00 00 00 00 00 00 00 00 83 25 97 b8
       6.712755e-05 0.0 0.0 -7.207228e-05
000030 fb fd 37 39 1e eb 85 b7 04 00 00 00 cd 07 f6 b4
       0.00017546855 -1.596432e-05 6e-45 -4.5826746e-07
000040 aa 70 17 39 04 00 00 00
       0.00014442453 6e-45

exp_avg_sq f4 [18]
000000 00 00 00 00 00 00 00 00 3e 96 70 38 00 00 00 00
       0.0 0.0 5.7360383e-05 0.0
000010 00 00 00 00 1d b6 05 32 00 00 00 00 00 00 00 00
       0.0 7.783027e-09 0.0 0.0
000020 32 ca 02 38 00 00 00 00 00 00 00 00 e6 ca 2c 38
       3.1182724e-05 0.0 0.0 4.119696e-05
000030 03 c0 6b 39 df d3 22 36 53 ba 07 37 3c 4f 31 37
       0.00022482876 2.4263206e-06 8.090009e-06 1.056847e-05
000040 45 62 1f 39 64 f7 3a 28
       0.0001520003 1.0378718e-14

exp_avg f4 [1, 18]
000000 00 00 00 00 00 00 00 00 c0 7b d1 ba 00 00 00 00
       0.0 0.0 -0.0015982315 0.0
000010 00 00 00 00 14 36 12 b9 00 00 00 00 00 00 00 00
       0.0 -0.0001394379 0.0 0.0
000020 54 f4 db b9 00 00 00 00 00 00 00 00 88 a8 06 ba
       -0.00041952974 0.0 0.0 -0.00051368074
000030 ec fd 9d ba 71 4b 5f b9 04 00 00 00 ac b9 b1 b2
       -0.0012053824 -0.00021295041 6e-45 -2.0689946e-08
000040 20 ab 29 b9 04 00 00 00
       -0.00016180845 6e-45

exp_avg_sq f4 [1, 18]
000000 00 00 00 00 00 00 00 00 20 c5 8c 3c 00 00 00 00
       0.0 0.0 0.01718384 0.0
000010 00 00 00 00 ec 50 cd 37 00 00 00 00 00 00 00 00
       0.0 2.4475587e-05 0.0 0.0
000020 eb 55 1f 3a 00 00 00 00 00 00 00 00 b5 a5 10 3b
       0.00060781714 0.0 0.0 0.0022071425
000030 7b 3e e1 3b b9 0d ad 39 14 21 5d 36 57 c3 30 34
       0.0068739033 0.00033007356 3.295082e-06 1.6462342e-07
000040 9a c9 05 39 56 25 02 29
       0.00012758971 2.8898182e-14

exp_avg f4 [18, 1]
000000 00 00 00 00 00 00 00 00 00 00 00 00 d1 9e 2e 37
       0.0 0.0 0.0 1.04081855e-05
000010 55 10 a5 b6 7a 81 71 b5 00 00 00 00 00 00 00 00
       -4.9192845e-06 -8.996791e-07 0.0 0.0
000020 23 b3 37 37 00 00 00 00 d0 86 00 b7 00 00 00 00
       1.09493585e-05 0.0 -7.660783e-06 0.0
000030 77 b6 30 b6 0e b9 f7 b6 f3 78 bc ab a8 15 b1 b6
       -2.6332252e-06 -7.382717e-06 -1.3391774e-12 -5.277532e-06
000040 91 09 06 b6 00 00 00 00
       -1.9973124e-06 0.0

exp_avg_sq f4 [18, 1]
000000 00 00 00 00 00 00 00 00 00 00 00 00 97 b0 23 33
       0.0 0.0 0.0 3.8112002e-08
000010 d8 b6 6c 32 2a ab 8e 30 00 00 00 00 00 00 00 00
       1.3778582e-08 1.0380508e-09 0.0 0.0
000020 70 31 44 33 00 00 00 00 06 16 1f 33 00 00 00 00
       4.567977e-08 0.0 3.7040103e-08 0.0
000030 58 a3 a0 32 cc fa 03 34 75 7c a1 1e d3 72 84 32
       1.8700732e-08 1.2291565e-07 1.7098012e-20 1.5419038e-08
000040 01 58 56 32 00 00 00 00
       1.2476449e-08 0.0

exp_avg f4 [18]
000000 00 00 00 00 00 00 00 00 00 00 00 00 32 07 87 38
       0.0 0.0 0.0 6.438642e-05
000010 9c 7c ff b7 0b 90 af b6 00 00 00 00 00 00 00 00
       -3.0456395e-05 -5.232175e-06 0.0 0.0
000020 ae 4c 91 38 00 00 00 00 00 d5 48 b8 00 00 00 00
       6.9284215e-05 0.0 -4.7882088e-05 0.0
000030 5d 6d 8d b7 1f 69 43 b8 88 f8 ba ae 19 fa 06 b8
       -1.6859436e-05 -4.6589525e-05 -8.502449e-11 -3.218101e-05
000040 93 76 56 b7 00 00 00 00
       -1.2783002e-05 0.0

exp_avg_sq f4 [18]
000000 00 00 00 00 00 00 00 00 00 00 00 00 dc 49 9f 36
       0.0 0.0 0.0 4.7471676e-06
000010 d2 80 f1 35 59 c4 07 34 00 00 00 00 00 00 00 00
       1.7993391e-06 1.2644286e-07 0.0 0.0
000020 4f 6a c0 36 00 00 00 00 76 93 92 36 00 00 00 00
       5.734422e-06 0.0 4.368306e-06 0.0
000030 1b 5a 19 36 e4 a1 72 37 ad 9d 93 24 c5 03 07 36
       2.2851225e-06 1.4462017e-05 6.40182e-17 2.0118762e-06
000040 49 d7 cd 35 00 00 00 00
       1.5336346e-06 0.0
