Test GCNN RNN/1dc4du1s/checkpoints/epoch=0-step=37.ckpt (torch, 438345 bytes, 36 tensors)

model.GCNN.graph_convolution.bias f4 [10]
000000 d1 30 4f b9 d6 b7 9c 39 c5 3b ac 39 f7 9f 99 39
       -0.00019759244 0.00029891607 0.00032850928 0.00029301617
000010 39 aa 9f 39 94 c4 a7 b9 e6 a2 60 b9 2f 96 91 39
       0.0003045367 -0.00031999184 -0.00021422989 0.0002776845
000020 ea 90 8f b9 77 c8 81 b9
       -0.00027383055 -0.00024754155

model.GCNN.graph_convolution.lin.weight f4 [10, 1]
000000 8c 61 2b 3f c3 86 95 3e e2 31 0b be 50 3e 92 be
       0.6694572 0.29204378 -0.13593248 -0.28563166
000010 e2 4e 13 bf 98 fa 58 be 97 b9 36 be 59 e3 11 be
       -0.5754224 -0.21189344 -0.17844234 -0.14246882
000020 de d7 33 3f 8f 40 b2 be
       0.7025126 -0.3481488

model.RNN.weight_ih_l0 f4 [50, 11]
000000 89 69 9e bc 48 ca fd bc 19 18 f7 bd 64 75 b3 bd
       -0.019337432 -0.030980244 -0.12065143 -0.08762625
000010 6d b5 b0 3c bf 1b 8b 3d e8 81 56 3d f5 ee a4 3d
       0.021570886 0.067924015 0.052369982 0.0805339
000020 90 71 0c 3d fa c6 b9 3d 90 35 84 bd 9b fa 0f 3e
       0.03428799 0.09071155 -0.06455529 0.14060442
000030 9e b9 39 bd 99 66 a0 bd c4 41 8a bc 38 5c a1 bd
       -0.045343034 -0.07832069 -0.016877063 -0.078789175
000040 6b da 9a bb 71 5c e2 3d d1 5a 79 bc d1 4c 99 bd
       -0.0047257445 0.11052788 -0.015219406 -0.07485355
000050 8c fe 0a bd 24 6e 38 3d 57 87 95 bd 9a e1 33 bd
       -0.03393416 0.045026913 -0.07301205 -0.043916322
000060 25 83 5b bd 5a 3b e7 bd b0 3f d0 bd aa 91 fd bd
       -0.053591866 -0.11290617 -0.101683974 -0.12381299
000070 96 41 6d 3d 99 90 a2 3c e0 b7 b1 bc c3 98 05 be
       0.057923876 0.01984434 -0.021694124 -0.13046555
000080 75 74 59 3c 23 4a 37 3c 72 6d 9e bd c3 e1 b6 bd
       0.013272394 0.011187109 -0.07735719 -0.089297794
000090 ce d4 9c 3c e8 79 91 bd 5b c5 fa 3d 2a a7 09 3e
       0.019144442 -0.0710333 0.12244674 0.13442674
0000a0 d4 a9 dd bd 84 ae b6 3d 2d f4 32 3d 09 f2 c7 3d
       -0.10823408 0.08920005 0.043689895 0.097629614
0000b0 4c 7e f3 bd be e6 11 bc 73 45 5f 3d 82 84 03 be
       -0.118893236 -0.008905111 0.05450959 -0.12843516
0000c0 82 3f d2 bd ba a6 e4 3d 52 ff bb bb 9c 48 be 3d
       -0.102660194 0.11164613 -0.0057372237 0.09291193
0000d0 6c 50 73 bc c1 29 e9 3d 45 7a 88 3d 0a bc 89 bd
       -0.014850717 0.11384917 0.06663946 -0.06725319
0000e0 94 1c 61 bd e0 d8 a7 bd 0c f7 e3 3d 26 6a 09 3d
       -0.054958895 -0.081956625 0.11131105 0.033548497
0000f0 7a ef 42 bd 4c fa c4 3d c3 76 c9 bd 5a 1e f7 bd
       -0.047591664 0.09618053 -0.09837105 -0.12066336
000100 4d bb d2 3d 09 10 3a bb 6a e3 bb 3d a2 ee e7 bd
       0.10289631 -0.0028390905 0.09174235 -0.113248125
000110 e8 67 a5 bd f6 7b f8 bd 24 92 4e 3c 4d e9 b8 3c
       -0.08076459 -0.12133019 0.012608085 0.022572184
000120 7d ad a8 3d 64 60 9b bc 4b ad b8 3b 11 68 00 3e
       0.08236215 -0.018966861 0.0056358925 0.12539698
000130 83 80 d9 bd 85 5f 56 bb 87 11 47 bb ab fd 90 bd
       -0.10620215 -0.0032710743 -0.0030375437 -0.07079633
000140 ab 08 db 3c 9c 5b 9d 3d 4d 97 84 bc bf 03 ac bc
       0.026737532 0.07683489 -0.016185427 -0.02099788
000150 01 97 b7 bd 46 12 a2 3d 1b 8a c4 3d ac 79 0c be
       -0.089643486 0.07913642 0.09596654 -0.13718289
000160 10 87 ee bb 7f 41 e4 bd b1 5e c2 bc 4f 77 e1 bd
       -0.0072792843 -0.11145305 -0.023726793 -0.110090844
000170 67 5a dd 3d de 4b 0d be b3 f4 92 bd 27 62 18 3b
       0.108082585 -0.13798472 -0.07175579 0.0023251863
000180 b7 f3 aa bd 96 ac 97 3d bd 33 28 3d 5d ff 44 bd
       -0.08347266 0.07405965 0.041064966 -0.048095096
000190 98 f3 56 3d 81 e8 9a bc 4f 27 79 3d de 40 9c 3d
       0.052478403 -0.018909695 0.060828503 0.0762956
0001a0 d9 25 bb bd 5d 12 00 3e 3e 97 49 bd 70 df f8 bd
       -0.09138078 0.12507005 -0.0492165 -0.12151992
0001b0 79 21 fe bd 48 d2 0f 3d fb 5c 3e 3c ff 1d dc 3d
       -0.12408728 0.03511265 0.011618848 0.10747909
0001c0 7e da 00 be 8f a5 c6 3d af bb c0 bd a5 97 ef bc
       -0.12583348 0.096995465 -0.09410798 -0.029247114
0001d0 cc f8 b5 bd aa e6 e0 3d 4d 7c c0 3d 69 6e 5e 3b
       -0.08885345 0.10981496 0.093987085 0.0033940321
0001e0 56 c1 e7 bd f5 63 f1 3d a5 82 21 3d 3c 1e 14 bd
       -0.11316173 0.117866434 0.039431233 -0.036161646
0001f0 5f ea 2d bd 12 d0 97 bb c0 46 ab 3d c6 a0 8c 3d
       -0.04245984 -0.004632958 0.08363104 0.068666026
000200 de a7 05 be 93 99 bc 3d 41 2f 03 3e dd d1 c3 bd
       -0.13052318 0.092089795 0.12810995 -0.095615126
000210 dc bb 2f 3d 99 f3 bd bd 7b 66 f9 3c cd 58 c4 3d
       0.042903766 -0.09274978 0.030444374 0.0958725
000220 81 8a bf 3c d6 82 eb 3d 34 5c 6d 3c 5f fb 8d bd
       0.023381473 0.11499564 0.014487315 -0.06932711
000230 06 e4 a4 bd 12 2b 0c be 0a 6a cf 3c d8 19 5e bd
       -0.080513045 -0.13688305 0.025319118 -0.054223865
000240 f8 63 07 bc ec 9a 83 3d 34 20 e7 3d 74 1a 55 3d
       -0.0082635805 0.064260334 0.11285439 0.05202718
000250 38 99 d6 3c ad d7 05 3e 42 d9 95 3d b4 d0 d3 3d
       0.026196107 0.13070555 0.07316829 0.10342541
000260 90 68 70 3d dc 98 c5 3d 91 9c e5 bd 53 ad 1e bd
       0.05869347 0.09648296 -0.11211503 -0.038739514
000270 de df 9f 3d 70 e5 0f be ef 71 dc 3c a5 1d 01 3e
       0.07806371 -0.14052367 0.026909797 0.12608965
000280 64 9d fa 3c 91 42 76 3d d1 b5 03 3e aa d9 43 bc
       0.030592628 0.060122076 0.12862326 -0.011953751
000290 8a 1f ce bd 60 40 c8 bd b9 0b cc 3c 74 69 ab 3d
       -0.10064609 -0.097779036 0.024907934 0.08369723
0002a0 8e 57 e2 3d fb bd fe bd a3 85 34 bd 4d 8c a6 bd
       0.11051856 -0.1243858 -0.04407276 -0.08132229
0002b0 6c fc 7e bd 69 8e 23 3d 57 b6 d8 3d f5 12 51 3d
       -0.062252447 0.039930735 0.105816536 0.05104347
0002c0 2c 97 78 3d 2d 83 90 bd 2d 93 cd bd 69 44 06 bc
       0.060691044 -0.0705627 -0.10037837 -0.008195021
0002d0 a3 6a 1f bd 3c 19 03 3e d5 33 f2 bb c1 9a 83 bd
       -0.038920056 0.12802595 -0.0073914328 -0.06426001
0002e0 6e ef a5 bd fb 62 4a 3c 9b 5b 02 3e 60 f7 ba 3d
       -0.08102308 0.0123527 0.12730257 0.09129214
0002f0 91 65 2b bd 48 99 d8 bd 69 c3 9c 3d 06 aa b4 3b
       -0.04184491 -0.10576111 0.07654459 0.0055134324
000300 75 96 3f bd 0e 50 e0 3d 04 72 d4 bd 6d 20 c8 bc
       -0.046774346 0.10952769 -0.10373309 -0.024429524
000310 db 44 ff 3d dd ed 0e 3e ea 2e 51 3d 19 6e 05 3e
       0.12464305 0.13957925 0.05107013 0.1303028
000320 7d f1 90 3d 5e eb 0f 3d dc 60 c6 3c 34 4f cb 3d
       0.0707731 0.035136573 0.024216108 0.09927216
000330 1c ee bb bd 98 bb 2d bc b1 6e bd bd 9d 7c 88 bd
       -0.09176275 -0.010603808 -0.09249628 -0.06664393
000340 7c a4 35 3d 4f fe 91 bc be e1 4e bd 37 ca 86 bc
       0.044346318 -0.01782146 -0.050508253 -0.016453845
000350 c1 e5 e0 bd 43 65 de 3d 3d 41 b1 3d 83 0f 30 bd
       -0.10981322 0.10859158 0.08655021 -0.042983543
000360 13 68 ec 3d b8 a5 09 be ed ea 0c bc 4d 93 d6 3d
       0.11543288 -0.13442123 -0.008600933 0.10477314
000370 75 24 cb 3d 2f 4f b3 3c 01 c4 00 3e c7 d4 05 3e
       0.09919063 0.021888344 0.1257477 0.1306945
000380 09 a6 9c bd 06 7d ae bc aa fb 03 be e3 64 e0 3d
       -0.07648856 -0.02129985 -0.12888971 0.109567426
000390 76 46 82 bd 7f 5c 96 3d f4 1f f8 3d dc ad 4b bd
       -0.063610956 0.07341861 0.121154696 -0.049726352
0003a0 16 5a 9b 3d 1b c0 03 3e d3 35 f5 bd 8c e9 60 bd
       0.07585542 0.12866251 -0.11973157 -0.054910228
0003b0 b1 b5 01 3e bd 42 f1 3c af a1 96 b9 85 e5 30 3c
       0.12666966 0.029450769 -0.00028730693 0.010796909
0003c0 97 10 b3 3d a1 ba cf 3d 65 ed 5f bd af 36 66 bd
       0.08743399 0.101430185 -0.054669756 -0.056204494
0003d0 74 cf 19 3d d9 be 84 bd 5c d5 13 3c 53 19 8a 3d
       0.03755136 -0.06481714 0.009023037 0.067431115
0003e0 ad bd b3 3b 23 99 da 3d 28 79 03 be ff 00 a4 3c
       0.0054852576 0.1067374 -0.12839186 0.020020006
0003f0 a9 44 9f bd ac 90 2d bd d2 be 3f bb 04 61 10 be
       -0.07776768 -0.042374298 -0.0029258025 -0.14099509

model.RNN.weight_hh_l0 f4 [50, 50]
000000 f1 11 d3 bc 08 00 e6 3d f5 f9 0f bd a6 e4 04 be
       -0.025765391 0.11230475 -0.035150487 -0.12977847
000010 4f 33 d3 3d bf 32 28 b8 f8 ed 81 3b 0c dd 6f 3d
       0.10312521 -4.0101582e-05 0.0039651357 0.058560416
000020 cf 7d e3 3d 5e 7d c4 bd f9 1c 58 bd 05 6e b4 bd
       0.111079805 -0.095942244 -0.052762005 -0.08810047
000030 01 a2 ac 3d 59 08 89 3c 1b 2b 3a bd 93 95 f6 3d
       0.08429337 0.016727613 -0.045451265 0.12040248
000040 cd cc a3 3d ff 6f 09 be e8 3a 8d bb 94 39 a1 bd
       0.07998047 -0.1342163 -0.0043100007 -0.0787231
000050 4a cc 0c be 66 bf dd 3d df a5 a9 3d ee 6d f1 bd
       -0.13749805 0.10827522 0.082835905 -0.117885455
000060 e8 9e 96 3d 0b 82 b9 bd 58 8a 99 bd 16 08 09 3d
       0.07354528 -0.09058007 -0.0749709 0.033454977
000070 e2 30 75 3d b7 1e 2a bd 9d c4 ae bd 57 83 04 be
       0.05986107 -0.0415332 -0.08533595 -0.12940727
000080 03 03 07 3e 30 c2 07 3e 30 c9 c7 bd ca f0 4f 3d
       0.13184743 0.1325767 -0.0975517 0.050766744
000090 8e 8c ba 3d 5a b7 a9 3d cf 10 6d 3d bd ae 2c 3b
       0.0910884 0.08286925 0.057877358 0.002634927
0000a0 e0 8d ea 3c 61 59 ac 3d 9f 27 c3 bd 79 5b 4d 3b
       0.028632104 0.08415485 -0.095290415 0.003133504
0000b0 86 0a 39 bd ca 85 23 bd e3 32 fe 3d f3 1f 35 bd
       -0.04517605 -0.039922513 0.124120496 -0.044219922
0000c0 62 3c d8 3d 49 8a c7 3d ef a5 f8 3d 15 20 4f bd
       0.10558392 0.09743173 0.12141024 -0.050567705
0000d0 71 f9 be bd 79 91 cf bd 5d ee d5 bc 7b 8a bc 3d
       -0.09324921 -0.101351686 -0.026114637 0.092061006
0000e0 05 28 2b bd 0f 44 96 bd 67 43 9c 3d f9 78 ad 3c
       -0.041786212 -0.073372 0.076300435 0.021175848
0000f0 55 42 a7 3a 99 98 27 bd a6 13 ad 3c 1e d9 f0 bd
       0.0012760857 -0.040917013 0.021127533 -0.11760162
000100 be a6 64 3d 3f 47 e5 bd a8 68 a2 3d 76 cf ab 3d
       0.05582308 -0.1119523 0.07930118 0.083891794
000110 4c 66 cb 3d af e3 44 bd 6c e4 2f bd 6c ac 9f bb
       0.09931621 -0.0480687 -0.04294245 -0.004872849
000120 ce fc c8 bc 38 55 f4 3d 3e 81 93 bd 9b f4 c5 bd
       -0.02453461 0.11930317 -0.07202385 -0.096657954
000130 12 94 da 3d cb 91 7e 3d fe 27 8d bd 17 dd 72 3c
       0.106727734 0.062150758 -0.068923935 0.01482322
000140 29 ee 0a be 6b 16 69 bc b2 db 55 3d 1d 72 a5 bc
       -0.13567413 -0.014226536 0.05221147 -0.020196015
000150 2b 94 4e 3c 91 76 a8 3d c3 ec bb 3d da 55 c8 3c
       0.012608568 0.0822574 0.09176018 0.024455
000160 cf 54 30 3d c3 b8 ff bd 2b 45 04 3e 88 57 82 bd
       0.04304963 -0.124864124 0.1291701 -0.063643515
000170 da 13 db 3d c5 84 f2 3d ef f1 e7 bd 43 39 da 3d
       0.10697146 0.1184173 -0.11325442 0.10655453
000180 88 8a ca bd fa cd 5f bd 3a 70 09 be 6e f7 0f be
       -0.09889704 -0.054639794 -0.13421717 -0.1405923
000190 38 03 06 be 4c c5 43 bc 52 a9 0a bd ff 0f da 3d
       -0.13087165 -0.011948895 -0.033852883 0.10647582
0001a0 56 56 d8 bd 97 27 e6 3d 56 a1 b0 3c d8 26 78 3a
       -0.10563342 0.1123802 0.021561306 0.00094662374
0001b0 fe 3e 6d 3d d4 85 a1 3c 86 22 ba bd 96 15 e0 bd
       0.057921402 0.019717135 -0.09088616 -0.10941617
0001c0 e7 93 2b bc 87 02 8c bc 81 64 ae bd 61 07 dc 3d
       -0.010472274 -0.017091049 -0.08515263 0.10743595
0001d0 50 42 d0 bd c9 15 82 3d a1 fc c9 bd 8b 44 51 bd
       -0.10168898 0.063518114 -0.09862638 -0.05109076
0001e0 5d 28 f6 3d 1c 55 8d 3d 92 f1 18 bd 11 6e a5 3c
       0.120194174 0.06900999 -0.037339754 0.020194085
0001f0 f0 d1 9f 3d 64 61 79 bc 81 8d 33 3d 7b 3e e8 bd
       0.07803714 -0.015220974 0.04383612 -0.11340042
000200 99 e6 52 3d 36 a7 ef 3d f2 22 5d 3d b1 15 a8 bd
       0.051489446 0.11701815 0.053988405 -0.08207262
000210 64 41 03 be 13 f2 15 3d a1 4c 88 bd fb ab 0a be
       -0.12817913 0.036607813 -0.06655241 -0.13542168
000220 db 4a 63 3d ab 1d e9 3d 08 5e 86 bd f4 c8 4f 3d
       0.05549131 0.11382612 -0.06560904 0.050728753
000230 c3 a6 90 3a 94 12 fc bd cc 65 eb bd 88 b0 a2 bd
       0.0011036027 -0.12308231 -0.114940256 -0.07943827
000240 1d df fb 3d f4 b7 e7 bd 9f 1a fb 3d 99 8b cc bd
       0.12298415 -0.11314383 0.12260937 -0.09987564
000250 37 c1 ce 3d 1d 87 ae 3c f0 97 06 3e 96 42 ea 3c
       0.100954466 0.021304661 0.13143897 0.028596204
000260 e0 d1 0f be 9d b8 63 3d 06 58 c5 bd b3 5b 3e bd
       -0.14044905 0.055595983 -0.0963593 -0.04647417
000270 9a d9 95 3d 22 ba 55 bd 78 43 64 3d 47 87 f5 bc
       0.07316895 -0.052179463 0.055728406 -0.029971732
000280 47 e9 05 be 58 df c6 3d 77 6d a0 bd 09 27 bb 3d
       -0.1307727 0.09710568 -0.07833379 0.09138305
000290 53 41 85 3d 53 c3 ed bc 27 e0 79 bd 9c 05 14 3c
       0.065066 -0.029023802 -0.061004784 0.0090345405
0002a0 eb 86 e7 3d 26 4f 8b bd e8 77 a3 3c 46 b1 2e 3c
       0.113050304 -0.06802206 0.019954637 0.0106623825
0002b0 82 b1 7d bc 9b 77 56 bd 4f 37 7d 3d d4 c7 8f bd
       -0.015484216 -0.05236016 0.061820325 -0.07020536
0002c0 42 0b 0a be bd ef 0e be 1f 1c 32 bd 93 8d ff 3d
       -0.13480857 -0.1395864 -0.04348385 0.12478175
0002d0 5d 27 ae 3c 71 dc e9 3d bc 0d 0c 3b 48 15 6f 3d
       0.021259004 0.11418999 0.002137049 0.058369905
0002e0 50 f3 b5 3c d8 63 b3 3d 2a c2 c7 3c 0a 11 51 3d
       0.022210747 0.08759278 0.024384577 0.05104164
0002f0 19 24 e8 3d 27 38 b4 bd 9f 12 bb 3d 59 7a be bc
       0.1133501 -0.08799773 0.09134411 -0.0232517
000300 e2 e3 f2 bd 81 16 79 bc e1 bc 7e 3d 90 02 d1 bd
       -0.118598714 -0.015203119 0.062191848 -0.10205567
000310 80 1d c1 3d 2c 91 fb 3d 3b 33 ed 3d 0d 14 e4 bd
       0.09429455 0.12283549 0.11582037 -0.11136637
000320 5f e5 41 bd 71 5a bf bc 03 34 df bd d2 fb 7c 3c
       -0.047337886 -0.023358556 -0.10898592 0.015440898
000330 8f 95 03 be e4 1e c3 3d c7 d7 4d bd 75 7a 07 be
       -0.12850021 0.09527376 -0.05025461 -0.13230307
000340 06 30 05 be 42 d0 a7 3d a5 cb c5 bc 18 45 b8 bd
       -0.130066 0.08194019 -0.024144957 -0.089975536
000350 34 6c 15 3d 3e ba 7a bd fa 44 55 bd 25 83 c2 3d
       0.036480144 -0.06121277 -0.052067734 0.0949767
000360 b0 ff f4 bd 27 8f ae bc 94 ee 69 bd b9 d4 ba bd
       -0.11962831 -0.021308495 -0.05711229 -0.09122605
000370 9a 23 ae 3d bd 8b 18 3d e8 f2 61 3d 23 1f ba bd
       0.08502884 0.03724264 0.055163294 -0.0908797
000380 3d da 0a 3d 74 79 84 bc c8 ab c6 bd 97 49 aa 3d
       0.033899534 -0.016171195 -0.097007334 0.083148174
000390 49 c6 67 3b 61 b6 02 be b4 0b de bc fb dc 77 3d
       0.003536599 -0.12764885 -0.02710519 0.060513478
0003a0 bf bf 0a be 91 0d c9 bd 2d ff cc 3c 6a 91 49 bd
       -0.13549708 -0.09817041 0.025024021 -0.049210943
0003b0 26 d0 d3 3d be 5a 8a bd 4e 6e e5 3c f6 50 e5 bd
       0.103424355 -0.06755589 0.028006699 -0.11197083
0003c0 d5 82 bc bd 4e 61 b2 bd 96 d2 cc 3d 1e 3d 9d bd
       -0.09204642 -0.08709966 0.100011036 -0.07677673
0003d0 62 92 6e bc 11 39 03 be 5e 80 ac bd 98 ef e2 3c
       -0.014561268 -0.12814738 -0.084229216 0.027702138
0003e0 18 ff ad 3d 5a c7 07 be 7d 18 34 3d 84 98 06 3e
       0.08495921 -0.1325964 0.043968666 0.13144118
0003f0 0e b0 79 bc 48 e8 0a be 9f 07 a2 3d c9 6b 4e 3d
       -0.015239729 -0.13565171 0.0791161 0.05039576

model.RNN.bias_ih_l0 f4 [50]
000000 30 8b 10 be c8 fe 0a 3e ae 2c ea bd 2c 9f 7b 3c
       -0.14115596 0.13573754 -0.11434303 0.015357774
000010 4d d5 4b bc 4a 50 b2 bd ff 44 fc 3d 6b 5a 7d bd
       -0.012440992 -0.0870672 0.123178475 -0.061853807
000020 1c 0f b2 bd cf 37 f4 3d 0d e6 fe bd 37 25 08 3d
       -0.08694288 0.11924707 -0.124462225 0.033238616
000030 1b 94 a3 bc 12 3d c9 3a 79 92 71 bd 08 7c 0d 3e
       -0.019968083 0.0015353283 -0.058977578 0.13816845
000040 40 0a e1 bd e1 08 a3 3d 87 5e 62 bd 27 95 3e bd
       -0.10988283 0.07960678 -0.05526593 -0.04652896
000050 31 3c bb 3d b0 d6 93 3c 6a d9 a9 bd 01 3f 32 bc
       0.0914234 0.018046707 -0.082934216 -0.010879279
000060 4b 9a b2 bc 5f 5e f8 3d ae d1 1c bd c4 05 07 be
       -0.021802088 0.12127375 -0.038285904 -0.13185793
000070 23 7a 87 bc 9c 1f 8d bd 31 f4 8b bd b5 41 83 bd
       -0.016537732 -0.06890795 -0.06833685 -0.06409017
000080 6b 15 39 bd 23 21 a6 3d 2c 90 0a 3e 28 c5 b2 3d
       -0.04518644 0.08111789 0.1353156 0.08729011
000090 1c 4a 06 3e 94 02 fe bd d0 8b d4 bd 73 be ba 3d
       0.13114208 -0.124028355 -0.103782296 0.091183566
0000a0 16 f1 67 3d e6 cd 49 3d 1a 2c ab bd a5 19 e5 bd
       0.0566264 0.049268626 -0.08358021 -0.11186532
0000b0 32 03 93 bd 03 23 fc 3b d7 5a e1 bd 95 1d 02 3d
       -0.07178344 0.0076946034 -0.110036545 0.031766493
0000c0 b9 a2 25 3d 90 69 d2 3d
       0.040438388 0.10274041

model.RNN.bias_hh_l0 f4 [50]
000000 c1 63 b5 bd 41 53 aa 3d d5 50 fc 3d 2e cd d7 bc
       -0.08856917 0.08316661 0.12320105 -0.026342954
000010 29 ea 06 be 90 33 c3 3d 14 f5 91 bd eb cc f8 bd
       -0.13175263 0.09531319 -0.07126823 -0.1214846
000020 67 99 f5 3d 11 4d 00 be 77 af 44 3c ce 10 b2 3d
       0.1199215 -0.12529399 0.012004725 0.086946115
000030 b3 9e f5 bd e2 71 86 bd 7f 7d 02 be 8d a8 99 3c
       -0.1199316 -0.0656469 -0.12743185 0.01875713
000040 dc a9 cd bd c4 ee df 3d 2c ad b0 bc 25 19 95 bd
       -0.10042164 0.10934213 -0.02156695 -0.072801866
000050 6a 2e cf bd b0 fe a4 3d fe fe 25 3d fe 8d 5b 3d
       -0.10116275 0.0805639 0.040526383 0.05360221
000060 6e 99 be 3d 10 ba 8e bc 52 3c 01 3e 85 e9 95 bd
       0.09306608 -0.017422706 0.12620667 -0.07319931
000070 0b eb 02 be 36 29 ea 3d b9 48 57 bc d6 ae c4 bd
       -0.12784974 0.114336416 -0.013139897 -0.0960366
000080 84 34 00 3e 56 cf 7d bd fc f7 32 bd 5c 43 81 bd
       0.12520033 -0.06196531 -0.043693528 -0.06311676
000090 01 98 ee bd e1 07 cf bd 11 67 3c 3d 66 b5 08 be
       -0.11650086 -0.10108925 0.04599673 -0.13350448
0000a0 54 fb 9a bc 0b eb 08 3e a7 b6 e1 bd 1c 08 65 3d
       -0.01891867 0.13370912 -0.11021166 0.055915937
0000b0 17 20 bf ba f2 96 fc bd 9b ef a4 bd 11 ea 0e be
       -0.0014581707 -0.12333478 -0.080535136 -0.13956477
0000c0 ae 68 20 bd 0b e0 08 bd
       -0.03916233 -0.03341679

model.MLP.0.weight f4 [150, 50]
000000 2d d7 21 3d c2 39 3a 3c 5c ca f9 bd 2e 28 e7 bc
       0.03951185 0.01136631 -0.121968 -0.028217401
000010 e0 0d d9 bc 37 80 4e bd bc df 7d 3d 1d 48 10 be
       -0.026495874 -0.050415244 0.061980948 -0.14090009
000020 e8 58 5d bd 26 c9 64 bc 66 2f 09 3c 55 a0 09 3e
       -0.054039866 -0.013963973 0.008373117 0.13440068
000030 cf dd a1 bd 98 4e 03 be c2 11 61 bd 16 35 1b 3d
       -0.07903635 -0.1282295 -0.054948576 0.037892424
000040 0c d7 af bd 7f ec 87 bd 6e 9a 5d 3d 23 06 b4 3d
       -0.08585939 -0.06636905 0.054102354 0.08790233
000050 f2 78 c7 bd 2b 23 e2 3c cf f3 41 3d 39 ba 01 be
       -0.09739865 0.02760466 0.047351655 -0.12668695
000060 21 e8 9b 3d 82 46 06 bd f8 16 8d 3d ae 93 f4 bd
       0.076126345 -0.032782085 0.068891466 -0.1194223
000070 a7 bc d1 3d b2 81 b8 3d c4 9f 05 be d4 da db 3c
       0.10241061 0.090091124 -0.13049227 0.026837744
000080 9a d0 70 bd 23 d2 9d bd 51 73 30 3d 02 47 c4 bc
       -0.058792688 -0.07706096 0.043078724 -0.02395964
000090 d1 b7 dc 3d f1 99 df bc 0d 7e 47 3c 57 24 10 be
       0.10777248 -0.027295085 0.012176049 -0.14076363
0000a0 a7 ad c4 3d 40 07 de 3d a9 87 b3 bd d8 d4 3d 3d
       0.09603434 0.108412266 -0.087661095 0.04634556
0000b0 7a 8b cf bc da e9 cf bd e4 09 8e 3d 16 76 d0 3d
       -0.025335062 -0.101520255 0.0693548 0.10178773
0000c0 65 ae 84 3d c3 67 8d bb 38 76 c2 bd d2 cd 37 bc
       0.064785756 -0.004315348 -0.09495205 -0.011218505
0000d0 ef d2 7b bd c9 05 63 bd 80 b5 52 3d d3 6b f0 3b
       -0.06148046 -0.05542544 0.051442623 0.0073370724
0000e0 df b8 34 bd f6 fa dc 3b 19 53 b8 bd 6f 13 62 bd
       -0.04412162 0.006743784 -0.090002246 -0.055194315
0000f0 06 c9 e2 bd 01 b8 ca 3c a8 c1 c3 bd 23 6d 98 bd
       -0.110734984 0.024745943 -0.095584214 -0.07442691
000100 9a db 56 3d 57 97 ec bd 67 30 05 bb 16 c1 cb bc
       0.052455522 -0.11552303 -0.002032304 -0.024872344
000110 6f 94 0b be 76 4f f3 3d 34 18 65 3d dc eb f0 3c
       -0.13630842 0.1188039 0.055931285 0.029409342
000120 34 cd d2 bd 5b f4 34 3d c4 08 76 bb ac 30 8d bd
       -0.10293046 0.044178348 -0.0037541846 -0.06894049
000130 05 dd 8b bd 2c 50 cb 3d 39 c8 63 bd c5 15 43 3d
       -0.068292655 0.09927401 -0.05561087 0.047628183
000140 19 a6 70 3d d3 46 01 bd 95 f7 05 be d3 0b 4f bc
       0.058752153 -0.031561684 -0.13082726 -0.012637096
000150 85 62 a4 3c 91 d2 16 3d 2e c7 f9 bd 2c bc 65 3d
       0.020066509 0.036821906 -0.12196194 0.056087658
000160 37 99 a6 3d bf f0 a2 3c 87 32 8b bc 65 c5 c6 bd
       0.08134692 0.019890187 -0.016991867 -0.09705619
000170 65 c0 37 3c 13 91 ad bd d4 a6 d7 37 56 10 1c 3d
       0.011215304 -0.08474936 2.5707683e-05 0.038101517
000180 bd 73 c8 3d 31 be e2 3d ce 5a 01 be 52 ac 14 3d
       0.097877 0.110714324 -0.12632295 0.03629715
000190 79 46 4f bd ae f7 9c bc e5 5e 2a bd dc c3 09 bd
       -0.050604317 -0.019161072 -0.041594405 -0.03363405
0001a0 10 84 ed 3d c5 0e b3 3b 1d b3 d8 bd 5d c3 db bd
       0.115974545 0.005464407 -0.10581038 -0.10730622
0001b0 0f d7 af 3d a8 6a 01 3e 13 fe 3b bc 98 49 68 3d
       0.08585941 0.12638342 -0.01147415 0.05671081
0001c0 c1 0b 65 3d 0d 79 75 bc 79 57 a7 3c d0 c3 58 bd
       0.055919413 -0.014982474 0.020427452 -0.052921116
0001d0 a3 7a da bd f5 f2 be 3d e4 5f 07 bb 5e e1 82 3d
       -0.10667922 0.09323684 -0.002065652 0.06390642
0001e0 f7 d2 63 3d 57 1c 46 3d 1d 2b 58 3d d8 9e 39 bd
       0.055621114 0.04836687 0.05277549 -0.0453175
0001f0 6e d3 a7 bd f4 c1 20 bd 70 77 d8 bc 79 aa a9 3d
       -0.08194624 -0.039247468 -0.02642414 0.08284468
000200 b3 05 92 bd 42 fb f4 bd b2 f6 95 3d bb 27 a6 bd
       -0.07129993 -0.11961986 0.07322444 -0.08113047
000210 2e f2 d9 bd 6e ac 07 3d 7a 8b 6f 3d d9 44 40 bd
       -0.10641895 0.033123426 0.058482625 -0.04694066
000220 03 cb a6 3d dd 34 37 3d 7f ec 9f bd 73 59 ac bd
       0.0814419 0.04472815 -0.0780878 -0.084154986
000230 58 a6 86 3d cf 45 ae 3d 51 ba 65 bd d2 70 e5 3d
       0.06574696 0.08509409 -0.05608589 0.112031594
000240 9c 9f 2b bd 2f 69 4c 3c 95 0c e2 3d a2 e1 8d bd
       -0.041900262 0.01247625 0.11037556 -0.06927802
000250 a7 f2 00 3e bd 3e 4c 3d ef 12 b0 3d 0a 6a 96 3d
       0.12592565 0.04986452 0.08597361 0.07344444
000260 dc f8 10 3e 03 d5 67 bc bf 4b 10 bd d1 e2 1e 3d
       0.14157432 -0.014149907 -0.035228487 0.038790528
000270 99 99 9f 3d 69 96 cd bd b3 9e b7 3d a3 78 ae 3d
       0.07792968 -0.10038454 0.08965816 0.085191034
000280 11 06 09 be eb 32 91 3d a5 c7 05 3d f7 b4 9a bd
       -0.1338122 0.0708979 0.0326611 -0.075540476
000290 2d 30 44 3d cd 30 2c bc 8b 43 06 be d7 ed ce bc
       0.047897507 -0.010509682 -0.13111703 -0.025259895
0002a0 25 7d 89 3d d1 15 76 3d 73 40 52 3d 7e 0c 10 bd
       0.067133226 0.0600794 0.051330995 -0.035168163
0002b0 5a 1b e2 3d ce 66 22 bd 5c 6b c9 bd 7c 77 d6 3d
       0.11040373 -0.039648823 -0.0983493 0.104720086
0002c0 e1 b7 91 3b 86 f7 0e bd 68 77 07 be 40 0b 56 3d
       0.004446969 -0.034904025 -0.13229144 0.052256823
0002d0 e8 f0 11 bd ab a7 89 3d 33 a7 65 bc 0a 63 b8 bd
       -0.035630137 0.06721433 -0.014016914 -0.09003265
0002e0 4a 7c aa bd a1 23 97 bd 2d b6 f5 3d 8d 7f eb 3d
       -0.083244875 -0.073798425 0.11997638 0.11498938
0002f0 f7 79 e4 bd 3f 5a e9 bd 54 ee 8e bc 15 42 d0 bd
       -0.111560754 -0.11394166 -0.017447628 -0.10168854
000300 d2 1a f7 3d 23 a2 69 3c 71 46 a3 3c 8e e6 06 be
       0.120656624 0.014259848 0.01993105 -0.13173887
000310 ab 74 d8 bd 2a 07 83 bd 29 a0 00 3d 91 60 b6 3d
       -0.10569128 -0.06397851 0.03140274 0.08905137
000320 9e bd 8b bd 82 ef 67 3d bd 06 71 bd 50 63 c6 3d
       -0.06823276 0.056624897 -0.058844317 0.09686911
000330 3d 05 97 3d 28 85 85 3d 2c 6d a7 bd 45 49 9f bd
       0.07374046 0.06519538 -0.0817512 -0.07777647
000340 cb 08 0e be d1 c5 4b bd ef 59 40 3d 66 56 be bd
       -0.13870542 -0.0497492 0.046960767 -0.09293823
000350 01 33 c3 3d 20 4e cb bd 6a 13 bf bc 88 da 8f 3d
       0.095312126 -0.099270105 -0.023324687 0.070241034
000360 62 64 80 bd 11 f2 8c 3d f5 7b 06 be c7 92 d2 bc
       -0.062691465 0.06882108 -0.13133223 -0.025704755
000370 19 66 fb bb 02 9b 06 3d 19 f5 d4 bd 5d e6 9a bd
       -0.007672083 0.03286267 -0.10398311 -0.075634696
000380 0b 48 f4 bb 39 cc 9a bd 40 3c 0d 3e d5 71 c6 3d
       -0.0074548773 -0.07558484 0.13792515 0.096896805
000390 c5 e3 7a 3c 58 3a 04 be d2 38 05 be 93 54 7c 3d
       0.015313094 -0.12912881 -0.13009956 0.061604094
0003a0 11 a7 9f 3c 5b 3f cd 3d c9 29 f1 3d 04 ea d2 bd
       0.019488843 0.1002185 0.11775548 -0.10298541
0003b0 6f e5 95 3d de b9 81 bd 97 bb be bd 59 aa 0c 3d
       0.073191516 -0.063342795 -0.09313124 0.034342144
0003c0 9f 42 d8 3b a0 9b 01 3e 8e 7c 13 bd 72 33 8f 3d
       0.0065997387 0.12657022 -0.036007456 0.06992234
0003d0 4d e8 00 be bb f0 6d bd c5 cf 8d bd 2c 15 a7 bd
       -0.12588616 -0.058090907 -0.069243945 -0.08158335
0003e0 e4 85 64 3d 66 3e 35 bc e2 5d dc 3b ce bc b1 bc
       0.05579175 -0.01106224 0.006725059 -0.021696474
0003f0 6d 0e 30 bd 61 e9 b1 3d a6 23 ec bd 24 27 b2 3c
       -0.042982507 0.086870916 -0.11530237 0.02174718

model.MLP.0.bias f4 [150]
000000 80 86 80 3d a8 c5 a9 bd 7f d4 ca bd 4d e9 68 bd
       0.06275654 -0.08289653 -0.09903812 -0.056863118
000010 63 3f ff 3d 17 d9 c5 bd cd 39 1e 3d 99 b0 9d 3b
       0.12463262 -0.09660547 0.038629342 0.004812312
000020 e3 7e c3 bd e9 25 ed bd 77 28 65 bd eb 3c 67 bd
       -0.09545686 -0.115794964 -0.055946793 -0.05645458
000030 25 c0 08 bd 59 89 81 3c 55 0e d4 3b 11 58 bc 3d
       -0.03338637 0.015812563 0.006471435 0.09196485
000040 01 f2 16 3d cf 3c b4 3d 76 9c ac 3d 10 7d 72 bd
       0.036851887 0.08800661 0.0842828 -0.0592013
000050 f6 72 01 3e b0 d9 2f bd c8 5a 89 3c f9 e0 d2 bd
       0.1264151 -0.042932212 0.01676692 -0.102968164
000060 f8 72 e2 bc 7d 21 ed 3d 13 f9 dc bd 82 20 5b bd
       -0.027642712 0.11578653 -0.10789695 -0.0534978
000070 62 95 5a 3d b3 dc ae bd 43 97 3f 3c e6 72 07 3e
       0.05336512 -0.08538189 0.011693778 0.13227424
000080 ef 36 33 bd 74 a3 5d 3c cb c6 0c bd 47 d2 c3 3d
       -0.04375356 0.01352774 -0.03436927 0.095615916
000090 3b 77 0d be 73 6b ad 3d 4f 71 4e 3d 51 5d e2 bc
       -0.13815014 0.0846776 0.05040103 -0.027632387
0000a0 aa ab 6d bd 74 b8 43 bd eb fc a4 3d 7d 4e c7 bd
       -0.05802504 -0.04778333 0.08056053 -0.09731767
0000b0 f5 0f 00 3e df 31 ae 3d f0 7f 03 be 6d f4 c3 bc
       0.12506087 0.08505606 -0.12841773 -0.023920262
0000c0 18 39 a5 3c fc 8a a8 3c a2 d6 22 3c df ed 23 bc
       0.020168826 0.020574085 0.009938868 -0.010005443
0000d0 e5 21 96 3a 77 f2 04 be b3 49 01 3e 5b 5f a5 bd
       0.0011454193 -0.12983118 0.1262577 -0.08074828
0000e0 87 3b b9 3b 41 65 05 bd 67 c7 e0 bd 79 1b 2f 3c
       0.005652848 -0.032567266 -0.10975533 0.010687702
0000f0 62 c8 be bc 5d a0 10 bd 5e 5e cf bd 68 28 7d bd
       -0.02328891 -0.035309184 -0.10125421 -0.061806113
000100 31 64 b7 3d e7 d9 ba b9 05 ec f9 3c 40 f5 d3 3d
       0.08954657 -0.00035639034 0.03050805 0.10349512
000110 66 8c 7f bd a7 1e 92 bd f3 09 08 be db 40 d7 3d
       -0.062389754 -0.07134753 -0.13285045 0.10510417
000120 87 4a 5c bd c8 1b 0d be 2b 30 ff bd e7 20 31 3d
       -0.053782012 -0.13780129 -0.12460359 0.04324427
000130 c6 a4 a1 bd ed 89 94 bd 3e 8b c7 bd fb 0e b7 3d
       -0.07892756 -0.0725287 -0.09743355 0.08938404
000140 cb 26 f2 3c 1e 8b 05 be 00 03 06 3e 9e 27 bb 3c
       0.029559514 -0.1304135 0.13087082 0.02284604
000150 d3 fa 80 bd 87 5e c6 bd a8 22 c1 bd f4 93 01 bd
       -0.06297841 -0.096859984 -0.09430438 -0.03163524
000160 de 62 a3 3d e5 84 1f bd 35 7f c8 bd 6a 89 d9 bd
       0.07977842 -0.038945097 -0.09789888 -0.10621913
000170 9f a5 02 bc bd 1e 77 bd d0 44 02 bb 6b 79 e3 bd
       -0.007974057 -0.06033205 -0.0019877441 -0.11107143
000180 20 e0 b0 3d 49 13 05 3d 1f 12 a3 3d c0 3b 5f bd
       0.086364985 0.032489095 0.07962441 -0.05450034
000190 d3 65 07 be 39 83 af 3d 57 7a 35 bd 47 b3 87 3d
       -0.13222437 0.085699506 -0.044306125 0.06625991
0001a0 06 c3 50 bd d4 8c 0c 3e 32 55 80 bd fb 4b c7 bd
       -0.05096724 0.13725597 -0.0626625 -0.09731289
0001b0 49 b2 88 bd 1c bb 81 3d ea d2 d2 bd 55 1b be bb
       -0.0667463 0.063345164 -0.10294135 -0.005801598
0001c0 46 07 50 bd 4f 4e eb bd 74 d4 f7 3c 3b e7 ff 3c
       -0.050788186 -0.114895456 0.030252673 0.031238189
0001d0 76 f8 0f 3e 46 35 92 3c 6d 12 c3 3d 1c e7 0a bd
       0.14059624 0.017847668 0.09524999 -0.03391181
0001e0 90 6b 09 3e 73 9c fc 3d 53 ea 03 bb e8 d5 d4 3d
       0.13419938 0.12334528 -0.0020128682 0.10392362
0001f0 e3 4f f8 3d 88 e0 a9 3d 85 35 49 3d 2c bb e2 bd
       0.12124612 0.08294779 0.049123306 -0.110708565
000200 e5 9b 0e 3e ac a4 14 3d cf 24 c7 bd 74 ee 54 bd
       0.13926657 0.036289856 -0.097238176 -0.05198522
000210 fc 66 c5 bd 01 31 29 3d ec ca 18 3d d6 fa 10 3e
       -0.09638783 0.0413065 0.037302896 0.14158186
000220 45 7b 0e be ba 01 71 3d 08 ae e6 bc 8a fa a0 3d
       -0.13914211 0.058839537 -0.028159156 0.078602865
000230 a3 4b da bd 64 38 8c bd e8 2b ef bd 46 fc 53 bc
       -0.10658958 -0.06846693 -0.11678296 -0.012938565
000240 06 52 93 bb 53 97 ca 3d a3 0f af bd f6 ae 09 bd
       -0.004495862 0.09892144 -0.08547904 -0.03361412
000250 0c db dc 3d ca f6 97 bd
       0.107839674 -0.07420118

model.MLP.2.weight f4 [150, 150]
000000 b1 3a bc 3c b6 11 a9 3c ca 4e 0a 3d 02 bc 0c bd
       0.022977205 0.020638328 0.033766545 -0.034358986
000010 43 63 89 3d 0e 4f 01 bd 9c 36 6c bc e9 18 89 bd
       0.06708386 -0.031569533 -0.014417317 -0.06694204
000020 87 4f 81 3d bb 6b 23 3d 66 24 83 bd 65 53 d4 bb
       0.06313997 0.03989766 -0.06403427 -0.006479668
000030 12 ef 97 bd 96 05 73 3d 53 8b ca 3c 0e 77 6a bd
       -0.07418646 0.0593315 0.024724638 -0.057242446
000040 be ef 54 3b 34 d4 a5 3d 48 93 a6 3d 27 7a f6 3c
       0.003249153 0.08097115 0.081335604 0.030087544
000050 c2 44 19 3d 0c db e8 bb c6 aa 42 bd bb 8a 9f bd
       0.03741909 -0.0071061905 -0.047526143 -0.077901326
000060 29 ec 2c 3c 79 b0 7d 3d 87 49 95 3d fe 79 83 3d
       0.010554352 0.061935876 0.07289415 0.064197525
000070 80 3d 3a 3c 85 03 2c 3c 8a 56 fc bc f9 15 85 bc
       0.011367202 0.010498886 -0.030802984 -0.016245829
000080 6d 07 0e bd 91 19 1a 3d 69 d8 52 bd 19 fa 82 3c
       -0.03467505 0.03762204 -0.051475916 0.015988396
000090 4d 5b 45 bd 86 5b 1f 3d 38 ea 01 3c cf 6a 90 bc
       -0.048182774 0.038905643 0.007929377 -0.017629055
0000a0 95 95 4d 3d 03 9a c7 3b f9 83 36 bd 88 45 a0 3d
       0.05019148 0.0060913577 -0.044559453 0.07825762
0000b0 61 33 38 3d 29 f8 5f 3c 36 30 81 3c a0 19 eb 3c
       0.044970874 0.013670006 0.01577006 0.028698742
0000c0 d1 33 7e 3d 3c c4 87 3d 1a cf 22 3c 81 aa 3c 3d
       0.062061135 0.066292256 0.009937072 0.046061043
0000d0 f4 9d 90 bd 90 f4 23 bd 6c 26 63 bd 36 2b bf bc
       -0.07061377 -0.040028155 -0.055456564 -0.023336034
0000e0 af 0c 41 bd 27 66 c8 3b d9 60 25 3d 6e f1 5b 3d
       -0.047131237 0.006115693 0.040375564 0.053697042
0000f0 f3 42 e2 bc cf 7e c9 3c ce 5f 81 3d e6 a3 80 bd
       -0.027619815 0.0245966 0.063171014 -0.06281261
000100 55 e4 66 3c 8b e3 97 bd 6f a3 84 3d 66 b7 0c bd
       0.014092525 -0.07416447 0.06476485 -0.03435459
000110 c2 fb 21 3d fe 4b 4f 3d 2b 8b 48 bc ed 7d 50 bd
       0.039546736 0.05060958 -0.0122402115 -0.050901342
000120 92 27 aa 3c 10 c6 f0 3c a9 16 3d bd 19 c6 0c bc
       0.020770822 0.029391319 -0.04616419 -0.008592152
000130 5f d1 46 bd 29 a5 2a 3d 2f 52 5b bd 5b 6e 9a 3d
       -0.048539516 0.041661415 -0.053545173 0.0754058
000140 29 14 85 3d 78 86 83 bd 17 2e 42 bd 8b 3c 1e 3d
       0.06497986 -0.06422132 -0.047407236 0.038631957
000150 7d 95 fc 3c 65 14 24 3d b5 b7 35 bd ab 73 a6 39
       0.030833 0.040058512 -0.04436465 0.00031748167
000160 e4 56 42 3b 43 49 2e 3d 06 0a 79 bd b8 e5 99 3d
       0.0029653842 0.042550337 -0.060800575 0.075145185
000170 e6 42 b5 bc b7 b5 ee 3b fd 6d fb 3c 3b de 13 bc
       -0.022126626 0.0072848457 0.030692095 -0.009025152
000180 89 7b 8b 3c 67 68 78 3d 49 13 04 bd 3f 79 c9 3c
       0.01702668 0.06064644 -0.032244954 0.024593947
000190 a1 e8 88 3d da 7d 2f bb 16 c2 d7 bb 5f bf 0c 3d
       0.066849954 -0.0026777894 -0.006584416 0.034362193
0001a0 d1 97 e9 bc 6e 62 c1 3c 8b b0 9a bd 13 62 84 3d
       -0.028514775 0.023606505 -0.07553204 0.06464019
0001b0 fa 76 9e 3d 95 df 19 bd a8 0e 39 bc 4d 07 35 bd
       0.07737537 -0.03756674 -0.011294998 -0.044196416
0001c0 f2 9b 97 bd 1b df 88 bd 4d f8 7b 3c 3c 77 89 bd
       -0.07402791 -0.06683179 0.015379024 -0.06712195
0001d0 49 e1 a3 bc d6 b6 bc 3b aa 29 b9 bc fc ac e8 bc
       -0.020004885 0.0057591004 -0.022602875 -0.028402798
0001e0 f6 4c 96 bd 8c 45 71 3b 4d da 15 3c 74 a5 4f bc
       -0.07338898 0.0036815135 0.009146285 -0.012673724
0001f0 43 0f 43 3d f4 97 80 3d c1 dc 9d 3d 85 f2 95 3d
       0.047621977 0.06278983 0.07708121 0.073216476
000200 03 2f 9d 3d b2 2c 85 bb d2 bf 2b bd 5c 92 51 bd
       0.076749824 -0.004064166 -0.04193098 -0.05116497
000210 7e c2 bb 3c 74 0f 84 bd ed 1a ef 3c 41 78 86 bd
       0.02291989 -0.0644826 0.029187644 -0.06565905
000220 e8 bd df bc f5 b5 89 bd e2 78 8f 3d 58 ef de 3c
       -0.027312234 -0.06724159 0.070054784 0.027213737
000230 93 7b fd 3c 62 4f 32 3c 8a c2 e3 3c 5e 3c 13 bc
       0.030942714 0.010883184 0.027802724 -0.008986561
000240 87 3e 01 bc 21 fe c5 3c 22 c5 06 3d c9 c4 d3 3b
       -0.007888443 0.02416903 0.032902844 0.0064626676
000250 62 2e 4c bd 0d a2 97 3d 0a 5b d4 3c db 29 8f 3d
       -0.04984892 0.074039556 0.025922317 0.06990405
000260 42 3a 1c 3d 5d 77 97 3c da 3e 3f 3d dc 31 66 3d
       0.038141496 0.018489534 0.0466908 0.056199893
000270 2f 5a 92 3d 1c 0d 91 bd 98 8e 9c bd f7 9f ce bb
       0.071461074 -0.070825785 -0.07644385 -0.0063056904
000280 c9 80 2f 3d 07 d7 a7 3d 76 64 c8 3c fe aa 5d bd
       0.04284743 0.0819531 0.024461966 -0.05411815
000290 60 03 98 bd c3 5b 6c 3c 1c f7 1d 3d c9 2c 86 3d
       -0.07422519 0.014426175 0.03856574 0.06551511
0002a0 f7 4c a3 bd 2f 04 32 bc aa 96 81 3d 1b 8e 3f bc
       -0.07973664 -0.010865255 0.06327565 -0.011691595
0002b0 2b de 9a bd 8f 7f 83 3b f0 55 8d 3d 10 3b 99 bc
       -0.075619064 0.004013009 0.06901157 -0.018704921
0002c0 20 5b 9e bd 2e e1 8d 3d 81 f1 24 3d 48 52 2a bd
       -0.077322245 0.06927715 0.04026938 -0.041582376
0002d0 3d be 95 bd 3c 47 d5 3c 9c 6a 4c 3c 2a de 3b 3a
       -0.07311676 0.026034944 0.0124765895 0.0007166589
0002e0 18 f2 f3 bc 52 19 c9 3c 18 6b ce bc 1e b8 e6 3c
       -0.029778525 0.024548206 -0.02519755 0.028163966
0002f0 64 28 62 3d 4d 2c 52 bd ad e3 8e 3d c4 89 6c bb
       0.0552143 -0.05131178 0.069770195 -0.0036092857
000300 5d 0d 8a bd c5 87 6d bd 7f 0c 85 3d c8 cc 56 3d
       -0.0674083 -0.057990808 0.06496524 0.05244139
000310 b1 27 6e bd 8d 9d 82 bd 77 7e 87 bd 31 73 1a bd
       -0.05814332 -0.06377707 -0.06615918 -0.03770751
000320 f1 9c a4 bd df 47 78 bd 38 18 2f 3d 04 6f be 3c
       -0.08037747 -0.060615417 0.042747706 0.023246296
000330 6e 39 c3 b8 7c 04 06 3d 35 b4 11 bd 20 b2 42 bd
       -9.309022e-05 0.03271912 -0.03557225 -0.047533154
000340 f3 e2 43 3d ca e3 71 3d f9 4a a4 3d 9b a1 9a bd
       0.047823858 0.059055127 0.080221124 -0.07550355
000350 1b c8 80 3d 87 50 89 bd 1b 49 7b 3d 45 99 71 bd
       0.06288167 -0.067048125 0.061349016 -0.05898406
000360 5e 08 93 3d 85 8c 1b bd 6d 25 29 3d 37 b0 12 bc
       0.0717933 -0.037975807 0.041295458 -0.008953146
000370 46 df 1e bd 63 44 16 bd 40 05 88 bd 0b 5e fa 3b
       -0.03878715 -0.036686312 -0.06641626 0.0076406053
000380 7e ec 5f bd 80 86 f1 bc d5 bc 5c 3d e1 7d 80 bd
       -0.054668896 -0.02948308 0.05389102 -0.062740095
000390 68 1d 7b 3d 73 89 89 bd 0a 06 70 bd 96 45 7f bd
       0.06130734 -0.067156695 -0.05859951 -0.06232222
0003a0 46 cd 58 bc 9b 30 8a bd ae 99 88 3d ad a9 9f 3d
       -0.013232535 -0.06747552 0.06669937 0.07796035
0003b0 86 c9 73 3d c4 c4 91 3d 61 82 64 3d ca 1c 79 bd
       0.05951836 0.07117608 0.0557884 -0.06081847
0003c0 11 5d 29 3d db 9f 7a bc 33 08 4c 3d 10 ef f1 bb
       0.04134852 -0.015296902 0.049812507 -0.007383235
0003d0 6b df 02 3d 4a ef 78 3d 26 e4 d2 bb 8d 50 3c bd
       0.03195135 0.06077508 -0.006435889 -0.045975257
0003e0 46 0f e3 bc 68 f6 f0 3b 20 5e 6f 3d cc 66 4d 3d
       -0.027717244 0.0073535927 0.058439374 0.050146863
0003f0 fa c1 81 3b 3f 21 db bc 55 af 24 3d 16 d4 09 3c
       0.0039598914 -0.026749251 0.040206272 0.008412382

model.MLP.2.bias f4 [150]
000000 fd 4b 4a bd cb 40 4d 3d be f2 6b bd 1b ac 09 bd
       -0.049388874 0.05011062 -0.057604544 -0.0336114
000010 dc fa 81 3d 96 a8 ad 3c 31 6e 69 bc 76 b4 7e bd
       0.06346676 0.021198552 -0.014247463 -0.06218382
000020 08 70 84 3d 28 8f 07 3d ed 43 53 3d 7c 50 2b bc
       0.06466681 0.03309551 0.05157845 -0.010456201
000030 6a 30 0b 3d 72 ec 8e bd 1a 23 55 3c 36 34 a1 bd
       0.033981718 -0.06978692 0.013008857 -0.078712866
000040 07 f3 9b 3d 67 e3 54 bc 57 ec 37 3d 93 a5 91 bc
       0.07614713 -0.01299367 0.044903126 -0.017779147
000050 35 70 33 bc f8 c1 8e 3d 8d 21 52 bd 9c d5 99 bd
       -0.010952045 0.0697059 -0.051301528 -0.07511446
000060 80 0e 38 bc bf d3 5c bd 25 e1 ae 3c 22 c0 13 bb
       -0.011233926 -0.053912874 0.021347592 -0.002254494
000070 3a a9 38 bd d5 e3 17 bd 40 79 48 3d 1d 99 b7 bc
       -0.045083262 -0.037082512 0.048943758 -0.022411877
000080 6d 9d 1e 3c e3 87 23 bd f1 fa b7 bc 56 c2 22 bd
       0.009681088 -0.039924514 -0.022458525 -0.039736114
000090 c0 49 30 3d e9 97 00 3d 65 49 a4 3d 3b cb 8c bd
       0.043039083 0.031394873 0.080218114 -0.06874701
0000a0 13 04 96 bd 35 46 2c bd bf 54 52 bd ef 36 72 3d
       -0.07324996 -0.042059142 -0.05135035 0.05913442
0000b0 0c 3a 51 3d 83 55 89 bc 01 2a 83 bd 21 dc 41 3d
       0.05108075 -0.016764408 -0.06404496 0.047329072
0000c0 3c 7f 26 3b 0c e7 72 3d ac 47 fc 3c da 9a 86 bc
       0.0025405427 0.059302375 0.030795895 -0.01643126
0000d0 81 10 26 bd 78 70 5b bd 57 bc 20 3d e8 94 a6 bc
       -0.040543083 -0.053574055 0.039242115 -0.020334676
0000e0 78 55 5c bd 9e a9 84 bd de bd 0d 3d 10 a2 ca 3a
       -0.053792447 -0.064776644 0.0346049 0.0015459675
0000f0 ca 26 9b 3d 28 71 60 3c 6f ba 95 3d d2 79 52 bd
       0.07575758 0.013698854 0.0731095 -0.05138571
000100 f5 2a c2 bc d7 d1 87 bd 56 61 89 3d 08 9a 54 3d
       -0.023702124 -0.06631821 0.067080185 0.05190471
000110 c4 04 9e bd 7b 71 2a bd 57 88 19 bd 77 ee 2a 3c
       -0.07715753 -0.04161213 -0.03748354 0.010432831
000120 24 81 94 3d 1c 5a 8b bd 86 15 94 bd d2 2d 14 3c
       0.07251194 -0.068042964 -0.07230668 0.009044128
000130 27 04 6b 3d ca 26 a1 3d f5 c3 90 3d b2 c9 9d bd
       0.057377007 0.078687266 0.07068626 -0.07704486
000140 92 1f 8e bd f8 62 9d bd 58 6a 25 3c 80 80 a2 bc
       -0.06939615 -0.076848924 0.010096155 -0.019836664
000150 0f cd 92 3d a3 62 82 3d 77 9d 2c bd 18 77 95 3b
       0.07168018 0.0636647 -0.042142358 0.004561316
000160 54 45 08 3d cc ef cf bc 18 1d 28 3d fc 15 8c 3d
       0.03326924 -0.025382899 0.04104337 0.06840131
000170 cc 82 42 3d a9 94 24 3d 49 b5 a3 3d ad 6a 9d bd
       0.04748802 0.040180836 0.07993562 -0.076863624
000180 11 a8 7a 3d 31 7c db 3b 04 72 61 3d ca 69 5c bd
       0.061195437 0.0066981544 0.055040374 -0.053811826
000190 43 a8 99 bd 6f 08 80 bd fe 01 6c 3d 36 12 50 3c
       -0.075027965 -0.062516086 0.057619087 0.012699654
0001a0 e4 90 f0 3c 0d ae 30 3d 6a 1b 8e 3d 10 5c 96 bd
       0.029365964 0.043134738 0.069388226 -0.07341778
0001b0 ce b6 f8 3c d7 a1 77 bd 8e 7c a9 3c 79 a5 22 3c
       0.030360606 -0.060457077 0.020689275 0.009927147
0001c0 41 da 87 bd 7c 2f 72 bd c4 9f 18 3d d7 0e 1f bc
       -0.066334255 -0.059127316 0.03726174 -0.009708128
0001d0 b8 1d 6a bc 25 11 ef 3c cc a7 91 bc 6d 31 a3 3d
       -0.014289312 0.02918298 -0.017780207 0.079684116
0001e0 00 58 78 3d 20 86 62 bc 0e 3d 75 bd 49 3c 11 3d
       0.0606308 -0.013825923 -0.05987268 0.035457883
0001f0 ed fa 47 bc b0 eb 98 bc f4 31 8d 3d d3 6d b6 3c
       -0.012205821 -0.018667072 0.068942934 0.022269165
000200 70 3f 2b bd cf 47 ff 3b 8a 0e d6 bc e2 96 3d bc
       -0.041808546 0.0077905427 -0.02612998 -0.011571618
000210 c9 de b1 3c 54 34 51 bd 7c d2 1c 3d c7 6f 44 3d
       0.021712678 -0.051075295 0.03828667 0.04795816
000220 55 fb 69 bd ce fe 37 3d 06 90 9b 3d c3 ee c0 39
       -0.057124455 0.044920735 0.0759583 0.00036798985
000230 fb 10 ee bc de 0e 99 3d 12 50 00 bd e7 77 03 bd
       -0.029060831 0.07473539 -0.03132636 -0.03209677
000240 f4 cb 2e bd f2 c3 6d 3d 23 e1 24 3d 34 80 15 3d
       -0.042674974 0.058048196 0.04025377 0.036499217
000250 1a 65 03 bd ea 22 59 3d
       -0.03207884 0.053011812

model.MLP.4.weight f4 [11, 150]
000000 de c5 d1 3c 9d 7a 07 3d 72 40 8c bd cb ef 80 3c
       0.025607046 0.033075918 -0.068482295 0.015739342
000010 e4 4a 30 3c 73 49 fa 3c c1 8d 49 bd 22 f0 a5 3c
       0.010760043 0.030552601 -0.049207453 0.020256106
000020 91 fd bc bc 2f c8 7a bd a6 2e a6 bc 57 2a a7 3d
       -0.023070129 -0.061226066 -0.020285916 0.081623726
000030 a0 50 36 bd b6 7e 91 3d 05 d6 dd 3c f1 85 9d bd
       -0.044510484 0.07104246 0.027079592 -0.07691563
000040 c5 0d 30 bb eb ea d5 bc 67 44 08 3d bc 8d b3 bc
       -0.0026863676 -0.026112994 0.03326836 -0.02191817
000050 11 1a 9f bd 79 0a d0 3b ae 92 a3 3c 1d 9f 09 3c
       -0.07768644 0.0063489047 0.019967403 0.008399752
000060 cc bf bb 3c 70 f4 8a bd cb ac cb 3c 06 22 03 bd
       0.022918604 -0.06784904 0.024862668 -0.03201487
000070 ed 82 6b 3d 28 10 90 bd 1e eb 82 3d a8 61 c2 bb
       0.057497907 -0.070343316 0.06392501 -0.0059320517
000080 7d 6e 3a 3d 2c 58 55 3d a8 ba f8 3b 80 4a 7d 3c
       0.045515526 0.05208604 0.0075906105 0.015459657
000090 85 5c bf 3c 52 11 2d bd c6 66 75 3d dc 66 33 bc
       0.023359546 -0.042252846 0.059912466 -0.010949817
0000a0 ca 51 8b 3c e7 79 0e bb 19 f0 f0 3a 6c 18 57 bd
       0.017006774 -0.002174014 0.0018382102 -0.052513525
0000b0 71 a6 41 bd c3 5f 45 3d 3a 70 8c 3d 11 96 22 3d
       -0.04727787 0.04818703 0.06857343 0.039693896
0000c0 92 c4 a4 3c 12 46 8a bd a2 a1 47 3b 88 c2 eb 3c
       0.020113263 -0.06751646 0.003046133 0.028779283
0000d0 4d 47 1d 3c a4 be a2 bd c2 12 1d bd 03 8e 2b 3d
       0.009599519 -0.07946518 -0.038347967 0.04188348
0000e0 cd bb 12 3d eb a3 0e 3d f8 49 8d bc 92 00 89 3d
       0.035823632 0.034824293 -0.017247185 0.06689562
0000f0 e3 65 0c bd bd 20 3c 3d b2 e9 d0 3b 8a c9 8c 3d
       -0.034276854 0.04592966 0.006375515 0.06874378
000100 37 74 53 bd 9c 9b 54 3d 77 34 6a bd 07 e2 82 bd
       -0.051624503 0.051906213 -0.05717894 -0.063907675
000110 db 1c 13 bd d7 f0 58 bd d9 dd 96 bd 66 c2 30 3d
       -0.03591619 -0.052964058 -0.07366533 0.043154143
000120 16 58 40 bc 7e 17 76 bc b3 3a 44 3d be f6 9b bd
       -0.011739751 -0.015020249 0.047907542 -0.07615422
000130 27 57 53 3c 5a 5a 0f 3d 6c f8 9c bd b7 db 8b bd
       0.012899197 0.034998275 -0.0766457 -0.06829017
000140 f1 a0 bb bc de 5c 19 3d ef d9 00 3d 67 62 3c bd
       -0.022903891 0.03744208 0.031457838 -0.04599228
000150 f8 0f 31 bd 33 a1 6f bd ff 58 29 bc 5c b6 94 bd
       -0.04322812 -0.05850334 -0.01033616 -0.07261345
000160 fe 10 5a bd 6a cc 12 3c 6c 67 8e bd 95 4c 87 3d
       -0.05323886 0.008959869 -0.0695332 0.06606404
000170 ce bd 05 3d b4 9a fb bb 4b d7 2f bd 60 31 81 3d
       0.032651715 -0.007678354 -0.04292993 0.06308246
000180 13 21 a6 3d 0d 79 3c 3d 4e 2c 80 bd 94 8f 8c bd
       0.08111777 0.04601388 -0.062584504 -0.06863323
000190 f8 9c 33 bc ab c2 86 3d 5f fb 0b bd 8d 62 9e bd
       -0.010962717 0.06580099 -0.034175273 -0.07733641
0001a0 bd 42 4d bd e4 9f 91 3d d7 f8 7e bd be 3d 9f bd
       -0.050112475 0.07110575 -0.06224903 -0.07775448
0001b0 f9 bd 95 3d 16 49 46 bd cd ff 9e 3d a7 b0 43 bc
       0.07311625 -0.048409544 0.07763634 -0.011943973
0001c0 df 2a 9a 3c 9d a4 93 bd cb 6b 3c bd 03 07 de 3b
       0.01881927 -0.07209132 -0.046001237 0.006775738
0001d0 7d 61 50 3d 49 2e 44 ba 20 2d 85 bd f2 60 9c bd
       0.050874222 -0.00074837037 -0.065027475 -0.07635678
0001e0 08 68 4c 3d 92 3a 52 3b 17 22 f9 bb be 35 2c 3c
       0.0499039 0.0032078368 -0.007602941 0.01051086
0001f0 8f b2 69 3c 1e cd 63 bd e2 77 82 bc a9 d3 8a bd
       0.014263763 -0.055615537 -0.015926305 -0.06778652
000200 0e d0 87 3d 30 38 a5 3d 87 a0 3e 3c 9c 59 a0 bd
       0.0663148 0.080673575 0.011634952 -0.07829592
000210 49 e5 9d 3d 11 52 cb 3c 5d 9d 45 bd 09 25 da bc
       0.07709748 0.024819406 -0.048245776 -0.026628988
000220 a6 72 9f 3c 4d 33 f3 bc 48 55 88 bd 5e 0f 6e 39
       0.019463848 -0.029687548 -0.06656891 0.00022703173
000230 e2 3f 5c bd cb cd a3 3d 8a 2b b1 bc bf 59 29 3d
       -0.05377186 0.07998236 -0.021627206 0.041345354
000240 ff 9a 94 bd 77 a0 be bc 2e bd 79 3c 71 ed a5 bd
       -0.07256126 -0.023269875 0.015242858 -0.08101929
000250 44 45 c2 3c a0 ec e1 3c b3 1c 35 bd 5d 00 94 bd
       0.023714669 0.027578652 -0.044216823 -0.07226632
000260 10 f2 ca bb 8b 73 73 bd f4 11 c6 3c c0 21 b1 bb
       -0.006193407 -0.059436362 0.024178483 -0.0054056346
000270 c4 61 46 3d a3 db 4c bd d0 c1 3e 3d fa 63 9e bc
       0.04843308 -0.05001415 0.046571553 -0.019334782
000280 b0 10 6b bc b0 0e e8 3c 44 3f 4c 3d 5e f0 0d 3d
       -0.01434724 0.028327316 0.049865022 0.03465306
000290 38 a4 27 3c 78 4e 37 bc 97 89 01 bd 88 6f dc bc
       0.010232024 -0.011188142 -0.031625357 -0.026908651
0002a0 1e 14 a3 3d 4c fb 44 3d 4c 1b 4f 3d 5c 8f 8b 3c
       0.079628214 0.048091218 0.05056314 0.017036133
0002b0 ac 3e ce 3c 5c 51 87 3d 89 48 20 bd 70 b8 0e bc
       0.025176369 0.06607315 -0.039131675 -0.0087109655
0002c0 10 05 67 bc e0 fb 85 3b c0 29 e3 bc 9d e1 89 bd
       -0.014100328 0.0040888637 -0.027729869 -0.067324854
0002d0 50 47 9a bb 4d 1f 39 bd 88 f4 8a 3d 20 52 39 3c
       -0.004708208 -0.045195866 0.06784922 0.011311084
0002e0 fb 47 27 bd a0 17 ab 3b 40 66 ff 3b 1a 1b 0b 3d
       -0.04084013 0.005221322 0.0077941716 0.033961393
0002f0 ac 11 4b 3d 32 70 9d bc 5a 1f 1d 3d 4c df 4b 3d
       0.0495774 -0.019218538 0.038359977 0.0497735
000300 ab 7d 86 bd 00 fa 2b b9 cc 2c a4 bc 83 55 7e bd
       -0.06566938 -0.00016400963 -0.020040892 -0.06209327
000310 c2 16 20 3d 00 5d 1b bb 98 4b c4 3c 49 21 79 bd
       0.039084204 -0.0023706555 0.023961827 -0.06082276
000320 d4 da 65 bd 04 ab 9e 3d 60 30 8b 3d 48 05 ad 3c
       -0.056116894 0.077474624 0.06796336 0.021120682
000330 ea af eb bc 68 b3 49 3d 8a 61 9d 3d 08 46 8b 3d
       -0.028770406 0.04924336 0.0768462 0.06800467
000340 cd 35 63 bd 40 c7 94 3b 20 8e df bb a0 81 70 3d
       -0.05547123 0.004540354 -0.0068223625 0.05871737
000350 14 4f c4 bc 6f 32 94 bd 1e a0 a4 3d d2 ae a2 3d
       -0.023963489 -0.07236182 0.080383524 0.079435006
000360 6c 2e 85 3d dc 14 87 bc 5a ff 82 3d 90 31 50 bd
       0.06502995 -0.016489439 0.06396361 -0.050828516
000370 b6 00 a7 bd 20 23 6a bb 18 00 18 bd 6c 6c 79 bd
       -0.081544325 -0.0035726503 -0.037109464 -0.060894415
000380 e0 b2 cd 3b 70 d6 81 3c c6 f7 02 3d 6e 61 6b bd
       0.006277427 0.015849322 0.031974576 -0.057465963
000390 44 b1 3f 3d a9 09 76 bd 80 a3 67 3c 42 7a 0b 3d
       0.046799913 -0.060067806 0.0141381025 0.03405214
0003a0 92 58 1a 3d c0 c4 65 3b 30 39 d8 3b 34 ea 35 3d
       0.037682123 0.00350599 0.006598614 0.044412807
0003b0 7c 40 9d 3c f0 f6 81 3b 54 4b f8 3c ef de 8d bd
       0.019195788 0.003966205 0.030309357 -0.06927287
0003c0 30 69 ab 3c f8 a4 c7 3c 68 fb 94 bc d4 05 9c 3c
       0.02092418 0.024370655 -0.018186286 0.019045748
0003d0 4c c0 c9 3c 7c 72 31 3d c2 14 c7 bc 5a c3 a1 3d
       0.024627827 0.04332207 -0.02430189 0.078985885
0003e0 00 f5 0d bb 4e de f9 bc 66 96 51 bd 93 91 84 bd
       -0.0021660924 -0.030501511 -0.05116882 -0.064730786
0003f0 34 e0 66 3d 1c 2a 8f 3d f0 80 35 3d 32 15 8c 3d
       0.05636616 0.069904536 0.044312418 0.0683998

model.MLP.4.bias f4 [11]
000000 10 df 22 bc 63 68 42 bd 80 dd d5 3c 87 88 9a bd
       -0.009940878 -0.047462832 0.026106596 -0.07545572
000010 80 8a fa bb 99 72 06 bd 68 79 7f bd dd a7 9e bd
       -0.007645905 -0.032824133 -0.06237164 -0.07746861
000020 a0 5e b6 3c 36 e5 a4 3d 66 aa 96 3d
       0.022261918 0.08051531 0.0735672

exp_avg f4 [10]
000000 db 7c 9e 38 9f c1 16 ba d1 0b 5c b9 2e 5b 81 ba
       7.557283e-05 -0.00057508977 -0.00020985237 -0.0009869093
000010 19 58 a1 b9 ad 8f 34 3a 4e ab 8e 38 98 aa ce b8
       -0.0003077395 0.00068878644 6.8029956e-05 -9.854621e-05
000020 c6 9f 0f 3a 05 fd 54 39
       0.0005478825 0.00020312153

exp_avg_sq f4 [10]
000000 a6 c6 31 31 f6 dd fe 32 b5 ef 58 31 eb 80 cc 33
       2.5869809e-09 2.9670428e-08 3.1568395e-09 9.52294e-08
000010 e9 bc 16 32 19 96 14 33 85 ce 99 30 91 fa 98 30
       8.774102e-09 3.459545e-08 1.1190912e-09 1.1130671e-09
000020 8e 5f 1c 33 3f 06 fb 31
       3.6408487e-08 7.3057715e-09

exp_avg f4 [10, 1]
000000 9d 78 73 b8 cc 35 cc b8 4d f4 78 b7 0e ed de b8
       -5.8048045e-05 -9.7374985e-05 -1.4838833e-05 -0.0001062994
000010 07 dd 22 b8 69 3f 4b 39 82 7a 20 b7 db 93 d0 37
       -3.8829658e-05 0.00019383211 -9.565267e-06 2.4864383e-05
000020 f0 42 c6 38 8c c0 83 b8
       9.453844e-05 -6.2824314e-05

exp_avg_sq f4 [10, 1]
000000 74 0c a6 2f 29 a3 3f 30 3e 57 55 2e 23 0b 80 30
       3.0204073e-10 6.971726e-10 4.850808e-11 9.316391e-10
000010 b4 e1 67 2f da d5 5d 31 ce 54 a8 2e bd ec 8f 2e
       2.1089513e-10 3.2281293e-09 7.65482e-11 6.54494e-11
000020 ca 0b 6b 30 10 3c 1b 30
       8.5509255e-10 5.6474025e-10
