Test GCNN RNN/y93rzd8o/checkpoints/epoch=29-step=1050.ckpt (torch, 16972 bytes, 24 tensors)

model.A f4 [2, 2]
0	0xbe952ee2	-0.2913733
1	0x3f6b1074	0.9182198
2	0xbe1955ff	-0.14974211
3	0xbf8c0dcf	-1.0941714

model.B f4 [2, 1]
0	0x3efa7403	0.48916635
1	0x3ea052ad	0.31313077

model.D f4 [2]
0	0xbdf20275	-0.11816875
1	0xbc325024	-0.010883365

model.H2X_out_MLP.0.weight f4 [4, 2]
0	0x3d8d5334	0.06900635
1	0x3f82b360	1.0210991
2	0x3f387d23	0.72065943
3	0x3eac6af7	0.33675358
4	0x3f196000	0.5991211
5	0x3fc89bb8	1.5672522
6	0xbfa276a1	-1.2692453
7	0x3e64d1c3	0.22345643

model.H2X_out_MLP.0.bias f4 [4]
0	0x3f137490	0.57599735
1	0x3e55e54d	0.20888253
2	0xbd888d82	-0.066676155
3	0xbdd38b20	-0.1032927

model.H2X_out_MLP.2.weight f4 [4, 4]
0	0xbecb740d	-0.39736977
1	0x3c26ae1b	0.010173346
2	0xbe04c0c3	-0.12964158
3	0x3de64194	0.11242977
4	0x3e95ea0c	0.29280126
5	0x3ed41d6f	0.41428706
6	0x3f5523b7	0.8325762
7	0x3f217c7f	0.6308059
8	0x3f6c0da8	0.9220834
9	0x3dd3ff6b	0.103514515
10	0x3eddcaf8	0.43318915
11	0xbf54a672	-0.83066475
12	0x3df30918	0.11866969
13	0xbee4f4ee	-0.44718117
14	0xbe99188e	-0.29901546
15	0xbeee82f0	-0.46584272

model.H2X_out_MLP.2.bias f4 [4]
0	0x3e06ba39	0.13156976
1	0xbe34fd0a	-0.17674652
2	0xbeaef882	-0.3417397
3	0xbe82827c	-0.25490177

model.H2X_out_MLP.4.weight f4 [1, 4]
0	0xbed74efe	-0.42052454
1	0x3f276225	0.6538413
2	0x3f77d42e	0.96808136
3	0xbee73a28	-0.45161557

exp_avg f4 [2, 2]
0	0x3ccfecd8	0.02538149
1	0x3bee4ec8	0.007272575
2	0x3c4ac06e	0.01237498
3	0x3bc1d1e1	0.005914912

exp_avg_sq f4 [2, 2]
0	0x3c397935	0.011320402
1	0x385942ce	5.179905e-05
2	0x3db0ccb0	0.08632791
3	0x398c9189	0.00026811313

exp_avg f4 [2, 1]
0	0x3cc809f3	0.024418807
1	0xbbb963c6	-0.005657646

exp_avg_sq f4 [2, 1]
0	0x3b1d65d7	0.0024017
1	0x3cdb8fa7	0.026801897

exp_avg f4 [2]
0	0xbbe2aee3	-0.006917821
1	0xbc6f6083	-0.0146104125

exp_avg_sq f4 [2]
0	0x3a642bf2	0.0008704058
1	0x3bb0eed7	0.0053995657

exp_avg f4 [4, 2]
0	0x3bb080c5	0.0053864443
1	0xbbc22094	-0.005924294
2	0x3b251752	0.0025190902
3	0xbb19dd0c	-0.0023477701
4	0x3c002f36	0.007823756
5	0xbbd14cf7	-0.0063873488
6	0x3ade1bb3	0.0016945511
7	0x3abc5b8c	0.0014370545

exp_avg_sq f4 [4, 2]
0	0x3bf9ece9	0.007627119
1	0x38e0fdcf	0.00010728428
2	0x3a9861ba	0.0011625804
3	0x37bcef8a	2.252289e-05
4	0x3be1f5d9	0.0068957624
5	0x38ee95e9	0.00011376647
6	0x3604f84b	1.9814058e-06
7	0x35772bdc	9.2078494e-07

exp_avg f4 [4]
0	0xbbef1e69	-0.0072973263
1	0xba53dba2	-0.0008081739
2	0xbaf865db	-0.0018951254
3	0x3b14a918	0.0022683796

exp_avg_sq f4 [4]
0	0x39f99292	0.00047602184
1	0x388da426	6.753979e-05
2	0x39898f19	0.00026237292
3	0x36d35c40	6.2990293e-06

exp_avg f4 [4, 4]
0	0x36c1878d	5.7676284e-06
1	0x37c3b619	2.3330607e-05
2	0x36a779b7	4.9911573e-06
3	0xb884af57	-6.32691e-05
4	0xbaf7bd42	-0.0018901008
5	0x3abd6981	0.0014450998
6	0xbb63544c	-0.0034687696
7	0xbb18629d	-0.0023252137
8	0xbc23d400	-0.009999275
9	0x3b06a749	0.0020546487
10	0xbba8c061	-0.0051498865
11	0x3a33fb58	0.0006865761
12	0x00000000	0.0
13	0x00000000	0.0
14	0x00000000	0.0
15	0x00000000	0.0

exp_avg_sq f4 [4, 4]
0	0x326437be	1.3284021e-08
1	0x2f8546a4	2.4242752e-10
2	0x2cc3817b	5.5566086e-12
3	0x32cb610a	2.3676439e-08
4	0x3962a8d2	0.0002161593
5	0x3b191533	0.0023358583
6	0x3ae63d40	0.0017565861
7	0x371afe74	9.23836e-06
8	0x39f2b60c	0.00046293472
9	0x3b99a07b	0.00468832
10	0x3b676371	0.0035307074
11	0x374bb434	1.21417e-05
12	0x00000000	0.0
13	0x00000000	0.0
14	0x00000000	0.0
15	0x00000000	0.0

exp_avg f4 [4]
0	0xb7b9ddba	-2.2156968e-05
1	0xba8f49ba	-0.0010932006
2	0xbbeaa0ea	-0.0071602957
3	0x00000000	0.0

exp_avg_sq f4 [4]
0	0x3350534d	4.8504535e-08
1	0x39657565	0.00021882875
2	0x39f23a58	0.00046201306
3	0x00000000	0.0

exp_avg f4 [1, 4]
0	0x37f9bf02	2.9772058e-05
1	0xbbcc617b	-0.0062372065
2	0xbc1cac2b	-0.009562532
3	0x00000000	0.0

exp_avg_sq f4 [1, 4]
0	0x3131618a	2.5812334e-09
1	0x3bf9be31	0.0076215495
2	0x3b047afc	0.0020214906
3	0x00000000	0.0
