GRNN/0e4pxl2n/checkpoints/epoch=4-step=700.ckpt (torch, 23373 bytes, 40 tensors)

model.A f4 [2, 2]
00000000: b0b9 e73d 06dc 5a3e 7627 b2be e5cc 68bf
0.11314714 0.21372995 -0.3479573 -0.90937644

model.B f4 [2, 1]
00000000: a742 c73e 4757 7f3d
0.3891804 0.062339094

model.D f4 [2]
00000000: 2ab9 1cbc 5c67 443c
-0.009565631 0.011987533

model.H2X_out_MLP.0.weight f4 [4, 2]
00000000: 4c52 19bf 2f43 17bf 46c5 803e 7d87 d3bc
00000010: 8f7a 0d3f b578 a23e 3d83 ae3e 1244 4a3e
-0.598912 -0.5908689 0.25150508 -0.025821442 0.55265135 0.31732717 0.34084502 0.1975253

model.H2X_out_MLP.0.bias f4 [4]
00000000: 869e 10bf ef99 d7be 1cd2 453e 8e7e 18be
-0.5649189 -0.4210963 0.19318432 -0.14892027

model.H2X_out_MLP.2.weight f4 [4, 4]
00000000: 20b9 2bbe 072b 92bd a172 d43d e8ce b1be
00000010: 6232 cd3e 123d 703e 5fcd bd3d 6f1f d9be
00000020: 44b4 063e daaa 41bd 08d9 c03e 3ab6 48be
00000030: 4868 6f3e 2bdc 393e b39b 10bd 52a8 c13e
-0.16769838 -0.07137113 0.10373426 -0.3472817 0.40077502 0.23460796 0.09267687 -0.42406794
0.13154703 -0.047282077 0.37665582 -0.19600764 0.23379624 0.18150394 -0.035304736 0.3782373

model.H2X_out_MLP.2.bias f4 [4]
00000000: 9fef f13e 6ff9 8d3e dc9d 57bd 9e7c c1be
0.4725313 0.27729365 -0.05264078 -0.37790388

model.H2X_out_MLP.4.weight f4 [1, 4]
00000000: 1146 e63e 20d2 ef3e 0620 22be 9af6 c13e
0.4497533 0.4684 -0.15832528 0.37883455

model.inputMLP.0.weight f4 [4, 1]
00000000: ff81 053e 744b 473f 21f6 633f 3892 193f
0.13037871 0.7784951 0.8904744 0.5998874

model.inputMLP.0.bias f4 [4]
00000000: 0b95 5f3f 4f7d 1f3f ae22 af3d c25a a2bb
0.87336797 0.6230058 0.085515365 -0.004954667

model.inputMLP.2.weight f4 [4, 4]
00000000: 0832 c23e 613a 6f3e 8809 88be 8625 953e
00000010: 0d8c 3d3e 2000 f4be c105 24be 41ef 79be
00000020: 5b3b a5bd 925a 5a3e 74fb 533e 56cc 663e
00000030: 67df 26be b13e ce3c ba84 a5bc f248 ecbe
0.37928796 0.23362114 -0.26569772 0.2913019 0.18510456 -0.47656345 -0.1601782 -0.24407674
-0.08067962 0.21323612 0.2070139 0.22538885 -0.16296159 0.025176378 -0.02020489 -0.46149403

model.inputMLP.2.bias f4 [4]
00000000: 059a acbe 86a2 ba3e 95cd 03be 5d0c 013e
-0.33711258 0.3645212 -0.12871392 0.12602372

model.inputMLP.4.weight f4 [2, 4]
00000000: 2675 cfbe 7263 5d3e 0168 133e 8934 0fbe
00000010: d8de 6d3e e350 d5bb 271f ba3e be69 383e
-0.40519065 0.21619967 0.14395143 -0.13984884 0.2322954 -0.0065098866 0.36351892 0.18009087

model.inputMLP.4.bias f4 [2]
00000000: 6f97 f83d a4d3 373e
0.12138259 0.17951828

exp_avg f4 [2, 2]
00000000: 4e9f b937 dad7 5eb7 ef37 06b8 4342 5cb6
2.21279e-05 -1.3282488e-05 -3.200018e-05 -3.2821124e-06

exp_avg_sq f4 [2, 2]
00000000: 4d21 673b db62 df38 d05c d939 0556 9937
0.0035267652 0.00010651882 0.00041458616 1.8279077e-05

exp_avg f4 [2]
00000000: 9d8c 46b5 e04b f5b7
-7.396537e-07 -2.9241608e-05

exp_avg_sq f4 [2]
00000000: c4e1 0a3b 8877 2e39
0.0021191696 0.00016638462

exp_avg f4 [4, 2]
00000000: 0000 0000 0000 0000 7d22 2a39 fb23 b537
00000010: cadb af37 84ce c435 890c 3cb9 c0f7 f0b7
0.0 0.0 0.00016225311 2.1593636e-05 2.0963973e-05 1.4663242e-06 -0.00017933747 -2.8725597e-05

exp_avg_sq f4 [4, 2]
00000000: 0000 0000 0000 0000 2608 a439 8dad e737
00000010: 0367 d137 022e 1036 58c8 f83a 6d3d 2c39
0.0 0.0 0.0003128659 2.7618162e-05 2.496271e-05 2.1484452e-06 0.0018980606 0.00016426081

exp_avg f4 [4]
00000000: 0000 0000 5f89 fc38 865c 6a37 13b4 11b9
0.0 0.00012041884 1.3969029e-05 -0.0001389536

exp_avg_sq f4 [4]
00000000: 0000 0000 cb64 c037 73cb 1d36 e816 3239
0.0 2.2935119e-05 2.3513246e-06 0.00016983936

exp_avg f4 [4, 4]
00000000: 0000 0000 4288 03b8 da26 b439 ad37 f638
00000010: 0000 0000 28e6 08b8 a3a5 bb39 e33d 0039
00000020: 0000 0000 21db 3e37 2da0 fbb8 624c 2bb8
00000030: 0000 0000 f3b5 d3b7 6667 9939 2fcb d238
0.0 -3.1359734e-05 0.00034361222 0.000117405645 0.0 -3.2639276e-05 0.00035790828 0.00012230086
0.0 1.1375902e-05 -0.00011998448 -4.0840714e-05 0.0 -2.5237887e-05 0.00029259472 0.00010051426

exp_avg_sq f4 [4, 4]
00000000: 0000 0000 e2d4 d638 40aa ae3a 1572 8e39
00000010: 0000 0000 367d e838 5d00 bd3a 5a25 9a39
00000020: 0000 0000 05ac 4a37 cc2b 2339 6ece 0538
00000030: 0000 0000 ec53 cf37 b6c9 8339 2613 7838
0.0 0.00010243968 0.0013325885 0.00027169348 0.0 0.000110859444 0.0014419664 0.00029400998
0.0 1.208019e-05 0.00015561207 3.1901924e-05 0.0 2.4715402e-05 0.00025136553 5.914564e-05

exp_avg f4 [4]
00000000: a4e4 b639 667c be39 0a55 00b9 73b2 9a39
0.00034884096 0.00036332308 -0.00012238711 0.00029506124

exp_avg_sq f4 [4]
00000000: 0cc8 d439 4239 e639 75c5 4438 a4a1 6b38
0.00040584838 0.0004391168 4.6913938e-05 5.6178906e-05

exp_avg f4 [1, 4]
00000000: 68b9 bd39 b372 2839 fe71 4e39 a49b 71b9
0.00036187028 0.00016064457 0.00019688156 -0.00023041532

exp_avg_sq f4 [1, 4]
00000000: 930f 8739 d4a3 df38 4cef c139 1a60 a335
0.0002576081 0.00010663984 0.0003699012 1.2172416e-06

exp_avg f4 [4, 1]
00000000: 5352 7036 a191 0ab7 548b 1fb7 af1f 21b7
3.5810706e-06 -8.259348e-06 -9.509578e-06 -9.603725e-06

exp_avg_sq f4 [4, 1]
00000000: f59a 3c34 294f 2035 b7fc 7833 6562 ec34
1.7565237e-07 5.971984e-07 5.7971842e-08 4.4030017e-07

exp_avg f4 [4]
00000000: eeaa 8037 9595 48b8 9535 29b8 43fa 4ab8
1.5338384e-05 -4.7823025e-05 -4.0342642e-05 -4.8393627e-05

exp_avg_sq f4 [4]
00000000: bc8a a837 0f6d 9638 17f3 d536 05b3 5c38
2.0091764e-05 7.172871e-05 6.376194e-06 5.2618812e-05

exp_avg f4 [4, 4]
00000000: 6857 bab6 8cf4 60b6 2de5 7d34 5ac7 1735
00000010: 323b 0637 8134 6036 22c2 16b6 6030 0eb6
00000020: 9f36 3ab9 f109 27b9 d21d 78b8 c151 e7b7
00000030: c212 e301 10b1 a001 2298 4f00 0000 0000
-5.5534074e-06 -3.3520946e-06 2.3645835e-07 5.654198e-07 8.000805e-06 3.3409162e-06 -2.2464742e-06 -2.1187807e-06
-0.0001775869 -0.00015930065 -5.915558e-05 -2.7575416e-05 8.3413547e-38 5.902879e-38 7.309579e-39 0.0

exp_avg_sq f4 [4, 4]
00000000: 1d9d 5739 ddb6 0439 b497 d836 b2f6 6235
00000010: 6ea9 9838 52bb 3b38 02e0 1736 0337 9c34
00000020: b4bc b832 242f d532 097b ea31 1bf2 1331
00000030: d428 3324 5c71 b323 e219 b020 0000 0000
0.00020562527 0.00012656623 6.454962e-06 8.455055e-07 7.2794835e-05 4.475873e-05 2.2631143e-06 2.909729e-07
2.1506231e-08 2.48179e-08 6.824284e-09 2.1528936e-09 3.884902e-17 1.9455228e-17 2.9832688e-19 0.0

exp_avg f4 [4]
00000000: 70cf d9b6 a456 2237 27c3 4db9 a5cd 0102
-6.491253e-06 9.676125e-06 -0.00019623023 9.53644e-38

exp_avg_sq f4 [4]
00000000: c615 8739 d555 bf38 58ab d132 d62c 6a24
0.0002576543 9.123577e-05 2.440872e-08 5.077864e-17

exp_avg f4 [2, 4]
00000000: 1392 01b7 40e2 ac37 9f8d 89b7 3e81 0000
00000010: 0aa7 86b7 ffcc d237 d9de e6b7 2804 0100
-7.72301e-06 2.0609354e-05 -1.639762e-05 4.6363e-41 -1.6051828e-05 2.512941e-05 -2.7521908e-05 9.3326e-41

exp_avg_sq f4 [2, 4]
00000000: 0165 6238 4828 2f38 6eec 8231 192b 6819
00000010: ae84 8f36 900e 5636 0db0 ec2f 692b 6b1a
5.3976666e-05 4.1760766e-05 3.810377e-09 1.2002822e-23 4.277178e-06 3.1896961e-06 4.3053242e-10 4.8631927e-23

exp_avg f4 [2]
00000000: 9d8c 46b5 e04b f5b7
-7.396537e-07 -2.9241608e-05

exp_avg_sq f4 [2]
00000000: c4e1 0a3b 8877 2e39
0.0021191696 0.00016638462
