GCNN RNN with input mlp/r36146h1/checkpoints/epoch=145-step=1460.ckpt (torch, 48961 bytes, 54 tensors)

model.GCNN.graph_convolution.bias f4 [10]
0	0xbbec8606	-0.0072181253
1	0xbbef38a5	-0.0073004537
2	0xbbe0264b	-0.0068405024
3	0x3bda2783	0.006657542
4	0x3c298862	0.010347458
5	0x3bc20dde	0.0059220633
6	0xbbd69fa9	-0.0065497947
7	0xbba7a3c7	-0.0051159593
8	0xbb9fa1d7	-0.0048715877
9	0xbaff8191	-0.001949357

model.GCNN.graph_convolution.lin.weight f4 [10, 1]
0	0x3ec8b568	0.39200902
1	0xbe941ef1	-0.28929856
2	0xbe4bfdac	-0.19920987
3	0x3f22b364	0.6355498
4	0xbe89293f	-0.2678928
5	0xbf271330	-0.6526365
6	0xbeffd8b2	-0.49970013
7	0xbd0c862f	-0.034307655
8	0x3f2d80c0	0.6777458
9	0x3f0f0775	0.55870754

model.RNN.weight_ih_l0 f4 [5, 11]
0	0x3edd6933	0.43244323
1	0xbccc28a9	-0.024921732
2	0x3ea0eb15	0.31429353
3	0xbeaaca86	-0.33357638
4	0x3e7a3c18	0.24436986
5	0x3ec95e86	0.39329928
6	0xbe078969	-0.13236012
7	0x3e9cb957	0.30610153
8	0xbdf45953	-0.119311
9	0xbeaa0a1b	-0.33210835
10	0x3d3b0736	0.045661174
11	0x3eddbf64	0.43310082
12	0xbd91f293	-0.071263455
13	0x3eb2101c	0.34777915
14	0x3dba1219	0.09085483
15	0xbe854b63	-0.26034078
16	0x3e3e8c58	0.18608224
17	0xbe394632	-0.18093184
18	0xbe1a7b07	-0.15085994
19	0xbec82123	-0.3908778
20	0xbe1c0fd5	-0.15240414
21	0x3ec70450	0.38870478
22	0x3c94c0ca	0.018158335
23	0xbe5c431a	-0.21509972
24	0xbed79e7b	-0.42113099
25	0x3d8b5638	0.06803554
26	0xbed7e2b6	-0.42165154
27	0xbe86aa9f	-0.2630205
28	0xbe9202fc	-0.28517902
29	0x3e109686	0.1411992
30	0xbec28fa2	-0.38000208
31	0xbec945de	-0.39311117
32	0xbebc6c66	-0.3680145
33	0x3e96488f	0.29352233
34	0x3e72394e	0.23654673
35	0x3edd1946	0.43183345
36	0x3ed0769d	0.40715495
37	0xbe937b8b	-0.28805193
38	0x3ea36444	0.31912434
39	0x3dd9880d	0.10621653
40	0xbd02c63b	-0.03192733
41	0x3e62cf94	0.22149497
42	0x3e24500d	0.16046162
43	0xbc83626d	-0.016038144
44	0xbe9c148e	-0.30484432
45	0x3e43df46	0.19128141
46	0x3ea7caf9	0.32772043
47	0xbde38d0c	-0.11110887
48	0xbe292837	-0.16519247
49	0xbe7e4e3e	-0.24834535
50	0x3d59c20a	0.053163566
51	0xbebdc768	-0.37066197
52	0x3ebf3698	0.3734634
53	0xbb97b79e	-0.004630043
54	0x3eaa09ab	0.332105

model.RNN.weight_hh_l0 f4 [5, 5]
0	0xbe9360a6	-0.28784674
1	0xbd0a8053	-0.033813786
2	0xbe8c8b1a	-0.27449876
3	0xbd97b643	-0.074078105
4	0x3ea8aa15	0.32942262
5	0x3c956e32	0.018241022
6	0xbe9a05c7	-0.30082533
7	0xbec0beac	-0.3764547
8	0xbebb1f76	-0.3654744
9	0xbed3c701	-0.41362765
10	0x3e85490b	0.2603229
11	0x3da97abf	0.08275365
12	0x3c466e3d	0.012111244
13	0xbeb868c0	-0.36017418
14	0x3ed13fab	0.40868887
15	0xbd98ae95	-0.07455174
16	0xbd9c4771	-0.07630814
17	0xbeb68118	-0.35645366
18	0x3e51b2e4	0.20478398
19	0x3ebf2f6d	0.3734087
20	0xbe3ca87d	-0.18423648
21	0xbdee5444	-0.11637166
22	0x3e4af740	0.19820881
23	0x3d4d0a0a	0.050058402
24	0xbd85390b	-0.06505021

model.RNN.bias_ih_l0 f4 [5]
0	0xbe89738b	-0.26845965
1	0xbe87bb13	-0.26509914
2	0x3eb0f867	0.34564516
3	0x3ea1e20b	0.3161777
4	0x3ead085e	0.33795446

model.RNN.bias_hh_l0 f4 [5]
0	0x3ec1c858	0.37848163
1	0x3e2b1409	0.16706862
2	0xbe05a57f	-0.13051413
3	0x3e1ac3a5	0.15113695
4	0xbd56cfb8	-0.05244419

model.MLP2RNN.0.weight f4 [30, 10]
0	0x3e926d81	0.2859917
1	0x3de9d32a	0.114172295
2	0xbe8ee2f2	-0.2790752
3	0xbcf2c2f9	-0.029633986
4	0xbe4b8dd8	-0.19878328
5	0xbe87ff42	-0.26561934
6	0x3cad89b3	0.021183824
7	0xbe4d9ce0	-0.20079374
8	0x3d64b89a	0.055840112
9	0x3e528342	0.20557883
10	0x3ddf33a1	0.10898519
11	0xbe824375	-0.2544209
12	0x3c0f9eef	0.00876592
13	0xbe5632af	-0.20917772
14	0x3e4938af	0.1965053
15	0xbe23c49d	-0.15992971
16	0x3e9c96a7	0.3058369
17	0x3c5d7fab	0.013519208
18	0x3e94f1fa	0.29090863
19	0x3e03ccd5	0.12871106
20	0x3e0490da	0.12945881
21	0x3e96c1f5	0.29444852
22	0x3e57d032	0.21075514
23	0xbcdebf70	-0.027190894
24	0x3dc5c758	0.096571624
25	0xbe728c68	-0.23686373
26	0x3d81367c	0.0630922
27	0xbe32c78e	-0.17458937
28	0x3e20d572	0.15706423
29	0x3e821353	0.25405368
30	0xbe802920	-0.25031376
31	0xbe657bb0	-0.22410464
32	0xbe957e9a	-0.29198152
33	0x3db2944c	0.08719692
34	0x3e43a30a	0.19105163
35	0xbe8d407f	-0.2758827
36	0xbe5ffa0e	-0.21872732
37	0xbe785838	-0.24252403
38	0xbe693aa1	-0.22776271
39	0xbe62f18e	-0.22162458
40	0xbe6750ce	-0.22589418
41	0x3cf0149f	0.029306708
42	0x3e7bb7a2	0.24581769
43	0xbe75fcb7	-0.24022184
44	0x3e2ef6b3	0.17086296
45	0x3d530cd2	0.0515259
46	0xbe6c08d7	-0.23050247
47	0x3c16d560	0.009206146
48	0xbe6c3f84	-0.23071104
49	0x3e114901	0.14188005
50	0x3e449e22	0.19200948
51	0x3c9bef76	0.019035082
52	0xbb4a4a7f	-0.0030867157
53	0x3e7e9f7d	0.24865527
54	0xbb38fc19	-0.0028226434
55	0x3de39058	0.11111516
56	0x3b8508ed	0.004059902
57	0xbdac8eef	-0.084257
58	0xbe3c452d	-0.18385763
59	0xbea0a0ab	-0.3137258
60	0xbe50c7bb	-0.20388691
61	0xbdb7fe7c	-0.08984086
62	0x3e120cfc	0.14262766
63	0x3df98570	0.12183654
64	0xbe9e167a	-0.30876523
65	0xbdbe0278	-0.092778146
66	0x3e5d0dea	0.21587339
67	0x3e836d97	0.25669548
68	0x3df84bc0	0.12123823
69	0xbdbfb822	-0.093612924
70	0x3e39869e	0.18117759
71	0x3e7fee62	0.2499328
72	0x3e91c773	0.2847248
73	0x3e1e60bc	0.15466589
74	0xbea0dc15	-0.3141791
75	0x3e8048e9	0.25055626
76	0x3d9396c0	0.07206488
77	0xbe2e7e0f	-0.17040275
78	0x3e2153c0	0.15754604
79	0x3e93c4ff	0.28861234
80	0x3dc6c4ee	0.0970553
81	0x3e37ea1a	0.17960396
82	0x3e846b4a	0.25863105
83	0x3dc57d58	0.09643048
84	0xbe58c448	-0.21168625
85	0x3dfbc704	0.122938186
86	0xbe43fb93	-0.19138937
87	0xbdf42189	-0.11920459
88	0xbe0dbd7a	-0.13841811
89	0x3ce30073	0.027710175
90	0xbe0d99c0	-0.13828182
91	0x3e9041d9	0.28175238
92	0xbe0b2181	-0.13587
93	0x3e1aa550	0.15102124
94	0xbc001b80	-0.0078190565
95	0x3c85fb80	0.016355276
96	0x3e890189	0.26758984
97	0x3e4ef73a	0.20211497
98	0xbddc6e96	-0.1076328
99	0x3bc05440	0.0058694184
100	0xbe72bc9b	-0.2370476
101	0xbd8f63dc	-0.070014685
102	0x3e3f6416	0.18690524
103	0xbe8deff4	-0.27722132
104	0xbdd9a557	-0.10627239
105	0xbd9a5062	-0.07534863
106	0x3e8ef9d1	0.2792497
107	0x3e0ca5a2	0.13735059
108	0xbc5c6d4a	-0.013453791
109	0xbe427a04	-0.18991858
110	0xbdaeffac	-0.08544859
111	0xbe5411b2	-0.20709875
112	0x3d93225c	0.07184288
113	0xbd6ba1b8	-0.057527274
114	0x3e24807a	0.16064635
115	0xbd85711c	-0.065157145
116	0x3e44c6be	0.19216439
117	0x3e6fd05a	0.23419324
118	0xbd997184	-0.074923545
119	0xbe83d586	-0.25748843
120	0xbe8f628e	-0.2800488
121	0xbe23ea7d	-0.16007419
122	0xbdc541ad	-0.09631667
123	0x3e99c3ac	0.30032098
124	0x3cac8d58	0.021063492
125	0x3e69f859	0.22848643
126	0xbe3d6677	-0.18496118
127	0xbe83a8fe	-0.25714868
128	0xbe029081	-0.12750436
129	0xbe5f3f11	-0.21801402
130	0x3d8945d8	0.06702775
131	0x3da6c5f8	0.08143228
132	0x3cde15c0	0.02710998
133	0xbcc62d60	-0.024191558
134	0xbe65eae9	-0.22452892
135	0xbe18d5d5	-0.1492532
136	0xbe80d65d	-0.25163546
137	0xbdba7c78	-0.09105772
138	0xbe8a82b0	-0.27052832
139	0x3e8d8481	0.27640155
140	0x3e2120c4	0.15735155
141	0x3dac235c	0.08405182
142	0x3dda222c	0.10651049
143	0xbe99f7d0	-0.30071878
144	0xbe71ebea	-0.2362515
145	0xbea0f6c9	-0.31438282
146	0xbe495e58	-0.19664896
147	0xbe3ee2e5	-0.18641241
148	0xbdf7dd38	-0.12102741
149	0x3e61096e	0.21976253
150	0x3d0dbd90	0.03460461
151	0xbdbaf822	-0.09129359
152	0x3d48e7e0	0.04904926
153	0xbe918056	-0.28418225
154	0xbd1460b8	-0.03622505
155	0x3e77b35e	0.24189517
156	0x3e2beafe	0.16788861
157	0xbe019a4d	-0.12656517
158	0x3e21b896	0.1579307
159	0x3c6ac080	0.014328122
160	0x3e6331f7	0.22187029
161	0x3e2556e7	0.16146432
162	0xbd8616c9	-0.06547315
163	0x3e84535a	0.25844842
164	0x3e3ccedc	0.18438286
165	0x3e8872f1	0.26650193
166	0x3e8995de	0.26872152
167	0xbc629399	-0.013829135
168	0xbe874275	-0.2641789
169	0x3e8aaa99	0.2708328
170	0xbcd411c3	-0.025887376
171	0x3e31e026	0.17370662
172	0xbe89686f	-0.2683749
173	0xbdd621c4	-0.10455659
174	0xbe24e21e	-0.16101882
175	0x3b52a8c6	0.0032144054
176	0xbe876f56	-0.2645213
177	0x3dc81622	0.097698465
178	0xbe241dd4	-0.16027004
179	0xbe527ab4	-0.2055462
180	0x3dcee696	0.101025745
181	0x3e030dca	0.12798229
182	0x3d58b346	0.052905343
183	0xbbba9b19	-0.0056947586
184	0x3e86b424	0.2630931
185	0xbe87dd5d	-0.26536074
186	0xbe117a68	-0.1420685
187	0x3d322223	0.043489587
188	0x3e557e4c	0.2084896
189	0x3da4fd38	0.0805611
190	0x3e8b7fab	0.2724584
191	0x3e50ff6c	0.20409936
192	0x3e524bc1	0.2053671
193	0x3c97fee2	0.018554155
194	0xbe28fb54	-0.16502124
195	0xbe8fe008	-0.2810061
196	0xbe537ef6	-0.206539
197	0x3e38a968	0.18033373
198	0xbdc2e506	-0.09516339
199	0x3c517ab7	0.012785605
200	0x3d81c669	0.06336672
201	0x3e6c1e14	0.23058349
202	0x3ea1f924	0.31635392
203	0xbd7844e2	-0.060612567
204	0x3c21f985	0.00988615
205	0x3d09873f	0.033576246
206	0xbe91fb13	-0.28511867
207	0xbe863e34	-0.26219332
208	0xbdc5e674	-0.09663096
209	0x3e0efa57	0.13962685
210	0x3cc83ab1	0.024442049
211	0xbe6c26a1	-0.23061611
212	0xbe9018f2	-0.28144032
213	0x3e50ed3c	0.20402998
214	0xbe451887	-0.19247638
215	0xbe42f36a	-0.19038168
216	0xbe83bdb3	-0.25730667
217	0x3e47d36c	0.19514245
218	0x3e24e5a6	0.16103229
219	0xbd26b3bf	-0.040698763
220	0x3e6fd43b	0.23420803
221	0x3d8838df	0.06651472
222	0xbe4d7501	-0.20064165
223	0xbe1241a8	-0.14282858
224	0xbe3dac26	-0.185227
225	0x3b68dfe4	0.003553384
226	0xbcaf98f8	-0.021435246
227	0xbde991db	-0.11404773
228	0xbe55f558	-0.20894372
229	0x3e9fbe2b	0.31199774
230	0xbe92e10a	-0.28687316
231	0xbda7f3d4	-0.082008034
232	0x3d0a5e60	0.03378141
233	0xbe27c794	-0.16384727
234	0xbb656200	-0.003500104
235	0xbdb121f0	-0.08649051
236	0x3d1dca80	0.038523197
237	0x3c9741b0	0.01846394
238	0xbe0ceb80	-0.13761711
239	0xbe0077a1	-0.12545635
240	0xbc374c20	-0.011187583
241	0x3cb22ca0	0.021749794
242	0x3dd90b30	0.10597837
243	0xbea1055a	-0.31449395
244	0xbe9b6e0f	-0.30357406
245	0xbe0560e1	-0.13025238
246	0x3e894b35	0.2681519
247	0xbdd46c5e	-0.10372232
248	0xbe18b6b7	-0.1491345
249	0xbd7b9f58	-0.06143126
250	0xbe9aa93c	-0.3020724
251	0xbde1c2be	-0.11023472
252	0x3e5e15db	0.21688025
253	0xbd3f2982	-0.046670444
254	0xbdd0e79a	-0.102004245
255	0x3e3e54cb	0.18587033

model.MLP2RNN.0.bias f4 [30]
0	0xbda2b251	-0.079441674
1	0x3e64e635	0.22353442
2	0xbe6984ba	-0.22804537
3	0xbe60ad62	-0.2194114
4	0x3dc241c1	0.09485198
5	0x3e746793	0.23867635
6	0xbe3cd007	-0.18438731
7	0xbdb145d4	-0.08655897
8	0x3e64cb46	0.22343168
9	0xbdd6fce4	-0.10497454
10	0x3e25175a	0.16122189
11	0x3cb93270	0.022607058
12	0x3e012708	0.12612545
13	0xbe29ac97	-0.16569744
14	0xbdd89e2c	-0.10577044
15	0xbe9a253f	-0.30106542
16	0x3e7c845d	0.24659868
17	0x3e73dd71	0.23814942
18	0x3d23c799	0.039985273
19	0x3e36ed40	0.17863941
20	0x3daeed51	0.08541358
21	0x3e841725	0.25798908
22	0x3e984023	0.29736432
23	0xbd22a4c0	-0.0397079
24	0xbe9e3ffa	-0.30908185
25	0x3e776911	0.24161173
26	0xbe8cf904	-0.27533734
27	0xbdf799c2	-0.12089874
28	0xbd803678	-0.06260389
29	0xbe997069	-0.29968575

model.MLP2RNN.2.weight f4 [30, 30]
0	0xbe2a90df	-0.16656826
1	0x3dbddd15	0.09270684
2	0x3e0f41bc	0.1398992
3	0x3d369394	0.044574335
4	0x3de6a8b5	0.11262647
5	0xbcdea4aa	-0.027178127
6	0xbdacb713	-0.08433356
7	0xbe16cfa0	-0.1472764
8	0xbdaf89ee	-0.0857123
9	0xbe34d138	-0.17657936
10	0xbd4f7b80	-0.05065489
11	0x3b806500	0.00391829
12	0x3d327dd2	0.043577023
13	0xbd9c6c65	-0.07637862
14	0x3d96fcc0	0.07372427
15	0xbdf5e51d	-0.120065905
16	0x3e00e03b	0.12585537
17	0xbb081721	-0.002076574
18	0xbdbae969	-0.09126551
19	0x3c5319fc	0.012884613
20	0xbe276eb1	-0.16350819
21	0xbe017c4c	-0.12645072
22	0xbdb1cfb0	-0.08682191
23	0xbe0a4a5a	-0.13504925
24	0x3d263b2c	0.040583774
25	0xbe1a48ae	-0.15066788
26	0x3cb14818	0.021640822
27	0x3e22f9c8	0.15915596
28	0x3c05f690	0.008176461
29	0x3e1347a6	0.143828
30	0xbd82f910	-0.06395161
31	0xbe199bd6	-0.15000853
32	0x3e0c7070	0.13714767
33	0xbcfeb508	-0.031092182
34	0xbe2ca297	-0.16858898
35	0x3dbaebf8	0.09127039
36	0x3dfa3030	0.12216222
37	0x3ca4eb38	0.020131692
38	0x3d37e0c8	0.044892102
39	0x3e165b6a	0.14683309
40	0xbe31469d	-0.17312093
41	0xbd8e26ff	-0.06941032
42	0xbb8eede0	-0.004361853
43	0x3dad6f60	0.08468509
44	0xbe21afd2	-0.15789726
45	0x3e399892	0.18124607
46	0xbe032a10	-0.12809014
47	0xbe3545e7	-0.17702447
48	0xbd383040	-0.04496789
49	0xbdf56b6b	-0.11983379
50	0xbd681800	-0.056663513
51	0xbcff77d8	-0.031185076
52	0xba307700	-0.00067315996
53	0x3e37ef12	0.17962292
54	0xbd3cda14	-0.046106413
55	0x3d29db70	0.041469038
56	0x3e273efe	0.16332623
57	0xbe05dde8	-0.13072932
58	0x3e2fece2	0.17180207
59	0xbd895b69	-0.06706888
60	0xbd469958	-0.048486084
61	0x3e1ba352	0.1519902
62	0xbd001504	-0.031270042
63	0xbdac2cac	-0.08406958
64	0xbc3a8430	-0.011384055
65	0x3a609200	0.00085666776
66	0x3d05d710	0.032675803
67	0x3e0b86d8	0.13625658
68	0xbd79ea0e	-0.061014228
69	0xbd8b5ddf	-0.06805014
70	0x3c9e7658	0.01934354
71	0x3e15a086	0.14612016
72	0x3e37c50e	0.17946264
73	0xbdee4f0a	-0.11636169
74	0x3d5186c4	0.051153913
75	0x3e16d706	0.14730462
76	0x3e0e62c4	0.13904864
77	0xbd9637fa	-0.073348954
78	0x3e328960	0.17435217
79	0xbc72c660	-0.014817804
80	0x3dce4154	0.10071054
81	0xbd957e4c	-0.0729948
82	0x3e1fb390	0.15595841
83	0xbd46d814	-0.048545912
84	0xbdd0b23a	-0.10190244
85	0xbe0a72ca	-0.13520351
86	0x3e25ec26	0.16203365
87	0x3e28ce7e	0.1648502
88	0xbc5ea6c0	-0.013589561
89	0xbdddef77	-0.1083669
90	0xbe1c4260	-0.15259695
91	0x3dc4f23b	0.09616514
92	0x3e32bb2a	0.1745421
93	0xbe367c89	-0.17820944
94	0x3d022319	0.031771753
95	0x3e209320	0.15681124
96	0x3d8f6cf0	0.070032
97	0xbde628e9	-0.11238272
98	0xbd8e4b52	-0.0694796
99	0xbdd70508	-0.104990065
100	0xbaf23acc	-0.0018480658
101	0x3dacdb70	0.08440292
102	0xbddf73dc	-0.1091077
103	0xbc454da0	-0.012042433
104	0xbe355bd7	-0.17710815
105	0xbd437ac4	-0.0477245
106	0x3dfc61c2	0.12323333
107	0xbe11c934	-0.14236909
108	0x3cadbc44	0.021207936
109	0x3e1cfd07	0.15330897
110	0xbde207aa	-0.11036618
111	0x3e2469cf	0.16055988
112	0x3dd0729a	0.101781085
113	0xbdda877b	-0.10670372
114	0x3ce7c5b0	0.028292507
115	0x3e2c88d4	0.16849071
116	0x3c150c10	0.009097114
117	0xbd4bbfcc	-0.04974346
118	0xbdd560e8	-0.10418874
119	0xbd116184	-0.03549339
120	0x3db19e94	0.086728245
121	0x3e07145a	0.13191357
122	0xbd912100	-0.070863724
123	0xbc966628	-0.018359259
124	0xbde771c6	-0.113009974
125	0xbe39bd6a	-0.18138662
126	0xbdfb0a92	-0.122578755
127	0xbd6e427a	-0.058168866
128	0xbd83e164	-0.06439474
129	0x3d9d15f4	0.07670203
130	0x3e0e166a	0.13875738
131	0x3e2e9b3e	0.17051408
132	0xbe07eb14	-0.13273269
133	0x3db87354	0.09006372
134	0x3e359aba	0.17734805
135	0xbd661418	-0.056171507
136	0xbe38c67c	-0.18044466
137	0xbd29fd44	-0.0415013
138	0xbe0b446d	-0.13600321
139	0xbe244218	-0.16040838
140	0xbe1122fd	-0.14173503
141	0x3e0f829c	0.14014667
142	0x3c842b18	0.01613383
143	0x3da95fc8	0.08270222
144	0x3d8450e6	0.06460743
145	0x3dce7778	0.100813806
146	0xbb3c51c0	-0.002873525
147	0x3e02b158	0.12762964
148	0x3dd150cc	0.10220489
149	0x3dcc61b8	0.09979576
150	0xbe348f6c	-0.17632836
151	0xbd908081	-0.0705576
152	0xbcddd540	-0.027079225
153	0x3e034348	0.12818635
154	0x3dadd5a4	0.08488014
155	0x3d044199	0.03228912
156	0xbd8db01e	-0.06918357
157	0xbd8d9d7b	-0.06914803
158	0x3d727c7c	0.05920075
159	0x3e1104d4	0.14161998
160	0xbdffdfbc	-0.12493846
161	0xbe31264e	-0.17299768
162	0x3e3794e0	0.17927885
163	0x3dda67f4	0.10664359
164	0xbda4819c	-0.080325335
165	0x3d35a5d4	0.0443476
166	0x3e2ab3c3	0.16670136
167	0x3e14caf1	0.14530541
168	0x3dbfb78b	0.0936118
169	0xbdd98033	-0.10620155
170	0x3deaf700	0.11472893
171	0x3e2664f7	0.16249453
172	0x3d08ade6	0.033368967
173	0x3e087d20	0.13328981
174	0x3e2e6dfa	0.1703414
175	0x3da8b922	0.08238436
176	0x3dfba5c0	0.12287474
177	0xbca38050	-0.019958645
178	0xbc2b8cc0	-0.010470569
179	0x3daadc1c	0.08342764
180	0xbe0e403b	-0.1389169
181	0xbdb748eb	-0.08949455
182	0x3e39e13c	0.18152326
183	0x3d809172	0.062777415
184	0xbd0b673a	-0.03403399
185	0xbe2af3bd	-0.16694541
186	0xbdcd9bce	-0.10039483
187	0xbdc17c63	-0.09447553
188	0x3d84d5b4	0.06486073
189	0x3e31f81e	0.17379805
190	0x3dae8d46	0.085230395
191	0xbd037f6c	-0.03210394
192	0x3be617e8	0.007021893
193	0x3bed5500	0.007242799
194	0xbe1c5e2c	-0.15270299
195	0xbcbf4dd8	-0.023352548
196	0x3dc7a236	0.09747736
197	0x3e179053	0.14801149
198	0xbd673f3d	-0.056456793
199	0x3d61cbe9	0.055126105
200	0xbe1bc36e	-0.1521127
201	0x3d3d4ae4	0.046214
202	0x3de2c070	0.11071861
203	0xbdbab511	-0.09116567
204	0xbcd0cba8	-0.025487736
205	0xbe235073	-0.15948658
206	0xbb54c600	-0.003246665
207	0x3cdd38a0	0.02700454
208	0xbd9051cb	-0.07046851
209	0x3e1cef12	0.15325573
210	0x3dcc5fe4	0.09979227
211	0xbe06ed44	-0.13176447
212	0x3e32fd04	0.1747933
213	0xbd96fcb6	-0.073724195
214	0x3e3a7a98	0.18210828
215	0x3d38ff94	0.045165613
216	0x3c5ee8f0	0.013605341
217	0x3cdb6a00	0.026783943
218	0x3dc40e5c	0.09573051
219	0x3d75de80	0.060026646
220	0xbdf4e5d4	-0.11957899
221	0x3d2fdcc8	0.042935163
222	0xbe1c6d14	-0.15275985
223	0x3d58f664	0.05296935
224	0x3e070148	0.13184083
225	0x3e0a893c	0.13528913
226	0xbd959880	-0.07304478
227	0x3d936428	0.07196838
228	0xbdf1d503	-0.11808207
229	0xbe146fc8	-0.14495766
230	0xbe3018fa	-0.17197028
231	0x3db58c24	0.0886462
232	0x3b51f0c0	0.0032034367
233	0xbe0832b3	-0.1330059
234	0xbd6addc4	-0.0573404
235	0xbe026e54	-0.127374
236	0xbe2b8455	-0.167497
237	0x3d955c50	0.07292998
238	0x3e18a63e	0.14907166
239	0x3dac5564	0.084147245
240	0xbd900fc2	-0.070342556
241	0xbe0df784	-0.13863951
242	0xbe0fa3e1	-0.14027359
243	0xbe1dd0d3	-0.15411691
244	0x3d0712fc	0.03297709
245	0xbd1bb140	-0.038010836
246	0x3c269b10	0.010168806
247	0xbe015488	-0.12629902
248	0x3df3fc4c	0.11913356
249	0x3e1f431a	0.15552941
250	0xbd53d618	-0.051717848
251	0x3e0d7d80	0.13817406
252	0x3e329f6a	0.17443624
253	0x3daa3d14	0.08312431
254	0x3c8d45d0	0.017245203
255	0x3e36c584	0.17848784

model.MLP2RNN.2.bias f4 [30]
0	0x3e2740e3	0.16333346
1	0x3d93afc4	0.07211259
2	0xbdfcb1ea	-0.12338622
3	0xbdf73d39	-0.12072224
4	0xbe2de9de	-0.16983745
5	0x3e1acb5e	0.15116641
6	0x3da28eca	0.07937391
7	0xbe2033f8	-0.15644825
8	0xbe362624	-0.17787987
9	0x3e018739	0.1264924
10	0x3e37a818	0.17935216
11	0x3918d029	0.00014573395
12	0xbe0108c2	-0.12600997
13	0xbe252f75	-0.16131385
14	0x3cb4a4c7	0.022051228
15	0xbd984b5f	-0.07436251
16	0xbe0bd942	-0.13657096
17	0x3d9d102c	0.076691
18	0x3e08a626	0.1334463
19	0x3d549b7d	0.051906098
20	0xbe2c15af	-0.16805147
21	0x3d91124f	0.0708357
22	0x3e3026b6	0.17202267
23	0xbe044597	-0.12917171
24	0x3e19fee6	0.15038642
25	0x3d90617c	0.07049844
26	0xbd276ff0	-0.040878236
27	0xbd90c411	-0.07068647
28	0xbe1272cb	-0.14301603
29	0x3d0651cf	0.032792863

model.MLP2RNN.4.weight f4 [10, 30]
0	0x3df97d10	0.12182057
1	0xbda6af37	-0.08138888
2	0xbcfd3f88	-0.030914083
3	0xbc89df43	-0.016830092
4	0xbe3858f9	-0.1800269
5	0x3d72c9db	0.059274536
6	0xbe0b9992	-0.13632801
7	0xbd9c732c	-0.07639155
8	0x3d48ed54	0.04905446
9	0x3e0fed33	0.14055328
10	0x3e14ec38	0.14543235
11	0x3e3f0dc3	0.18657593
12	0xbd85da64	-0.06535795
13	0x3e0fb050	0.14032102
14	0x3e09ce35	0.13457568
15	0x3e16f764	0.1474281
16	0xbdfc458e	-0.12317954
17	0x3dcd7186	0.100314185
18	0xbd0a5bf0	-0.033779085
19	0x3e1d0302	0.15333179
20	0x3d9bb48c	0.07602796
21	0xbda5edb7	-0.08101981
22	0xbe1e586d	-0.1546342
23	0xbc79fd40	-0.015258133
24	0x3e436a9c	0.19083637
25	0x3cb9c609	0.022677438
26	0xbdea5821	-0.114425905
27	0xbe2b0b06	-0.16703424
28	0xbd99f184	-0.075167686
29	0x3e4e34e6	0.20137367
30	0x3e14f621	0.14547016
31	0x3dc47bf8	0.09593958
32	0xbd1fc634	-0.03900738
33	0xbd41f02e	-0.047348194
34	0x3dc16f44	0.0944505
35	0x3d924979	0.0714292
36	0x3e46d8ce	0.19418642
37	0xbd12e178	-0.035859555
38	0xbe11c9df	-0.14237164
39	0x3c260a45	0.010134284
40	0x3da659df	0.0812261
41	0x3ddea247	0.10870796
42	0x3d62eeb8	0.05540344
43	0x3d939614	0.072063595
44	0x3e269a90	0.16269898
45	0xbd3203dc	-0.04346071
46	0xbe313f98	-0.17309415
47	0x3e1202bc	0.14258856
48	0x3e2f1239	0.17096795
49	0xbe0bc724	-0.13650185
50	0x3e1e4330	0.15455317
51	0xbde24a6f	-0.11049353
52	0xbe03fae1	-0.12888671
53	0xbe32ee4a	-0.17473713
54	0x3d310a9c	0.04322301
55	0xbe0f4760	-0.13992071
56	0xbc4f3750	-0.012647465
57	0x3d9ae34c	0.07562885
58	0xbd3ae8ec	-0.045632288
59	0x3e011043	0.1260386
60	0xbdcd33e4	-0.10019663
61	0xbdee621e	-0.11639808
62	0xbdaf738b	-0.0856696
63	0xbe4294c7	-0.19002067
64	0xbe014e13	-0.12627439
65	0xbdb81eaa	-0.08990224
66	0xbdf34ac3	-0.11879494
67	0xbdce22fe	-0.10065268
68	0x3de2d260	0.11075282
69	0x3d6841f8	0.056703538
70	0x3d94b3e9	0.07260878
71	0x3a727623	0.0009249171
72	0x3e15b2cc	0.14618987
73	0x3d9b6080	0.07586765
74	0x3dfbbf95	0.12292401
75	0xbdba5dfd	-0.09099958
76	0x3d0346dc	0.03205
77	0xbdc1842a	-0.094490364
78	0x3d91bed0	0.07116473
79	0x3e0f0ebf	0.13970469
80	0x3d657ad8	0.056025356
81	0x3e133bb0	0.14378238
82	0x3e1cf685	0.15328415
83	0xbdfeed73	-0.124476336
84	0xbdc508fc	-0.09620854
85	0xbd34360c	-0.043996856
86	0x3d1bb3cc	0.038013265
87	0xbe3501b3	-0.1767643
88	0xbdf8c191	-0.12146295
89	0x3d2e41f9	0.042543385
90	0xbdd53493	-0.10410418
91	0x3cd1bc00	0.02560234
92	0x3e1d69e4	0.15372425
93	0xbd53f00a	-0.05174259
94	0xbde35ce7	-0.11101704
95	0xbcac505b	-0.02103441
96	0xbda4fc84	-0.08055976
97	0xbcf25178	-0.029579863
98	0x3d3a832c	0.04553525
99	0x3ded9252	0.11600174
100	0xbdab77d6	-0.08372466
101	0xbd6a6684	-0.057226673
102	0x3e287eae	0.16454574
103	0xbd871699	-0.06596107
104	0x3d1d93d8	0.038471073
105	0xbdeb3182	-0.11484052
106	0xbe007e90	-0.1254828
107	0xbdffe84c	-0.12495479
108	0x3ca78d39	0.020453082
109	0x3d406b2e	0.046977215
110	0x3de61b60	0.1123569
111	0x3ca48114	0.02008108
112	0xbdb653fb	-0.08902737
113	0x3d995ec8	0.07488781
114	0xbda56b1c	-0.0807707
115	0x3e311687	0.1729375
116	0x3d687644	0.056753412
117	0xbe39cc27	-0.18144284
118	0xbd2e2974	-0.04252
119	0x3d92f21a	0.071750835
120	0x3d952f15	0.07284371
121	0x3daeb964	0.08531454
122	0xbe2dffbb	-0.16992085
123	0xbdc672a9	-0.096898384
124	0xbe3038b2	-0.17209128
125	0x3e1f1195	0.15534051
126	0xbe0f3460	-0.13984823
127	0xbe3401d2	-0.1757882
128	0xbe156e66	-0.14592895
129	0x3df72641	0.12067843
130	0xbe3b020e	-0.18262503
131	0x3df53d65	0.11974601
132	0xbe3a30c2	-0.18182662
133	0x3e10b7ce	0.14132616
134	0xbdd8cdac	-0.10586104
135	0x3dfea314	0.124334484
136	0x3e0f66ae	0.14004013
137	0xbda6dc3b	-0.081474744
138	0xbda93273	-0.082615755
139	0x3e2dcee2	0.16973451
140	0xbe01e168	-0.12683642
141	0x3d517b3e	0.051142924
142	0x3d23d17b	0.039994698
143	0x3e344ed6	0.17608199
144	0xbdd5f25c	-0.10446617
145	0x3e24a398	0.16078031
146	0xbb511900	-0.003190577
147	0xbdec5516	-0.11539666
148	0x3d3cb540	0.04607129
149	0xbdf6c21a	-0.12048741
150	0xbbb03dbf	-0.0053784545
151	0x3dacbc34	0.084343344
152	0x3e2ed6a0	0.1707406
153	0x3e3c5b99	0.18394317
154	0x3e2ae44a	0.16688648
155	0x3d5c8c18	0.05384454
156	0x3e01630f	0.12635444
157	0xbd9d6261	-0.0768478
158	0xbe107402	-0.14106753
159	0x3d4c408e	0.04986625
160	0x3c483186	0.012218839
161	0xbe0e0711	-0.13869883
162	0xbbeb9580	-0.0071894526
163	0xbd824efc	-0.06362721
164	0x3c02ca42	0.007982792
165	0xbe361414	-0.17781097
166	0xbd9fe7e2	-0.078079
167	0x3e1d8c1b	0.15385477
168	0xbc5b0aa3	-0.013369235
169	0xbe304000	-0.17211914
170	0x3e034c26	0.12822017
171	0x3e35a63e	0.17739198
172	0xbd7c0c17	-0.061534967
173	0x3e1d3976	0.15353951
174	0xbdbcf8cd	-0.092271425
175	0xbe19055d	-0.14943452
176	0x3e0fbd2e	0.1403701
177	0xbdb80b06	-0.089864776
178	0xbd95cba7	-0.07314234
179	0x3e1f13ac	0.15534848
180	0x3e08b3cd	0.13349839
181	0x3deb9f3c	0.11504981
182	0x3dd023f8	0.101631105
183	0xbd2ed805	-0.04268648
184	0xbddc7eb6	-0.10766356
185	0xbd625615	-0.055257875
186	0xbd8e2d90	-0.06942284
187	0xbe3acee0	-0.18242979
188	0x3dcf2a04	0.10115436
189	0x3de85454	0.11344209
190	0x3de16ddf	0.110072844
191	0xbcfa2ebd	-0.030539865
192	0xbdb8007b	-0.08984467
193	0xbdf1e37e	-0.11810969
194	0x3dc8f25a	0.0981185
195	0x3e194c4c	0.14970511
196	0xbe1429c5	-0.14469059
197	0x3def3be4	0.11681345
198	0x3d3031be	0.043016188
199	0x3e05cfb9	0.13067521
200	0x3df5fbf4	0.12010947
201	0xbc9d0113	-0.019165551
202	0x3e2fe82d	0.17178412
203	0x3de83d0c	0.11339769
204	0x3bc7f724	0.0061024595
205	0xbdd98dc1	-0.106227405
206	0x3dcd2104	0.10016063
207	0xbe15ad61	-0.1461692
208	0x3cf1fac8	0.029538527
209	0x3dbda031	0.0925907
210	0x3dc24f55	0.09487788
211	0xbe237180	-0.15961266
212	0xbe35ca79	-0.17753018
213	0xbe1c4e0e	-0.1526415
214	0x3e2fa39e	0.17152259
215	0xbdd11e86	-0.102109
216	0xba7df19b	-0.0009687186
217	0x3d16a508	0.03677848
218	0xbe2553f7	-0.16145311
219	0xbe08845d	-0.13331743
220	0x3d29ec53	0.041485142
221	0x3e42e931	0.19034268
222	0xbd3b5a9c	-0.04574071
223	0x3cce7978	0.025204405
224	0xbe17bd5a	-0.14818326
225	0x3e227134	0.15863496
226	0xbe28b897	-0.16476665
227	0x3dd9617d	0.106142975
228	0xbda67084	-0.081269294
229	0x3d0b4c3a	0.034008242
230	0xbe13e5cc	-0.1444313
231	0xbd613f3b	-0.054991942
232	0x3da23f4a	0.07922228
233	0x3d56bde4	0.052427188
234	0xbb1f0702	-0.0024265652
235	0xbe26aaa5	-0.16276033
236	0x3d76b8d0	0.060234845
237	0x3da69dff	0.08135604
238	0x3dba3a74	0.0909318
239	0x3d1f9ff5	0.038970906
240	0x3dcf26c6	0.10114817
241	0x3e2419e4	0.16025501
242	0x3e07c64c	0.13259238
243	0x3e3557ba	0.17709246
244	0xbd90cdba	-0.07070489
245	0xbd2cdd52	-0.042203255
246	0x3ba6777f	0.005080163
247	0x3dd92610	0.10602963
248	0xbdb55388	-0.08853823
249	0x3e32c37d	0.17457385
250	0x3d03755e	0.032094352
251	0x3b88d75c	0.0041760635
252	0x3d5627d0	0.052284062
253	0x3e38c594	0.1804412
254	0x3dec5ddc	0.1154134
255	0x3e06c4e2	0.13161042

model.MLP2RNN.4.bias f4 [10]
0	0xbdbbd0bb	-0.091706716
1	0x3cbb130c	0.02283623
2	0x3df2f42f	0.118629806
3	0xbd61016a	-0.05493299
4	0x3e0b6c90	0.13615632
5	0x3d6e3d0a	0.05816368
6	0xbe22afcc	-0.15887374
7	0xbb42df56	-0.002973517
8	0x3db4d90f	0.08830463
9	0xbdd8fd37	-0.10595172

model.MLP.0.weight f4 [15, 5]
0	0xbd614bd8	-0.05500397
1	0x3e55fcf4	0.20897275
2	0xbed8f49f	-0.4237413
3	0x3e516884	0.20450026
4	0x3ecd29ac	0.40070856
5	0xbe8d2800	-0.2756958
6	0x3d343196	0.0439926
7	0xbe4a609d	-0.19763418
8	0xbe751f19	-0.23937644
9	0x3e4c8dca	0.19975963
10	0x3e939c29	0.28830078
11	0x3dc93741	0.09824992
12	0x3e7f3479	0.2492236
13	0x3d8b0f72	0.06790055
14	0x3ecc203e	0.3986835
15	0xbea7450d	-0.3266987
16	0xbd827c56	-0.063713714
17	0x3ec2a630	0.38017416
18	0x3ea0b5e9	0.31388786
19	0xbe106394	-0.14100486
20	0x3d648d12	0.055798598
21	0x3eb9407a	0.36182004
22	0x3d94e575	0.07270328
23	0x3ebff66d	0.37492695
24	0x3e42dfb7	0.19030653
25	0x3ecad874	0.39618266
26	0xbe30e4dc	-0.17274803
27	0x3e2f26b4	0.17104608
28	0xbe02247a	-0.12709227
29	0x3d186640	0.03720689
30	0x3da7ea66	0.08199005
31	0xbe62c3b2	-0.22144964
32	0xbddeae79	-0.10873122
33	0x3e7d4ddf	0.24736737
34	0x3e7092c2	0.23493484
35	0x3e056f6f	0.1303079
36	0xbe8218c8	-0.25409532
37	0xbd9e6612	-0.07734312
38	0x3e7174d7	0.23579727
39	0x3dba52bb	0.09097811
40	0x3eceb0f7	0.40369388
41	0xbd9ca50d	-0.076486684
42	0x3e8931a3	0.26795682
43	0x3d01af98	0.0316616
44	0xbec4e6a0	-0.38457203
45	0xbecca269	-0.3996766
46	0x3e245c76	0.16050896
47	0x3e5c4602	0.21511081
48	0x3d73ffef	0.05957025
49	0x3ea3722d	0.31923047
50	0xbece3057	-0.40271255
51	0xbee5b759	-0.44866446
52	0x3e4787df	0.19485424
53	0x3e991d7f	0.29905316
54	0xbdad0c2c	-0.08449587
55	0x3cea54d0	0.028604895
56	0x3c86e120	0.01646477
57	0x3ed4c1e8	0.4155419
58	0xbe2e4f92	-0.17022541
59	0xbe804e6f	-0.2505984
60	0x3e00f200	0.12592316
61	0xbe5d7ca2	-0.21629575
62	0x3e2c1cc4	0.16807848
63	0xbd8981f8	-0.06714243
64	0x3d19bbe8	0.037532717
65	0x3ebde1c0	0.37086296
66	0xbebbf9cd	-0.3671402
67	0xbe120966	-0.14261398
68	0x3eb0160f	0.3439183
69	0x3e80953c	0.25113857
70	0x3d0870d4	0.033310726
71	0x3e2422ce	0.16028902
72	0xbd173d11	-0.03692347
73	0x3eb7cdff	0.3589935
74	0x3e823c06	0.2543642

model.MLP.0.bias f4 [15]
0	0xbea784e6	-0.3271858
1	0x3ec97a9f	0.39351365
2	0x3e6bf188	0.23041356
3	0xbd5fb544	-0.054616228
4	0x3e9d070f	0.30669448
5	0xbdc529bc	-0.09627101
6	0x3e806012	0.25073296
7	0xbe6a8f73	-0.22906284
8	0xbe2223b5	-0.15833934
9	0x3dbd7d7f	0.09252452
10	0x3e47b1f2	0.19501474
11	0xbe243462	-0.16035607
12	0xbed7cdac	-0.42149103
13	0xbe926849	-0.28595188
14	0xbcd290ee	-0.025703873

model.MLP.2.weight f4 [15, 15]
0	0x3e376310	0.17908883
1	0xbdb91b67	-0.0903843
2	0xbcd1cf28	-0.025611475
3	0xbe332b45	-0.17496975
4	0x3de575fe	0.11204146
5	0x3e8076ad	0.25090542
6	0xbe0aadfd	-0.13542934
7	0x3cd55300	0.026040554
8	0xbe21f53b	-0.15816204
9	0xbceb90d2	-0.02875558
10	0xbd906d40	-0.07052088
11	0x3bf45d00	0.0074573755
12	0x3cde3900	0.02712679
13	0x3e59f312	0.2128413
14	0x3cf93aa3	0.030423468
15	0xbcfec3a0	-0.03109914
16	0xbe1441e6	-0.14478263
17	0xbe678ee4	-0.22613102
18	0xbe76b9c6	-0.24094304
19	0x3e491a38	0.19638908
20	0x3dce9d5c	0.10088608
21	0x3e841d71	0.25803712
22	0x3e0e869e	0.1391854
23	0x3c33f5c0	0.010983884
24	0xbd1ad404	-0.03779985
25	0x3dda7f34	0.10668793
26	0xbe23e0e6	-0.1600376
27	0xbd0490c4	-0.03236462
28	0x3ca15900	0.019695759
29	0xbe1cfe43	-0.15331368
30	0x3d97b700	0.07407951
31	0xbd071230	-0.03297633
32	0x3d5bd9e0	0.05367458
33	0x3e80c45d	0.25149813
34	0xbdfd9748	-0.1238237
35	0x3d9de724	0.07710102
36	0x3e82ea99	0.2556961
37	0xbe4371e2	-0.19086412
38	0xbe12951a	-0.1431469
39	0x3d360bc8	0.04444483
40	0xbd42b71c	-0.047537908
41	0xbe184cdb	-0.14873068
42	0xbe12f5cc	-0.14351577
43	0xbe0bf508	-0.13667691
44	0xbe1e4e8d	-0.15459652
45	0xbe451c34	-0.1924904
46	0xbe5c8c16	-0.21537814
47	0xbe5513fc	-0.20808405
48	0x3e58ce46	0.21172437
49	0x3d8fbc41	0.070183285
50	0xbdf44e52	-0.11929001
51	0x3e5e50f0	0.21710563
52	0xbd0a0300	-0.033694267
53	0x3e6b30ea	0.22967878
54	0xbdc731c6	-0.097262904
55	0x3c8622cb	0.016374012
56	0x3b51d380	0.0032016933
57	0xbd2a26f4	-0.041541055
58	0x3d12a434	0.035801128
59	0x3e186942	0.14883903
60	0x3dcab308	0.09897429
61	0x3e664adc	0.22489494
62	0xbe5d69a7	-0.21622334
63	0x3d66f2e8	0.056383997
64	0x3de1558c	0.11002645
65	0x3de2e200	0.11078262
66	0x3d87f0d4	0.06637731
67	0x3e0053b6	0.12531933
68	0xbe00d9f3	-0.12583141
69	0xbd8df412	-0.06931318
70	0xbd333ff4	-0.043762162
71	0xbdb1eb8e	-0.086875066
72	0x3d72edf0	0.059308946
73	0xbda37dd0	-0.07982981
74	0xbd2c3bd8	-0.04204926
75	0xbe3b8e1e	-0.18315932
76	0x3d0404ac	0.032231018
77	0x3d0c43a2	0.034244187
78	0x3e47edae	0.19524261
79	0xbe293555	-0.16524251
80	0xbe32ee27	-0.1747366
81	0x3c9299fa	0.017895687
82	0xbe453e66	-0.19262084
83	0x3e2bf810	0.16793847
84	0x3e2dd7f1	0.16976906
85	0xbe11cea2	-0.1423898
86	0x3e6979d6	0.22800383
87	0x3da5f91c	0.081041545
88	0x3e1db7f3	0.15402202
89	0x3d960b0c	0.07326326
90	0xbe03bd8b	-0.12865274
91	0xbe214ffa	-0.15753165
92	0xbe304e54	-0.1721738
93	0xbd52e3ac	-0.051486656
94	0xbd28ce54	-0.041212395
95	0x3e821c0f	0.25412032
96	0xbe330244	-0.17481333
97	0xbdd869d6	-0.105670616
98	0xbdb9b8e0	-0.09068465
99	0x3dbeec5c	0.09322426
100	0x3db8ddc8	0.090266764
101	0xbdf7959a	-0.12089081
102	0x3e419f58	0.18908441
103	0xbd7c8e4c	-0.061659142
104	0x3d88ca14	0.06679168
105	0x3d30b718	0.04314336
106	0x3e0bcc75	0.13652213
107	0xbd9ba69b	-0.07600137
108	0x3e2154d5	0.15755017
109	0x3e0fb0e5	0.14032324
110	0xbe4d3949	-0.20041384
111	0xbba0e760	-0.0049103945
112	0x3e77ee5c	0.2421202
113	0xbe66687f	-0.225008
114	0xbe83e7aa	-0.25762683
115	0xbe32b5bb	-0.17452137
116	0x3ded15f0	0.1157645
117	0xbe1563f8	-0.14588916
118	0xbe390097	-0.18066631
119	0x3e4c90e1	0.19977142
120	0xbd0f8c18	-0.035045713
121	0x3da059b5	0.0782961
122	0xbc8f115b	-0.01746433
123	0x3e830939	0.25592974
124	0x3e10cf46	0.14141569
125	0xbe516cb3	-0.20451622
126	0x3ac5f593	0.0015103094
127	0x3cdf8cb3	0.02728877
128	0xbd5643f0	-0.052310884
129	0x3e39d40f	0.181473
130	0x3e6c74f1	0.23091485
131	0x3e10f68e	0.14156553
132	0x3e83bb11	0.25728658
133	0xbe09b256	-0.13446936
134	0x3cdb045a	0.026735473
135	0x3e2b47ec	0.16726655
136	0x3df855f8	0.12125772
137	0x3e7ddffe	0.24792477
138	0xbdfd5401	-0.12369538
139	0xbcbe38b1	-0.023220392
140	0x3d988fd4	0.07449308
141	0xbdc66aa3	-0.09688308
142	0x3e1b3496	0.15156779
143	0x3e1b3fdc	0.15161079
144	0xbd24d8b0	-0.04024571
145	0x3e617746	0.22018155
146	0x3d984f84	0.074370414
147	0xbe14809c	-0.14502186
148	0x3e58435b	0.21119444
149	0x3e531780	0.20614433
150	0x3de37104	0.111055404
151	0xbe6bb278	-0.23017299
152	0x3c63b83b	0.013898904
153	0xbe660ec9	-0.22466578
154	0x3e125b1c	0.14292568
155	0x3e071fc0	0.13195705
156	0x3e3f2ce5	0.1866947
157	0x3d034ba0	0.032054543
158	0xbd896ece	-0.067105874
159	0xbe03b447	-0.12861739
160	0x3e775fcf	0.24157642
161	0x3e7daa4a	0.24771991
162	0x3d22e640	0.039770365
163	0xbe7cf864	-0.24704129
164	0xbe086a6b	-0.13321845
165	0xbe6698e8	-0.22519267
166	0x3c554780	0.013017535
167	0x3d00d0e8	0.03144923
168	0xbe3b2ffa	-0.1828002
169	0x3e3f6ea4	0.1869455
170	0xbcc77188	-0.024346128
171	0xbe2635de	-0.16231486
172	0x3e36ab2c	0.17838734
173	0xbde97e48	-0.11401039
174	0x3e5ade8c	0.21373957
175	0xbdced9b4	-0.10100117
176	0x3e44be96	0.19213328
177	0x3c794b20	0.015215665
178	0x3dc1c390	0.09461129
179	0x3c287f00	0.010284185
180	0xbe0a8409	-0.1352693
181	0x3e08bc18	0.13353002
182	0xbdd577f8	-0.10423273
183	0xbe34f6d8	-0.17672288
184	0xbd6b6890	-0.057472765
185	0xbdfa5730	-0.12223661
186	0xbd329778	-0.043601483
187	0xbe409040	-0.18805027
188	0xbe81b879	-0.25336054
189	0xbd17cbac	-0.03705947
190	0x3e7edc3e	0.24888703
191	0x3d5048c0	0.05085063
192	0xbd08b728	-0.033377796
193	0x3e4abd92	0.19798878
194	0xbdd20f90	-0.102568746
195	0x3bb10c80	0.0054031014
196	0xbce07920	-0.027401507
197	0xbe836c92	-0.2566877
198	0xbe79f26a	-0.2440888
199	0x3e2243a8	0.15846121
200	0x3d5a01d8	0.053224415
201	0x3e57465a	0.2102293
202	0x3e7152ba	0.23566714
203	0x3e1604c8	0.14650261
204	0xbe6ab87d	-0.22921939
205	0xbdfd596a	-0.1237057
206	0x3e31c512	0.17360333
207	0x3e4478be	0.19186684
208	0x3d77c758	0.060492843
209	0xbe778b1c	-0.2417416
210	0x3e4b8484	0.1987477
211	0xbdd1bed3	-0.10241475
212	0xbd2ebbb5	-0.04265948
213	0xbe8304c2	-0.25589567
214	0x3e043c66	0.12913665
215	0x3e07b63e	0.13253114
216	0xbe0ce922	-0.13760808
217	0x3d720b1d	0.05909263
218	0xbe4d6c08	-0.20060742
219	0xbe5968ee	-0.21231434
220	0x3e369e66	0.17833862
221	0xbe2310fe	-0.15924451
222	0xbc680050	-0.014160231
223	0x3da377bd	0.07981823
224	0xbd4d22a6	-0.05008187

model.MLP.2.bias f4 [15]
0	0x3e69e9e1	0.22843124
1	0xbe829f9d	-0.255124
2	0xbe1b1630	-0.15145183
3	0x3e631109	0.22174467
4	0xbe54ad4d	-0.20769234
5	0x3dccea1a	0.10005589
6	0x3ce55460	0.027994335
7	0x3c2913ea	0.010319689
8	0xbe5e3593	-0.21700124
9	0x3e7a9857	0.24472176
10	0x3ddefc04	0.10887912
11	0xbe73e178	-0.23816478
12	0xbe51ea04	-0.20499426
13	0xbd166110	-0.03671366
14	0x3e5f5995	0.21811517

model.MLP.4.weight f4 [11, 15]
0	0xbc8c0d15	-0.017096082
1	0x3e806d45	0.25083366
2	0x3e7a576a	0.24447408
3	0x3e3403e2	0.17579606
4	0xbde03352	-0.109472886
5	0xbe4fc1e3	-0.20288806
6	0x3e75a9e8	0.23990595
7	0xbdc32eef	-0.09530436
8	0xbe1538ed	-0.14572497
9	0xbe35e46b	-0.17762916
10	0x3e606907	0.21915065
11	0xbd4da914	-0.050210074
12	0x3e447baa	0.19187799
13	0xba818300	-0.000988096
14	0xbe208d07	-0.15678798
15	0x3e56cdae	0.20976898
16	0xbe763c9f	-0.24046563
17	0xbe3e5f21	-0.18590976
18	0x3e51453c	0.20436567
19	0x3e333818	0.17501867
20	0xbe182a5c	-0.14859909
21	0xbcb11e60	-0.02162093
22	0xbe0bfa5a	-0.1366972
23	0xbe16be60	-0.1472106
24	0x3e278e8c	0.16362971
25	0xbe33807a	-0.17529479
26	0xbe615f8b	-0.22009103
27	0x3e52427a	0.20533171
28	0xbe5e7f8a	-0.2172834
29	0x3d521cb0	0.05129689
30	0x3e1f0d9c	0.15532535
31	0x3d3bc3e0	0.045841098
32	0xbe135d1a	-0.14390984
33	0xbda444b6	-0.08020918
34	0xbe29ff6e	-0.16601345
35	0x3b816b00	0.003949523
36	0x3dcea8d0	0.10090792
37	0x3dc50cb8	0.096215665
38	0xbe1a54f0	-0.15071464
39	0xbd6958ac	-0.05696933
40	0x3df2cbf0	0.11855304
41	0x3e281274	0.1641329
42	0xbe620a97	-0.22074352
43	0x3e41077c	0.18850511
44	0xbc49c470	-0.012314901
45	0x3e8223e3	0.25418004
46	0x3c9be0e0	0.019028127
47	0x3e2d9b44	0.1695376
48	0x3e5957d4	0.2122491
49	0xbcd17d40	-0.02557242
50	0xbe7a776b	-0.24459617
51	0x3e4f69ea	0.20255247
52	0xbd975a3a	-0.07390256
53	0xbca4ddc8	-0.020125285
54	0x3def54dc	0.116861075
55	0xbd403dbc	-0.046933874
56	0xbd8f2a28	-0.069904625
57	0xbe1354f8	-0.14387882
58	0xbe2f3bfa	-0.17112723
59	0xbe50f670	-0.20406508
60	0xbd428af4	-0.047495797
61	0xbe6bea64	-0.23038632
62	0xbe15d73a	-0.14632884
63	0xbe4d9b92	-0.20078877
64	0x3d5dd5a8	0.054158837
65	0xbdd36a96	-0.10323064
66	0x3e184722	0.14870885
67	0xbe62abc3	-0.22135834
68	0xbc8d1e68	-0.017226413
69	0xbe23c7ca	-0.15994182
70	0x3e04da04	0.12973791
71	0x3e6540d6	0.22388014
72	0x3dacb2d4	0.08432546
73	0xbd7c59f0	-0.06160921
74	0x3e0a54ea	0.13508955
75	0xbdbec6f8	-0.09315294
76	0xbdf4c476	-0.119515345
77	0x3d481628	0.048849255
78	0xbe0deb54	-0.13859302
79	0x3e133b76	0.14378151
80	0xbdee6cee	-0.116418704
81	0x3e0ab6b4	0.13546258
82	0xbd7a7924	-0.061150685
83	0xbdea88f0	-0.114519
84	0xbd82eb48	-0.063925326
85	0xbe1bdf25	-0.15221842
86	0x3df580dc	0.119874686
87	0x3e1a59c8	0.15073311
88	0xbddc3020	-0.107513666
89	0x3e083164	0.13300091
90	0xbe4fe9a7	-0.20303975
91	0xb9317000	-0.00016921759
92	0xbdc1d610	-0.09464657
93	0x3e7bbaae	0.24582931
94	0xbdca9c44	-0.098930866
95	0x3e11b462	0.14228967
96	0xbd2aa9d4	-0.041665867
97	0xbc0a9ee0	-0.00846073
98	0xbe1fbf74	-0.15600377
99	0xbe8188d8	-0.25299716
100	0x3dd062cc	0.10175094
101	0xbde970ec	-0.11398491
102	0x3cfe8d10	0.031073123
103	0x3d2b5760	0.041831374
104	0xbd8d5602	-0.0690117
105	0xbe2132dd	-0.15742059
106	0x3e06e47c	0.13173097
107	0xbe3cf6a8	-0.18453467
108	0xbdba7c2a	-0.09105714
109	0x3d88d2e0	0.06680846
110	0x3db525a4	0.0884507
111	0x3dcbcd6c	0.099512905
112	0x3db4bfa0	0.08825612
113	0xbde50d42	-0.11184169
114	0xbdf32dde	-0.11873983
115	0x3e818bc1	0.25301936
116	0x3e61b270	0.22040725
117	0x3e742be2	0.23844865
118	0xbe1892ca	-0.14899746
119	0x3de95288	0.11392695
120	0x3c81e590	0.015856534
121	0x3c91e920	0.017811358
122	0xbd44137c	-0.047870144
123	0x3d814dd4	0.06313673
124	0x3d843094	0.06454578
125	0x3cb43320	0.021997035
126	0xbe04ab52	-0.12955979
127	0x3e2fa2fa	0.17152014
128	0x3e6a9322	0.22907689
129	0xbe7967bc	-0.24355978
130	0xbd8bbae4	-0.06822756
131	0x3de26d78	0.11056036
132	0x3e09273c	0.13393873
133	0x3e298fc0	0.16558743
134	0xbe80e300	-0.25173187
135	0xbd4465b8	-0.04794857
136	0xbe261098	-0.16217268
137	0xbdc2d902	-0.09514047
138	0x3dd44ba0	0.10365987
139	0xbe2e1f96	-0.17004237
140	0x3e6e85a4	0.23293167
141	0x3da21e78	0.07915968
142	0x3c362500	0.01111722
143	0x3b0e8080	0.0021744072
144	0xbe42dc7e	-0.19029424
145	0xbde2b4d0	-0.110696435
146	0xbe47ef76	-0.19524941
147	0xbe837d47	-0.25681517
148	0x3e25b1fe	0.1618118
149	0xbe25e330	-0.16199946
150	0x3da862fc	0.08222005
151	0x3e666736	0.2250031
152	0xbe173c60	-0.14769125
153	0xbde55c96	-0.111993
154	0x3db732f4	0.089452654
155	0xbe371508	-0.17879117
156	0x3e3de1cc	0.18543166
157	0x3d2af870	0.041740835
158	0x3d798018	0.060913175
159	0x3e744fe8	0.23858607
160	0xbe1ceb16	-0.15324053
161	0x3cd60740	0.026126504
162	0x3de61fcc	0.112365335
163	0xbe301ccd	-0.17198487
164	0xbd9a91a0	-0.07547307

model.MLP.4.bias f4 [11]
0	0x3e165b5c	0.14683288
1	0xbd012c2c	-0.031536266
2	0xbd8d19ea	-0.06889708
3	0xbe2a94c6	-0.16658315
4	0x3d07ca28	0.033151776
5	0xbd9c0266	-0.07617645
6	0xbe4f6572	-0.20253542
7	0x3e219242	0.15778449
8	0xbcea1c28	-0.02857788
9	0x3e2c3300	0.1681633
10	0x3e7ad61e	0.24495742

exp_avg f4 [10]
0	0x2f3b9f05	1.7064046e-10
1	0x3326c71a	3.883097e-08
2	0xb40aaa6e	-1.2914253e-07
3	0x3434da25	1.6843167e-07
4	0x3284cc1a	1.5459637e-08
5	0x340804bc	1.266771e-07
6	0xb3cde9c3	-9.5885774e-08
7	0xb41b16d8	-1.444381e-07
8	0xb3e299b9	-1.0551907e-07
9	0xb34601c9	-4.610209e-08

exp_avg_sq f4 [10]
0	0x2b62f8e1	8.063672e-13
1	0x2aba76fb	3.3122796e-13
2	0x2d21ec7f	9.204303e-12
3	0x2d43c1fe	1.1127542e-11
4	0x2abe588e	3.3812227e-13
5	0x2d2352c1	9.283852e-12
6	0x2b4ac347	7.203582e-13
7	0x2caa4bd3	4.8401088e-12
8	0x2c49e60b	2.8691517e-12
9	0x2c0d7b0e	2.0105614e-12

exp_avg f4 [10, 1]
0	0xb18007a1	-3.7261576e-09
1	0x30b81f37	1.3396634e-09
2	0xb33696de	-4.251239e-08
3	0x3357426b	5.0118995e-08
4	0x321c1af5	9.086524e-09
5	0x3320eced	3.7468386e-08
6	0xb2e1ba0d	-2.6278054e-08
7	0xb31810b7	-3.540546e-08
8	0xb2c58804	-2.2995671e-08
9	0xb1e487a7	-6.6510952e-09

exp_avg_sq f4 [10, 1]
0	0x2840e725	1.07082625e-14
1	0x27a581ea	4.5937553e-15
2	0x2a0bf7a5	1.2431599e-13
3	0x2a270440	1.4834054e-13
4	0x279d0cb9	4.3590048e-15
5	0x2a0af197	1.234068e-13
6	0x282cb908	9.58804e-15
7	0x2993cdb6	6.5637965e-14
8	0x292dcfd6	3.8593986e-14
9	0x28f0fcb8	2.6754952e-14

exp_avg f4 [5, 11]
0	0xb3e9d74f	-1.08890724e-07
1	0x2fa39d62	2.9761354e-10
2	0xb39b3925	-7.2281445e-08
3	0xb3980491	-7.078882e-08
4	0x3388aade	6.364074e-08
5	0xb3da6895	-1.01704394e-07
6	0xb3ab512c	-7.977573e-08
7	0x3383afc6	6.132136e-08
8	0x32c89a35	2.335319e-08
9	0xb3e64169	-1.0722108e-07
10	0x321c6f5e	9.105717e-09
11	0xb3c7b953	-9.30037e-08
12	0x31a771b1	4.873265e-09
13	0xb3909da3	-6.7341965e-08
14	0xb399e890	-7.1669206e-08
15	0x3385d715	6.232418e-08
16	0xb3e113d5	-1.04809864e-07
17	0xb3998a0f	-7.1497304e-08
18	0x33822bdd	6.0615754e-08
19	0x32a5c507	1.9298126e-08
20	0xb3de364c	-1.0347557e-07
21	0x325fc46d	1.302497e-08
22	0x35313ab4	6.602306e-07
23	0xb2a7398e	-1.9467532e-08
24	0x34d813ed	4.0247633e-07
25	0x34e01754	4.1740225e-07
26	0xb4c5507b	-3.6752667e-07
27	0x35238da8	6.092837e-07
28	0x34e97d62	4.349086e-07
29	0xb4be9126	-3.5495867e-07
30	0xb403697b	-1.22387e-07
31	0x35252f60	6.153623e-07
32	0xb395d36a	-6.976809e-08
33	0x336ad227	5.4673503e-08
34	0xb050b4d3	-7.5926926e-10
35	0x331afd85	3.6086494e-08
36	0x331b6c50	3.618726e-08
37	0xb30b483f	-3.2429167e-08
38	0x336217c9	5.2641358e-08
39	0x3329477b	3.941339e-08
40	0xb3053928	-3.101846e-08
41	0xb242c82b	-1.1337799e-08
42	0x3369c76b	5.443091e-08
43	0xb1b92064	-5.387891e-09
44	0x35a16546	1.2024909e-06
45	0xb20aa56e	-8.070272e-09
46	0x350c54ca	5.227745e-07
47	0x350c01e3	5.215681e-07
48	0xb4fb1868	-4.677015e-07
49	0x354b22c8	7.5674006e-07
50	0x351a7ddf	5.7552637e-07
51	0xb4f03e63	-4.4748876e-07
52	0xb436399b	-1.6971028e-07
53	0x3553b409	7.886561e-07
54	0xb3a2db85	-7.583643e-08

exp_avg_sq f4 [5, 11]
0	0x2cb8a19f	5.247538e-12
1	0x2c1b6bb7	2.2086619e-12
2	0x2b24d629	5.856171e-13
3	0x2d1ba44d	8.847212e-12
4	0x2c1ee5f4	2.25808e-12
5	0x2d856a5c	1.5167582e-11
6	0x2c62a9f9	3.2210885e-12
7	0x2c49743a	2.8628337e-12
8	0x2c5e8099	3.1619484e-12
9	0x2d7230e9	1.3766968e-11
10	0x2c15e3e8	2.1300687e-12
11	0x2b4b18c4	7.2154457e-13
12	0x2aacc125	3.0687359e-13
13	0x28bdb400	2.1061278e-14
14	0x2ba6e9e3	1.1859926e-12
15	0x2a9e8f44	2.8165849e-13
16	0x2c2115a4	2.289149e-12
17	0x2aeaf774	4.1738455e-13
18	0x2ad28a18	3.7399315e-13
19	0x2af6dea8	4.3852877e-13
20	0x2c0aa7e1	1.970417e-12
21	0x2abe8d46	3.3848808e-13
22	0x2e27334e	3.801697e-11
23	0x2d9b2af1	1.764053e-11
24	0x2c235ca6	2.3215123e-12
25	0x2e935acb	6.700914e-11
26	0x2d87fe43	1.5460638e-11
27	0x2ef63120	1.1195511e-10
28	0x2dc56e4c	2.2445289e-11
29	0x2db47301	2.0514703e-11
30	0x2ddb1577	2.490695e-11
31	0x2edfce8e	1.01775574e-10
32	0x2d92f64e	1.670766e-11
33	0x2b20df0d	5.7152964e-13
34	0x2a5e76ce	1.975878e-13
35	0x298a5ae8	6.144201e-14
36	0x2b6fc6e2	8.518586e-13
37	0x2a8b58cb	2.4752973e-13
38	0x2bee10d6	1.691559e-12
39	0x2ac33840	3.467799e-13
40	0x2aabb4ac	3.0501068e-13
41	0x2aa20e04	2.8786706e-13
42	0x2bcd6ae1	1.4595791e-12
43	0x2a7cb3a6	2.2444424e-13
44	0x2f1a39c8	1.4026746e-10
45	0x2e847b01	6.024515e-11
46	0x2d6d3cd0	1.3485393e-11
47	0x2f83c0ac	2.3965663e-10
48	0x2e859bbc	6.075804e-11
49	0x2fe45633	4.1534207e-10
50	0x2ebddcc9	8.633944e-11
51	0x2eaacd91	7.767221e-11
52	0x2ebcc3af	8.5840106e-11
53	0x2fcdd2c4	3.743904e-10
54	0x2e816d49	5.885654e-11

exp_avg f4 [5, 5]
0	0xb4d9d4f5	-4.0574346e-07
1	0x353d2ffa	7.04778e-07
2	0xb4088dd1	-1.271758e-07
3	0xb6335e16	-2.6727844e-06
4	0xb584b830	-9.888372e-07
5	0xb3ead3ca	-1.0934998e-07
6	0xb46382be	-2.1188586e-07
7	0xb40a04f7	-1.2854058e-07
8	0xb50b3cf6	-5.1870245e-07
9	0xb45f8df8	-2.0820141e-07
10	0x350dc35a	5.2810867e-07
11	0xb4b68992	-3.4000237e-07
12	0x343f1238	1.7794889e-07
13	0x3646e54e	2.9637772e-06
14	0x358e6d48	1.061163e-06
15	0x345ee1c5	2.0757496e-07
16	0xb506a6b6	-5.0161486e-07
17	0xb22201e3	-9.43007e-09
18	0x35be8216	1.4193963e-06
19	0x350b5a9e	5.19134e-07
20	0x35c2877d	1.4493559e-06
21	0xb697c467	-4.523015e-06
22	0xb4942bae	-2.759893e-07
23	0x373056a1	1.0510587e-05
24	0x367569c3	3.6569406e-06

exp_avg_sq f4 [5, 5]
0	0x2bd7e849	1.5341141e-12
1	0x2d57772c	1.22477965e-11
2	0x2a866880	2.3875693e-13
3	0x2f0844c2	1.2393556e-10
4	0x2d2fc9dd	9.992421e-12
5	0x29adf659	7.725478e-14
6	0x2b7ffb1f	9.09427e-13
7	0x28eb5316	2.6126274e-14
8	0x2d200843	9.0967815e-12
9	0x2b3257fb	6.33604e-13
10	0x2d44850e	1.1170854e-11
11	0x2f015807	1.1763755e-10
12	0x2ba12832	1.1450894e-12
13	0x30a907fe	1.229864e-09
14	0x2ec00c67	8.733352e-11
15	0x2a77b288	2.1999947e-13
16	0x2c08fe9c	1.94681e-12
17	0x2900e747	2.862231e-14
18	0x2dae0e36	1.978782e-11
19	0x2bde09e4	1.5776794e-12
20	0x2e61e10d	5.1358962e-11
21	0x3004558a	4.814288e-10
22	0x2cb3a812	5.1061455e-12
23	0x31aac300	4.96982e-09
24	0x2fcc1f3d	3.712958e-10

exp_avg f4 [5]
0	0xb63db2b2	-2.826721e-06
1	0xb3a98524	-7.893894e-08
2	0x36af8869	5.2312867e-06
3	0x35f5b7d4	1.8307423e-06
4	0x37871c47	1.6106422e-05

exp_avg_sq f4 [5]
0	0x30037d2b	4.7835397e-10
1	0x2e869598	6.120188e-11
2	0x31515188	3.0459848e-09
3	0x2de8961e	2.6442012e-11
4	0x32434d1c	1.13680265e-08

exp_avg f4 [5]
0	0xb63db2b2	-2.826721e-06
1	0xb3a98524	-7.893894e-08
2	0x36af8869	5.2312867e-06
3	0x35f5b7d4	1.8307423e-06
4	0x37871c47	1.6106422e-05

exp_avg_sq f4 [5]
0	0x30037d2b	4.7835397e-10
1	0x2e869598	6.120188e-11
2	0x31515188	3.0459848e-09
3	0x2de8961e	2.6442012e-11
4	0x32434d1c	1.13680265e-08

exp_avg f4 [30, 10]
0	0x30c7d41c	1.4539441e-09
1	0xb0da050f	-1.5863025e-09
2	0xb0a03b0d	-1.1658315e-09
3	0x3155375d	3.102705e-09
4	0xb0549c93	-7.7347656e-10
5	0xb13751c0	-2.6676474e-09
6	0xb12b5529	-2.4932183e-09
7	0xafc663b5	-3.6086836e-10
8	0x3141f472	2.8224147e-09
9	0x3125a9d5	2.4107198e-09
10	0x32214e30	9.389211e-09
11	0xb2045073	-7.701703e-09
12	0xb1b9c652	-5.406755e-09
13	0x328c2fe6	1.6319927e-08
14	0xb1d110db	-6.084617e-09
15	0xb2894fb5	-1.5985146e-08
16	0xb25df227	-1.2918952e-08
17	0xb0a0f86b	-1.1712137e-09
18	0x328f4e88	1.6683103e-08
19	0x326e722a	1.3879381e-08
20	0x00000000	0.0
21	0x00000000	0.0
22	0x00000000	0.0
23	0x00000000	0.0
24	0x00000000	0.0
25	0x00000000	0.0
26	0x00000000	0.0
27	0x00000000	0.0
28	0x00000000	0.0
29	0x00000000	0.0
30	0x00000000	0.0
31	0x00000000	0.0
32	0x00000000	0.0
33	0x00000000	0.0
34	0x00000000	0.0
35	0x00000000	0.0
36	0x00000000	0.0
37	0x00000000	0.0
38	0x00000000	0.0
39	0x00000000	0.0
40	0xb2004de2	-7.468289e-09
41	0x31e97132	6.7940613e-09
42	0x31a6fc8d	4.8599476e-09
43	0xb26fe151	-1.3962862e-08
44	0x319c71c8	4.553133e-09
45	0x3260199c	1.3044339e-08
46	0x323ef60a	1.1115398e-08
47	0x30aa05e4	1.2370802e-09
48	0xb26afc68	-1.3677983e-08
49	0xb2455299	-1.148569e-08
50	0xb2758572	-1.4291219e-08
51	0x32508c62	1.2139113e-08
52	0x32136965	8.58049e-09
53	0xb2dab2aa	-2.5459787e-08
54	0x321c0a15	9.0826875e-09
55	0x32d2cf9c	2.4541627e-08
56	0x32ad70db	2.0191171e-08
57	0x3107a4be	1.973873e-09
58	0xb2dc58d8	-2.5651772e-08
59	0xb2b7e2c7	-2.140713e-08
60	0x00000000	0.0
61	0x00000000	0.0
62	0x00000000	0.0
63	0x00000000	0.0
64	0x00000000	0.0
65	0x00000000	0.0
66	0x00000000	0.0
67	0x00000000	0.0
68	0x00000000	0.0
69	0x00000000	0.0
70	0x00000000	0.0
71	0x00000000	0.0
72	0x00000000	0.0
73	0x00000000	0.0
74	0x00000000	0.0
75	0x00000000	0.0
76	0x00000000	0.0
77	0x00000000	0.0
78	0x00000000	0.0
79	0x00000000	0.0
80	0x31d34626	6.148883e-09
81	0xb1c35ba1	-5.685664e-09
82	0xb18c2d7e	-4.079708e-09
83	0x3247e6b6	1.1635782e-08
84	0xb17ee74d	-3.7093344e-09
85	0xb239587d	-1.0788537e-08
86	0xb21f4090	-9.269698e-09
87	0xb091d369	-1.0610225e-09
88	0x32427b53	1.1320327e-08
89	0x32238dd6	9.5200985e-09
90	0x00000000	0.0
91	0x00000000	0.0
92	0x00000000	0.0
93	0x00000000	0.0
94	0x00000000	0.0
95	0x00000000	0.0
96	0x00000000	0.0
97	0x00000000	0.0
98	0x00000000	0.0
99	0x00000000	0.0
100	0xb319eb44	-3.583706e-08
101	0x3302fe70	3.0499393e-08
102	0x32b94626	2.1568734e-08
103	0xb3894ee1	-6.3939076e-08
104	0x32c36d57	2.275071e-08
105	0x33843c26	6.15767e-08
106	0x3359cd31	5.071087e-08
107	0x31ab0776	4.977603e-09
108	0xb38a39a5	-6.436611e-08
109	0xb366bee6	-5.372467e-08
110	0x00000000	0.0
111	0x00000000	0.0
112	0x00000000	0.0
113	0x00000000	0.0
114	0x00000000	0.0
115	0x00000000	0.0
116	0x00000000	0.0
117	0x00000000	0.0
118	0x00000000	0.0
119	0x00000000	0.0
120	0x3352edba	4.9110646e-08
121	0xb336bd17	-4.2547153e-08
122	0xb301a218	-3.0182576e-08
123	0x33be8241	8.8712575e-08
124	0xb3048563	-3.085496e-08
125	0xb3b5fd36	-8.474528e-08
126	0xb3973f8c	-7.0430445e-08
127	0xb1f621ed	-7.163399e-09
128	0x33be644b	8.8658076e-08
129	0x339f2b4f	7.411892e-08
130	0x00000000	0.0
131	0x00000000	0.0
132	0x00000000	0.0
133	0x00000000	0.0
134	0x00000000	0.0
135	0x00000000	0.0
136	0x00000000	0.0
137	0x00000000	0.0
138	0x00000000	0.0
139	0x00000000	0.0
140	0x00000000	0.0
141	0x00000000	0.0
142	0x00000000	0.0
143	0x00000000	0.0
144	0x00000000	0.0
145	0x00000000	0.0
146	0x00000000	0.0
147	0x00000000	0.0
148	0x00000000	0.0
149	0x00000000	0.0
150	0x00000000	0.0
151	0x00000000	0.0
152	0x00000000	0.0
153	0x00000000	0.0
154	0x00000000	0.0
155	0x00000000	0.0
156	0x00000000	0.0
157	0x00000000	0.0
158	0x00000000	0.0
159	0x00000000	0.0
160	0x32048c19	7.715266e-09
161	0xb1d5ef1a	-6.2262986e-09
162	0xb195b9fa	-4.357614e-09
163	0x3263d4af	1.3261498e-08
164	0xb1ad4d3c	-5.043743e-09
165	0xb260d060	-1.3085895e-08
166	0xb2342e8d	-1.0487963e-08
167	0xb07bb9ab	-9.157712e-10
168	0x326a74ce	1.3647151e-08
169	0x3242c645	1.13373675e-08
170	0x32a2582f	1.8899383e-08
171	0xb28c2035	-1.6312791e-08
172	0xb246ae5c	-1.1564762e-08
173	0x33123ffb	3.4051464e-08
174	0xb24c7105	-1.19000605e-08
175	0xb30bf228	-3.25837e-08
176	0xb2e82bd4	-2.7028285e-08
177	0xb13b8a48	-2.7290685e-09
178	0x331261b2	3.4082127e-08
179	0x32f4abb8	2.8483427e-08
180	0xb141ba51	-2.8191105e-09
181	0x312252af	2.3621103e-09
182	0x30e4d9ac	1.6651049e-09
183	0xb1aae381	-4.9735154e-09
184	0x30f828d4	1.8055979e-09
185	0x31a5c3c3	4.8243876e-09
186	0x31876e85	3.9415817e-09
187	0x2fcdd607	3.7441358e-10
188	0xb1ad29b9	-5.039706e-09
189	0xb1905568	-4.200661e-09
190	0x32459dd2	1.1502793e-08
191	0xb22ed3c5	-1.0176284e-08
192	0xb1f8f70c	-7.245836e-09
193	0x32b524ee	2.1087967e-08
194	0xb1f534fe	-7.136463e-09
195	0xb2ab652e	-1.9953031e-08
196	0xb28ffa0b	-1.6761097e-08
197	0xb0f3d775	-1.7741814e-09
198	0x32b37b09	2.0894293e-08
199	0x329654c6	1.7500849e-08
200	0xb2a50bc6	-1.9213882e-08
201	0x328c9d56	1.6369693e-08
202	0x3246e345	1.1576792e-08
203	0xb313518a	-3.4300264e-08
204	0x32516cca	1.2190137e-08
205	0x330dcfef	3.3018235e-08
206	0x32e9b4f7	2.7207063e-08
207	0x3137e6a8	2.6761118e-09
208	0xb3143f9d	-3.451679e-08
209	0xb2f78074	-2.8812998e-08
210	0xb2b95a4b	-2.1577895e-08
211	0x32a7a6a9	1.9517147e-08
212	0x326fb0aa	1.39518e-08
213	0xb32c9f26	-4.0191615e-08
214	0x3262d680	1.3203703e-08
215	0x3321add4	3.764383e-08
216	0x33095c5d	3.1981802e-08
217	0x31722e09	3.5241803e-09
218	0xb32979b8	-3.945908e-08
219	0xb30e3cae	-3.311714e-08
220	0x3090db87	1.0539772e-09
221	0xb08475d0	-9.637748e-10
222	0xb03db502	-6.9015027e-10
223	0x3107f1fe	1.9782642e-09
224	0xb0300bb8	-6.404508e-10
225	0xb0fd64d6	-1.8436832e-09
226	0xb0d87c92	-1.5751473e-09
227	0xaf427ec3	-1.7689232e-10
228	0x3104e093	1.9336184e-09
229	0x30df43b8	1.6244632e-09
230	0x00000000	0.0
231	0x00000000	0.0
232	0x00000000	0.0
233	0x00000000	0.0
234	0x00000000	0.0
235	0x00000000	0.0
236	0x00000000	0.0
237	0x00000000	0.0
238	0x00000000	0.0
239	0x00000000	0.0
240	0x00000000	0.0
241	0x00000000	0.0
242	0x00000000	0.0
243	0x00000000	0.0
244	0x00000000	0.0
245	0x00000000	0.0
246	0x00000000	0.0
247	0x00000000	0.0
248	0x00000000	0.0
249	0x00000000	0.0
250	0xb05b4477	-7.976903e-10
251	0x309b4027	1.1295967e-09
252	0x306bdf27	8.580962e-10
253	0xb10f7635	-2.0876432e-09
254	0x2fac157b	3.130188e-10
255	0x30db239d	1.5944469e-09
