Covid prediction Graph 300 train days/yv12if00/checkpoints/epoch=39-step=1480.ckpt (torch, 684236 bytes, 24 tensors)

model.A f4 [65, 65]
00000000: 7102 113f 7d88 03be 4c91 b6be 50a4 1cbe
00000010: 5958 33bf 78f1 983e 88ca 1dbf 9e00 fc3d
00000020: 496f cf3e 6cf2 b63b a481 71be c1c1 dfbe
00000030: 474d cebe 0f68 173f 994f 273e 3b09 d5be
00000040: ed28 893c 3d64 5e3d afab d2be 4037 bb3e
00000050: f106 ecbe 4743 1abe 9a4a 14bf 3e50 093f
00000060: 5330 11bf 9170 723e 7daf 45bf 4978 91be
00000070: ee06 55bf 6519 153e 884a 27bf 9a04 973e
00000080: fa34 05bf 60a5 c63e 3e8a 413f 7fc4 80be
00000090: 010b ab3e b1c6 edbe ade1 503e 4341 b3be
000000a0: 173b df3e 39f1 d2bd 2884 ffbd 4abf dfbe
000000b0: 75dd b33e 37e0 fd3e 8d07 f2be cafd 213f
000000c0: 36b4 43bf be0e 8f3e 11a9 f83e 01d8 3d3f
000000d0: 0f42 eebe 8f77 d6bd 7d34 9c3e 2d55 fb3e
000000e0: 6192 533f 0fae cebe b41d fe3e c7d6 2cbf
000000f0: 48f4 7e3e e0c3 5dbf 8ede 18be 4408 e33e
00000100: e657 5e3e 03f0 9abe 29c3 5b3e 5146 9bbc
00000110: bcb5 d1be e63f ac3e d5c1 64be bb1f a53e
00000120: 9b9e bd3e a40c 5abe bc90 d8bd acab 553e
00000130: 5656 dd3e 94ee 95bd 4544 603d e2e2 babe
00000140: 9c27 b7bb a084 55be 2031 173f bcb7 d23e
00000150: 89b8 66bd 049c 113e 328d be3d dc71 923e
00000160: 6b83 a1bd 646d 1e3e 4dc9 fbbe de40 d53e
00000170: d9fd 46be a2ea b93e 726c a83e b88c d83e
00000180: ae35 12be c40c d63d 807a 97be 2cfe dcbe
00000190: e068 b53e 9edf f73d 842c df3e bac4 a23e
000001a0: 1790 9e3e 1c4f b7be 5a64 5cbe 50e6 9e3e
000001b0: 9584 e93e 2ce9 8e3e a297 bd3b 3339 503e
000001c0: dee7 f8be f2af 923e 67b0 38bf f5c9 abbe
000001d0: 1fdc 0fbf 9c4a a43e 39f9 833e 3649 16be
000001e0: ae78 213e d8d4 0cbf 9ff0 673e fdc4 2cbe
000001f0: 5521 cd3e cf36 4fbe 362a bf3e 043e e73e
00000200: 2c87 08bf a644 d9bb 1127 4e3e 8856 45be
00000210: 4aca 0abf 5dce cbbd 53ff 13bd 775f b1bd
00000220: e314 16be 1945 68be 54e4 3d3f f443 e2be
00000230: 9b60 933e 4ac2 cc3d ddc9 87be 669c 2c3e
00000240: ce03 61be 3f45 aebe 2639 763d d8ec 183e
00000250: 3ad1 97be d300 a7be b6b8 363e 9f9e f03e
00000260: b9c2 77bd 9a8a f8bd 4dc9 45bd 7e63 ebbd
00000270: 1a7b 5f3e 7428 86bd 1ba2 823e 5c3d 8e3d
00000280: b5c6 8cbe 5cf2 9bbe 26a2 44be fcd5 48bd
00000290: f5b1 68be c8c3 b13d 7db3 9ebe 4a3c 663e
000002a0: eef5 043e 2778 023f 0f7d cfbe 545f d63e
000002b0: 6f3d 8f3e 3e15 283d 64e5 503e 1b4d 653e
000002c0: e12c bf3d 522f 7c3e 3056 9fbc 016e 7e3c
000002d0: 001d bcbe 9252 e4bd 2d47 ebbd e1c0 e03d
000002e0: 8afe 573e ac29 fb3e 50de 31bc cf9f febe
000002f0: 30af 42bd 8ee7 653d 92fd d4be f695 473d
00000300: 8d7e 19be 75ea b8bd 8aba 88be 1aa4 7d3d
00000310: 72b9 cb3e e373 33bc 5b9b 5cbd 4291 90be
00000320: 415a 92bd 6ec7 e6be c9bb 2c3e b635 72bc
00000330: 1543 843e 9596 e8be 1614 3abe 0003 c63e
00000340: 7cd2 713d 46e3 fc3d e24f 9d3e 1598 e63e
00000350: 9f76 8a3e f165 19be ef11 8f3e 992a 27bf
00000360: e337 b4be 32a2 8ebe 8710 c93e feed 5abe
00000370: 553b b03e 0d28 11bf ba80 c53d 70a7 563e
00000380: 3839 86be e3f8 8cbe 3004 043e 164c fe3d
00000390: b8c3 ab3e d207 003f 683c b6be 3bb2 90bc
000003a0: 0081 13bd 5fc2 153f 426d f1be 68d7 593e
000003b0: 5b6a eabe e8d2 95be 0bb4 9bbe aad4 25be
000003c0: 085b f6bd cf87 aebc fd63 093e 1346 8cbe
000003d0: 6054 bb3e 9b2a 593e 377c 073f e733 bb3e
000003e0: 327c bb3d 8be2 983e c307 143e 7318 e03e
000003f0: 3fbb c2bd 7c38 ef3e 9350 05bf 685b 423e
0.5664435 -0.12845035 -0.35657728 -0.15297055 -0.7005668 0.29871726 -0.61637163 0.12304805
0.4051459 0.005583098 -0.2358461 -0.4370251 -0.40293333 0.59143156 0.16338958 -0.41608605
0.016743148 0.054294813 -0.4114661 0.3656559 -0.46099046 -0.15064727 -0.5792633 0.53638065
-0.5671436 0.23675753 -0.772209 -0.28412083 -0.832137 0.14560468 -0.653481 0.29495698
-0.5203396 0.38798046 0.75601566 -0.25149915 0.33406833 -0.46440652 0.20398588 -0.35010728
0.4359977 -0.10299916 -0.12476379 -0.4370063 0.35129896 0.49585125 -0.47271386 0.63277876
-0.76446855 0.27940935 0.48566487 0.7415772 -0.46534774 -0.10472023 0.30508795 0.4908842
0.8264523 -0.4036717 0.49632037 -0.67515224 0.24897873 -0.86627007 -0.14928648 0.44342244
0.21713218 -0.3026124 0.21461166 -0.018954428 -0.40958965 0.336425 -0.22339566 0.3225077
0.3703507 -0.21293885 -0.10574481 0.20866269 0.43229932 -0.07320896 0.054752607 -0.36501223
-0.0055894386 -0.20851374 0.59059334 0.41155803 -0.05632833 0.14219671 0.093042746 0.28602493
-0.07886394 0.15471417 -0.49177018 0.41651052 -0.19432773 0.36311823 0.32895237 0.4229486
-0.1427829 0.104516536 -0.29585648 -0.43162668 0.35431576 0.121031985 0.4358865 0.31790715
0.30969307 -0.35802543 -0.21522656 0.3103509 0.45608965 0.2791227 0.0057858983 0.2033432
-0.486144 0.2864986 -0.7214417 -0.33552518 -0.56195253 0.32088172 0.2577608 -0.14676365
0.15768692 -0.55012274 0.22650383 -0.1687202 0.40064493 -0.20235752 0.37336892 0.45164502
-0.53331256 -0.006630498 0.2013209 -0.1927129 -0.5421492 -0.0995147 -0.036132168 -0.086607866
-0.14656405 -0.22682609 0.74176526 -0.4419247 0.28784642 0.09997995 -0.26521197 0.16856536
-0.21974108 -0.34037206 0.060113095 0.14934099 -0.29651815 -0.32617816 0.17843899 0.46996018
-0.060488436 -0.12135811 -0.04828768 -0.11493586 0.21824303 -0.065506846 0.25514302 0.06945297
-0.2749535 -0.30458343 -0.1920248 -0.049032196 -0.22724135 0.086799204 -0.30996314 0.22483936
0.1298444 0.5096459 -0.405251 0.41869605 0.27976558 0.041035883 0.20400006 0.22392695
0.09334732 0.24627426 -0.019450277 0.015529157 -0.36740875 -0.111485615 -0.11488185 0.10974289
0.21093193 0.4905523 -0.010856226 -0.497313 -0.047530353 0.05612903 -0.4159971 0.048727
-0.14989682 -0.09029094 -0.26704818 0.061924078 0.3978992 -0.0109529225 -0.053859096 -0.28235823
-0.07146121 -0.45074028 0.1686851 -0.0147833135 0.2583243 -0.45427385 -0.18171725 0.38674164
0.059038624 0.123480365 0.30725008 0.45037904 0.27043626 -0.14980294 0.2794337 -0.65299374
-0.35198888 -0.2785812 0.39270422 -0.2137985 0.34420267 -0.5670174 0.09643693 0.2096231
-0.2621553 -0.27533635 0.12892222 0.12416856 0.3354776 0.5001193 -0.3559296 -0.017663112
-0.036011696 0.5849971 -0.4715367 0.21273577 -0.45784268 -0.2926247 -0.304108 -0.16194406
-0.120290816 -0.021304993 0.13417049 -0.27397212 0.3658781 0.21207659 0.5292391 0.36563036
0.09154548 0.2986034 0.14456086 0.43768653 -0.095083706 0.46722782 -0.5207607 0.18980181

model.B f4 [65, 1]
00000000: d24c 27bd 9bf7 253f 9cdc 94be d123 e0be
00000010: 7146 9cbd 2ea6 aabe 9971 d9be 1ef3 f8bd
00000020: 0271 0dbf 3181 f53e 5e67 bfbe ce5d 8cbf
00000030: 1885 143f c425 17bf eac7 ea3e 9508 e33e
00000040: ee1c cb3d b761 dc3e e2bb c73d dc39 bf3e
00000050: 0c7f 12bf 877d cbbe 9721 65bf 98f6 a9be
00000060: bdca 20bf 6bfb 3d3e e0de a3be 6c56 21be
00000070: 3873 53be 46a2 11bf c975 d9be c1bf 453f
00000080: c822 fb3e 9994 2d3f 1e89 5f3f d518 33bf
00000090: 8991 823f 0654 5dbf 467f b5bd 0c59 50bf
000000a0: f7cc c13e 5df6 363e 92d1 893d 9f53 94be
000000b0: 9327 a4be fc55 9b3d 385e bdbc cb10 013e
000000c0: 25ad 0dbf 3079 7b3f 39af d63e 50ff 5a3e
000000d0: 5c85 4fbf ac1d 69be 16ea 753e c724 223e
000000e0: 676e 2c3b b838 64be 7dcc 063f 3fdc f4be
000000f0: 674c 093d e0f9 b8be 9ca3 06be 4e2a 433f
00000100: 4579 2c3f
-0.040844746 0.6483094 -0.29074562 -0.43777326 -0.07630623 -0.3332991 -0.4246948 -0.12155746
-0.5525056 0.47950128 -0.3738355 -1.0966127 0.58015585 -0.59042 0.45855647 0.44342485
0.09917627 0.430433 0.09752633 0.3734883 -0.5722511 -0.39744207 -0.8950438 -0.3319595
-0.62809354 0.1855294 -0.32005978 -0.15755624 -0.20649421 -0.56888235 -0.42472675 0.7724572
0.49049973 0.6780487 0.873186 -0.69959766 1.0200664 -0.86456335 -0.08862166 -0.81385875
0.37851688 0.17867418 0.067294255 -0.28970048 -0.32061443 0.075847596 -0.023116216 0.12604062
-0.5534232 0.9823179 0.4193056 0.21386456 -0.81062865 -0.22765225 0.24015078 0.15834342
0.0026310922 -0.22287261 0.52655774 -0.47824284 0.03352013 -0.3612814 -0.1314835 0.76236427
0.6737254

model.D f4 [65]
00000000: 6c7a 3cbe f301 32be af7e cf3d da42 d03e
00000010: 63e3 d0bd d582 293d 4d15 fe3c 19dd 30be
00000020: fbd6 9bbd 3f5c 9ebe 471b ab3d 1880 913e
00000030: c1a8 86be aa76 e6be 052a 9bbd 2128 a03e
00000040: ba5c 02bc 8b04 6ebe b1dd 3bbd a14d 84be
00000050: 5615 223e fac2 3e3e 6945 2e3e 1d99 5cbe
00000060: 853e 403e 1e06 88be 6bdf 713e 1a55 4dbe
00000070: 222f 8d3e 7d11 aabe e02f 8b3d 076e dabd
00000080: 1cdb fabd dc70 41be 6662 56be d127 b83e
00000090: 36b7 97be cd9d 853e f3d8 303e 3e23 b5bb
000000a0: 3d0c 7cbe 93f7 503e 4aa6 063e 4885 343e
000000b0: 015d 103e 0073 b73d 503f 44bd fd6b 1abf
000000c0: fee3 963e 5f72 23bd 6c4b 3cbe 724e 83be
000000d0: 0a02 e73e 4438 22be de4f adbd ff6e b6bb
000000e0: fdfc bcbe fc08 5c3e baae 8a3d a028 4a3e
000000f0: 47f4 98be 1946 873e f068 423e 680f 5bbe
00000100: 58da 2ebe
-0.18406075 -0.17383556 0.10131585 0.40676004 -0.101996206 0.041384537 0.031016016 -0.17271842
-0.07609364 -0.30929753 0.08354812 0.2841804 -0.26300624 -0.45012408 -0.07576374 0.31280616
-0.007956678 -0.2324392 -0.04586572 -0.25840476 0.15828452 0.18629065 0.17018665 -0.21542783
0.1877385 -0.26567167 0.23620383 -0.20051995 0.27575022 -0.33216467 0.06796241 -0.10665517
-0.12248823 -0.18890709 -0.20935974 0.35967878 -0.29631966 0.26096955 0.1727026 -0.005527883
-0.24614044 0.20406942 0.13149372 0.17628968 0.14097978 0.089574814 -0.047911942 -0.6032103
0.2947082 -0.039903995 -0.18388146 -0.25645787 0.45118743 -0.15841776 -0.08462499 -0.005567431
-0.36911765 0.21487802 0.06771608 0.1974206 -0.2987387 0.26420668 0.18985343 -0.21392596
-0.17075479

model.H2X_out_MLP.0.weight f4 [195, 65]
00000000: ce0b 2bbe dd8d 873e ac02 823e 2467 61bc
00000010: c85c 18bd 353b 0bbf 25b5 843d e51d aebd
00000020: a0aa 63be 3799 f03e 015e 82bd 6045 ab3d
00000030: 3d05 163d 24d9 03bb 5448 3abe eb4a b03e
00000040: f23f d6bb 9c32 5a3d 5458 aabe eab6 c73e
00000050: fffe 51be 8341 e4bd 3958 09bf 9d0f 463c
00000060: 2ab1 063e d0b0 cf3c 85ee f4be 2d7f 4f3e
00000070: a0d7 7fbd a1e4 cabe 1fda 2ebb 465d ccbd
00000080: 1bc6 1ebe 881b 3c3f cdbf aa3e 7da3 8fbe
00000090: 9e2f a03d 8c4a 643e 8ba0 7a3e 3360 0dbd
000000a0: 2ad9 973e a813 abbe 5b0f 4a3b b9a9 8b3c
000000b0: 82dc c3be abff 1abe f546 923c ceff 12bd
000000c0: 2670 b6bd a106 0a3f 509d 363f 8a6c 93be
000000d0: bbe0 98be 5a7f 8c3e 4fdb 07bf 9860 3d3e
000000e0: f847 063d cea5 b53d a110 ec3c d3a2 9b3e
000000f0: c28e d2be a4c5 e0be 42a1 03bd e0cd b03e
00000100: c11d 053f 2ea1 6dbe dab8 ea3d c27e 8ebe
00000110: f625 1bbe 87b9 3e3e e863 31bd 1924 fbbb
00000120: 6c05 6e3d d090 a93e e7d7 27be 9a76 533e
00000130: d29a 8e3e 7973 66bc e5f4 32be 78be aebd
00000140: dc50 68be 4fcf bcbe 82ba 6c3e 15f1 ae3e
00000150: f8af bebe 3c07 af3e 5fb7 d53d 5028 083f
00000160: 9dab 88bd 1386 bc3e 27e7 4bbe 9eb4 b63e
00000170: 0bb2 56be 749d ac3e 4ce0 f63d 1cd0 e93e
00000180: e4f0 82be a395 10be a6a3 cdbe 6083 91be
00000190: bf54 e63e f512 bcbe 3a1a bd3e 00b1 75be
000001a0: 3d68 0b3e 194f 8dbe eaa7 853e 98c2 a13d
000001b0: b69b 8d3e 6ed1 b93e 9f85 99be 8938 403e
000001c0: f858 0a3f f6a0 ca3e 71fe e5be 5c2a a3be
000001d0: 55fb d3be b3cc cf3e 965c e33d eca5 3abe
000001e0: 8b18 f93d 21af bebe e86d dabe f88b 2dbe
000001f0: 0433 2c3e 6002 1ebe e94f d33e a228 6c3e
00000200: f2c4 9cbe abb0 d9be a6ad 09be 0b21 be3e
00000210: 10f6 bd3e 166b 22be c33b 5d3e fd42 dabe
00000220: ea7a 293e e777 643e b5c8 81be ddb2 ea3e
00000230: 8f91 28be 8a42 b8bd ad0d 933e a9c7 b5be
00000240: 1d45 b0be 56ff 983e 6eac 0abe 83d1 40bd
00000250: 312e 5cbd 4027 843e b10b 14bf ea35 81be
00000260: 218a 0bbf 7759 cabc 14b0 933e c7aa d5bc
00000270: b0e2 75be 61c9 a03d e918 803e efaa d5be
00000280: a977 ae3e 9c5a 8ebd 6044 0e3e 1c60 1a3f
00000290: 6c88 103f ca8f d9be deed a13e 3c35 403e
000002a0: 3b00 a13d 963f 9fbe d39e ab3e 3651 a4be
000002b0: 3d1c 6c3e 9c6d b63e e045 f0be b21c 4bbe
000002c0: f039 a63e 3538 9bbe c4b1 133e 9e61 1a3f
000002d0: 4758 323f 5e8b a0be 5fa0 bfbe 033a c73d
000002e0: 28ab 26bf b2b0 5abe aa44 abbe f685 fc3c
000002f0: 6363 d7bc 6a12 143f 02bb 88bd 1038 16be
00000300: 7dab 053e 5bbd 9a3e dce5 c03e 6d5d 92be
00000310: 70a1 d03d 0851 78bd a72f 53be a17d a33d
00000320: 1fb8 77be 19a1 8c3e 1ece ea3d 7552 bc3e
00000330: f308 a0be 0f06 5e3e 49dd 543e 99b0 1bbf
00000340: aafa 033f b844 89be 2316 aebe 1f8e 12be
00000350: 98d7 063e a7f3 313e a8af 8dbe bf63 893e
00000360: d4c1 82be 5b23 643e 0bad 31be 2597 653e
00000370: f8e2 5bbe dfcc 3b3e a5f2 8b3e c3d2 2c3e
00000380: 5309 183e 7604 503e 2911 e1be a323 99be
00000390: 9f51 a1be fa1b 13be 2484 283e 393a 7bbe
000003a0: 864e 133f 2738 3bbd 5953 d93e 1af1 0dbe
000003b0: 4332 803e b148 3a3e 0291 9e3e d58a cc3e
000003c0: 7965 ccbd 51f2 8a3e e486 de3e 1f54 7e3e
000003d0: 7181 50be 302c 84be fc23 02bd c62c 763e
000003e0: 0ddb 913e 422a 62be 3a18 b93e 90c9 21be
000003f0: 92ee 94be 7819 d5be 6eb8 723e aad0 a9be
-0.16703722 0.2647542 0.25392663 -0.013757501 -0.037197858 -0.5438722 0.06479863 -0.08501796
-0.22233057 0.46991894 -0.06365586 0.083628416 0.03662609 -0.002011844 -0.18191653 0.34432158
-0.0065383846 0.05327092 -0.33270514 0.3900674 -0.2050743 -0.11145308 -0.5365024 0.012088683
0.1315352 0.025352865 -0.47838226 0.20263357 -0.062461495 -0.39627555 -0.0026680303 -0.09978728
-0.15505259 0.7347951 0.33349457 -0.2805442 0.07821582 0.22294062 0.24475305 -0.03451557
0.2965787 -0.33413434 0.0030831906 0.017048704 -0.38254172 -0.15136592 0.0178561 -0.035888486
-0.08908109 0.53916365 0.7133379 -0.28793746 -0.29858956 0.27440912 -0.53069013 0.18493879
0.03278348 0.08869515 0.028816523 0.30397663 -0.4112454 -0.43900788 -0.03213621 0.3453207
0.51998526 -0.23206016 0.11461039 -0.27831084 -0.151512 0.1862546 -0.04330817 -0.0076642153
0.05811064 0.33118296 -0.16390954 0.20650712 0.27852494 -0.014065617 -0.17476232 -0.08532423
-0.22687095 -0.36876914 0.23118022 0.34168306 -0.37243629 0.34185207 0.10435366 0.5318651
-0.06673358 0.3682104 -0.19912396 0.35684675 -0.20966356 0.33713877 0.120545 0.45666587
-0.2557441 -0.14119582 -0.40163916 -0.28420544 0.4498653 -0.36733213 0.36934072 -0.23993301
0.13613982 -0.2759941 0.2610467 0.07898444 0.2765786 0.36292595 -0.29984757 0.18771566
0.54042006 0.39575928 -0.44920686 -0.31868255 -0.4140269 0.4058586 0.11101644 -0.18227357
0.12162884 -0.37242988 -0.42661977 -0.16947925 0.16816336 -0.15430593 0.41271904 0.23062375
-0.30619007 -0.425176 -0.13445148 0.37134585 0.37101793 -0.15861163 0.21604829 -0.42629233
0.16550794 0.22311364 -0.2534844 0.45839587 -0.16461776 -0.08997066 0.2872137 -0.3550389
-0.3442773 0.29882306 -0.13542339 -0.047074806 -0.05375499 0.25811195 -0.5783034 -0.25236446
-0.54507643 -0.024700863 0.28845274 -0.02608241 -0.24012256 0.0785091 0.25019005 -0.41731974
0.34075668 -0.06950876 0.1389327 0.603029 0.56458163 -0.42492515 0.3162679 0.18770307
0.07861372 -0.311032 0.3351961 -0.3209321 0.23057647 0.356305 -0.4692831 -0.19835165
0.32466078 -0.3031632 0.14423281 0.603052 0.6966595 -0.3135633 -0.3742704 0.09727862
-0.65104914 -0.21356466 -0.33450824 0.030825596 -0.026292508 0.578406 -0.06676294 -0.14669824
0.13053699 0.30222592 0.3767537 -0.28586903 0.10187042 -0.060624152 -0.20623647 0.07982946
-0.2419133 0.27466658 0.11465095 0.3678166 -0.31256828 0.21681999 0.20787539 -0.6081634
0.5155436 -0.2681024 -0.34001264 -0.14312027 0.1316818 0.17378102 -0.27673078 0.26833913
-0.25538504 0.22279112 -0.17351167 0.22420938 -0.214733 0.18339871 0.2733356 0.16877274
0.14847307 0.20314202 -0.43958405 -0.2991 -0.31507584 -0.14366141 0.16456658 -0.24533929
0.5754169 -0.045707848 0.42446402 -0.13861504 0.25038347 0.18191792 0.30970007 0.3994967
-0.09980292 0.27137998 0.43462288 0.24836777 -0.20361878 -0.25814962 -0.0317726 0.24040517
0.28487435 -0.22086433 0.36151296 -0.15799546 -0.29088265 -0.41620994 0.23703167 -0.3316701

model.H2X_out_MLP.0.bias f4 [195]
00000000: 0692 c9be d0c1 a7be f1ee edbe d2d1 cbbe
00000010: 7e98 3bbf 11af 3dbe 741d e3be 5f32 87bd
00000020: 7065 80be 4e87 dbbd bfe3 c2be b47c 8bbe
00000030: de56 d9bd 85b9 13be bb2f abbe 8d4c b8be
00000040: 67b5 37be e84d 42be 218b ddbd d66e 7fbb
00000050: d40d 24be 69dc 6fbe 6959 73be 0cb5 40bd
00000060: 5be0 2dbe d14f 1cbf 2398 acbe 57d5 eabe
00000070: dfe0 a4be bf85 98be a561 90be eafd a7be
00000080: 2dae 78be 38f6 0ebe b173 94be 45fc 0ebf
00000090: 260f b9be a93d 42bf b2d1 8dbe 7561 b7be
000000a0: 2834 cdbe 2ba3 7cbd 0c9e d5be 2a23 33be
000000b0: bda4 3ebe ab48 d0bd 7e8e 26bf 2c34 3fbe
000000c0: 27a1 0dbe c799 2dbf fc88 57be d8ed 7bbe
000000d0: bccf 9dbe f70c d8be 9867 83be 355c a0bd
000000e0: 5323 b0be 0337 7a3e e276 01bf 43ab a9be
000000f0: a630 d4be a600 9dbe 2c2c 6cbe 687a 9dbe
00000100: b0a5 75be ed77 eabe c360 5ebe c6d8 f1be
00000110: cfe0 70be e4ac debd dd2b e4be a200 aebe
00000120: 244c 72be 5173 94be 96b1 d1be 6dfe 8dbe
00000130: 1787 e9be f6eb 87be 13cc 04be e3da e7be
00000140: e7ff 0cbf 5d6e 34be 7cb2 91be fb81 13bf
00000150: 6032 30be 26b1 d0be f7b9 3dbe 872e c6bc
00000160: fe40 87be efd4 d7be 9718 37bf f6f7 63be
00000170: a5ce 3dbe 92cb b9be 8e37 acbe dbc1 e6be
00000180: a7f6 8c3c c219 5cbe 9ac9 62be 9864 84be
00000190: eb62 d8be fedb d3be e968 c5be 171f 543e
000001a0: ae88 6d3c 854b b6be c816 a7be 895a a1be
000001b0: 1dac 62be 3d33 9abe 75b2 edbe 7fd3 613d
000001c0: 06f5 70be 9a76 b6be 3609 f8be d1d1 64be
000001d0: 1959 bfbe f1e8 91be c8e9 c5be 622a 64be
000001e0: 5a2a 82be 91c4 073e 12af 42be bbe3 24bf
000001f0: 6ebe edbe 1eae a1be 708c a2be 185b 91bd
00000200: 8a5a 1bbe 8926 c3be ec71 2cbe e3af 583e
00000210: 9879 7cbe 9772 4dbf 36da cdbe e0f5 61be
00000220: a3f8 71be 16a3 8dbe ca8c cfbe 5f1e fbbd
00000230: fbdf cabe 413c 0bbe 3a1a b9be 1004 c1be
00000240: 6031 56be 6956 013e 6881 e3be a43d adbe
00000250: 3450 903c 07bc d9be 7b2e e5be ae3e 5bbe
00000260: 9b4d 1ebf f685 efbd abe9 6bbe c442 5b3d
00000270: 7400 90be f3ab 4cbe 00f7 bd3d 594d 59be
00000280: cca1 c0be e569 6abe 553b 82be c3cd 6fbe
00000290: 78bb a5be 8faa 90be ef0b 34bf 3e6e 97be
000002a0: 07ee c7be f941 e83d c002 59be 6ee2 adbe
000002b0: c4bb 9abe d091 76be 6860 8cbe 9ef5 d0be
000002c0: 4eab 92be 00a6 45be c127 f839 1916 b9bd
000002d0: 1875 0ebf e7bf f8be b243 4bbf 02c1 e7bd
000002e0: 3938 bfbe a5ae 82be a597 cabe 9aa2 81be
000002f0: b540 c0bd 240b f8bd 3f12 1c3e 09ac 43be
00000300: c3dd dbbe 9168 cebe 4b5c f3be
-0.3936922 -0.32765055 -0.4647136 -0.39808518 -0.7327956 -0.18523814 -0.44358408 -0.066014044
-0.2507739 -0.10719167 -0.3806438 -0.27243578 -0.10612272 -0.14426239 -0.33434853 -0.35995904
-0.17940293 -0.18975031 -0.10817552 -0.0038975975 -0.160209 -0.23423924 -0.23764576 -0.04704766
-0.16980116 -0.6105929 -0.3370982 -0.4586589 -0.32202813 -0.2978954 -0.28199497 -0.3281091
-0.24285193 -0.13961112 -0.28994516 -0.5585368 -0.3614437 -0.75875336 -0.27699047 -0.3581654
-0.40078855 -0.061679047 -0.41722143 -0.17493883 -0.1861753 -0.1017011 -0.65061176 -0.18672246
-0.13831006 -0.6781277 -0.21048349 -0.24602449 -0.3082255 -0.4219739 -0.25664973 -0.07830087
-0.3440195 0.24435048 -0.50572026 -0.33138475 -0.41443366 -0.30664557 -0.23063725 -0.3075745
-0.23988986 -0.4579462 -0.21716599 -0.47235698 -0.23523258 -0.1087282 -0.44564715 -0.33984858
-0.23661858 -0.2899423 -0.409558 -0.27733174 -0.45610878 -0.2654721 -0.12968473 -0.45284185
-0.55077976 -0.17620225 -0.28456485 -0.5762021 -0.17206717 -0.40760154 -0.18527971 -0.024192108
-0.26416773 -0.42154643 -0.71521896 -0.22262558 -0.1853586 -0.36288124 -0.33636135 -0.45069775
0.017207457 -0.21494201 -0.22147217 -0.25857997 -0.42262968 -0.41378778 -0.38556603 0.20714985
0.014497919 -0.35604492 -0.32634568 -0.31514385 -0.22135969 -0.30117217 -0.46425214 0.05513334
-0.23530969 -0.3563736 -0.48444527 -0.22345664 -0.37372664 -0.28498033 -0.38654923 -0.22281793
-0.25422937 0.13258578 -0.19012097 -0.6440999 -0.4643435 -0.31578153 -0.3174777 -0.07097453
-0.15171257 -0.38115337 -0.16840333 0.21160845 -0.2465576 -0.80252975 -0.40205544 -0.2206645
-0.23630004 -0.27663487 -0.405371 -0.12261652 -0.3962401 -0.13597204 -0.36152822 -0.37698412
-0.20917273 0.12630619 -0.44434667 -0.3383609 0.017616369 -0.42526266 -0.44762024 -0.21410629
-0.61837167 -0.11695473 -0.23038356 0.05353047 -0.28125346 -0.19987468 0.09275627 -0.21220912
-0.3762344 -0.22891958 -0.25435892 -0.23418336 -0.3236959 -0.28255126 -0.7033071 -0.29576296
-0.39048788 0.11340708 -0.21192455 -0.33961815 -0.3022138 -0.2407906 -0.27417302 -0.4081239
-0.2864632 -0.19301605 0.00047331865 -0.09037418 -0.5564742 -0.4858391 -0.7940017 -0.1131611
-0.37347582 -0.25523868 -0.3956882 -0.25319368 -0.09387342 -0.121115 0.15241335 -0.19108595
-0.42942628 -0.40314153 -0.4753135

model.H2X_out_MLP.2.weight f4 [195, 195]
00000000: 7de3 1dbe 5d42 75be 86a1 52be d197 72be
00000010: 60d5 62be 6ee5 a6be 3577 2bbe b489 89be
00000020: fe07 92be 166a 7fbe f6fa 83be 7d4e 52be
00000030: 8803 59be 6b96 96be 5fc0 77be a679 aabe
00000040: 7a0a a1be 32ae 8bbe cdac 56be 89f4 84be
00000050: 2dc1 78be 4ec0 90be 191a 87be 677f 89be
00000060: 9f2f 4ebe 7392 8ebe e211 20be 8a4b 2bbe
00000070: cdfe a23e 0ba1 58be 1c37 7fbe b15e 0c3d
00000080: de79 66be 80bd 9bbe afb8 9fbe f589 6fbe
00000090: e818 18be 9579 86be 2ec7 0abe e8c6 7bbe
000000a0: d829 68be e611 79be db11 1fbe c608 a9be
000000b0: c6d3 22be 1a5f 2cbe af00 19be 3887 1bbe
000000c0: 9658 123e 5001 2bbe 13bb 58be 90c6 43be
000000d0: 5b04 26be 969f 8abe b299 61be 93ce 6dbe
000000e0: 25c4 58be 9f75 28be aa5d 99be aa36 93be
000000f0: c770 23be 78fa 93be f8f8 19be e1dd a0be
00000100: 2c65 53be a8cf 20be c4ff a4be 4876 24be
00000110: d4db 58be fb26 8bbe 1698 5abe 4acc 85be
00000120: da85 8dbe e452 38be 13ec 1fbe 4ebc 2bbe
00000130: 40cc 2cbe 1a51 b3be 3dcd 9abe 8651 34be
00000140: 70d4 6cbe 1a5e a2be 2039 58be 3a3f 42be
00000150: 14a7 59be 552a 68be 540c 76be 3055 4cbe
00000160: ab22 8bbe 743a 53be bccd 84be d505 73be
00000170: 6e18 f9bd 5c5d 64be 5c49 48be d5dc 8ebe
00000180: 6e04 7dbe dd5a 83be 5bda 2bbe 669a 35be
00000190: 55da 7abe a8a3 c83e e84b 59be d604 53be
000001a0: 1f06 1bbe b5b7 5abe c9ba 96be a7ba 7dbe
000001b0: ae89 78be 244d 83be 2964 28be fe07 17be
000001c0: f008 17be 83d9 8dbe 15a0 a4be 2bf7 5ebe
000001d0: dd6a 78be 4a33 69be 72d5 2fbe 012b 7bbe
000001e0: fd0c 30be c152 32be 370c 8ebe 1301 7abe
000001f0: 8831 63be 9ef6 15be bad5 31be 73a8 73be
00000200: 53ab 47be 00ac acbe 986f 90be 7a48 a5be
00000210: b8af 76be 8622 1c3e 5a7b 9ebe 49c7 6cbe
00000220: f559 9dbe cb2d 97be f474 87be 4b3c 96be
00000230: 77b3 8abe 48f4 84be e756 3ebe b133 84be
00000240: ae06 97be 1dcc 2abe b20c 26be 78fd 76be
00000250: 0fe7 82be ece5 943e dc94 85be 7aa2 4fbe
00000260: a00b 37be 9955 85be 41b0 91be 46b2 31be
00000270: 803b 83be 12fd 9dbe e5f1 dc3c f197 5cbe
00000280: 3540 48be 5204 073e b69d a8be 5deb 883d
00000290: 11ea 1ebe 3b7c 77be aedf 7abe 5ccc 78be
000002a0: de1e 57be d997 593e f8df 29be bd8d 69be
000002b0: 98c6 60be 509f 86be 17c3 05be 6613 5cbe
000002c0: 046b a4be 006e 9fbe 649c 89be b31c aabe
000002d0: 13c8 25be 45be adbe 7e4e 4ebe 0583 8bbe
000002e0: e8f8 64be cb63 63be 1234 6fbe d52d 89be
000002f0: 9e26 87be 681d 90be e783 83be 299f 7cbe
00000300: 3854 8fbe d63d 80be ad00 74be 0049 a1be
00000310: a963 b0be 7f20 b83d e441 cebe cb67 c33d
00000320: 71ac 8bbe 61f3 09be c4b5 ecbe 888e 4cbe
00000330: 8755 cabe 9f74 7bbe dcc9 71be d06d cb3b
00000340: d992 98be 7e64 58be ace7 92be 0043 bdbe
00000350: 774a 8abe a3ed 88be d7dc 47be a7ca 09be
00000360: 8f54 68be fe2d a2be 6998 a2bc ec45 3fbe
00000370: b1ed f5bd 1ad6 9dbe c582 29be 38d3 95be
00000380: 6db4 73be 45b1 aabe a5e4 973e 4ae5 a8be
00000390: a3f5 cfbe e589 bfbe d018 3fbe 4ce4 9cbe
000003a0: 6f1d 22be 33d2 35be cf92 6bbe b277 c9be
000003b0: c238 83be 5529 5abe 0ed0 94be 5064 53be
000003c0: 81b4 2dbe 43ce adbe c262 3dbe 8120 c4be
000003d0: 97ee 8cbe 3fb7 94be 26dd edbd 23b0 86be
000003e0: bd04 64be 0ca4 c4be b071 d4be d82a 4abe
000003f0: d16b a2bd 5016 1ebe cbee 22be ffd0 83be
-0.15418811 -0.23951097 -0.20569429 -0.23690726 -0.22151709 -0.32596916 -0.16744693 -0.26862872
-0.28521723 -0.24942812 -0.25777406 -0.20537753 -0.21192753 -0.29411635 -0.24194477 -0.33295935
-0.31453305 -0.27281338 -0.20964356 -0.25967816 -0.2429244 -0.28271717 -0.26387098 -0.26855013
-0.20135354 -0.27846107 -0.15631822 -0.16728035 0.31835023 -0.21155183 -0.24923366 0.034269992
-0.22507426 -0.30418015 -0.3119559 -0.2339247 -0.14853251 -0.26264635 -0.13552544 -0.24587595
-0.22672212 -0.24323234 -0.15534155 -0.33014506 -0.15901098 -0.16833153 -0.14941667 -0.151883
0.14291605 -0.1669972 -0.21165113 -0.19118714 -0.16212599 -0.2707488 -0.22031286 -0.23223333
-0.21168573 -0.16451119 -0.29954273 -0.28752643 -0.1596099 -0.2890203 -0.1503638 -0.3141928
-0.20644063 -0.15704215 -0.32226384 -0.16060746 -0.21177608 -0.27178177 -0.21347079 -0.26132423
-0.27641183 -0.1800037 -0.15617399 -0.16771051 -0.1687479 -0.35022813 -0.3023471 -0.17609224
-0.23127913 -0.3171242 -0.21115541 -0.18969432 -0.21255141 -0.22672398 -0.2402814 -0.19954371
-0.27174887 -0.20627767 -0.25938213 -0.23732693 -0.12162863 -0.22301239 -0.19559234 -0.27902856
-0.24708721 -0.2565526 -0.16782515 -0.1773468 -0.2449735 0.3918736 -0.21220362 -0.20607314
-0.15139054 -0.21359141 -0.2943938 -0.24778233 -0.2427127 -0.2564479 -0.16444458 -0.14749143
-0.14749503 -0.2770501 -0.32153383 -0.21773975 -0.24259515 -0.22773471 -0.17171267 -0.24528123
-0.17192455 -0.1741438 -0.27743694 -0.24414472 -0.22186863 -0.14644858 -0.17366686 -0.23794727
-0.19498949 -0.33724976 -0.2821014 -0.32281858 -0.24090469 0.15247545 -0.30953485 -0.23122896
-0.30732694 -0.29527125 -0.26456416 -0.29342875 -0.27090046 -0.25967622 -0.18587838 -0.25820687
-0.29497284 -0.16679426 -0.1621578 -0.24120128 -0.2556691 0.29081666 -0.26090133 -0.20276824
-0.17875528 -0.26041868 -0.28454784 -0.17353162 -0.25631332 -0.3085714 0.026970813 -0.21542336
-0.19555743 0.13185242 -0.32932824 0.06685517 -0.15518977 -0.24168484 -0.2449939 -0.24296707
-0.21007869 0.21249332 -0.16589344 -0.22807975 -0.21950758 -0.2629342 -0.13062702 -0.21491775
-0.32112896 -0.3113861 -0.2687713 -0.3322502 -0.16189604 -0.33934227 -0.2014713 -0.27248397
-0.22360575 -0.22206037 -0.23359707 -0.2679278 -0.2639665 -0.28147435 -0.2568657 -0.2467009
-0.2799394 -0.25047177 -0.23828383 -0.31501007 -0.34451035 0.08990573 -0.40284646 0.09541281
-0.2728 -0.13471748 -0.46232426 -0.19976246 -0.39518377 -0.24556206 -0.2361216 0.006208159
-0.29799536 -0.21132085 -0.28692377 -0.3696518 -0.27009937 -0.26743802 -0.19517837 -0.13456212
-0.22688507 -0.31675714 -0.019848065 -0.18679017 -0.12008227 -0.3082741 -0.16553791 -0.2926271
-0.23799296 -0.3333837 0.2966663 -0.32987434 -0.40617093 -0.37409893 -0.18661809 -0.30642927
-0.1583154 -0.17755966 -0.23005222 -0.39349133 -0.2562924 -0.2130483 -0.29064983 -0.20643735
-0.16963388 -0.33946428 -0.18494704 -0.3830605 -0.2752578 -0.29046056 -0.11614446 -0.26306257
-0.22267433 -0.38406408 -0.41492987 -0.19742906 -0.079307206 -0.15438199 -0.15911405 -0.2574539

model.H2X_out_MLP.2.bias f4 [195]
00000000: 259d 71be acd9 ddbe d0b9 773e 618f 863d
00000010: 4ac1 1fbe 51a2 9dbe a9ad 4ebe 1ae5 85be
00000020: 023a abbe 90e8 95be ae80 8cbe dba3 78be
00000030: 5287 7abd dcdd 2ebe 07e7 abbe 37c6 d4be
00000040: 92fe f2bd e0ba 83be e42b 2cbe 1f53 61be
00000050: 8842 a1be ca65 babc c81c bfbe 4538 a5be
00000060: d079 3a3e c3c1 7dbe 668c 16be a4fb 82be
00000070: 6f79 ddbe 82cb 85be f843 3abe aa6d dbbe
00000080: 57ce 8bbe 7b1d 5fbe 9716 81be c66c 96be
00000090: a805 6cbe 6839 a6be 4958 9abe aecb 02be
000000a0: 82f6 3dbe ea63 52be 23fb 2fbe 54a1 8bbe
000000b0: 7eb6 acbe e562 86be 86bc 68be ef2b b5be
000000c0: 60a4 6cbe e08f 5bbe 13d1 7e3e 16dc c13d
000000d0: c196 adbe f2db d5bd 724b 6abe 028d afbe
000000e0: 1af5 90be ab36 91be c3d3 c7be be68 a2be
000000f0: 4514 9dbe aaa7 6ebe 576b 9ebe 8c17 73be
00000100: e4ee 76be c1f2 1abe fb64 b5be 717d 9cbe
00000110: 6cb0 98be f960 8ebe 7843 b9be f9aa b8be
00000120: ea86 8fbe 3f33 adbe 4e17 aabe d979 9cbe
00000130: f591 72be fb72 19be 3454 783d f7fc 9ebe
00000140: a058 86be 7d07 82be 05a6 56be 206f 17be
00000150: 03e9 0b3e 0562 323e 4176 a5be b783 34be
00000160: bac3 b0be 5bde 983c cfc7 a5be 0034 28be
00000170: 2b89 14be b30e c3be e34b 21be 6b5b 41be
00000180: 64bc 3dbe a066 d2be a6e7 6dbe f03e 2cbe
00000190: 050b 7dbe 1c26 75be 2b86 26be cf23 3fbc
000001a0: 7e04 6a3d 8e2e eabd c1fa a8be dc05 d9be
000001b0: 629e 9abe 3f4f 883d 2cf4 7bbe 4a68 c5be
000001c0: 2fd9 eabe 89ff 86be eb24 2bbe 9a4b 16be
000001d0: 4490 f0be 4245 a3be 8138 973d bade 97be
000001e0: 0b15 b0be 3a74 8ebe 94af c4be c404 23be
000001f0: f68a 943d abd4 d4be cbc5 ffbd eae8 b6be
00000200: 958c 6dbe 73ed 17be 0d2e b83d 4129 88be
00000210: 18d4 bcbe ddfe b4be 3533 cdbe 5000 7fbe
00000220: bbde 22be f319 99bc b9e5 72be c968 70be
00000230: 5bb5 9ebe e337 96be 52ab 2cbe 6e0f aebe
00000240: be8c 81be 2a5f b9be 408e 8bbe bf61 d9bd
00000250: 32c1 5cbe 1f99 33be 0a92 49be f7af 23be
00000260: 18e6 74be a677 1abd c243 84be 7655 0dbd
00000270: e3ba dcbe fa6a 8dbe dbda a3be fada 79be
00000280: e621 05be a5dd bcbe 5dd6 b93d 2d37 87be
00000290: 6a0e babe 42cf a2be 7414 11be 31ef 10be
000002a0: 41fc 66be b127 f9bd a2bd 80be 14c8 a6be
000002b0: 0ebd 97be e094 83be 5a72 63be 2970 4dbe
000002c0: 3311 f9be faa7 8dbe 3876 85be 47cc a2be
000002d0: 3363 b7be b22f 71be 0f32 58be 9586 abbe
000002e0: ccf6 c8be d2bb c4be fc31 c7be 1528 9dbe
000002f0: 6684 6cbe db77 a13e 3b22 acbe f129 01bf
00000300: 4296 c8be 262b 4cbe df71 47be
-0.23595102 -0.43330133 0.24191976 0.06570316 -0.15601078 -0.307879 -0.20183434 -0.26151353
-0.33442694 -0.29278994 -0.27441925 -0.24281256 -0.061164208 -0.1707682 -0.33574697 -0.41557476
-0.11864962 -0.25728512 -0.16813618 -0.22004364 -0.31496072 -0.022753615 -0.37326646 -0.32269493
0.1821053 -0.24780945 -0.14701995 -0.25582612 -0.4325671 -0.26131827 -0.1818999 -0.42857105
-0.27305862 -0.2178859 -0.25212547 -0.29379863 -0.23049033 -0.32465672 -0.3014548 -0.1277301
-0.18551067 -0.20545927 -0.17185645 -0.2727152 -0.3373298 -0.26247326 -0.22728166 -0.3538508
-0.23109579 -0.21441603 0.24884443 0.09465806 -0.3390408 -0.10442342 -0.22880343 -0.34287268
-0.28311998 -0.2836202 -0.3902875 -0.31720537 -0.30679527 -0.23306146 -0.3094127 -0.23739451
-0.24114567 -0.15131666 -0.35428604 -0.30564454 -0.298221 -0.2780836 -0.36184287 -0.36067942
-0.2803262 -0.3382816 -0.33220905 -0.30561712 -0.2368849 -0.14985268 0.060627177 -0.31052372
-0.2623949 -0.25396338 -0.20961769 -0.14788485 0.13663106 0.17420204 -0.32316783 -0.1762837
-0.34524328 0.018660715 -0.32379004 -0.16426086 -0.1450545 -0.38097152 -0.15751605 -0.1888253
-0.18528897 -0.41093922 -0.23232898 -0.16820884 -0.24711235 -0.23940319 -0.16262119 -0.011666252
0.05713319 -0.11434661 -0.3300381 -0.42387283 -0.30198961 0.0665574 -0.24604863 -0.3855613
-0.45868823 -0.26366833 -0.16713302 -0.14677277 -0.46985066 -0.31888777 0.07383824 -0.29662114
-0.34391055 -0.2782305 -0.38415205 -0.15919787 0.07253067 -0.41568503 -0.12488898 -0.35724574
-0.23198159 -0.14836673 0.089931585 -0.26593974 -0.36880565 -0.35350695 -0.4007813 -0.24902463
-0.15905277 -0.018689131 -0.23720445 -0.23477472 -0.30997738 -0.29339513 -0.16862229 -0.33996147
-0.2530269 -0.36205417 -0.27256966 -0.10614347 -0.21558073 -0.1753888 -0.19684616 -0.15985094
-0.23915899 -0.037711762 -0.25832945 -0.03450533 -0.43111333 -0.2762068 -0.3200291 -0.24399939
-0.13001212 -0.3688785 0.0907409 -0.26409283 -0.36339122 -0.3179875 -0.14167958 -0.14153744
-0.22557165 -0.12165774 -0.25144678 -0.32574522 -0.29636425 -0.2569952 -0.2221159 -0.20062317
-0.48645934 -0.27667218 -0.26066756 -0.31796476 -0.3581787 -0.2355335 -0.21112846 -0.33501115
-0.3925079 -0.38424546 -0.38905323 -0.30694643 -0.23097381 0.31536755 -0.33619866 -0.5045462
-0.39177138 -0.19938335 -0.19477032

model.H2X_out_MLP.4.weight f4 [1, 195]
00000000: 29da 30be 70fe 2ebc 27e4 5e3d 3e7f 64ba
00000010: 2e6e 58be 077e 903e a313 3abe 141c 883e
00000020: df74 743e 0728 463e a585 063e 8867 cabd
00000030: 619a d53d 214a 38be 8f84 883e 71e5 5d3e
00000040: 7cf1 383e e6eb 5e3a 3efb 303e f983 813e
00000050: c953 913e 9522 c23d 6357 00bd e761 bdbd
00000060: fd04 4a3e 0428 753e be14 383e 8093 69be
00000070: acdb 5d3e ff06 263d 7e02 dfbc a181 823e
00000080: 8839 65be 12dd ac3d c96a 073e 5514 623e
00000090: d53a 4cbe 4367 eebc 6ab1 773e 25a9 0b3e
000000a0: fccd 99be 7930 223e 3b50 303e ed81 a23d
000000b0: d1a5 7e3e 9dd7 893e 4f21 49be 12be 6e3e
000000c0: 8429 63be 5086 093e 8992 663d 6f48 8a3d
000000d0: 42b2 8cbe ce8d c7bd 016b 5b3e 3958 723e
000000e0: 9598 853e f845 2e3e d516 bf3d 2917 7c3e
000000f0: bc19 873e 1468 8d3e f99f e3bd 07b8 18be
00000100: 1754 78be 23b3 0f3e 50b3 66bd 5553 7c3d
00000110: 872f f63b b4e4 51be 5598 f2bd 14db ea3d
00000120: a27b 55bc f61b 863e 629b 8f3e 0bbf 99bd
00000130: b709 0cbe 99e5 5abe c5d7 343e 694b 753e
00000140: 0e4b 9f3c 178d 2abe 1baa 6dbe 92ca 44be
00000150: d12b 2bbe ad4d 433e f701 843e c46e 183e
00000160: 0731 5e3e b076 343d 6c6d 743e fa63 563e
00000170: 3b9e 093e e11c 1bbe 9e40 453e 0a77 463e
00000180: 7335 37be c35b e83d 3c8f 4abe fcbb 30be
00000190: 01f9 7f3e 5a54 653e 4551 ea3d 0f65 423e
000001a0: 6853 6fbd 0be9 f33d db57 43be a38e 8fbd
000001b0: bce7 923e cbe4 40bd 31db 5dbe 7829 43be
000001c0: 6077 2c3d 4da9 13be dc1a 25be 8ff7 1abe
000001d0: d12e c93d a52f 903e 33cc 523d 1077 b4bd
000001e0: 3b47 a5bd 021d 5f3e 9990 863e c676 143e
000001f0: e0ed 1a3d 5ac9 e3bc 9c07 e43d 7d71 12be
00000200: 3a61 f9ba 98e1 44bd a0d3 483e b3fd 6b3e
00000210: 129c 563e 9aa3 903e 2d74 97bc cb18 5bbe
00000220: 4e1b 293e c0ff 43bd 4198 8c3e 66c4 643e
00000230: 53a1 8e3e 8ed1 b3bd abfc 32be c3c9 b63d
00000240: 4aa9 6abe d097 cdbc 442e 3f3e c1d6 703e
00000250: 78f8 633e 62cd 6fbe 9f92 66be 8910 ea3d
00000260: 21eb 7cbe 334c f03d b2f7 3abd 263a 823d
00000270: 1145 03bd 8da0 8ebe 2b2d 753e 843e d5bd
00000280: 94a2 123e 178f 513e 6701 ab3c 3ad4 803e
00000290: 4c8f da3d 1ed1 923e 8216 173e c371 273e
000002a0: c92c 4c3e 5b7c 503e a569 863e 7c4e 863e
000002b0: d3c3 84be 9e13 673e 0ac7 ddbc 2b55 523e
000002c0: 58d0 7a3e 9631 f23d 508a 5f3e 57dc 813e
000002d0: 8336 85be 0291 6a3e 15a3 553e 48af 623e
000002e0: e771 0e3e a6bf 4c3e ca05 103e 2457 5e3e
000002f0: e4b6 2e3d 4847 1e3e 11aa fcbd 78f4 f4bc
00000300: 41ec 593d 1c53 4f3e 4541 2d3e
-0.17270721 -0.01068078 0.0544168 -0.00087164703 -0.2113578 0.2822115 -0.18171553 0.26583922
0.23872708 0.19351207 0.13136919 -0.09883028 0.10429836 -0.17997028 0.26663634 0.21669556
0.18060869 0.00085037795 0.17283341 0.25296 0.28384236 0.09479252 -0.03133334 -0.09247189
0.19728465 0.23941046 0.17976663 -0.22810173 0.2166583 0.040534016 -0.027222868 0.25489524
-0.22385228 0.08440603 0.13224329 0.22078069 -0.19944318 -0.029101973 0.24188772 0.13638742
-0.30039966 0.15838803 0.17218105 0.079349376 0.24867941 0.26922312 -0.19641612 0.23314694
-0.22183806 0.13430142 0.05629209 0.06752097 -0.2747975 -0.09743844 0.21427538 0.23666467
0.26092973 0.17018878 0.09330527 0.2461821 0.2638682 0.27618468 -0.11114497 -0.14913951
-0.24250828 0.14033179 -0.05632335 0.06160291 0.00751299 -0.204974 -0.11845461 0.11467567
-0.013029965 0.26193208 0.28048235 -0.07507142 -0.13675581 -0.21376647 0.17660435 0.23954548
0.019444969 -0.16655384 -0.23209421 -0.192179 -0.16715933 0.190726 0.2578275 0.14886004
0.2169839 0.0440585 0.23869866 0.20936576 0.13439266 -0.15147735 0.19262931 0.19381347
-0.17891483 0.11345627 -0.19781202 -0.1725921 0.24997331 0.22395459 0.11441282 0.18983863
-0.05842915 0.11909684 -0.19076483 -0.07009628 0.28692424 -0.047093194 -0.21665646 -0.19058788
0.042106032 -0.14420052 -0.16123527 -0.15133499 0.09823383 0.2816135 0.05146427 -0.08811772
-0.08070227 0.2178841 0.26282194 0.14498433 0.03782451 -0.027805973 0.11134264 -0.14301105
-0.0019026168 -0.048066705 0.19611979 0.23045997 0.20957974 0.28249818 -0.018488014 -0.21396177
0.16514322 -0.047851324 0.2745991 0.22340545 0.27857456 -0.08780204 -0.17479198 0.08925202
-0.22916141 -0.025096804 0.18669993 0.23519422 0.22262752 -0.23418191 -0.22516869 0.11428935
-0.2469907 0.11733284 -0.045646377 0.06358747 -0.03204829 -0.27856866 0.23943011 -0.104123145
0.14319831 0.2046474 0.020874692 0.25161916 0.10671863 0.2867517 0.1475468 0.1635199
0.19938959 0.20359938 0.26252475 0.26231754 -0.25930652 0.22566077 -0.027072448 0.20540302
0.2449354 0.11825864 0.21830106 0.25363418 -0.26018152 0.22906879 0.20862992 0.22137177
0.13910638 0.19994983 0.14064708 0.21712929 0.042654887 0.15456879 -0.12337125 -0.029901728
0.053203825 0.20246547 0.1691943

exp_avg f4 [65, 65]
00000000: e7b2 003a 8aed 81b9 5292 af39 ecbc 08ba
00000010: da91 e0b9 fb00 553a dd30 fc39 9c71 163a
00000020: 8784 83b8 2d04 beb8 24d0 5339 b486 5fb8
00000030: 5901 17ba c6c1 ab39 4787 85b9 3483 edb9
00000040: 635f 6738 8765 f6b9 b269 b639 11fa 04ba
00000050: 91f9 1139 acae c139 25a2 4838 9ba5 4e3a
00000060: 5832 163a 5cfb d639 0897 9439 3929 f939
00000070: 7e14 c6b9 4e57 5c3a 443f f539 b3da 01ba
00000080: 12fb 0bba da44 f238 b3e0 af38 8154 c839
00000090: c064 3339 1590 c539 a199 dcb9 5145 c339
000000a0: 1780 4f39 e7d7 bab9 03db d9b9 6dc0 beb9
000000b0: 0423 1fb9 b9b8 13ba d973 c9b9 f4ba 2e3a
000000c0: 442a 263a e84c 2bba 1b77 3939 87ea 5db9
000000d0: 58b6 18ba c48a 583a 5123 0eba 123f a539
000000e0: 3680 713a f1f9 c339 c292 33ba 3f3a 233a
000000f0: 3113 79b9 3afe 9039 30e5 31ba 32cb d9b9
00000100: f352 0bba c6c7 2b3a 50c4 5fba b600 b73a
00000110: 4a06 ba39 5e01 183a f4bd a93a 04d6 cc3a
00000120: af86 b63a 56e9 8b3a d5d2 7dba 9f92 8a3a
00000130: f644 573a 2d9e 8cba 99b3 b33a 55ec a4ba
00000140: e219 acba 878a 33ba 5711 a7ba 5937 a3b9
00000150: 6003 8aba 16a8 4e3a 93af 8b3a c16b 933a
00000160: c0d6 cd3a fe7b 983a 9d5c c9b9 3c16 7b3a
00000170: 2a3f bd3a 168b dc39 d342 fb3a 2e6a a63a
00000180: 76fb 56ba ace8 69ba a58e 40ba eb8d a2ba
00000190: 5e46 573a 78d9 81ba 106c 173a 6447 1fb9
000001a0: c6a3 7b3a 3b42 ecb9 3973 acba 01cc 92ba
000001b0: b89e 243a 8b30 113a 1607 8cba 235b b039
000001c0: b3f9 b0b9 7494 9f3a f3c1 d5ba 8d54 43ba
000001d0: 54af 9cba 381e 193a 8d3d bf3a e694 97ba
000001e0: e8dd 88ba d730 5d3a 3bb1 8b3a 92f2 d0ba
000001f0: af33 8e3a b2a3 2c38 973e a83a eb35 d939
00000200: f662 5bba 97d8 88ba c93c 923a 92cc b637
00000210: 7092 9cba dd6c 6539 8b5a 64ba d853 303a
00000220: 5d95 a4ba 1972 75ba 2121 8db9 23b8 143a
00000230: 1259 c0b9 941d 12ba 9e5e 76b9 2734 80b9
00000240: 9a42 9c3a c920 4e3a d266 713a ca55 3438
00000250: 1c67 acb9 f352 693a e610 98b9 cd13 f138
00000260: 0dd1 28ba 9cb3 f2b9 3558 71ba 509f 53b9
00000270: d0bf b838 3b90 84ba c6a2 97ba 3d04 a4ba
00000280: 21ad 87ba 98c4 e438 e739 e239 a85d 9738
00000290: 704c 853a 40f9 a4ba fb2d 3f3a ca9d a9b9
000002a0: 3042 5f3a efac 8bb9 a0c3 2eba 020f a03a
000002b0: dd7b 653a 3c78 48ba 9416 0f3a 8747 db39
000002c0: db6d 83ba 5233 8e3a 63d7 ccb9 84bc 903a
000002d0: 1307 5f3a 70fd 883a f79c 7eba 2965 02ba
000002e0: 763d 6538 c703 a43a 2c33 b33a 4cbc 38ba
000002f0: 46a1 733a 5ccc 68ba c8b0 66b9 3b37 80ba
00000300: 3b7b a5ba 7621 8839 3357 0b3a 2077 0db7
00000310: f0a1 e739 2df6 a2b9 3b9d 7cba 60fc 0db8
00000320: e4fb a539 a0da 0639 e04b 623a 0a1a 1aba
00000330: d07e ab39 9e88 61ba 7412 b8b8 f883 32b9
00000340: 0da6 e5b9 f1f4 7fb8 b036 efb8 75ad 1d37
00000350: 9ff0 c439 5fed 523a c2ae b9b8 c6d3 42ba
00000360: 6b13 ccb9 e968 5fba e510 4239 1566 0739
00000370: 0c44 193a 5293 14ba 454d 053a 481a 9d39
00000380: 5a2c 87b6 0339 5d3a 724f 45b8 bc8c 67b9
00000390: 643c 1a3a ca85 343a 840e 06b9 54aa 5f3a
000003a0: 8f20 8039 6dcf 6e38 fd8f 86b9 19e7 bf38
000003b0: 94c1 8fb9 5af7 2d39 8bdb 91b9 27a3 ceb9
000003c0: 131c 66ba 2413 5d39 df40 0f3a 4bd0 2639
000003d0: 5674 19ba a6e2 d339 a46d 11b9 07d2 90ba
000003e0: 8e51 733a de08 0bba 8fa0 41b9 3128 2d3a
000003f0: 4d51 f339 8dd2 14ba 70ca 323a f291 4c39
0.0004909471 -0.00024781778 0.00033487618 -0.000521614 -0.00042833277 0.0008125451 0.00048101592 0.0005738975
-6.271252e-05 -9.060684e-05 0.00020200067 -5.3292795e-05 -0.00057603937 0.00032760034 -0.00025468526 -0.00045301917
5.5163528e-05 -0.0004699642 0.00034792494 -0.0005072663 0.00013921248 0.0003694197 4.7834725e-05 0.00078829535
0.00057295477 0.00041004538 0.00028341287 0.00047523694 -0.0003778077 0.00084053434 0.00046777178 -0.0004953548
-0.00053398416 0.00011552284 8.386504e-05 0.00038209933 0.00017108303 0.00037682118 -0.00042076132 0.00037244943
0.00019788776 -0.00035637544 -0.00041552642 -0.00036382992 -0.00015176466 -0.0005635131 -0.0003842402 0.00066654314
0.00063386955 -0.0006534592 0.00017687345 -0.0002116357 -0.0005825511 0.0008260424 -0.00054221327 0.00031518243
0.00092125253 0.0003737952 -0.0006850177 0.0006226636 -0.0002375364 0.00027655234 -0.0006786166 -0.00041540858
-0.00053147896 0.0006552901 -0.0008536028 0.0013962004 0.0003548137 0.00057985436 0.0012950287 0.0015627746
0.0013925637 0.0010674398 -0.00096826005 0.0010572261 0.0008211875 -0.0010728292 0.001371014 -0.001258264
-0.0013130272 -0.000684895 -0.0012746257 -0.0003113102 -0.001052957 0.0007883323 0.0010657184 0.0011247323
0.0015704259 0.0011633632 -0.0003840671 0.00095782033 0.001443838 0.00042065297 0.0019169695 0.0012696439
-0.0008200923 -0.00089229154 -0.00073454744 -0.0012401914 0.00082120846 -0.000990673 0.00057762954 -0.00015190017
0.0009599294 -0.00045062773 -0.0013156898 -0.0011199714 0.00062797545 0.00055385445 -0.0010683264 0.00033637238
-0.00033755376 0.001217498 -0.0016308412 -0.0007451259 -0.0011954107 0.000584099 0.0014590487 -0.0011564761
-0.001044211 0.00084377587 0.0010657677 -0.0015941432 0.0010849143 4.116045e-05 0.0012836036 0.00041429637
-0.00083689333 -0.0010440525 0.0011157031 2.1791351e-05 -0.0011945497 0.00021879697 -0.0008711002 0.0006726361
-0.0012556721 -0.000936301 -0.000269183 0.00056731905 -0.00036687456 -0.00055738655 -0.00023495636 -0.0002445292
0.0011921704 0.0007863162 0.0009208742 4.299524e-05 -0.0003288322 0.0008900605 -0.0002900429 0.00011495464
-0.00064398424 -0.00046291656 -0.0009206564 -0.00020181877 8.8095316e-05 -0.0010113785 -0.0011568896 -0.001251347
-0.0010351279 0.00010908506 0.0004314922 7.217686e-05 0.0010169875 -0.0012586489 0.00072929234 -0.00032351754
0.00085166376 -0.00026640992 -0.00066667236 0.0012211504 0.0008754114 -0.0007647311 0.00054583815 0.00041824227
-0.0010027246 0.0010849035 -0.00039070388 0.001104251 0.0008507829 0.0010451507 -0.00097127206 -0.00049741805
5.4655095e-05 0.0012513333 0.0013671867 -0.00070471014 0.0009293746 -0.00088805496 -0.00022000365 -0.0009782085
-0.0012625227 0.00025964872 0.0005315423 -8.431991e-06 0.00044180406 -0.00031082463 -0.0009636466 -3.3852062e-05
0.00031658926 0.0001286068 0.0008632522 -0.0005878514 0.00032710144 -0.00086034264 -8.777241e-05 -0.00017024565
-0.00043802 -6.1024857e-05 -0.000114065944 9.398315e-06 0.0003756331 0.00080462353 -8.8540386e-05 -0.00074320694
-0.0003892438 -0.0008522408 0.00018507575 0.00012912632 0.00058466266 -0.00056677044 0.00050850614 0.00029964955
-4.0284767e-06 0.00084389764 -4.704245e-05 -0.00022082304 0.00058836327 0.0006886391 -0.00012784643 0.0008532156
0.0002443832 5.6936802e-05 -0.0002566575 9.150635e-05 -0.00027419312 0.00016590711 -0.00027820127 -0.0003941294
-0.0008777987 0.00021083333 0.00054646836 0.00015908589 -0.0005853822 0.00040413922 -0.00013869122 -0.0011048921
0.0009281867 -0.00053037505 -0.00018465727 0.0006605415 0.00046409146 -0.00056771265 0.00068203267 0.00019509325

exp_avg_sq f4 [65, 65]
00000000: 0ab2 5740 3799 cd3f 722f 3a40 459c 823f
00000010: e4d8 0240 f527 8740 7fcd c641 6354 4c40
00000020: 18db 7241 8552 823f abf7 b73f cca9 a73f
00000030: af79 b13f 31c7 3a3f d9dc 2b41 2383 7d40
00000040: eaf6 0d40 28e4 e63f f88f f33f d882 b73f
00000050: 5129 7a3f 7140 b33f 4cd5 df3f f771 8440
00000060: 9653 883f 4be5 5840 630f d440 98d2 cf40
00000070: 243d f43f 11e8 6440 eae7 d040 6b55 a33e
00000080: a849 883f ed0b 873f 5396 6c3e c6d1 c541
00000090: bfe3 3b40 4637 e43f 0287 863f 4c29 e43f
000000a0: b715 713f d3b5 d23f a842 953f 7937 203f
000000b0: dce5 3641 99dc ee3f 9b02 2541 1de4 d241
000000c0: 1a69 2040 4f0b 2c40 168f 7940 6de4 8941
000000d0: 5e36 2d3f f874 9a41 b4e5 833f a22f 913f
000000e0: 262f 5e41 fe23 e340 866d df40 0674 7f3f
000000f0: 93fa f93e d97e 2341 5aef a23f 973f 2f3f
00000100: e25f 0140 bffb 7241 2990 0241 59db 9940
00000110: d11f 6841 7996 1a41 0bfe a541 5620 0f42
00000120: 71f9 2e41 802a 9041 24a6 0142 c451 5642
00000130: 3b82 1e42 71eb 6c40 fa28 0d40 2bb1 3c41
00000140: 7fe0 2341 1c7f a341 a645 4041 86a6 c040
00000150: b36d 8e41 0db7 0b42 5c98 0041 7b49 ce41
00000160: 7567 5d42 f361 7342 673e 4842 8468 3342
00000170: 57fd 0d41 fa08 c441 7b0b 9d40 04c4 3842
00000180: 7f27 e441 2361 1b42 a827 ed41 fab5 8a42
00000190: 348a ae41 7081 4041 3665 8440 b1ed a340
000001a0: a56f 3e41 f36f ea40 f19a 5141 8120 9e42
000001b0: dbf9 8e42 4f52 7741 82d9 e440 c909 3542
000001c0: 36bf 1942 7b08 5a41 c1ad 5c3f d3d6 e141
000001d0: 2cb3 2242 354b ba3f 8dda 9b41 7589 3e42
000001e0: 1305 0541 8eea ad42 f3bf 1941 4093 5c42
000001f0: 3df5 b542 7b90 4441 cdf0 8242 3628 7e42
00000200: 20ac 2442 32ca 5342 581a 0041 0f00 5541
00000210: a900 b440 e3c4 1541 84aa 2d41 328c 3941
00000220: e32c e940 4ffc 5241 b3aa d940 964d 3241
00000230: 7177 4841 81f1 1741 f9f2 5d40 dfea 3340
00000240: 8793 4241 26f1 0241 8dc7 0041 fa32 a440
00000250: 6ebb 9540 b499 4041 151c c740 8d1c 4341
00000260: 6043 c640 5f17 3541 3824 8341 96ed 4941
00000270: 39d9 1b41 88fd cf40 e7b0 6d41 a45f 8840
00000280: f2f5 a341 1a3a 2241 a1e5 1b41 ed02 0b41
00000290: 98d6 8541 1fa7 2541 6561 1841 5831 3940
000002a0: 08de 7a40 9907 d640 c50c e140 bc52 a540
000002b0: 74c2 9541 7b88 9f41 fd59 f140 0ef5 0e41
000002c0: e556 8a41 0872 4141 aadb 9d40 9bf5 1740
000002d0: fc7e 1441 36f2 4a41 5415 ac3f 3352 5740
000002e0: 9f81 2e41 f929 8740 d1a8 e241 a6eb d740
000002f0: 5029 aa41 13fb cc41 1c25 6740 374d a741
00000300: 6c3c ad41 17c9 e040 7b4c 3b41 c29f 8640
00000310: 08ed ce40 45c8 e73f be1e 7040 5f73 ab40
00000320: 3184 9740 e438 6740 554f 8f40 6743 8740
00000330: f584 8140 dd34 de40 ed7c ce40 c69c 0840
00000340: 1f38 c340 e096 4440 4725 5c40 c151 4f40
00000350: e60b e63f ebdb 2a40 4267 3740 c2e6 f440
00000360: 3b1f 3e41 59df f940 dede 0741 23eb 2541
00000370: 636f 1041 30ec 1341 7f91 1341 dfb9 be40
00000380: d331 b33f 8031 1f41 1c53 4240 81b7 1940
00000390: 4c35 0c41 0e06 cd40 b20a c340 df20 dc40
000003a0: 5983 af3f e786 fb3f 5baa 3140 a243 3f41
000003b0: 0655 8f40 8141 1e41 b4be 2941 c64d 0241
000003c0: 2340 5b40 601d a640 25d5 d140 1bdd 8541
000003d0: 3daa 4240 7810 8f40 9425 1341 6a73 ee3f
000003e0: a042 b340 e15c a540 f1d8 af40 ca54 8141
000003f0: 974d 6a40 5049 cd40 73d4 6441 2695 bb3f
3.3702416 1.6062382 2.9091458 1.020394 2.044488 4.2236276 24.85034 3.1926506
15.17849 1.0181433 1.4372457 1.3098693 1.386526 0.7296019 10.741418 3.961129
2.2181954 1.8038378 1.9028311 1.4336805 0.97719294 1.4004041 1.7486968 4.1389117
1.0650508 3.388995 6.6268783 6.4944572 1.9081159 3.5766642 6.52831 0.31901106
1.0647478 1.0550514 0.23104219 24.727428 2.9357755 1.7829368 1.0509951 1.7825103
0.9417376 1.6461738 1.1660967 0.62584645 11.431118 1.8661071 10.313136 26.361383
2.506415 2.6881902 3.8993583 17.236536 0.6766108 19.307114 1.0304475 1.1342661
13.886511 7.0981436 6.9821196 0.9978641 0.48823985 10.218469 1.2729294 0.68456405
2.0214772 15.186461 8.160195 4.808026 14.507768 9.6617365 20.749044 35.781578
10.935899 18.020752 32.412247 53.57985 39.62718 3.7018702 2.205626 11.793254
10.242309 20.437065 12.017004 6.0203276 17.803564 34.92876 8.037197 25.78588
55.351032 60.845654 50.06094 44.852066 8.874351 24.504383 4.9076514 46.19142
28.519285 38.84486 29.644363 69.35542 21.817482 12.031601 4.137355 5.122765
11.902257 7.3261657 13.1003275 79.063484 71.488 15.457595 7.1515512 45.259556
38.43673 13.62707 0.8620263 28.229895 40.674973 1.4554201 19.481714 47.634235
8.313739 86.958115 9.609363 55.1438 90.97898 12.285274 65.470314 63.53927
41.16809 52.947456 8.006432 13.312514 5.6250806 9.360568 10.85413 11.596727
7.2867293 13.186599 6.8020873 11.143942 12.5291605 9.496461 3.4679549 2.8112104
12.161017 8.183874 8.048718 5.1312227 4.6791296 12.037525 6.222178 12.19447
6.1957245 11.318206 16.392685 12.620504 9.740533 6.4996986 14.855689 4.261675
20.49509 10.139185 9.743562 8.688214 16.729782 10.353301 9.523778 2.8936367
3.9198017 6.6884274 7.032809 5.1663494 18.719948 19.94164 7.542235 8.934828
17.292429 12.09034 4.9330645 2.3743656 9.281002 12.684134 1.3444009 3.364392
10.906646 4.2238736 28.33243 6.7475157 21.270172 25.622595 3.61164 20.912703
21.654503 7.024547 11.706172 4.2070017 6.4664345 1.8107992 3.7518764 5.3578334
4.7348866 3.6128473 4.478434 4.226978 4.04748 6.943953 6.4527497 2.1345687
6.1006007 3.0717087 3.4397752 3.2393649 1.7972381 2.6696727 2.8656774 7.6531687
11.882625 7.808514 8.491911 10.369906 9.027194 9.245163 9.2230215 5.9601893
1.399958 9.949585 3.0363226 2.4018252 8.763012 6.406989 6.0950556 6.8790126
1.3711959 1.9650544 2.7760227 11.954012 4.479129 9.890992 10.609058 8.143988
3.4257896 5.191086 6.5572686 16.732962 3.0416405 4.4707603 9.196674 1.8628972
5.601883 5.1675878 5.495232 16.1664 3.6609857 6.4151993 14.3018675 1.4654891

exp_avg f4 [65, 1]
00000000: 0c72 db3c a356 9bbc 7b93 cf3b 6a89 f53b
00000010: c8e5 b7bb 7168 643a 0ebf b83b 7225 85ba
00000020: de30 213d f2ba 03bc 038c 4bba b350 29bb
00000030: 634b 9b3a d131 acbb 399f 2ebc 16db 11bb
00000040: 3fc9 c6ba 6a8d 99bb af33 a3bb 8d61 b3ba
00000050: 14c2 f33a ccfc 063d 496b 373c 99d9 c03c
00000060: ae11 1c3a f337 833b 835b 003c af07 2bbb
00000070: 5f9c d4bb ffa0 363b bf37 00ba e160 0c3c
00000080: 2c49 55bc 0416 243a 7717 37bb 17b0 ce39
00000090: 4416 e0bb d66a 353a a394 6db8 b211 ff3b
000000a0: 508a 483b 6586 41bb 8cbb 9dbc 5d97 7bba
000000b0: 5579 25ba 83ec 473c 0c94 02bd 1f92 423c
000000c0: 431c d23b c892 cebb 35c8 8e3b 37eb 913b
000000d0: 1c1a 9f3b f4b2 8d3b 6c83 5e3c 111c 593b
000000e0: f040 263d c15f 1cbc 8743 003a 867c 9039
000000f0: 2587 0abc a710 8dbc 9743 1abc 0d29 aab9
00000100: ef9e 583a
0.02678778 -0.01896221 0.0063347197 0.0074931877 -0.005612109 0.0008713073 0.00563801 -0.0010158254
0.039353244 -0.008040177 -0.0007764699 -0.0025835454 0.0011848029 -0.005254962 -0.010658079 -0.002225583
-0.0015166177 -0.0046860473 -0.0049805264 -0.0013685689 0.0018597268 0.03295593 0.011195012 0.023541259
0.0005953562 0.0040044724 0.007834318 -0.002609711 -0.0064883674 0.0027866957 -0.00048911193 0.00856802
-0.013017934 0.0006259384 -0.002793757 0.0003942258 -0.006838592 0.0006920522 -5.6643632e-05 0.007784092
0.0030600019 -0.0029529568 -0.019254468 -0.0009597445 -0.00063123304 0.012202385 -0.03187947 0.011875658
0.0064120605 -0.006304119 0.0043573626 0.0044530886 0.0048554074 0.0043243114 0.013581138 0.00331283
0.040589273 -0.009544314 0.0004892875 0.00027558598 -0.0084550725 -0.017219855 -0.009415529 -0.00032455512
0.0008263429
