GRNN with input mlp/dpe1fw8t/checkpoints/epoch=29-step=300.ckpt (torch, 23117 bytes, 30 tensors)

model.H2X_out_MLP.0.weight f4 [3, 1]
-0.43139622 0.4333019 0.71789134
00000000: f7df dcbe bfd9 dd3e bac7 373f

model.H2X_out_MLP.0.bias f4 [3]
-0.8497465 0.83499676 -0.74443614
00000000: fd88 59bf 59c2 553f 5e93 3ebf

model.H2X_out_MLP.2.weight f4 [3, 3]
0.34015283 -0.44234875 0.5426026 0.0088710375 -0.4647898 -0.49022335 -0.20588836 -0.12298143
-0.17583604
00000000: 8328 ae3e 897b e2be 01e8 0a3f d457 113c
00000010: eef8 edbe 8efe fabe 66d4 52be b0dd fbbd
00000020: 5d0e 34be

model.H2X_out_MLP.2.bias f4 [3]
-0.28916475 0.28921065 0.4780985
00000000: 670d 94be 6b13 943e 54c9 f43e

model.H2X_out_MLP.4.weight f4 [1, 3]
-0.03202551 0.09364421 0.46382397
00000000: 2e2d 03bd 89c8 bf3d 567a ed3e

model.inputMLP.0.weight f4 [3, 1]
0.87876254 0.14904642 0.91587806
00000000: 95f6 603f a09f 183e fc76 6a3f

model.inputMLP.0.bias f4 [3]
0.8914874 -0.908913 -0.71550286
00000000: 8538 643f 86ae 68bf 322b 37bf

model.inputMLP.2.weight f4 [3, 3]
0.224984 0.24415284 -0.240129 0.5778752 -0.420795 -0.17864686 0.45127684 -0.21802822
0.40411174
00000000: 3562 663e 3403 7a3e 60e4 75be a1ef 133f
00000010: 7172 d7be 34ef 36be c20d e73e ca42 5fbe
00000020: bce7 ce3e

model.inputMLP.2.bias f4 [3]
-0.21718629 -0.21495017 0.5590957
00000000: 1566 5ebe e61b 5cbe e520 0f3f

model.inputMLP.4.weight f4 [1, 3]
-0.5550149 -0.15198594 0.25184342
00000000: 7515 0ebf 34a2 1bbe 9ff1 803e

exp_avg f4 [3, 1]
-3.5643145e-05 7.640005e-05 -9.369883e-05
00000000: 897f 15b8 f738 a038 2d80 c4b8

exp_avg_sq f4 [3, 1]
1.5268857e-06 1.3040477e-05 1.619763e-05
00000000: 65ef cc35 6cc8 5a37 25e0 8737

exp_avg f4 [3]
2.1140927e-06 3.7339698e-06 -4.5793804e-06
00000000: d6df 0d36 1d95 7a36 94a8 99b6

exp_avg_sq f4 [3]
6.798276e-09 4.13286e-08 5.1199738e-08
00000000: 4596 e931 4781 3133 b5e6 5b33

exp_avg f4 [3, 3]
4.320329e-05 -8.1885795e-05 -0.00011768727 -0.00012630301 8.636136e-22 0.0 1.4891535e-18 5.112128e-21
1.8693246e-21
00000000: 2e35 3538 1aba abb8 dfce f6b8 3570 04b9
00000010: 6f81 821c 0000 0000 a1c2 db21 7821 c11d
00000020: ff3d 0d1d

exp_avg_sq f4 [3, 3]
8.7906056e-07 1.5329233e-05 2.5498184e-05 8.9304805e-05 1.6639242e-19 0.0 5.3602343e-13 4.9934135e-18
6.452186e-19
00000000: 95f8 6b35 4797 8037 efe4 d537 2749 bb38
00000010: 0671 4420 0000 0000 8fe0 162b 7539 b822
00000020: 576f 3e21

exp_avg f4 [3]
-1.7155677e-06 -1.9659696e-05 6.564036e-19
00000000: 7542 e6b5 e0ea a4b7 74bc 4121

exp_avg_sq f4 [3]
2.1681616e-07 2.7562712e-06 9.590206e-14
00000000: f9cd 6834 61f8 3836 c6f3 d729

exp_avg f4 [1, 3]
0.00038866384 -7.266136e-05 2.6153152e-20
00000000: 94c5 cb39 c561 98b8 7102 f71e

exp_avg_sq f4 [1, 3]
0.002908363 4.0344137e-05 2.1270833e-15
00000000: 3c9a 3e3b 3037 2938 c345 1927

exp_avg f4 [3, 1]
-4.358117e-06 0.0 0.0
00000000: f13b 92b6 0000 0000 0000 0000

exp_avg_sq f4 [3, 1]
1.4261268e-08 0.0 0.0
00000000: b801 7532 0000 0000 0000 0000

exp_avg f4 [3]
-9.8141e-06 0.0 0.0
00000000: 3da7 24b7 0000 0000 0000 0000

exp_avg_sq f4 [3]
9.965007e-07 0.0 0.0
00000000: 81bf 8535 0000 0000 0000 0000

exp_avg f4 [3, 3]
-7.120737e-05 0.0 0.0 -1.951091e-05 0.0 0.0 3.2338885e-05 0.0
0.0
00000000: 2a55 95b8 0000 0000 0000 0000 5cab a3b7
00000010: 0000 0000 0000 0000 9da3 0738 0000 0000
00000020: 0000 0000

exp_avg_sq f4 [3, 3]
1.8438614e-07 0.0 0.0 6.891506e-05 0.0 0.0 0.0001702149 0.0
0.0
00000000: adfb 4534 0000 0000 0000 0000 7e86 9038
00000010: 0000 0000 0000 0000 b77b 3239 0000 0000
00000020: 0000 0000

exp_avg f4 [3]
-5.5613407e-05 -1.5231703e-05 2.524684e-05
00000000: 7142 69b8 ab8b 7fb7 2dc9 d337

exp_avg_sq f4 [3]
1.305462e-07 7.0689035e-05 0.0001745946
00000000: 442c 0c34 e33e 9438 6213 3739

exp_avg f4 [1, 3]
6.7015217e-06 5.2645453e-05 0.000113990674
00000000: a2dd e036 a0cf 5c38 470e ef38

exp_avg_sq f4 [1, 3]
8.312078e-10 0.0003834851 0.0028364663
00000000: 0d7b 6430 800e c939 02e4 393b
