Test GCNN RNN/k00pxwm4/checkpoints/epoch=11-step=456.ckpt (torch, 976649 bytes, 36 tensors)

model.GCNN.graph_convolution.bias f4 [10]
-0.00024728142 0.00010969183 0.00077809556 -0.00013455481 0.0021881778 0.0007583018 0.0012762403 -0.0009655099
0.0011771114 -0.003846688
00000000: 8da5 81b9 5a0a e638 1cf9 4b3a 4817 0db9
00000010: 8867 0f3b c6c8 463a 8547 a73a 461a 7dba
00000020: 4e49 9a3a b718 7cbb

model.GCNN.graph_convolution.lin.weight f4 [10, 1]
0.31034914 -0.48554856 -0.70562154 0.53685683 0.4714814 -0.60152006 0.5707015 0.6641714
-0.23443018 0.3094167
00000000: 15e6 9e3e d299 f8be 9da3 34bf 736f 093f
00000010: 0366 f13e 38fd 19bf 7e19 123f 2307 2a3f
00000020: 770e 70be de6b 9e3e

model.RNN.weight_ih_l0 f4 [159, 11]
0.009219274 0.0381301 0.05273713 0.042272434 -0.0015251875 -0.0018319951 0.0016769079 0.08715508
0.057357535 -0.059019525 0.049873598 0.00031711184 -0.02437061 -0.080465786 0.06390477 -0.01773246
0.0647243 -0.06552208 0.046289667 -0.007579004 -0.048783645 0.008484445 0.04354176 0.037982807
0.007388257 -0.031169817 -0.06685589 -0.0037198595 0.021109046 0.023548165 0.07625009 0.0043201153
-0.016206704 0.07097108 0.020747276 -0.075953774 0.04454201 0.04773194 0.027394764 0.03072097
-0.044422857 0.02767336 -0.047880024 -0.05978185 -0.04476711 -0.044433195 -0.04095669 0.019100424
-0.074559495 0.015289964 -0.051069953 0.07739329 -0.060912456 0.06507407 -0.028646296 -0.051475752
0.009238382 0.06247253 -0.015949968 0.060342442 0.06611825 0.079396196 -0.06517937 -0.032752093
-0.027882434 0.027540302 0.021925353 0.061110243 0.0071754833 -0.05354506 0.08668614 0.031721152
0.040799122 -0.06528739 -0.022001905 -0.08690733 -0.036486894 -0.065468565 -0.06848484 0.011042405
0.040934194 0.03772724 0.040550202 0.04183334 -0.06277943 -0.015995534 -0.07132031 -0.015073849
-0.03860526 -0.031333473 -0.041501198 -0.03220008 -0.056866914 -0.01227033 0.031055713 -0.04336152
0.05582001 0.06219312 -0.0516211 -0.014682606 -0.0024279638 -0.012541361 0.058199313 0.054524697
-0.023204353 0.056890853 -0.035530414 0.052348167 0.062260702 0.035020538 0.051102232 0.065185286
0.08127987 -0.062426135 0.015930513 -0.059988074 -0.014027641 0.047310848 -0.074377656 0.07363593
-0.030466495 0.03965874 -0.064479195 0.012302079 -0.008155369 -0.007501963 0.052390978 0.0548556
-0.06636765 -0.07922281 0.050154738 -0.088236116 0.06388948 -0.042538147 0.034100655 -0.041065115
0.036293276 0.08012146 -0.052866302 -0.0379903 0.057920843 0.055339668 -0.012632242 -0.042349562
0.013329968 -0.035113882 0.08059643 -0.07755171 0.011893949 -0.042703915 0.07238534 -0.029953849
-0.05328019 -0.030331561 0.0057515283 0.013545105 0.009340078 -0.08090479 -0.011260201 0.017875059
-0.05448323 -0.017454112 0.04494572 0.013120527 0.026641572 -0.023316676 -0.012036506 -0.027981909
0.09062639 -0.018006776 -0.027552027 -0.040062416 0.011141696 -0.04305851 -0.013810716 -0.055102717
0.07207293 -0.056697246 0.041490518 -0.05963153 0.04362525 -0.07543376 0.029426664 0.030116769
0.06849956 0.06393547 -0.0721225 0.07963459 0.02656441 -0.041895546 0.09299238 -0.060505044
-0.059290115 0.09859043 -0.00079969113 -0.05659405 -0.028735936 0.037085813 0.091051124 -0.09011583
-0.03580177 0.06418225 0.056596875 -0.08340669 0.054831762 0.04896263 -0.013814461 0.090523146
-0.037837442 -0.08003412 0.061271157 0.053082243 -0.07011206 0.0033866824 0.0057117487 0.07413663
0.056061987 -0.061715443 0.0053759757 0.079201296 0.06304432 -0.0030592869 0.039196964 -0.0033329646
-0.07169167 0.06449697 -0.06324967 0.0008501146 -0.015470893 0.008287568 -0.02385904 0.08096319
0.0372335 0.07105514 -0.007066327 -0.037394974 0.0076156044 0.04646925 0.0093603525 -0.046106428
0.04700614 0.021254903 0.036561783 0.08545306 -0.069710426 0.028899198 0.05411801 -0.032963704
-0.017123839 -0.0052892086 -0.058581416 0.016097192 0.013592228 -0.00036053066 0.052825846 -0.10907079
00000000: 700c 173c 4f2e 1c3d e402 583d dc25 2d3d
00000010: cde8 c7ba 8e1f f0ba b1cb db3a 5d7e b23d
00000020: bcef 6a3d 75be 71bd 4248 4c3d 0842 a639
00000030: e0a4 c7bc 3fcb a4bd 81e0 823d aa43 91bc
00000040: 2c8e 843d 7130 86bd 3c9a 3d3d 4b59 f8bb
00000050: 5cd1 47bd 5702 0b3c d858 323d dc93 1b3d
00000060: 3119 f23b d857 ffbc beeb 88bd e3c8 73bb
00000070: e1ec ac3c 15e8 c03c 0229 9c3d c18f 8d3b
00000080: ecc3 84bc 4959 913d 31f6 a93c a78d 9bbd
00000090: af71 363d 9182 433d fc6a e03c 8baa fb3c
000000a0: bef4 35bd 3eb3 e23c d81d 44bd d0dd 74bd
000000b0: b85d 37bd 95ff 35bd 34c2 27bd 7e78 9c3c
000000c0: a6b2 98bd c282 7a3c ba2e 51bd 6080 9e3d
000000d0: 577f 79bd 8e45 853d a3ab eabc 3dd8 52bd
000000e0: 955c 173c 32e3 7f3d 82a9 82bc a329 773d
000000f0: 0169 873d 799a a23d c37c 85bd 0f27 06bd
00000100: b469 e4bc 339c e13c cc9c b33c bc4e 7a3d
00000110: 5120 eb3b 1152 5bbd 8188 b13d 0aee 013d
00000120: fb1c 273d 65b5 85bd 573d b4bc 78fc b1bd
00000130: 4873 15bd 6214 86bd c841 8cbd 34eb 343c
00000140: 9daa 273d e187 1a3d f817 263d 7059 2b3d
00000150: 8092 80bd 1109 83bc 6210 92bd 4ef8 76bc
00000160: 8d20 1ebd 8757 00bd 29fd 29bd 3be4 03bd
00000170: 48ed 68bd 7f09 49bc 8d68 fe3c d99b 31bd
00000180: 86a3 643d 37be 7e3d a670 53bd 508f 70bc
00000190: 791e 1fbb 487a 4dbc 6762 6e3d 4a55 5f3d
000001a0: 0e17 bebc 6206 693d 5788 11bd 086b 563d
000001b0: 1405 7f3d b271 0f3d 9350 513d dd7f 853d
000001c0: 0f76 a63d 8cb2 7fbd b580 823c 0eb6 75bd
000001d0: 31d4 65bc 05c9 413d 5053 98bd 6fce 963d
000001e0: df94 f9bc 3471 223d ab0d 84bd a98e 493c
000001f0: 199e 05bc 07d3 f5bb ec97 563d 44b0 603d
00000200: c3eb 87bd 923f a2bd 0e6f 4d3d 23b5 b4bd
00000210: 7dd8 823d 7b3c 2ebd 21ad 0b3d e533 28bd
00000220: 42a8 143d b816 a43d 568a 58bd b89b 1bbd
00000230: 683e 6d3d d9ab 623d 77f7 4ebc bc76 2dbd
00000240: f065 5a3c 93d3 0fbd be0f a53d 6ed3 9ebd
00000250: d6de 423c 4dea 2ebd c43e 943d c661 f5bc
00000260: 543c 5abd e579 f8bc 5177 bc3b 4aec 5d3c
00000270: 2007 193c 69b1 a5bd b57c 38bc b76e 923c
00000280: cf29 5fbd edfb 8ebc 0119 383d 7bf7 563c
00000290: 6d3f da3c 9d02 bfbc c434 45bc 513a e5bc
000002a0: 549a b93d f282 93bc cab4 e1bc 7d18 24bd
000002b0: a98b 363c 1f5e 30bd 5746 62bc 63b3 61bd
000002c0: f99a 933d 5f3b 68bd f6f1 293d 3140 74bd
000002d0: 64b0 323d 047d 9abd 3010 f13c 71b7 f63c
000002e0: 7f49 8c3d 9af0 823d f6b4 93bd 7617 a33d
000002f0: 9b9d d93c aa9a 2bbd ca72 be3d 23d4 77bd
00000300: 31da 72bd c8e9 c93d 5da2 51ba 2acf 67bd
00000310: a067 ebbc 4be7 173d 0379 ba3d a68e b8bd
00000320: e0a4 12bd fc71 833d 20d2 673d 20d1 aabd
00000330: 4597 603d 0a8d 483d 0d56 62bc 3364 b93d
00000340: 6ffb 1abd eee8 a3bd 77f7 7a3d c46c 593d
00000350: e996 8fbd 1af3 5d3b 9f29 bb3b f2d4 973d
00000360: 41a1 653d 55c9 7cbd f428 b03b 4a34 a23d
00000370: 611d 813d 517e 48bb ff8c 203d de6d 5abb
00000380: 15d3 92bd fd16 843d 0b89 81bd 3ada 5e3a
00000390: a179 7dbc 94c8 073c 0974 c3bc 07d0 a53d
000003a0: 2882 183d 5b85 913d a68c e7bb 792b 19bd
000003b0: 528c f93b 8a56 3e3d 2a5c 193c 18da 3cbd
000003c0: 8389 403d c31e ae3c cfc1 153d 0402 af3d
000003d0: 57c4 8ebd 03be ec3c d9aa 5d3d f304 07bd
000003e0: 4b47 8cbc 1951 adbb 11f3 6fbd 42de 833c
000003f0: f0b1 5e3c 9b05 bdb9 ea5f 583d 8260 dfbd

model.RNN.weight_hh_l0 f4 [159, 159]
-0.044757057 -0.03479955 0.066531554 -0.06395791 0.033302266 0.07235264 -0.05498557 -0.039275438
0.027803775 0.018677441 -0.065973744 -0.03182942 -0.080326155 0.029134743 -0.03315427 0.06525466
0.07426796 -0.02435823 0.036852438 -0.04414635 0.0712712 0.05999602 -0.035124477 0.058105517
0.021416996 0.06322869 0.06940531 -0.0014164739 -0.049203616 0.07002987 -0.022447197 0.012342066
0.033604383 0.046913408 -0.0016229666 0.052708384 0.07745461 0.022424784 0.05267264 0.021270214
-0.027567975 0.010040594 -0.04562109 0.029276429 0.002243129 0.042344164 -0.040396433 -0.06625462
-0.04860042 0.078148216 -0.067782566 0.014601512 0.05245856 0.030666573 0.027482584 -0.034353673
0.05069293 -0.055070683 0.07234857 0.029651215 0.042629432 -0.043322504 0.03206415 -0.04004117
-0.04838026 0.00100013 -0.037681255 -0.003494155 -0.06451918 -0.06529187 0.048209377 0.034489386
0.02901225 -0.018826928 0.026515514 -0.015886735 0.013423952 -0.031425875 -0.07310629 0.024315488
0.03944239 -0.07154776 0.061523143 -0.054484505 -0.064588256 -0.08080246 -0.005341006 -0.037681215
-0.021394351 -0.009925395 0.021885164 -0.0109455995 -0.04110471 -0.065091155 -0.013037204 0.053135764
0.04815906 0.016927294 -0.0636293 -0.04637625 0.043408845 0.07139525 -0.063071065 -0.065556996
0.008393582 -0.03472959 0.00166575 -0.05782241 -0.024233393 -0.06954533 0.02444532 0.005277167
-0.07682326 -0.009499239 -0.018408049 -0.051684245 -0.028915513 -0.027292887 0.050579973 -0.060131446
0.0682781 -0.08707591 -0.004600064 0.031427924 -0.017271314 0.051735867 0.016008548 0.03602926
-0.03469671 -0.00740124 0.040574633 0.04966308 0.05659565 -0.016635463 -0.05897275 -0.0033015073
-0.036072534 0.0847945 0.00971302 -0.004011415 -0.04066057 0.0473194 0.05542239 0.062657475
0.032769606 -0.0701984 -0.033473745 -0.0053155185 -0.080561414 -0.045012724 0.03328914 0.07177775
-0.056127824 -0.019900253 -0.043091726 0.016623728 -0.05066115 -0.02434213 -0.019447448 -0.010077927
-0.038460013 -0.03017799 -0.030990055 0.04954931 -0.012386648 0.028529888 -0.0460284 0.053798366
-0.016815417 -0.0012775067 -0.051921684 -0.07617622 0.07325899 -0.049640514 0.017486842 0.010287321
0.003267066 -0.04345708 -0.005567988 0.0030632673 -0.06768452 -0.024033649 0.062157746 -0.0637316
0.016920151 -0.05871851 -0.02558766 0.013212148 0.00045507748 0.06810068 0.03496065 -0.033306926
-0.056701723 -0.07280844 0.016132008 0.06671741 0.016702773 0.06873088 -0.033129293 -0.01438142
0.061505232 -0.051258564 0.022208555 -0.036475275 0.0067184293 0.055745512 0.004085149 0.07660533
0.06205436 -0.044995725 -0.077334024 0.03795131 -0.041438047 0.008683391 0.043390613 -0.07707057
-0.06948105 -0.030884132 -0.04182681 0.030792216 0.0073537114 0.05388844 -0.028904062 -0.032278538
0.088895865 0.053570803 0.010644112 0.055940934 -0.036305726 -0.029557882 0.022416653 -0.06404738
-0.017352002 -0.035175193 0.0694621 -0.05414331 0.03641627 0.05306675 0.0034042601 -0.04900417
0.05423755 0.06606776 -0.016000858 0.015764544 0.055524305 0.052563563 0.06741327 -0.061322276
-0.069549404 0.04059848 -0.05218271 -0.02946926 -0.048559535 -0.040089577 -0.056250695 -0.007623104
00000000: 2d53 37bd f989 0ebd b241 883d 5dfc 82bd
00000010: f567 083d 9f2d 943d 8d38 61bd 48df 20bd
00000020: bec4 e33c 6f01 993c 3e1d 87bd 915f 02bd
00000030: 0a82 a4bd fcab ee3c c6cc 07bd 3ca4 853d
00000040: cd19 983d e98a c7bc 95f2 163d ced2 34bd
00000050: a3f6 913d 63be 753d afde 0fbd 0d00 6e3d
00000060: b272 af3c 0b7e 813d 5f24 8e3d faa8 b9ba
00000070: bb89 49bd d26b 8f3d 2fe3 b7bc 6036 4a3c
00000080: c0a4 093d 4628 403d b9b9 d4ba bfe4 573d
00000090: 86a0 9e3d 2eb4 b73c 44bf 573d df3e ae3c
000000a0: 3cd6 e1bc 4e81 243c 2edd 3abd 1fd5 ef3c
000000b0: 7601 133b 1371 2d3d bb76 25bd 81b0 87bd
000000c0: 3c11 47bd 2c0c a03d 96d1 8abd 2e3b 6f3c
000000d0: c9de 563d 7738 fb3c 2823 e13c 70b6 0cbd
000000e0: 64a3 4f3d cc91 61bd 7d2b 943d 1be7 f23c
000000f0: 339c 2e3d f072 31bd b355 033d 3602 24bd
00000100: 612a 46bd cb16 833a a957 1abd 31fe 64bb
00000110: a222 84bd beb7 85bd 3277 453d be44 0d3d
00000120: 19ab ed3c ee3a 9abc 1037 d93c e624 82bc
00000130: 23f0 5b3c 6bb8 00bd c0b8 95bd 4631 c73c
00000140: 588e 213d a287 92bd b1ff 7b3d 252b 5fbd
00000150: d946 84bd c37b a5bd 9b03 afbb 9e57 1abd
00000160: 3543 afbc 209e 22bc 8448 b33c 2c55 33bc
00000170: 6a5d 28bd 834e 85bd ff99 55bc e3a4 593d
00000180: 6f42 453d 1cab 8a3c 1450 82bd 06f5 3dbd
00000190: 79cd 313d ac37 923d 672b 81bd bf42 86bd
000001a0: 3c85 093c 9d40 0ebd 4c55 da3a 31d7 6cbd
000001b0: 1c85 c6bc c86d 8ebd 8d41 c83c 16ec ac3b
000001c0: 8355 9dbd b2a2 1bbc 7acc 96bc dcb2 53bd
000001d0: 3ae0 ecbc 5595 dfbc f22c 4f3d 644c 76bd
000001e0: 63d5 8b3d db54 b2bd 22bc 96bb 91ba 003d
000001f0: 927c 8dbc fde8 533d 5c24 833c 6b93 133d
00000200: 231e 0ebd 1a86 f2bb 9631 263d 846b 4b3d
00000210: d7d0 673d 1847 88bc 698d 71bd 1a5e 58bb
00000220: cbc0 13bd bda8 ad3d 5c23 1f3c 3072 83bb
00000230: b38b 26bd fdd1 413d 9702 633d 9052 803d
00000240: 6c39 063d 2ec4 8fbd c41b 09bd cd2d aebb
00000250: 62fd a4bd 435f 38bd 315a 083d 3700 933d
00000260: 4ae6 65bd db05 a3bc f380 30bd 7c2e 883c
00000270: 1182 4fbd 2669 c7bc 4150 9fbc e41d 25bc
00000280: 3f88 1dbd d537 f7bc dbde fdbc 38f4 4a3d
00000290: 5ef1 4abc 83b7 e93c 4788 3cbd ad5b 5c3d
000002a0: 7cc0 89bc 0372 a7ba d5ab 54bd 4702 9cbd
000002b0: cf08 963d da53 4bbd 9140 8f3c 278c 283c
000002c0: 461c 563b 0d00 32bd ab73 b6bb 19c1 483b
000002d0: 2e9e 8abd 37e2 c4bc 1f99 7e3d b785 82bd
000002e0: 219c 8a3c d282 70bd 369d d1bc c477 583c
000002f0: 7797 ee39 5f78 8b3d e632 0f3d d86c 08bd
00000300: 1140 68bd 971c 95bd 4627 843c 23a3 883d
00000310: 41d4 883c c7c2 8c3d 95b2 07bd 0ca0 6bbc
00000320: e9ec 7b3d 80f4 51bd b7ee b53c 1967 15bd
00000330: 4526 dc3b 6855 643d b7dc 853b 41e3 9c3d
00000340: b62c 7e3d 704d 38bd 4d61 9ebd d572 1b3d
00000350: f1ba 29bd c844 0e3c 5bba 313d 2dd7 9dbd
00000360: 154c 8ebd b800 fdbc 9752 2bbd f53f fc3c
00000370: 67f7 f03b 20ba 5c3d 36c8 ecbc 8036 04bd
00000380: 090f b63d 0f6d 5b3d a464 2e3c 5222 653d
00000390: 50b5 14bd 5f23 f2bc 21a3 b73c 462b 83bd
000003a0: c925 8ebc dd13 10bd 2542 8e3d 60c5 5dbd
000003b0: 3a29 153d 855c 593d 021a 5f3b 99b8 48bd
000003c0: 3128 5e3d 894e 873d 3b14 83bc a524 813c
000003d0: 746d 633d e44c 573d f80f 8a3d 112d 7bbd
000003e0: eb6f 8ebd 974a 263d 8abd 55bd 8469 f1bc
000003f0: 5de6 46bd f834 24bd 2167 66bd 3bcb f9bb

model.RNN.bias_ih_l0 f4 [159]
-0.0047403607 0.008221889 -0.023181468 0.03447289 0.0382445 -0.044453472 -0.027223513 -0.010203842
0.016241075 0.0019378026 -0.068100154 0.0414534 0.01571805 -0.057228662 -0.033550244 -0.014355554
0.03139032 0.051248685 0.043140944 0.0028904807 0.010445604 0.012082141 -0.016498312 0.03247573
0.0204545 0.037112344 -0.040249247 0.0052023237 -0.07205305 -0.04071937 0.04448016 0.05909018
0.062400326 -0.07686672 -0.0054423874 -0.028569408 -0.06283284 0.0707813 -0.01005235 0.00298472
-0.04948188 0.07440873 -0.049522635 -0.067299426 0.02342406 0.044102162 0.018090269 0.056239292
-0.018460432 0.0079823015 0.019590553 -0.05545587 0.061962377 -0.046121065 -0.04184733 -0.0380553
-0.057571188 -0.07636583 0.06973862 -0.024460033 -0.0012496007 -0.048806295 0.018759426 0.024180006
-0.050861087 0.011579822 -0.025524966 -0.04693196 -0.0066615315 -0.0732994 0.025724031 0.060687818
-0.06595734 -0.020063976 -0.06515988 0.021195745 -0.0570839 0.051705215 -0.0004618005 0.048424967
-0.06466826 0.010467262 0.059480384 0.073871024 0.02169815 0.061226964 0.046622694 0.06082291
0.01997876 -0.06938507 -0.028370945 0.06334175 0.0022931988 -0.056821253 0.059269316 0.056859244
-0.0017064612 -0.0033151521 -0.0062648114 -0.07312919 -0.023565926 -0.0809294 0.02415279 -0.004382698
0.057573244 -0.011542138 0.03213377 -0.049914915 -0.055916555 0.06125801 0.05488146 -0.00823562
-0.031645864 0.009736751 0.030970184 0.011855428 0.04177056 -0.06802135 0.031387694 -0.052468296
-0.061378203 0.028672094 -0.0020670714 0.0034349598 0.014949316 -0.046196505 0.0673541 0.030456115
-0.007275429 0.04052003 0.053093873 0.01136453 0.04935617 -0.020492574 -0.014064602 0.0032102768
-0.05385689 -0.05416419 0.020593617 0.04384854 0.054233965 0.06571411 0.05648972 -0.011187486
0.06150917 0.06458407 -0.023887727 -0.015739605 0.015921403 -0.04732684 0.0060105156 0.037000325
0.03192996 -0.054083697 0.004553581 0.037954427 -0.058615465 -0.03423354 -0.0658957
00000000: 0755 9bbb 1ab5 063c 10e7 bdbc 7233 0d3d
00000010: 44a6 1c3d d814 36bd d803 dfbc 042e 27bc
00000020: 010c 853c defd fd3a 1878 8bbd 0acb 293d
00000030: 24c3 803c 9a68 6abd fb6b 09bd 8f33 6bbc
00000040: 2393 003d 24ea 513d 8fb4 303d 386e 3d3b
00000050: 0a24 2b3c 2cf4 453c 7827 87bc 4505 053d
00000060: 3290 a73c 1d03 183d 65dc 24bd 4178 aa3b
00000070: 8d90 93bd 5bc9 26bd d430 363d 8b08 723d
00000080: 7c97 7f3d 4d6c 9dbd 0e56 b2bb 640a eabc
00000090: 81ae 80bd c9f5 903d 9db2 24bc 4b9b 433b
000000a0: 83ad 4abd 9b63 983d 3fd8 4abd 48d4 89bd
000000b0: d0e3 bf3c 78a4 343d 0b32 943c 2c5b 663d
000000c0: 553a 97bc 33c8 023c 5e7c a03c b225 63bd
000000d0: 43cc 7d3d 71e9 3cbd 1b68 2bbd e0df 1bbd
000000e0: c4cf 6bbd b065 9cbd 1fd3 8e3d 6860 c8bc
000000f0: a4c9 a3ba 1ce9 47bd 5ead 993c 2615 c63c
00000100: b753 50bd 4bb9 3d3c bc19 d1bc ba3b 40bd
00000110: fa48 dabb ff1d 96bd 34bb d23c ca93 783d
00000120: a414 87bd 355d a4bc 8b72 85bd b3a2 ad3c
00000130: cfd0 69bd d9c8 533d d01d f2b9 4259 463d
00000140: cb70 84bd e17e 2b3c b4a1 733d b149 973d
00000150: 52c0 b13c 20c9 7a3d 70f7 3e3d 7221 793d
00000160: 7faa a33c c219 8ebd 2f6a e8bc 52b9 813d
00000170: 7e49 163b 67bd 68bd 62c4 723d 3de5 683d
00000180: 56ab dfba 0643 59bb 0c49 cdbb c2c4 95bd
00000190: 540d c1bc 50be a5bd 12dc c53c bc9c 8fbb
000001a0: ecd1 6b3d 3c1b 3dbc b39e 033d 9573 4cbd
000001b0: c208 65bd aee9 7a3d 62cb 603d b2ee 06bc
000001c0: 189f 01bd e586 1f3c 2fb5 fd3c 453d 423c
000001d0: 9b17 2b3d c74e 8bbd 6290 003d ffe8 56bd
000001e0: b667 7bbd bde1 ea3c b477 07bb 101d 613b
000001f0: faed 743c 8c38 3dbd f2f0 893d 1a7f f93c
00000200: b966 eebb 55f8 253d f678 593d 4b32 3a3c
00000210: b229 4a3d 0be0 a7bc 376f 66bc 8263 523b
00000220: 0b99 5cbd 45db 5dbd f2b3 a83c 879a 333d
00000230: 6f24 5e3d 1f95 863d c461 673d b84b 37bc
00000240: 0af1 7b3d a744 843d 32b0 c3bc 58f0 80bc
00000250: 9a6d 823c cad9 41bd dcf3 c43b a78d 173d
00000260: fdc8 023d de86 5dbd 3536 953b 1a76 1b3d
00000270: c516 70bd 7838 0cbd 53f4 86bd

model.RNN.bias_hh_l0 f4 [159]
-0.0023836177 -0.031189702 -0.07405611 0.025461415 -0.048365116 -0.07445738 0.029369725 0.002085253
0.050682254 0.033815127 0.047022503 -0.05238736 0.012736122 0.03531341 -0.060007248 -0.055590864
4.6011042e-05 -0.0683206 -0.07934884 -0.02026894 -0.065359995 -0.0075059673 -0.042545147 0.020500835
0.006173707 -0.03056885 0.0667105 0.03820144 -0.033175703 0.06715269 -0.0044703335 0.049277943
-0.009722913 0.020798674 -0.03568625 -0.03877505 -0.031109286 0.027282128 0.020118274 -0.0017868064
-0.037824713 0.034802843 -0.077026375 0.07770705 -0.029749263 0.008135368 0.039607912 0.05293807
0.0057149096 -0.07221042 0.029198915 0.028401988 0.011366584 0.02104251 -0.07003708 0.06721617
-0.014155004 0.07693785 0.025672229 -0.06816088 -0.044533577 0.015972903 0.04825749 0.03853796
0.008349283 -0.04518392 -0.055759262 -0.01033569 0.0039397846 -0.040949266 0.06479636 -0.069128655
-0.047288477 0.049553033 0.030564016 6.8503896e-06 0.017734844 0.0498382 0.04343128 -0.029075004
-0.023221197 -0.020918794 -0.059084065 0.015206364 -0.01487324 0.0086706355 -0.027840676 0.048595425
0.044275973 -0.017826894 -0.07419189 0.07763858 0.004655241 0.051831566 0.014497228 -0.06504978
0.060612574 0.041368354 -0.043815263 0.060506307 -0.015774256 0.05683484 0.06300022 0.04898583
0.003942667 0.023317322 -0.0084635345 -0.013333104 -0.028799843 0.03613484 0.0202468 -0.04095043
0.07689919 0.07720107 -0.021771427 -0.034918226 0.051718596 0.06890176 -0.06775497 0.008929931
0.030328019 -0.016480824 -0.01467542 0.048240844 0.0060003963 -0.033581655 -0.07062095 0.022017581
0.06857985 0.034669735 -0.03462236 -0.009457976 -0.050068423 0.055290308 0.018692886 0.01153658
0.016946124 0.022095136 -0.020440651 -0.03131639 -0.006590227 0.05766445 -0.042272545 -0.01646583
0.054563776 0.0013853823 0.0025362354 0.07898095 -0.005307264 -0.066184744 -0.069739215 0.056030415
0.01639542 0.07512023 0.06581242 0.0703412 0.06256468 0.018147709 -0.030078959
00000000: 7836 1cbb 8c81 ffbc bbaa 97bd 7594 d03c
00000010: 801a 46bd 1c7d 98bd c798 f03c bda8 083b
00000020: 3298 4f3d bb81 0a3d ab9a 403d 2194 56bd
00000030: 2bab 503c cba4 103d 29ca 75bd 3fb3 63bd
00000040: fbfb 4038 aceb 8bbd a581 a2bd 0c0b a6bc
00000050: 76db 85bd 9ef4 f5bb d243 2ebd 5ef1 a73c
00000060: cf4c ca3b 866b fabc 849f 883d 1d79 1c3d
00000070: 3fe3 07bd 5987 893d e07b 92bb abd7 493d
00000080: da4c 1fbc fb61 aa3c bf2b 12bd 96d2 1ebd
00000090: e7d8 febc c57e df3c 14cf a43c 4633 eaba
000000a0: 16ee 1abd 6d8d 0e3d 01c0 9dbd e024 9f3d
000000b0: bab4 f3bc 354a 053c e83b 223d 97d5 583d
000000c0: 2344 bb3b 0fe3 93bd 9032 ef3c 49ab e83c
000000d0: e93a 3a3c 5861 ac3c 9a6f 8fbd a2a8 893d
000000e0: 64ea 67bc 9791 9d3d 914e d23c ee97 8bbd
000000f0: d768 36bd 9bd9 823c a5a9 453d fbd9 1d3d
00000100: 6ecb 083c c612 39bd d363 64bd 0757 29bc
00000110: 4f19 813b 6bba 27bd f4b3 843d 5393 8dbd
00000120: 90b1 41bd 1ff8 4a3d 6361 fa3c 66dc e536
00000130: aa48 913c 2423 4c3d ffe4 313d b42e eebc
00000140: 613a bebc e45d abbc 2202 72bd 1d24 793c
00000150: e4ae 73bc 480f 0e3c 2112 e4bc ff0b 473d
00000160: b95a 353d b509 92bc ebf1 97bd fa00 9f3d
00000170: fe8a 983b 564d 543d c885 6d3c d238 85bd
00000180: e444 783d dd71 293d a277 33bd 76d5 773d
00000190: 0339 81bc a6cb 683d 4206 813d 5ea5 483d
000001a0: 7d31 813b f803 bf3c a3aa 0abc 1773 5abc
000001b0: a6ed ebbc 2002 143d 9edc a53c a3bb 27bd
000001c0: 537d 9d3d 981b 9e3d fe59 b2bc 6a06 0fbd
000001d0: e1d6 533d 5e1c 8d3d 1ec3 8abd d84e 123c
000001e0: 7772 f83c cb02 87bc 2c71 70bc 3198 453d
000001f0: f99e c43b eb8c 09bd b7a1 90bd 375e b43c
00000200: 9873 8c3d da01 0e3d 2dd0 0dbd a0f5 1abc
00000210: 8c14 4dbd 1778 623d d321 993c ec03 3d3c
00000220: 99d2 8a3c dc00 b53c 2773 a7bc 9d45 00bd
00000230: d5f2 d7bb 8f31 6c3d fa25 2dbd 59e3 86bc
00000240: 447e 5f3d b795 b53a f836 263b c4c0 a13d
00000250: 8fe8 adbb de8b 87bd 6fd3 8ebd 2680 653d
00000260: b04f 863c a3d8 993d a9c8 863d 0c0f 903d
00000270: e921 803d 81aa 943c 2668 f6bc

model.MLP.0.weight f4 [159, 159]
0.078527085 0.007883671 -0.05293523 0.021258432 0.034403365 0.051966492 -0.093033426 -0.045724023
-0.02758562 -0.036795948 0.025660751 -0.05182283 -0.05767823 0.0771207 -0.04333471 -0.02113536
0.08291041 -0.018338101 0.019166404 -0.060136627 0.04272544 0.04493907 0.0105760945 -0.006172094
-0.075118124 -0.009356545 0.04345006 -0.020623352 0.06314383 0.047515433 0.06109581 0.012592753
-0.06629369 -0.008011209 -0.03584365 -0.049521126 -0.06514226 -0.06880268 0.060572173 -0.008701163
0.0025462836 0.013819368 -0.07021225 -0.06385871 -0.027426105 -0.010215711 -0.06411985 0.030501606
-0.04994863 0.05699795 0.03711276 -0.0637252 -0.052867442 0.009110368 -0.051714808 0.02943797
0.009278098 -0.07746721 -0.08412642 0.04910782 0.07563906 0.012594863 0.07019101 0.07529914
0.036634922 -0.002793416 0.026213558 0.069167934 0.0058706403 0.06922021 -0.04386445 0.04859153
0.059079535 -0.04534482 0.0042154393 0.08668433 0.063021734 -0.0017252428 0.019623911 -0.05759035
-0.04724271 0.046138953 0.08201581 -0.05464758 0.05870581 0.029281521 -0.041771214 0.01340392
-0.0640628 0.0390554 0.08239406 -0.009079514 -0.0061908728 -0.009215751 -0.035628006 0.008351131
0.014465144 0.033456124 -0.01696313 -0.042327248 0.014070584 -0.018405132 0.060318172 0.08057142
-0.011729125 0.05877576 0.045095664 0.03297759 0.015056 -0.005283511 -0.034279935 -0.028272884
0.00982262 -0.04027248 0.054210275 0.0077727567 -0.04823788 0.03408636 -0.040771775 0.051633444
0.05808126 -0.05377623 -0.016982198 -0.009063633 0.033317596 0.056864858 0.043791268 -0.06977147
-0.011571033 0.020948011 -0.07558621 0.012019237 -0.053128272 -0.0022981737 -0.045576733 0.039729282
-0.007881633 0.081693485 0.054233517 0.048665185 -0.08626796 -0.062740065 0.0038078586 -0.05987513
-0.016541388 -0.040694572 0.047172066 -0.064779066 0.06269368 -0.06536387 0.025794126 -0.065247014
-0.016317582 0.06843929 -0.018417718 0.018498406 -0.018476289 -0.08905815 0.08526083 0.00706719
-0.07591393 0.050468776 -0.00086980785 -0.07395695 0.0041636885 0.013844008 0.0076594194 -0.06310476
0.030168785 -0.018288774 0.039830156 -0.02575255 -0.055952366 -0.023856416 -0.043781504 0.0055038985
-0.08508611 -0.030078087 -0.045309503 -0.012389259 0.07677232 0.030482478 -0.059570435 0.04186381
0.010629749 -0.03869132 -0.026240991 -0.0024454114 0.011245717 -0.017519632 0.07430735 0.05270106
0.008854005 -0.0757121 0.050657835 0.020154854 0.064421296 -0.009017812 0.06005573 -0.030747283
-0.07655364 -0.008284706 -0.025914198 -0.01414104 -0.058295712 -0.02529054 -0.009269275 -0.015268046
-0.04356106 -0.037436917 0.00084648916 0.009640463 0.00093959575 0.037726667 -0.012237465 -0.04753922
0.012811529 0.0017862044 0.07398879 -0.002693133 -0.012380434 0.006439104 -0.019494824 -0.07488585
0.01893074 0.0402085 -0.05820797 -0.004596959 -0.0029127607 0.054765984 -0.0650848 -0.05740797
-0.025078053 0.05718903 0.06642477 -0.032864116 -0.05925795 0.066059574 0.022756152 0.019202719
0.07480213 -0.07503305 0.030198734 0.070835136 0.039417725 0.008238562 0.009687745 -0.007919436
0.03347493 -0.05315309 -0.061791282 -0.06162969 -0.03558771 -0.05891058 -0.03978444 -0.00848327
00000000: cfd2 a03d 832a 013c 9dd2 58bd 2a26 ae3c
00000010: 8bea 0c3d d1da 543d 4f88 bebd 1d49 3bbd
00000020: 3dfb e1bc 59b7 16bd 7f36 d23c 2d44 54bd
00000030: 0240 6cbd 75f1 9d3d bd7f 31bd 1024 adbc
00000040: efcc a93d c939 96bc dd02 9d3c d351 76bd
00000050: df00 2f3d 0812 383d 5b47 2d3c 473f cabb
00000060: 88d7 99bd 324c 19bc b1f8 313d 4ef2 a8bc
00000070: 8d51 813d 8b9f 423d 9a3f 7a3d d651 4e3c
00000080: fcc4 87bd 7241 03bc cbd0 12bd aad6 4abd
00000090: 4e69 85bd 6be8 8cbd 871a 783d 538f 0ebc
000000a0: 8ddf 263b a16a 623c 71cb 8fbd 5bc8 82bd
000000b0: b6ac e0bc cc5f 27bc 4551 83bd 81de f93c
000000c0: ef96 4cbd af76 693d 8d03 183d 5c82 82bd
000000d0: 888b 58bd a743 153c e8d2 53bd e627 f13c
000000e0: 2a03 183c 21a7 9ebd 794a acbd 4825 493d
000000f0: a7e8 9a3d af5a 4e3c 4ec0 8f3d 6f36 9a3d
00000100: 800e 163d be11 37bb d1bd d63c eba7 8d3d
00000110: 805e c03b 53c3 8d3d 36ab 33bd ea07 473d
00000120: 62fd 713d 7dbb 39bd ab21 8a3b 8e87 b13d
00000130: 8a11 813d 8b21 e2ba 53c2 a03c dce3 6bbd
00000140: 9281 41bd 33fc 3c3d e8f7 a73d 24d6 5fbd
00000150: 8175 703d cddf ef3c 4b18 2bbd 1e9c 5b3c
00000160: 5b33 83bd 8ef8 1f3d 38be a83d 3ec2 14bc
00000170: cedc cabb a9fd 16bc acee 11bd 2fd3 083c
00000180: 36ff 6c3c 4a09 093d 43f6 8abc 565f 2dbd
00000190: 4f88 663c 5cc6 96bc 3010 773d a102 a53d
000001a0: 842b 40bc dabe 703d 3bb6 383d 8213 073d
000001b0: 71ad 763c 4d21 adbb 1e69 0cbd 899c e7bc
000001c0: 0eef 203c c2f4 24bd 980b 5e3d 9cb2 fe3b
000001d0: 1595 45bd 249e 0b3d 4e00 27bd 977d 533d
000001e0: 9ee6 6d3d 7744 5cbd 401e 8bbc a27f 14bc
000001f0: 0878 083d 20eb 683d 795e 333d 58e4 8ebd
00000200: 6e94 3dbc 2a9b ab3c f1cc 9abd 55ec 443c
00000210: 089d 59bd f59c 16bb abae 3abd 2cbb 223d
00000220: f721 01bc ea4e a73d f723 5e3d 2555 473d
00000230: 42ad b0bd dd7d 80bd 448d 793b a03f 75bd
00000240: ce81 87bc 5aaf 26bd 7f37 413d e3aa 84bd
00000250: 8b65 803d 7edd 85bd 344e d33c 3aa0 85bd
00000260: 73ac 85bc e629 8c3d c1e0 96bc f889 973c
00000270: 965b 97bc 1f64 b6bd 3b9d ae3d e393 e73b
00000280: c378 9bbd 59b8 4e3d d103 64ba be76 97bd
00000290: 8d6f 883b fad1 623c defb fa3b 123d 81bd
000002a0: 8724 f73c 57d2 95bc f224 233d 03f7 d2bc
000002b0: 4f2e 65bd 886e c3bc 3c54 33bd 0c5a b43b
000002c0: a041 aebd 5266 f6bc 7596 39bd 52fc 4abc
000002d0: ce3a 9d3d 64b6 f93c 2100 74bd 6379 2b3d
000002e0: 6628 2e3c ca7a 1ebd 59f7 d6bc 3243 20bb
000002f0: f53f 383c 5585 8fbc 742e 983d 11dd 573d
00000300: 6310 113c f20e 9bbd 977e 4f3d cb1b a53c
00000310: 50ef 833d 72bf 13bc fffc 753d bae1 fbbc
00000320: 28c8 9cbd 93bc 07bc 034a d4bc d2af 67bc
00000330: 7cc7 6ebd 1b2e cfbc 28de 17bc d426 7abc
00000340: 156d 32bd 7457 19bd ede6 5d3a 08f3 1d3c
00000350: 344f 763a 4787 1a3d a67f 48bc 7cb8 42bd
00000360: 73e7 513c 131f ea3a 6f87 973d 467f 30bb
00000370: 4ed7 4abc 1fff d23b 9cb3 9fbc c15d 99bd
00000380: a414 9b3c abb1 243d 7b6b 6ebd 16a2 96bb
00000390: 04e4 3ebb 4c52 603d 2e4b 85bd 9f24 6bbd
000003a0: 7d70 cdbc 0b3f 6a3d b609 883d 869c 06bd
000003b0: 77b8 72bd 3e4a 873d 1c6b ba3c 054f 9d3c
000003c0: dc31 993d edaa 99bd 5663 f73c 0312 913d
000003d0: 7b74 213d 09fb 063c 59b9 1e3c 86c0 01bc
000003e0: 021d 093d 0eb7 59bd db18 7dbd 6a6f 7cbd
000003f0: 6bc4 11bd 384c 71bd 02f5 22bd 6afd 0abc

model.MLP.0.bias f4 [159]
-0.05431248 -0.019588558 0.03315564 -0.004553457 0.071394876 0.045258038 0.07432053 -0.024916045
0.0016582735 0.024277585 0.006269138 0.008494703 -0.08475822 0.033889584 0.025415894 0.017317588
0.016288321 -0.036422886 -0.054356746 0.031427436 0.04054149 0.05410914 0.00087714806 -0.036421675
0.07056428 -0.081940286 0.02658959 -0.04663397 0.0007989126 0.01629195 -0.012009867 -0.054463774
0.054539934 0.061470713 -0.07786626 0.009984248 0.023749372 -0.05229066 -0.03716872 -0.017045956
0.00142131 -0.08242782 0.06823406 -0.07024175 -0.008704033 0.0011486282 0.0055769687 0.028649788
0.035662152 -0.0012280588 0.07273671 -0.051868487 -0.067386195 -0.0011959547 -0.01643163 0.038553987
-0.0212258 0.02966782 0.047666408 0.013527786 -0.008735193 0.0054224306 -0.014210351 0.0114718415
-0.014710112 0.02417442 0.033919074 -0.027889276 0.030473007 0.022780452 -0.052379698 0.057327196
0.010066291 -0.021058697 0.059056472 0.0059570186 0.01012154 0.064857006 0.06432667 -0.009739917
0.07270045 -0.05927126 -0.007452866 -0.027528744 0.047841568 0.062542565 0.0055310572 0.041171316
0.017833676 -0.010412713 0.025999332 0.03114576 -0.070210576 -0.00808422 -0.058599878 0.06399507
0.03427396 0.053658266 -0.05121377 -0.048178744 -0.012541756 -0.0405257 -0.02754162 -0.09369352
0.009368396 0.059234407 -0.033222977 -0.01002752 -0.034901824 -0.07284946 -0.04899609 -0.03619132
0.0378695 -0.060121242 0.050913747 -0.051474888 -0.050342802 0.036747094 0.022267336 -0.055316154
0.030517865 0.024628794 -0.003971436 0.015423432 -0.06763721 0.050406992 0.051613983 -0.033194233
-0.05618769 0.04728064 0.0038217427 0.048478756 0.027408583 -0.052619975 0.0074560656 -0.0021270197
-0.064246036 0.009036068 0.027031733 -0.061446045 -0.047830522 0.071366064 0.04263605 -0.060347196
0.020115638 0.0308539 -0.027413154 0.030968402 0.055291116 0.04740866 0.07641495 -0.049183182
-0.037610468 -0.048883446 0.03387447 -0.01956798 0.05660271 -0.00067624834 -0.038817294
00000000: c376 5ebd 2f78 a0bc 35ce 073d 2a35 95bb
00000010: 7a37 923d 7e60 393d 5d35 983d bc1c ccbc
00000020: 6d5a d93a c9e1 c63c 576d cd3b 5e2d 0b3c
00000030: b895 adbd cecf 0a3d fe34 d03c 9ddd 8d3c
00000040: 166f 853c 2a30 15bd 2ea5 5ebd 0eba 003d
00000050: d50e 263d 8ca1 5d3d 69f0 653a e52e 15bd
00000060: 0184 903d 4fd0 a7bd 69d2 d93c 4303 3fbd
00000070: 1e6e 513a b276 853c 08c5 44bc 6815 5fbd
00000080: 4465 5f3d b7c8 7b3d 5978 9fbd f994 233c
00000090: 0b8e c23c bb2e 56bd 3a3e 18bd f6a3 8bbc
000000a0: 404b ba3a ebcf a8bd 4dbe 8b3d e8da 8fbd
000000b0: 5c9b 0ebc 918d 963a 01bf b63b f6b2 ea3c
000000c0: 7a12 123d d1f6 a0ba fcf6 943d 0d74 54bd
000000d0: c601 8abd 95c1 9cba a09b 86bc c9ea 1d3d
000000e0: bbe1 adbc ee09 f33c da3d 433d a6a3 5d3c
000000f0: 0e1e 0fbc a5ae b13b 88d2 68bc 64f4 3b3c
00000100: ae02 71bc 6f09 c63c baee 0a3d 0d78 e4bc
00000110: 87a2 f93c 129e ba3c 188c 56bd eccf 6a3d
00000120: 16ed 243c 4a83 acbc 33e5 713d 1833 c33b
00000130: d1d4 253c c0d3 843d b3bd 833d 2c94 1fbc
00000140: f9e3 943d 6cc6 72bd 2c37 f4bb f683 e1bc
00000150: 85f5 433d 5116 803d df3d b53b 41a3 283d
00000160: ee17 923c 159a 2abc 8dfc d43c 6525 ff3c
00000170: 90ca 8fbd ad73 04bc 6d06 70bd d90f 833d
00000180: da62 0c3d c5c8 5b3d 88c5 51bd 1357 45bd
00000190: f07b 4dbc 47fe 25bd f79e e1bc 63e2 bfbd
000001a0: e77d 193c c79f 723d d114 08bd 784a 24bc
000001b0: 37f5 0ebd 1932 95bd 20b0 48bd 593d 14bd
000001c0: 0d1d 1b3d b141 76bd ef8a 503d 55d7 52bd
000001d0: 4134 4ebd 1f84 163d fd69 b63c 3193 62bd
000001e0: 9a00 fa3c 53c2 c93c d222 82bb 90b2 7c3c
000001f0: 6185 8abd 9077 4e3d 2f69 533d adf6 07bd
00000200: 1025 66bd 58a9 413d 3476 7a3b a991 463d
00000210: f787 e03c 0b88 57bd 0352 f43b 7865 0bbb
00000220: 6d93 83bd 040c 143c a771 dd3c d9ae 7bbd
00000230: f0e9 43bd 5f28 923d 24a3 2e3d 9f2e 77bd
00000240: 8dc9 a43c 51c1 fc3c 8d91 e0bc 72b1 fd3c
00000250: f078 623d 952f 423d 717f 9c3d 4e74 49bd
00000260: 6f0d 1abd 023a 48bd f5bf 0a3d 074d a0bc
00000270: 3ed8 673d 4246 31ba e2fe 1ebd

model.MLP.2.weight f4 [159, 159]
-0.030695256 0.06394678 0.026822103 -0.06372102 -0.010628518 -0.014971192 0.03147677 -0.087901145
0.056991406 -0.0022575092 0.07329847 -0.08355194 -0.023811596 -0.069272675 0.073335506 0.018552314
-0.01131588 0.0010031702 0.06119151 0.04290051 -0.058457002 -0.06451405 0.046740122 -0.07091241
0.0013112875 -0.0061157146 -0.0032026144 0.003095307 0.07909838 0.020360876 0.05338272 -0.047460698
0.010621638 0.044790093 -0.07152567 0.004199859 -0.072206415 -0.018852862 0.044859316 -0.04594974
0.0043727076 0.04946538 0.01788435 0.06690358 0.083791494 -0.030162042 0.008820107 -0.014342918
-0.024472984 0.01830168 0.025780436 -0.0027811446 0.030450286 0.0076888856 0.072828874 0.038024563
-0.025074886 0.019778214 -0.050368495 -0.056001164 -0.040080026 -0.009854365 0.058417127 -0.004928618
-0.05570259 -0.051828366 -0.024112998 -0.0043742657 0.043455243 -0.07636576 0.0056772092 -0.00071931543
-0.0023596548 0.0751101 0.051472858 0.0022277092 0.029257797 0.034315627 -0.018693969 -0.025377234
0.07442365 -0.09534896 -0.034570865 0.039811317 -0.04315657 0.051577736 0.04131937 0.025011268
-0.034291223 -0.011096115 -0.010398807 -0.035180464 -0.03710981 0.067285694 -0.04105086 -0.07104935
0.056720745 -0.05573904 0.034841165 -0.061331745 0.060244534 -0.012675778 -0.004685878 0.009046756
0.082473524 -0.015378086 -0.05695674 0.04166337 0.06327375 -0.05123964 -0.05370959 0.011081422
-0.032899413 0.05473193 0.018184433 -0.008457567 -0.013971483 -0.07128374 -0.0457574 -0.052236646
0.01607761 -0.045168817 -0.0059414282 0.06302324 0.019643936 -0.06997306 -0.005605669 -0.060075678
-0.05157884 -0.06795309 -0.06510607 -0.06273879 0.03488764 0.07244672 0.010618417 -0.029155763
0.0679976 -0.011292453 0.04275655 0.03361932 0.013471265 0.048124783 0.008428275 -0.041662045
0.041966695 0.030625978 0.05950736 0.023781324 -0.01003703 0.046273015 -0.048071798 0.020593686
-0.056927595 -0.0157826 -0.06258322 -0.07423952 -0.06913468 0.069967546 -0.06408471 -0.07088385
-0.017854866 0.037392296 0.06499626 0.013082616 0.01755236 0.06284769 -0.07266199 -0.061579622
-0.07771702 -0.0036641061 -0.0108746365 -0.068090566 0.01279939 0.07588278 -0.066005684 0.05020517
-0.07001332 -0.047271382 -0.049970433 0.030978918 -0.008854024 0.005748108 0.055013224 -0.03831376
-0.03951094 0.049868897 -0.009950168 -0.063300475 -0.008328326 0.0049555153 -0.07795909 -0.021314383
-0.058371324 0.048845544 0.051123917 0.020389326 -0.011953525 -0.044299055 0.028715737 -0.048833482
-0.006410755 -0.058850173 -0.061523855 0.06541246 -0.025237631 -0.0291306 -0.04528259 0.03431978
0.078504756 -0.046914797 0.06162612 -0.019155204 -0.0021902993 -0.025169138 0.0067890435 -0.029227827
0.060005456 -0.05322243 0.057066575 0.059815988 -0.060939915 0.03702861 -0.033477463 -0.04141818
-0.042041156 0.066589355 0.062565684 0.034618184 -0.002929218 0.0739138 -0.015243225 -0.060812343
0.0017942563 -0.013784587 0.01672452 0.007915117 0.04357855 -0.019798655 0.052948207 -0.07006054
0.021437623 0.015631974 -0.06652682 -0.0069267303 0.0047861338 0.020872287 -0.06614762 -0.04831428
-0.048847347 -0.033500295 0.015904441 -0.0605314 -0.072262935 -0.0048320815 -0.04080416 0.02762656
00000000: 9e74 fbbc 88f6 823d 07ba db3c 2b80 82bd
00000010: 3c23 2ebc bb49 75bc c9ed 003d 8405 b4bd
00000020: d26f 693d b8f2 13bb 821d 963d 481d abbd
00000030: 8910 c3bc d5de 8dbd ed30 963d 06fb 973c
00000040: 3e66 39bc ce7c 833a f3a3 7a3d 72b8 2f3d
00000050: 9c70 6fbd f11f 84bd 9272 3f3d 873a 91bd
00000060: 82df ab3a 5566 c8bb f4e2 51bb a2da 4a3b
00000070: 55fe a13d dacb a63c d7a7 5a3d 2666 42bd
00000080: 6106 2e3c d175 373d 0d7c 92bd f99e 893b
00000090: f5e0 93bd 5171 9abc 67be 373d cb35 3cbd
000000a0: ee48 8f3b 369c 4a3d 3382 923c bf04 893d
000000b0: e09a ab3d 6316 f7bc 3682 103c 8ffe 6abc
000000c0: 917b c8bc 68ed 953c 7e31 d33c dd43 36bb
000000d0: e172 f93c 0cf3 fb3b 4e27 953d a5bf 1b3d
000000e0: d969 cdbc ec05 a23c 324f 4ebd 7a61 65bd
000000f0: f42a 24bd 3474 21bc cc46 6f3d 3f80 a1bb
00000100: 6628 64bd fb49 54bd 9f88 c5bc 0056 8fbb
00000110: 20fe 313d a765 9cbd e207 ba3b 7190 3cba
00000120: 70a4 1abb 53d3 993d 34d5 523d c2fe 113b
00000130: 0cae ef3c 8b8e 0c3d 1824 99bc ebe3 cfbc
00000140: 6d6b 983d 5146 c3bd 2e9a 0dbd 3111 233d
00000150: f2c4 30bd 2d43 533d 803e 293d 6ee4 cc3c
00000160: f474 0cbd 7bcc 35bc c25f 2abc 6419 10bd
00000170: 7500 18bd 15cd 893d f224 28bd 5282 91bd
00000180: 0354 683d 9f4e 64bd 9cb5 0e3d ff36 7bbd
00000190: f9c2 763d 11ae 4fbc fe8b 99bb d838 143c
000001a0: e1e7 a83d 5ef4 7bbc 784b 69bd 36a7 2a3d
000001b0: ab95 813d a8e0 51bd 96fe 5bbd da8e 353c
000001c0: 89c1 06bd 972e 603d 85f7 943c 9b91 0abc
000001d0: a6e8 64bc 36fd 91bd 1d6c 3bbd 18f6 55bd
000001e0: 31b5 833c f002 39bd 50b0 c2bb 5412 813d
000001f0: 52ec a03c 094e 8fbd c3af b7bb ea11 76bd
00000200: 5544 53bd fd2a 8bbd 5556 85bd 327d 80bd
00000210: 58e6 0e3d f25e 943d def8 2d3c 11d8 eebc
00000220: 5342 8b3d fb03 39bc 7e21 2f3d 69b4 093d
00000230: 95b6 5c3c 7e1e 453d bf16 0a3c d2a5 2abd
00000240: 45e5 2b3d 55e3 fa3c fdbd 733d 0dd1 c23c
00000250: 5b72 24bc c688 3d3d efe6 44bd 17b4 a83c
00000260: e92c 69bd 834a 81bc a22b 80bd e40a 98bd
00000270: 7c96 8dbd 254b 8f3d d83e 83bd 8d2b 91bd
00000280: 5e44 92bc aa28 193d c21c 853d 7858 563c
00000290: f8c9 8f3c 4ab6 803d cfcf 94bd ea3a 7cbd
000002a0: 1a2a 9fbd 8021 70bb 882b 32bc 1173 8bbd
000002b0: 88b4 513c 6e68 9b3d fd2d 87bd f0a3 4d3d
000002c0: 2563 8fbd a39f 41bd ccad 4cbd 80c7 fd3c
000002d0: 7810 11bc a05a bc3b 8c55 613d e4ee 1cbd
000002e0: 39d6 21bd 5443 4c3d 0806 23bc aea3 81bd
000002f0: 8873 08bc e061 a23b 04a9 9fbd 809b aebc
00000300: c516 6fbd 4412 483d 5067 513d 8407 a73c
00000310: b8d8 43bc ed72 35bd 443d eb3c 9e05 48bd
00000320: 5011 d2bb e10c 71bd 7000 7cbd f8f6 853d
00000330: 26bf cebc 4ca3 eebc 3d7a 39bd e692 0c3d
00000340: 1ac7 a03d bb29 40bd ac6b 7c3d 60eb 9cbc
00000350: 208b 0fbb 822f cebc a076 de3b 326f efbc
00000360: 48c8 753d c3ff 59bd a4be 693d 9c01 753d
00000370: 229c 79bd 50ab 173d aa1f 09bd 1ca6 29bd
00000380: 5933 2cbd 0060 883d 7022 803d cccb 0d3d
00000390: 20f8 3fbb 1e60 973d b8be 79bc 5d16 79bd
000003a0: 402d eb3a c0d8 61bc dc01 893c 68ae 013c
000003b0: 6c7f 323d ca30 a2bc 38e0 583d e77b 8fbd
000003c0: f49d af3c a00e 803c 373f 88bd a0f9 e2bb
000003d0: 00d5 9c3b 5cfc aa3c 6778 87bd 32e5 45bd
000003e0: 2814 48bd 9b37 09bd 084a 823c c6ef 77bd
000003f0: 97fe 93bd 7056 9ebb 4322 27bd 1851 e23c

model.MLP.2.bias f4 [159]
0.009451047 -0.04983864 -0.07022991 0.053077966 0.05029751 0.05707202 0.0081043765 0.04280908
-0.014033154 0.06966925 0.017478915 0.009032065 -0.06705388 -0.017428294 -0.0552915 0.024781602
0.03257292 -0.02372877 0.062321935 -0.03681472 0.060023785 0.06999869 -0.0074304403 0.07138969
0.046124354 -0.06410804 -0.0031834089 -0.04764932 -0.05079452 0.0627484 0.057793275 -0.039535385
-0.058581218 -0.0340365 0.0497259 -0.011226188 0.01746601 -0.033925176 -0.053724553 -0.024167754
-0.072747394 0.024273578 0.063403584 0.04404523 0.048222832 -0.06806222 -0.04476874 -0.028358696
0.030684773 -0.0323347 -0.021435868 -0.0638898 0.019182183 0.00298472 -0.07755115 -0.043137804
0.014075942 0.06888367 -0.0789592 0.015813641 0.026100846 0.043241132 0.06834718 0.012283581
0.05291703 0.031677272 0.023552522 -0.05149094 0.053740636 0.018882124 0.0586629 0.06373097
0.022866605 0.008492929 0.023858659 0.022889089 -0.07869115 -0.07807627 -0.06999677 -0.01886193
0.019715957 -0.046272535 0.06718202 0.06601309 -0.06816849 -0.05015605 -0.0012458342 -0.06470329
0.008447761 -0.02421025 -0.04748905 -0.034714676 -0.045854334 0.026096897 -0.0371836 0.02809924
0.005725475 -0.032661207 -0.07650902 -0.041410428 -0.016883174 -0.037937578 0.028847042 -0.036631096
-0.01655316 0.010403469 0.07472304 -0.012087792 0.0569557 -0.011074264 0.016012494 0.012408394
-0.0054950356 0.032252956 0.010196028 0.048604667 0.03492657 0.005039953 0.010062779 -0.005461609
-0.043281924 -0.03328838 0.017779542 0.047405057 0.06395173 -0.075653 0.07512814 -0.054019585
0.033688195 0.0074647903 -0.057262305 0.07583489 0.012040751 0.031688903 0.019692527 -0.040301237
-0.028873233 0.006247675 -0.075708024 0.056250945 0.031400725 0.06880284 0.042952552 0.05765379
0.04302118 -0.0763162 -0.045481253 0.016844898 -0.05772254 -0.020689664 -0.050230164 -0.07357992
-0.051503237 -0.027143003 -0.024951193 -0.08350231 -0.04724587 -0.00014914731 -0.039057266
00000000: 90d8 1a3c 9a23 4cbd b3d4 8fbd 4868 593d
00000010: c304 4e3d 5ac4 693d 38c8 043c 9358 2f3d
00000020: 50eb 65bc c0ae 8e3d f12f 8f3c 3afb 133c
00000030: 8b53 89bd c8c5 8ebc 5779 62bd c902 cb3c
00000040: 2f6b 053d d662 c2bc 4945 7f3d 08cb 16bd
00000050: 80db 753d 795b 8f3d 0d7b f3bb c234 923d
00000060: e4ec 3c3d 134b 83bd bda0 50bb ef2b 43bd
00000070: ea0d 50bd 3c82 803d a4b8 6c3d dbef 21bd
00000080: dcf2 6fbd db69 0bbd 63ad 4b3d 0cee 37bc
00000090: e114 8f3c 20f5 0abd 470e 5cbd 74fb c5bc
000000a0: 96fc 94bd 62d9 c63c bdd9 813d c568 343d
000000b0: 4e85 453d 3564 8bbd 6d5f 37bd 7f50 e8bc
000000c0: a25e fb3c 6471 04bd 469a afbc a8d8 82bd
000000d0: f423 9d3c 4b9b 433b 23d3 9ebd 44b1 30bd
000000e0: c89e 663c e212 8d3d 5cb5 a1bd 9c8b 813c
000000f0: 71d1 d53c 9d1d 313d 9bf9 8b3d 1341 493c
00000100: 87bf 583d 07c0 013d 38f1 c03c 2ae8 52bd
00000110: 241f 5c3d afae 9a3c 8248 703d 6285 823d
00000120: bf52 bb3c ed25 0b3c 3c73 c33c e681 bb3c
00000130: d328 a1bd 74e6 9fbd 775a 8fbd 5684 9abc
00000140: 5c83 a13c 4588 3dbd ba96 893d df31 873d
00000150: ec9b 8bbd 6e70 4dbd 424b a3ba 2983 84bd
00000160: 7a68 0a3c 9354 c6bc e183 42bd fa30 0ebd
00000170: c1d1 3bbd 29c9 d53c d54d 18bd 6130 e63c
00000180: c49c bb3b c2c7 05bd c3b0 9cbd fb9d 29bd
00000190: 954e 8abc 6f64 1bbd a250 ec3c 7d0a 16bd
000001a0: 7e9a 87bc 5073 2a3c 6508 993d e00b 46bc
000001b0: 614a 693d d470 35bc a22c 833c 944c 4b3c
000001c0: b30f b4bb ad1b 043d 3e0d 273c b015 473d
000001d0: 2a0f 0f3d 3126 a53b 5bde 243c 4cf7 b2bb
000001e0: 6348 31bd 6559 08bd 67a6 913c ce2b 423d
000001f0: 20f9 823d f6ef 9abd c8dc 993d a443 5dbd
00000200: a2fc 093d 339b f43b e18b 6abd 534f 9b3d
00000210: 9246 453c 39cc 013d 3952 a13c e912 25bd
00000220: 8f87 ecbc 4cb9 cc3b cf0c 9bbd 6467 663d
00000230: 0c9e 003d 81e8 8c3d 04ef 2f3d 6126 6c3d
00000240: fa36 303d ab4b 9cbd 8d4a 3abd 50fe 893c
00000250: 786e 6cbd 5f7d a9bc 25be 4dbd 12b1 96bd
00000260: 0ff5 52bd 015b debc 7266 ccbc 4203 abbd
00000270: e384 41bd 6d64 1cb9 83fa 1fbd

model.MLP.4.weight f4 [11, 159]
0.07949764 0.03446617 0.045230363 0.045584157 -0.016819645 0.07085303 0.011621554 -0.012543659
0.048452254 0.04939658 0.023599377 0.075577736 -0.08045875 -0.06862028 -0.06747804 -0.00419571
0.044090997 0.0015101273 0.06675821 0.04769145 -0.03820895 -0.010480451 -0.011711763 0.0134240305
0.01991231 -0.08098722 -0.00067457365 0.08214374 -0.029711723 -0.03139474 0.02594248 0.08768019
0.058407906 -0.08080543 0.009510075 0.06233862 -0.03831005 -0.033666253 -0.0431131 -0.021892797
-0.0382113 -0.03912998 0.0011527478 0.07733684 0.039200466 -0.04490028 0.007929852 -0.002250213
-0.07446588 0.07627951 -0.044014283 -0.00040226564 0.077491514 -0.028128363 0.024408182 0.044025127
-0.04904233 0.07673305 -0.071877435 -0.033829883 0.04228818 -0.00045209867 -0.06708289 -0.04632545
-0.06421242 -0.0021711157 0.047815498 -0.070915624 -0.023245323 0.0017636581 -0.025052162 0.060253866
-0.048381276 -0.014948314 -0.048143044 -0.048657086 0.11102445 -0.0022816786 -0.0566282 -0.083135635
0.029565519 -0.052759916 0.04803018 0.012437692 0.071228355 -0.011945854 -0.020711066 0.040136937
0.074756056 0.024716996 0.045292854 0.0016992587 -0.04677682 -0.050224636 0.025296621 0.033092886
0.0019604915 -0.005605106 -0.06482742 -0.044663426 -0.07399514 0.026741585 -0.050996512 -0.049237065
0.013050696 0.008357986 0.014338212 -0.06957147 -0.0586225 0.075921945 -0.035863202 -0.03424023
0.045048326 0.015187812 -0.03285369 -0.04261623 -0.0062420857 0.05301859 -0.063712716 0.07406466
-0.00017515606 -0.03230651 0.021386491 -0.00014862901 0.033822216 -0.050578594 0.0038359407 0.024707353
0.0752751 0.028077252 0.021602418 0.048889123 -0.09295098 0.05347198 -0.000105785664 0.06753983
0.046504725 0.07900392 -0.07816431 -0.044765506 -0.0066889366 -0.040052433 -0.0314218 0.005826871
-0.036583792 -0.05782009 0.059897676 -0.071217954 -0.055782177 -0.029404234 0.02397488 -0.08439486
-0.043718763 0.08822344 0.05796609 0.043865364 0.011481001 0.0054908316 -0.07766401 -0.020993914
0.0048643798 0.027728915 -0.040411633 0.030049637 0.038553596 0.04396899 0.027345598 -0.035012674
0.019023053 -0.07887157 -0.06815834 0.027737848 0.06480646 -0.000542514 -0.058359943 0.012420833
-0.07065886 0.056876495 -0.070426345 -0.004869528 0.03405249 -0.044128705 -0.0104726255 0.03066136
-0.06505587 -0.03915193 -0.0031249374 0.0409877 -0.04425894 -0.0010810196 -0.028577603 -0.042676546
-0.030183285 0.047830448 0.07689451 -0.056421075 0.04969634 0.06704569 -0.026997752 -0.01656539
0.025219478 0.04698287 0.07312742 -0.030028693 -0.03988432 -0.031059608 -0.04771633 0.06215769
0.07432844 -0.031000257 0.058869585 0.036748677 0.04216505 0.041532114 0.0040691495 0.046861827
0.03147094 -0.0045669004 -0.03305809 0.018638872 0.021019079 0.06388366 -0.055783927 0.06768566
-0.0648815 -0.000435777 0.0047180206 0.0679301 -0.04147774 -0.03420983 0.06380257 -0.022135265
-0.07683563 -0.042997696 0.036820896 -0.06686696 0.0029205307 0.032021478 0.015365444 -0.060400728
-0.009335011 0.07520974 0.04552336 0.066936344 0.06168641 -0.069772884 0.036014862 0.0020399392
-0.07336657 -0.04614285 -0.008188263 0.051352546 -0.068966985 0.07145174 -0.069712125 -0.07683479
00000000: a9cf a23d 662c 0d3d 7943 393d 74b6 3a3d
00000010: 5ac9 89bc 651b 913d 5568 3e3c eb83 4dbc
00000020: df75 463d 1154 4a3d 7b53 c13c 80c8 9a3d
00000030: 8fc7 a4bd ca88 8cbd ed31 8abd 2b7c 89bb
00000040: c398 343d 77ef c53a 87b8 883d 1c58 433d
00000050: fd80 1cbd 33b6 2bbc b2e2 3fbc 77f0 5b3c
00000060: 241f a33c a1dc a5bd dfd5 30ba fa3a a83d
00000070: 0066 f3bc c597 00bd 5385 d43c ac91 b33d
00000080: 213d 6f3d 517d a5bd 25d0 1b3c c856 7f3d
00000090: 00eb 1cbd a0e5 09bd 5d97 30bd 8658 b3bc
000000a0: 7483 1cbd c246 20bd cc17 973a c762 9e3d
000000b0: ab90 203d 5be9 37bd 36ec 013c 4f78 13bb
000000c0: 9181 98bd 6f38 9c3d 5248 34bd 2ee7 d2b9
000000d0: dfb3 9e3d 746d e6bc abf3 c73c b153 343d
000000e0: 9ce0 48bd 3826 9d3d 7a34 93bd 3491 0abd
000000f0: 5f36 2d3d a807 edb9 c162 89bd c1bf 3dbd
00000100: cd81 83bd 4749 0ebb 2fda 433d 363c 91bd
00000110: fa6c bebc 8c2a e73a 313a cdbc c2cc 763d
00000120: 722b 46bd c6e9 74bc a431 45bd a74c 47bd
00000130: c960 e33d 3788 15bb f9f2 67bd 0443 aabd
00000140: 6333 f23c c81a 58bd 4bbb 443d 76c7 4b3c
00000150: 2ce0 913d 8bb8 43bc 41aa a9bc a166 243d
00000160: b419 993d 4c7b ca3c 0085 393d a9b9 de3a
00000170: 0d99 3fbd 59b8 4dbd dc3a cf3c 688c 073d
00000180: 977b 003b 09ab b7bb 3dc4 84bd fff0 36bd
00000190: c48a 97bd 2b11 db3c b8e1 50bd ceac 49bd
000001a0: 96d2 553c efef 083c d2ea 6a3c 7d7b 8ebd
000001b0: 261e 70bd f77c 9b3d 4be5 12bd 7c3f 0cbd
000001c0: 9884 383d 4dd6 783c 9791 06bd 5b8e 2ebd
000001d0: 698a ccbb 052a 593d d07b 82bd 36af 973d
000001e0: 19aa 37b9 d553 04bd b932 af3c 4cd9 1bb9
000001f0: 2a89 0a3d 802b 4fbd 6864 7b3b 1367 ca3c
00000200: d529 9a3d 4402 e63c 8ef7 b03c f63f 483d
00000210: 155d bebd 6f05 5b3d 3fd9 ddb8 5352 8a3d
00000220: bd7b 3e3d cfcc a13d 9c14 a0bd 095c 37bd
00000230: de2e dbbb 050e 24bd 25b4 00bd 56ef be3b
00000240: e3d8 15bd c2d4 6cbd 4457 753d b8da 91bd
00000250: da7b 64bd 26e1 f0bc f866 c43c 36d7 acbd
00000260: 7212 33bd 7eae b43d da6d 6d3d 2bac 333d
00000270: cf1a 3c3c 6fec b33b 4f0e 9fbd 6efb abbc
00000280: 6065 9f3b c027 e33c ab86 25bd a82a f63c
00000290: 60ea 1d3d d418 343d e003 e03c 7369 0fbd
000002a0: 3cd6 9b3c 6b87 a1bd 9a96 8bbd 7c3a e33c
000002b0: 40b9 843d 8037 0eba d60a 6fbd c080 4b3c
000002c0: 98b5 90bd 54f7 683d b03b 90bd 9090 9fbb
000002d0: a07a 0b3d 4dc0 34bd 6095 2bbc 882d fb3c
000002e0: 033c 85bd c65d 20bd c0cb 4cbb b8e2 273d
000002f0: dd48 35bd 00b1 8dba 941b eabc 9acd 2ebd
00000300: f042 f7bc dce9 433d de7a 9d3d c919 67bd
00000310: 648e 4b3d 404f 893d 642a ddbc 24b4 87bc
00000320: 1499 ce3c 1c71 403d d4c3 953d bcfe f5bc
00000330: be5d 23bd b870 febc 3372 43bd 1099 7e3d
00000340: 8239 983d 40f4 fdbc 3c21 713d c885 163d
00000350: 42b5 2c3d 941d 2a3d 8056 853b 30f2 3f3d
00000360: ace7 003d f0a5 95bb eb67 07bd 8cb0 983c
00000370: 3430 ac3c 70d5 823d b07d 64bd c89e 8a3d
00000380: 98e0 84bd 0079 e4b9 a099 9a3b f01e 8b3d
00000390: 90e4 29bd 9b1f 0cbd ecaa 823d 0455 b5bc
000003a0: 005c 9dbd 5a1e 30bd 82d1 163d 8bf1 88bd
000003b0: 6066 3f3b f428 033d 58bf 7b3c c166 77bd
000003c0: e0f1 18bc 9007 9a3d b476 3a3d ec15 893d
000003d0: e4aa 7c3d 16e5 8ebd 5284 133d 80b0 053b
000003e0: 3641 96bd 4900 3dbd 1028 06bc 0c57 523d
000003f0: 903e 8dbd 4a55 923d 3bc5 8ebd 8f5b 9dbd

model.MLP.4.bias f4 [11]
-0.017138937 0.024081267 -0.030405905 -0.046150602 0.033357568 0.07263711 -0.020830255 0.07485455
0.037040763 -0.030362852 -0.035053033
00000000: f566 8cbc 1446 c53c ce15 f9bc 6a08 3dbd
00000010: f2a1 083d c4c2 943d 36a4 aabc 584d 993d
00000020: 0eb8 173d 84bb f8bc c593 0fbd

exp_avg f4 [10]
-0.00017702866 0.00020387054 0.0003319285 -0.00022717322 -0.00024284766 0.00028850284 -0.00025921682 -0.00027151874
0.00017207084 -0.00012413893
00000000: c5a0 39b9 15c6 5539 b006 ae39 5935 6eb9
00000010: eca4 7eb9 3242 9739 7ee7 87b9 a15a 8eb9
00000020: ea6d 3439 4a2b 02b9

exp_avg_sq f4 [10]
1.7747145e-06 2.82638e-06 4.7874228e-06 4.6210803e-06 3.590505e-06 6.861737e-06 4.5184815e-06 5.3464128e-06
1.2534884e-06 1.5194105e-06
00000000: ba32 ee35 d7ac 3d36 a6a3 a036 c70e 9b36
00000010: 68f4 7036 df3d e636 769d 9736 5665 b336
00000020: 893d a835 8cee cb35

exp_avg f4 [10, 1]
-5.5771957e-06 -5.0712842e-06 -1.34212405e-05 -5.454788e-06 1.1024179e-05 -1.0292545e-05 5.189997e-06 3.1298262e-07
2.2661841e-05 2.903037e-06
00000000: bf23 bbb6 002a aab6 ca2b 61b7 4608 b7b6
00000010: 7df4 3837 25ae 2cb7 bc25 ae36 0108 a834
00000020: ef19 be37 ccd1 4236

exp_avg_sq f4 [10, 1]
1.3245687e-08 2.2254957e-08 2.9250188e-08 3.6567254e-08 3.07143e-08 5.1656908e-08 2.7032119e-08 4.425593e-08
1.295538e-08 8.304574e-09
00000000: 268f 6332 2b2b bf32 d841 fb32 1f0e 1d33
00000010: bbea 0333 5fdd 5d33 4234 e832 e913 3e33
00000020: 5d92 5e32 e7ab 0e32
