Covid prediction Graph 300 train days/cyf4htyd/checkpoints/epoch=2-step=111.ckpt (torch, 720524 bytes, 24 tensors)

model.A f4 [91, 91]
00000000: be76 dfbc 68a8 453e 7a4d bb3d 9c48 e4be
00000010: b050 f0bc ba92 263e 233a a03e adbf 56be
00000020: 6b0a 98be 468d 78be 2984 5f3e cf96 4fbe
00000030: af51 27be 316c a0be c6c6 9a3e f3ad a3be
00000040: eae4 03be 0bcd 60be dfd3 cc3d 36d5 903e
00000050: d7cc a83e 5774 0f3e 12e9 bbbe a62e 183e
00000060: 8008 c3be 0440 bdbd 91e1 0cbe ffca 9cbe
00000070: 049f 73be 0924 943e 137e 1ebe 202d ab3d
00000080: 5815 c03e 5121 b4be 158b 223e a894 7d3e
00000090: 781c 88be 62ba ec3d 96cc 07bc baa2 4a3e
000000a0: e4fa 45be 8983 7fbe b6aa 2ebe d181 f03d
000000b0: a4ac 8ebe aad8 2ebe 3a27 b83e 15db 52be
000000c0: d46d b53e a1f4 1c3e 5712 fcbd 42a9 323e
000000d0: 065e 5e3e 2919 f6bc be9b f43e 05e6 26be
000000e0: 0068 32be a191 47be 4d0f 003e 17ec a43e
000000f0: 2bef eabe 8a51 993e b9eb 693e 014f 91be
00000100: 4432 033e cec0 8bbe ff34 db3d 2cbd 05be
00000110: ab39 883e bf7f 3b3e 630f 3a3e 7d8d b8be
00000120: 0fd4 b23e 4379 b8be 78fa 463e 90fa 86be
00000130: cbc4 423e a6a6 8ebe b468 96be cc2b 16be
00000140: 4b33 773e 7b62 173e a3f6 07be f920 2f3c
00000150: b897 7b3e 8a31 7fbe c459 2a3e d1e1 03bd
00000160: abdd 643e 4d7f 99be dc95 173e 85f0 763d
00000170: b5fa ad3e 01d4 a53e 30aa 71be 7b21 6a3d
00000180: f874 083f d8be 1a3e 7259 17be 7373 33be
00000190: 4507 84be b4e2 b33e 60e8 883e 36d3 25be
000001a0: 9ce8 043e e650 5f3e fdb6 4ebe ad6e 05bf
000001b0: e8cd 23be 22b1 7ebe 63e1 743e 1afa 95be
000001c0: c37a 36be 0e10 0ebe 8a66 cd3e 8c74 3e3e
000001d0: c0d7 43be a5b4 6b3b 3b4c b1be 1a8d 22be
000001e0: 1ecf 673d 12a5 cfbe 8ca1 5a3e 1ccb dfbc
000001f0: d949 303e 5135 813e 1a0f ee3d 5052 543d
00000200: f058 4abe c654 a23e 2a58 7dbd 0120 d3bd
00000210: 6b79 523d dc1c cabd 6deb 763e 3659 6dbe
00000220: 7341 52be beba 2f3e cf24 8bbd 17dd 573e
00000230: a966 353d 6460 153e 9e65 6fbe efe8 ad3e
00000240: 6781 263e 8b4f 393e c2d5 3ebe d741 dd3d
00000250: ae6a 4a3d d381 4cbc 7d58 69bd 764d 99be
00000260: 8e5d 92be 8cfb 433d e9b7 8cbe 0b03 e33e
00000270: 5be1 003e 3d83 a13e c0b6 31be 6bdf 323e
00000280: 90b7 883e 21d0 bf3e 1c2c 2abe 2f70 6d3e
00000290: b8a6 2dbe 1e8b 4f3e 7424 ca3d 3533 7e3e
000002a0: 0f2d 3fbe c87c c6be fdc0 6a3e 46fc 933d
000002b0: abb8 4bbe 6edc 483e 9976 8e3e a212 433e
000002c0: f8a9 4ebe d740 403e c8bf 56bc d68a e93d
000002d0: 6d12 a1be 0909 243e 6c14 493e 95aa a63e
000002e0: d939 0dbe 1a22 83be fbb1 0fbe 1ad4 4a3e
000002f0: 6718 afbe 2fd7 8abe 04f1 ca3e b3b5 10be
00000300: b126 213e 9cdc 8ebd a3a7 8b3d c6f6 f9bc
00000310: 6b51 7d3d 0f5a b9be 934f 743d 9c6f 18be
00000320: a0e3 fc3d af9b 09bd d6a1 463d c181 123e
00000330: 8c64 75be b893 bb3e 31ae 68be fbae 803e
00000340: 7f6b b13e 6bd6 02be d13f c93e 532c 86be
00000350: 96c5 223e 18de fd3d c020 ba3d 2d51 f8bd
00000360: 270b b5be 8846 cb3e 4ef6 90bd adaa a43e
00000370: 37ff da3d 1789 3f3e 7474 f9bd d66b 883e
00000380: e712 263e 19f8 e43e ad4e 6dbe 681c c1bd
00000390: f165 a93e 6ef4 c9be fea1 c63d 9d9e d9bd
000003a0: 9022 cebe 8657 72ba f57c 1b3e 9e48 7fbe
000003b0: 7308 a03e 04a0 3fbd eb64 e7be eb71 9cbb
000003c0: dc49 8c3e 9d1a 833e 424a 143e b9a4 3f3e
000003d0: a7ea 3c3d 301b debe 6df5 643e 9d63 81be
000003e0: c161 b33d 91a0 19bd dd09 0d3d 6f2c 473e
000003f0: cc16 53be 300a 8dbd fb4a f53d 9da2 423d
-0.0272783 0.19302523 0.09145637 -0.44586647 -0.02933535 0.16266909 0.31294355 -0.20971556
-0.29695448 -0.24272642 0.21827759 -0.20272373 -0.16339754 -0.31332543 0.30229777 -0.3196865
-0.12880293 -0.21953218 0.10001349 0.28287667 0.3296878 0.14009224 -0.36701256 0.14861545
-0.38092422 -0.09240726 -0.13757922 -0.30623624 -0.23791128 0.28933743 -0.15477781 0.08358216
0.37516284 -0.35181668 0.15873368 0.24763739 -0.2658422 0.11558987 -0.008288523 0.19788638
-0.19333988 -0.2495252 -0.17057309 0.117435105 -0.2786609 -0.17074838 0.35967427 -0.20591386
0.35435355 0.15327694 -0.123081855 0.17447379 0.21715555 -0.030041294 0.47775072 -0.16298683
-0.17422485 -0.19489147 0.12505837 0.32211372 -0.45885596 0.29945022 0.22843827 -0.28380588
0.12812144 -0.27295536 0.107034676 -0.13060445 0.26606497 0.1831045 0.18169932 -0.36045447
0.34927413 -0.36030015 0.19431484 -0.2636304 0.19020383 -0.27861518 -0.29376757 -0.14665145
0.2414066 0.14783661 -0.13277678 0.010689014 0.24569595 -0.24921241 0.16635805 -0.032197777
0.22350185 -0.29979935 0.1480326 0.06028797 0.33980337 0.3238831 -0.23600078 0.057160836
0.5330348 0.15111864 -0.14780214 -0.17524509 -0.25786796 0.35133898 0.26739788 -0.16193852
0.12979358 0.21808204 -0.20186992 -0.52122 -0.15996516 -0.24872258 0.23914103 -0.29292375
-0.17820267 -0.13873312 0.40117294 0.18599147 -0.19125271 0.0035965827 -0.34628472 -0.15874138
0.056594007 -0.40555626 0.21350688 -0.02731853 0.1721567 0.2523599 0.11623974 0.05183631
-0.1976049 0.31705302 -0.061851658 -0.10308839 0.051385324 -0.09868786 0.24113245 -0.23178563
-0.2053278 0.1716108 -0.0679413 0.21080433 0.044287357 0.14587551 -0.23378608 0.33966777
0.162603 0.1809675 -0.1863623 0.108035736 0.049418144 -0.012482124 -0.056969155 -0.2994191
-0.28587002 0.047847316 -0.27484062 0.4433826 0.12585966 0.3154544 -0.1735487 0.1746804
0.26702547 0.37463477 -0.16618389 0.23187326 -0.1695813 0.20267913 0.09870234 0.24824221
-0.18669532 -0.38767076 0.22925182 0.07225852 -0.19894664 0.19615337 0.27824858 0.19050077
-0.20182025 0.18774734 -0.013107248 0.11403434 -0.3145937 0.16019072 0.19636697 0.3255202
-0.13791598 -0.25611955 -0.14032738 0.19807473 -0.34198305 -0.27117297 0.39637005 -0.14131813
0.15737416 -0.06975672 0.068190835 -0.030513179 0.061845224 -0.36201522 0.0596462 -0.14886326
0.123481035 -0.033595737 0.048494183 0.1430731 -0.23964137 0.36636138 -0.22722699 0.251335
0.34652326 -0.12777106 0.393065 -0.26205692 0.15895686 0.12395877 0.09088278 -0.12124858
-0.3536007 0.3970225 -0.07078229 0.32161465 0.106932096 0.1870464 -0.12180415 0.26644772
0.16218148 0.44720533 -0.23174544 -0.09429246 0.33085588 -0.39444298 0.09698866 -0.10625956
-0.40260744 -0.00092446094 0.15184386 -0.24930045 0.31256446 -0.046783462 -0.45194182 -0.0047743223
0.274001 0.25606242 0.14481452 0.1871518 0.04612222 -0.43380117 0.22359248 -0.2527131
0.087588795 -0.037506644 0.034433234 0.19450544 -0.20614165 -0.06886709 0.11977192 0.04751836

model.B f4 [91, 1]
00000000: 38cf 9cbd 55e9 6abd 7e79 53be 7304 eabd
00000010: ab55 b8bd 7e7f 913c 8c9d 9bbe 3986 7abe
00000020: 3a41 d3bd 797b 863e 265b 9a3e f9e9 a83c
00000030: 2ae9 943e 16cb 99be 508a cabe bd46 34be
00000040: 8ba8 04bf 1d92 6abe aec7 86be e30b 1d3e
00000050: 8bcd 9e3e 82ed 8c3e 1ea8 a6bd 9af2 b03e
00000060: 1ae6 d73d 76dd 2ebe ef84 4bbd 3ccf fe3d
00000070: 278b f03d 0150 523e 2eea 6a3e 38b2 4e3e
00000080: 91d3 66be 73cd 96be b26d 28bd 5bd2 3bbe
00000090: 75f6 253d dfe9 693e 43ab a1bd dadb e1bd
000000a0: eea9 bebe fa89 d93c cc4d 3b3e 297d 79bd
000000b0: c67a b83e 835c 5b3e 2759 82be 339a d2be
000000c0: d16e 14be f59c 1b3e 959a 833e e0e0 243f
000000d0: 00b1 74be 7be7 92be e3a9 113e 9634 21bd
000000e0: 9ce7 1abe cd80 21bf 7436 b63d 9a49 ad3d
000000f0: 9d31 1bbc 2e61 95be 7816 aa3e 4999 d13c
00000100: 1fae 94be 0f93 39be 3161 903e 978d 7abd
00000110: 63ff b03d 944c 35be 0394 ae3d 70ac 82be
00000120: e609 eebd 4b4d b2bd 5828 01be 148c 973e
00000130: 8237 07be a5f8 983e 7f00 6fbd 41b1 853c
00000140: 4cee 9ebe cef6 7c3e e029 24be b444 8fbe
00000150: 7feb 203e c164 8c3e ba15 c13b 7e8f 1ebd
00000160: b21b 9e3e c887 dbbc 4dc6 4d3e
-0.07656711 -0.05735143 -0.20651814 -0.1142663 -0.09000715 0.017760988 -0.30393636 -0.24465264
-0.10315175 0.26266077 0.30147666 0.02061938 0.2908414 -0.30037755 -0.3955865 -0.1760511
-0.51819676 -0.229073 -0.2632422 0.15336566 0.31016192 0.27524954 -0.081375346 0.3456009
0.10541935 -0.17076668 -0.049687322 0.124418706 0.11745291 0.20538332 0.22940895 0.20185173
-0.22541644 -0.2945362 -0.04112024 -0.18341963 0.040518243 0.22843121 -0.07893994 -0.110282615
-0.3723902 0.02655505 0.18291396 -0.060910378 0.3603117 0.21422009 -0.25458643 -0.4113327
-0.14495398 0.15196593 0.25703874 0.6440563 -0.23895645 -0.2869223 0.14224963 -0.03935679
-0.15127414 -0.6308716 0.08897105 0.08461304 -0.009472278 -0.29175705 0.33220267 0.025585787
-0.29039094 -0.18122505 0.2819915 -0.061170187 0.08642461 -0.17704993 0.08524325 -0.25522184
-0.11622982 -0.08706149 -0.12613046 0.2959906 -0.13204768 0.298772 -0.058350082 0.016319873
-0.3104118 0.24703524 -0.16031599 -0.27982104 0.15714835 0.2742062 0.0058924826 -0.038711064
0.30880505 -0.026798144 0.20095177

model.D f4 [91]
00000000: d61f 9c3e d386 893e c3ea 193e c375 42be
00000010: 3e6f 803e 6fd1 883e 3ee8 433e 58f5 903e
00000020: 7f4d 43be 23b4 71be 5b64 9e3e 40d0 673e
00000030: 4cc1 26be 38c8 2d3e 6547 1abe 6ec7 573e
00000040: 1c08 ccbd 0b22 923e bcf9 823e 2b22 233e
00000050: a47c 28be 5665 84be e553 453e e95b 79be
00000060: 94e3 88be c690 693e 003b 833e cd23 36be
00000070: ddcf 38be d030 83be 2375 61be f3e9 8cbe
00000080: e4d6 743e 12d8 373e 2e3f 2a3e ece7 7b3e
00000090: dbbb 783e 67c8 80be bd9d 86be 676b 823e
000000a0: ad16 8ebe 2df9 783e a013 23be be3b 1ebe
000000b0: 8c7c 463e f7ee 5a3e 3374 7d3e 72b8 7f3e
000000c0: 3172 383e 1ac2 7bbe 8970 393e bb51 1fbe
000000d0: d6af 7b3e 922f 533e c831 393e 21b5 8cbe
000000e0: c316 59be 5646 113e 905d 6fbe 741a 823e
000000f0: 9367 823e e659 7c3e 1d36 19be 33d2 81be
00000100: 4978 9a3e e1c2 463e aceb 68be 64f2 7e3e
00000110: f4ed 34be 0bb9 0dbe a8c5 7ebe 6b99 aa3e
00000120: d75c 463e d670 7b3e f53d 563e 748e 85be
00000130: b4b2 293e 5822 29be b371 803e b00f 5dbe
00000140: a480 8a3e e0f2 86be ecf5 793e d3f6 363e
00000150: c98f 1e3e da03 50be 48e3 b73e 0157 83be
00000160: 2e06 323e 316a 473e dece 82be
0.3049304 0.26860675 0.1503096 -0.18990235 0.2508487 0.26722285 0.19131562 0.28312182
-0.19072531 -0.23603873 0.3093594 0.22638035 -0.16284674 0.16970909 -0.15066297 0.2107217
-0.09962484 0.28541598 0.25581157 0.15931003 -0.16453797 -0.25858563 0.19270284 -0.24351467
-0.26736128 0.22809133 0.2563095 -0.17787094 -0.18048044 -0.25623178 -0.2201734 -0.2752224
0.239101 0.17953518 0.16625664 0.2460019 0.24290411 -0.25152895 -0.2629222 0.25472566
-0.27751675 0.24313803 -0.15925455 -0.15452477 0.19383448 0.2138022 0.24751358 0.24972704
0.1801231 -0.24585763 0.18109335 -0.15558521 0.24578795 0.20623615 0.18085396 -0.2748194
-0.21200089 0.14186987 -0.23375535 0.25410807 0.25469646 0.24643669 -0.14962049 -0.25355682
0.30169895 0.19410278 -0.22746152 0.24897152 -0.17668897 -0.1384012 -0.24880087 0.33320174
0.19371353 0.24554762 0.20922072 -0.26085246 0.16572076 -0.16517007 0.25086746 -0.21588016
0.2705127 -0.26357174 0.24410218 0.17867593 0.15484537 -0.20313969 0.3591559 -0.25652316
0.1738517 0.19474103 -0.25548452

model.H2X_out_MLP.0.weight f4 [182, 91]
00000000: 5476 7c3e a238 73be 9acc 4c3e 9a0f 243e
00000010: 205a 4c3e 55fa 9ebe 602b 013e 6644 91be
00000020: 46fd 7abe 132b a1be 4640 64bd 886c 3c3e
00000030: 692c 70be 14ff a43e 9624 95be c0cf 453e
00000040: 143f 3ebe 349b 703d 4168 fabd f955 d33d
00000050: ac74 57be 4571 9dbe 4118 7fbc 07de 01be
00000060: 6a5c 4d3e b8ec 4cbe 5184 503e 6c1d 783e
00000070: 5ba5 d6bd 7bfd 3a3e 1bd9 9fbe 33c2 9bbe
00000080: 3c2c 9ebe c4da b33e 35cc 62be 477b 20be
00000090: 7e8b ac3e 1b47 1abe 0b42 5d3e eef9 b9be
000000a0: ea6e 1d3e 7af8 7b3e 061f 553e 3066 6bbe
000000b0: b66a 203e 59ef 483e 8832 d03d 1b8c 4d3e
000000c0: 1bcb 8c3e 37b2 bc3d 0202 8b3e 1f98 4f3e
000000d0: acea 3abe 1cd0 f73d ad60 afbe 3604 093e
000000e0: 4fa4 923e 0502 143e f55d ccbd 221b 8abe
000000f0: b7cc 0b3e a5aa 31be a305 7bbe 21c2 673e
00000100: a251 17be e2b0 7e3e 9f74 57be 72a9 9cbe
00000110: 0af0 9b3e 9e78 aa3e 644f 24bd 757e e4be
00000120: d769 f7bd 3fdf db3d faa0 4a3e 316f b13e
00000130: 1612 52be d7a7 8fbe a3c5 a2be 49fb 9b3e
00000140: 1a6e 81be b049 30be 4c4d a63e ca12 5c3e
00000150: b42f 683e 5527 99be 731e 1cbe 1362 c33d
00000160: 4ea8 223e 7c6d 693e b6f3 62be 94f4 3b3e
00000170: 92fc a73e b5db 733e ae75 1ebe fd47 7bbe
00000180: 7394 3e3e 91e5 7b3e 42e4 81be ad93 51be
00000190: 1af9 77be 93cb 803e bdfa 54be 08bb d03d
000001a0: 0d63 3dbe e9a3 133e 6908 e4bd 3fce 7e3e
000001b0: c607 91be c568 063e a586 9e3e b8d1 103e
000001c0: 50fa 2d3e 65bb 58be 2bc5 743e f394 39be
000001d0: df6d 28be c29d 833e 8cbc b4be 6e99 5bbe
000001e0: c5d2 953e f153 69be e903 a93e d7fa 843e
000001f0: 5349 3abe 8ea2 0b3e 4fec 2a3e a248 31be
00000200: d168 793e 6acb 8f3e 96d0 853e e7d0 a4be
00000210: 1ace 61be 763f 8bbe 45d8 a63e 276a 0bbe
00000220: e14f cbbd c3a4 443e 3d9f 43be 7bf2 9bbe
00000230: b06d 5d3e a83e 19be ad90 413e 3be3 ff3d
00000240: 03ee e9bd 6730 403e 1e58 78be 3357 3abe
00000250: 387c b1bd 0e3d 163e ac7a 8b3e 96b4 9dbe
00000260: f4aa 863e 5577 8c3e d8fd 72be 863f 7a3e
00000270: 72e1 fdbd 5303 693e e9f4 92be 55f8 9ebd
00000280: 5046 9c3e 8eb7 8bbe fa61 dcbd 4c5c a03e
00000290: b43c 7cbe 1c8d ad3e 0b5f e0bd f5d0 373e
000002a0: 11c2 5e3e 125d abbe 6b4b 623e 5ba0 6a3e
000002b0: 52e7 913e f88a aebe 7099 84be 4ced ae3e
000002c0: 2596 20be ff98 743e 4da0 a1bd ffac 86be
000002d0: d070 50be 3f07 cc3d da0a a03e 255a 5bbe
000002e0: 323a 003e 07b1 143e 0cbf e93d e3f8 afbd
000002f0: af65 983e e9ac 8ebe dfb7 62be b386 aabe
00000300: 94eb 683e 06eb 483e 671c cfbd 6afc 9a3d
00000310: 8037 afbe 51b1 6dbe 0256 48be 330d aebe
00000320: aa38 aabe 36dd 8b3e 73e8 ddbd 8b9c c9bd
00000330: 0175 1abe 179d 16be 2b5d 8d3e 38f1 91be
00000340: a326 5dbe 1ec1 963e 325e eebd 41d3 903e
00000350: 7d72 5ebe 8999 edbd 8361 75be ec04 47be
00000360: 05de 3e3e a7be abbe c1c7 323e 43be 29be
00000370: 3c82 da3d cd34 0abe 33a0 1b3e 47d1 5d3e
00000380: 05a6 2b3e 3527 e4bd 8fb6 9c3e 3f9a 943e
00000390: b760 fe3d e438 193e 6a74 333e 8786 ab3d
000003a0: f3f6 54be 9e28 643e ec31 8fbe dfc9 bc3d
000003b0: 8efb 8fbe 1611 223e 3bb7 793e d071 693e
000003c0: f417 25be f505 32be 9e05 643e 0e18 54be
000003d0: a9a8 02be 5507 9a3e 56dc af3d 1411 363e
000003e0: 3f0f d0bd 99f5 29be 6eaa ae3d fef1 1b3e
000003f0: c72d 8ebe 3631 8abe 939f 33be 352b 853e
0.24654514 -0.23752072 0.19999924 0.16021577 0.19956255 -0.31050363 0.12614202 -0.28372496
-0.24510679 -0.31478176 -0.05572536 0.18400776 -0.23454441 0.3222586 -0.29129475 0.19317532
-0.1857875 0.058741763 -0.12226916 0.10319132 -0.210406 -0.3075048 -0.015569747 -0.12682353
0.20054784 -0.20012176 0.20362975 0.24229974 -0.10480758 0.18260758 -0.31220326 -0.304216
-0.30893123 0.35127842 -0.22148211 -0.15672027 0.33700174 -0.15066187 0.21607225 -0.36323494
0.15374342 0.24606505 0.20812616 -0.229882 0.15665707 0.19622554 0.10165888 0.20072977
0.27498707 0.09213679 0.2714997 0.20272873 -0.18253583 0.121002406 -0.34253445 0.13380513
0.28640983 0.14453895 -0.099788584 -0.26973826 0.13652311 -0.17350252 -0.24513869 0.22632648
-0.14777234 0.24872163 -0.21040581 -0.30598027 0.30456573 0.3329515 -0.040114775 -0.4462773
-0.12080734 0.1073594 0.1978797 0.34655145 -0.20514712 -0.2805774 -0.3179141 0.30465153
-0.25279313 -0.1721561 0.32480848 0.21491542 0.22674447 -0.2991282 -0.1524599 0.095401905
0.15884516 0.22795671 -0.22163281 0.18355018 0.32809883 0.2381428 -0.15474579 -0.2453918
0.18611316 0.24599291 -0.2536946 -0.2046649 -0.24216118 0.25155315 -0.20798774 0.101919234
-0.18494816 0.14417996 -0.111344166 0.24883364 -0.28326243 0.13125904 0.309621 0.14142501
0.16990018 -0.21165235 0.23903339 -0.18123226 -0.16448162 0.25706297 -0.353001 -0.21445248
0.29262367 -0.22785927 0.33010796 0.25972626 -0.18192033 0.13636228 0.16691707 -0.17312863
0.2435639 0.2808488 0.261357 -0.3219063 -0.22051278 -0.27196854 0.32586876 -0.13614713
-0.09927345 0.19203477 -0.19103713 -0.30458435 0.21623874 -0.14965308 0.18902846 0.12494513
-0.1142235 0.18768464 -0.24252364 -0.18197326 -0.08666271 0.14671728 0.2724203 -0.3080184
0.26302302 0.27434793 -0.23729646 0.24438295 -0.12396516 0.22755174 -0.28702477 -0.07762209
0.30522394 -0.2728848 -0.10760875 0.31320417 -0.24632531 0.3389672 -0.10955628 0.17950805
0.21753718 -0.33469445 0.22099082 0.22912733 0.28496796 -0.340904 -0.25898314 0.34165418
-0.15682276 0.23886488 -0.07891903 -0.2630386 -0.20355535 0.099623196 0.3125828 -0.21421106
0.125222 0.14520656 0.114133924 -0.08592393 0.29765078 -0.27866295 -0.22140454 -0.33305892
0.22746116 0.19620904 -0.10112839 0.075676754 -0.3422203 -0.23212172 -0.1956406 -0.33994445
-0.33246356 0.27317208 -0.10835352 -0.09844311 -0.15083696 -0.14708363 0.27610144 -0.28504348
-0.2159677 0.29444212 -0.1163906 0.28286174 -0.21723361 -0.1160155 -0.23962979 -0.19435471
0.18639381 -0.33543894 0.17459013 -0.16576485 0.106693715 -0.13496704 0.1519783 0.21661864
0.1676255 -0.11140291 0.3060803 0.2902393 0.12420791 0.14963108 0.17524877 0.083752684
-0.20797329 0.22281119 -0.27967775 0.09218191 -0.28121608 0.1582683 0.24386303 0.22797322
-0.16122419 -0.17385085 0.22267768 -0.20712301 -0.12759651 0.3008372 0.085869476 0.17779952
-0.10159158 -0.16597594 0.08528601 0.15229031 -0.277693 -0.2699067 -0.17541341 0.26009527

model.H2X_out_MLP.0.bias f4 [182]
00000000: 5bc1 c6be 3cad 5bbe 769d f5bd cbf6 05be
00000010: ac02 64be efd3 85be 4d44 c0be 723a 1bbe
00000020: e72a b2be 1532 7bbe b8e6 6bbe 904c 57be
00000030: 2ed9 95be 864e 9ebe de5a 92be e22f bfbe
00000040: 7fa0 abbe c482 c5bd 3eae aebe 7db5 0dbe
00000050: c58a bebe 444e 4ebe aeb5 bcbe 47ec 59be
00000060: d4a1 88be 85c0 8abe 299d 48be 3dd5 12be
00000070: c3db 59be e51f 24be de74 3fbe 2da4 65be
00000080: fba6 87be 590a 5dbe e5f4 56be 86be b7bd
00000090: d064 86be e41a b8be 0c89 89be 99a5 20be
000000a0: cb4e 70be 62f9 93be 5816 44be 23ff 24be
000000b0: 4996 6abe 6b5e 5dbe 1ea3 51be c466 88be
000000c0: f97a a3be d5f3 67be cdae 6abe 9eff 87be
000000d0: 2b4d 85be fe20 c5be 186b 2ebe cc84 b9bd
000000e0: dbb2 2cbe 4a17 82be f7c1 97be 6c48 6cbe
000000f0: 3cb2 88be 0a72 92be 8c20 03be d088 15be
00000100: b8c0 84be 7ba9 91be ac72 2fbe 722e acbe
00000110: 089d 97be 519c 40be 3c8c 48be e18a 3bbe
00000120: 485b 0cbe edb9 44be 75e9 8dbe 05bc 98be
00000130: 98b3 3abe 7be8 81be 3014 a1be d84c 8ebe
00000140: efe7 30be a402 abbe 40fc 98be 669f 53be
00000150: 1696 42be e910 49be 90c4 45be 6e45 9bbe
00000160: 3269 afbe e4f0 7ebe 0bdc 4fbe 3472 69be
00000170: c576 a3bd c2d2 86be ea5a 5abe c6b1 e0bd
00000180: ff39 6dbe dfb2 9abe 624a 66be 91d0 38be
00000190: 2cdb 81be ecd1 8dbe e42e 41be ce0f fdbd
000001a0: a588 38be 1003 95be 942b 8cbe 714d 98be
000001b0: d674 2bbe e863 84be 397a 30be d763 6dbe
000001c0: f67d 82be 83a6 6bbe 822b 8bbe 3615 90be
000001d0: 322d 87be 0bad 98be fcd2 8ebe 5470 373e
000001e0: c728 51be c8d1 0fbe fa7a 80be 7d92 44be
000001f0: 9e48 a4be 101c 94be b1d8 9ebe 1a24 89be
00000200: a872 80be 1df3 b9be 18a8 a4be 9bbe c4be
00000210: ec9f 9dbe 0401 88be c1cc dabd 8df2 06be
00000220: 47cc 4cbe bebd 82be 3df2 72be 2ea1 92be
00000230: 06dc 24be 91fe 92be 0444 bdbe 97e2 febd
00000240: 4cde 6cbe 3a64 8ebe 55d7 35be 6226 9dbe
00000250: 3a9d 7dbe 69a2 3dbe a05c b1be 39d2 89be
00000260: da84 1ebe e90a a5be 7a0f 41be a74d 3bbe
00000270: fd7a 8dbe 8b97 b6be 096b 65be c5f3 b3bd
00000280: d3fb 2ebe d34f 9cbe 9c81 82be 2ceb 4ebe
00000290: c2fe 9dbe dd9b dcbd 5661 82be 8e6f 5ebe
000002a0: 30f1 1cbe b220 3cbe 84d4 b3bd 0e2d 9fbe
000002b0: 73a8 6dbe cc79 6abe e0fd 94be f07e b2be
000002c0: 6afe 50be a6d8 55be 2531 84be 363e 44be
000002d0: c219 9bbe 3d11 8bbe
-0.38819394 -0.21452802 -0.11992924 -0.13082425 -0.22266644 -0.26138255 -0.3755211 -0.15159014
-0.34798357 -0.24530824 -0.23037231 -0.210253 -0.29267257 -0.30919284 -0.2858495 -0.3734122
-0.33520886 -0.09644082 -0.3411731 -0.13838764 -0.37215248 -0.20147043 -0.3685736 -0.21281539
-0.26685965 -0.27100006 -0.19591202 -0.14339156 -0.21275239 -0.16027792 -0.18696925 -0.2242591
-0.26494583 -0.21585979 -0.20991857 -0.08971886 -0.2624879 -0.35958016 -0.2686237 -0.1568817
-0.23467557 -0.289012 -0.19149148 -0.16112952 -0.22908892 -0.21618049 -0.2047238 -0.26640904
-0.31929758 -0.22651608 -0.22918244 -0.26562208 -0.26035437 -0.38501734 -0.1703304 -0.09058532
-0.16865103 -0.25408393 -0.2964017 -0.23074502 -0.26698482 -0.2860263 -0.12805384 -0.14602971
-0.25928283 -0.28449616 -0.17133588 -0.33629185 -0.29611993 -0.1880963 -0.19584745 -0.18314697
-0.13706696 -0.1921155 -0.27717176 -0.29830948 -0.18232572 -0.2537268 -0.31460714 -0.27793002
-0.17275976 -0.33400452 -0.2987995 -0.20666274 -0.19002566 -0.19635357 -0.19313264 -0.30326408
-0.34259945 -0.2489658 -0.20298783 -0.22797471 -0.07981638 -0.2633267 -0.21323743 -0.109714076
-0.23166655 -0.30214593 -0.22489312 -0.18048312 -0.25362527 -0.2769922 -0.18865544 -0.1235653
-0.18020876 -0.291039 -0.27376997 -0.29746583 -0.16743788 -0.25857472 -0.17234124 -0.23182617
-0.25486726 -0.23012738 -0.2718163 -0.28141183 -0.2640167 -0.2981952 -0.27895343 0.17913944
-0.20425712 -0.14044869 -0.25093824 -0.19196506 -0.32086653 -0.2892766 -0.31024697 -0.26785356
-0.25087476 -0.36318293 -0.32159495 -0.3842667 -0.30786073 -0.26563275 -0.10683585 -0.13178463
-0.199998 -0.25535387 -0.23725219 -0.28638595 -0.16099557 -0.28709844 -0.36965954 -0.12445562
-0.23131675 -0.27810842 -0.17757924 -0.30693346 -0.24767008 -0.18518986 -0.3464098 -0.269182
-0.15480366 -0.32234886 -0.1885356 -0.18291341 -0.27632895 -0.35662493 -0.22404112 -0.0878673
-0.17088251 -0.3052965 -0.2548951 -0.20206898 -0.30858427 -0.10771916 -0.25464886 -0.21722242
-0.1532638 -0.18371847 -0.087807685 -0.31089061 -0.2320879 -0.22898024 -0.2909994 -0.3486247
-0.20409551 -0.20883426 -0.25818744 -0.19164357 -0.3029309 -0.2716159

model.H2X_out_MLP.2.weight f4 [182, 182]
00000000: be9a 2abe af18 54be a4a6 8dbe eebe 61be
00000010: fb05 9abe a5a3 3b3e 09c3 9abe 9a77 60be
00000020: 725d 2abe eed9 89be 633b 76be 798d 6abe
00000030: 1278 7f3e d792 4dbe 20fb 76be dec4 43be
00000040: 3e62 99be 1cd0 92be 34e5 64be 7f2d 9dbe
00000050: ede0 6fbe 9df3 77be 5b96 84be 9db8 53be
00000060: 1baf 89be fcf8 91be d007 69be 6ae8 8dbe
00000070: 9038 68be 6479 93be 852d 91be da37 32be
00000080: 00bf 9bbe f9d8 2bbe a44b 4dbd e105 8fbe
00000090: cfba 87be 4a14 963d f0dd 7ebe 3d85 adbe
000000a0: 7a15 7cbe 3672 6abe c256 41be aaac 8bbe
000000b0: aa79 a2be e8b4 b43c 8e28 66be 9af4 33be
000000c0: 8957 8fbe d7d0 64be 945d 43bc ed67 9cbe
000000d0: 2867 7cbe b89f 65be e36f 26be c62d 59be
000000e0: beb9 f53d aa64 59be 144e 73be 1f6b 8fbe
000000f0: 9869 90be 6fac c1be 6e1b 283e 82f0 8ebe
00000100: 5322 9abe 1832 82be 4ef3 9cbe 518b 93be
00000110: eee3 25be 7913 94be b0d7 30be 15d8 d5be
00000120: 5ea2 84be dd9d 52be c662 7ebe 12e7 8dbe
00000130: f28c 87be 31bb 51be e663 92be f59c 45be
00000140: 54c4 3fbe e73b 86be 1c89 253d a401 9bbe
00000150: 098a 54be 553e 253e 19cc 63be 241c 83be
00000160: 9565 98be 85e3 33be 0aca 5d3d 4077 44be
00000170: 7472 54be 8dbf 87be ad78 3dbe 5602 46be
00000180: c153 7dbe e2a8 88be b1e0 3abe 22fc 25be
00000190: 7c35 2ebe 2a2c 673e 149d 24be 1cd8 88be
000001a0: 7d8b 37be 00f7 58be 1551 2cbe 16bf 9bbe
000001b0: b175 51be 06a7 37be 3968 6fbe 252c 61be
000001c0: a664 82be b753 6ebe fa34 85be d666 94be
000001d0: ac35 62be 1d45 4cbe 5da1 8fbe 1562 36bd
000001e0: 07fe 78be cbdb 83be 50de 5abe 8bcf 63be
000001f0: 831c 66be 01a2 68be 1b5c 8abe e906 4cbe
00000200: ab3a 41be 821c 73be 9ce9 7ebe c1e6 4cbe
00000210: a0e4 5abe 35d2 38be 86c0 42bd fea9 773e
00000220: cd16 4f3e f104 2bbe 9fba 5bbe 0a4a 6bbe
00000230: 8d19 4fbe 3663 98be 3691 d9be 01c9 8dbe
00000240: be40 253d 3cf5 66be d18d 60be 1d30 2cbe
00000250: 3ef4 3dbe 5ab5 84be ec48 69be 6e41 87be
00000260: b49b 67be d84b 5dbe eea6 93be e2f2 9abe
00000270: 18fb 69be 46a4 99be 749e 0b3e b922 96be
00000280: 46c8 4fbe 8728 a33d 95af 65be bf70 9b3e
00000290: 95f4 91be d57a 96be a13c 5bbe fd48 85be
000002a0: 079e 63be 63c7 8fbe 10f2 753e 3354 8abe
000002b0: f401 24be 5bed e2be 1dda 4b3e 2f07 53be
000002c0: 4874 28be 6c6d 76be 2d67 a9be d1cc 81bd
000002d0: fb7a 31be 4a9f 44be 8038 80be a299 93be
000002e0: 0e3e 1cbe c3e8 94be c211 3cbe 87b2 89be
000002f0: 08f3 5ebe e004 87be b6e2 51be a7e0 58be
00000300: 8a5b 2ebe 0a4e 85be ea08 62be f097 49be
00000310: 74c4 95be b5c3 9abe 2bc1 83be 93b9 91be
00000320: 3e7a 38be 0eae aabe bc35 66be 6749 fabd
00000330: 12ea 82be bbbf 0bbe 89f6 6abe f44b 6cbe
00000340: f341 41be cfc4 43be d19f 19be b5f8 00be
00000350: 266c 07be a351 76be e970 86be 7aad 26be
00000360: 54b7 60be 83bd 27be 8672 56be 3fda 91be
00000370: f008 9ebe 7d39 afbe dc1c 85be 3cc7 80be
00000380: bf68 49be fdab 28be a00c 80be dcfe 59be
00000390: 4a7b adbe 0f75 78be e8ad 02be 5985 58be
000003a0: c07b 72be 4094 67be 264e 37be dd03 81be
000003b0: b251 7ebe 83dd dcbd 9913 4fbe 8826 5fbe
000003c0: 95ad 6abe da9e 8ebe f960 80be a999 74be
000003d0: cc24 13be 64bf 68be 65fc 9fbe eb18 66be
000003e0: 0c11 54be ea61 19be 55bd 1bbe 5bc8 89be
000003f0: 63ab 9fbe dcbd 90be 824b 2bbe b4e4 3ebe
-0.16660592 -0.20712541 -0.276662 -0.2204549 -0.30082688 0.18324144 -0.30226925 -0.21920624
-0.16637209 -0.2692408 -0.24046092 -0.2290553 0.24948147 -0.20075546 -0.24119234 -0.19118068
-0.29957765 -0.286744 -0.22353059 -0.30698773 -0.23425646 -0.24214025 -0.25895962 -0.20675893
-0.26891407 -0.28510273 -0.22756886 -0.2771638 -0.22677827 -0.2880355 -0.2835504 -0.17404118
-0.3041916 -0.16781987 -0.050120965 -0.27934173 -0.2650971 0.073280886 -0.2488935 -0.33890715
-0.24617568 -0.2289513 -0.18880752 -0.2728017 -0.31733447 0.02205892 -0.22476408 -0.17573777
-0.27996472 -0.22345291 -0.011924166 -0.3054804 -0.24648726 -0.22424209 -0.16253619 -0.21208867
0.11998318 -0.21229807 -0.23760253 -0.28011414 -0.28205562 -0.3782687 0.16416714 -0.27917868
-0.30104312 -0.25428843 -0.30654377 -0.28817227 -0.1620023 -0.28921106 -0.17269778 -0.4176642
-0.25905126 -0.20568033 -0.24842367 -0.27715355 -0.2647472 -0.20481564 -0.2859184 -0.19298156
-0.18727237 -0.26217577 0.04041396 -0.3027469 -0.20755781 0.16137059 -0.22245826 -0.25607407
-0.29765 -0.1756726 0.054147758 -0.19186115 -0.20746785 -0.2651333 -0.18503065 -0.19336829
-0.24738981 -0.26691347 -0.18249775 -0.16209462 -0.1701259 0.22575441 -0.16075546 -0.26727378
-0.17924304 -0.21187973 -0.16827805 -0.30419225 -0.20455052 -0.17934808 -0.23379602 -0.21989496
-0.25467414 -0.23274122 -0.2601698 -0.28984708 -0.22090787 -0.1994824 -0.28052798 -0.044527132
-0.24315654 -0.25753626 -0.21373868 -0.2224714 -0.22471814 -0.2271805 -0.27023396 -0.19924511
-0.18870036 -0.23741344 -0.24893802 -0.200099 -0.21376276 -0.18048938 -0.047546886 0.2418594
0.20223542 -0.16701104 -0.21457909 -0.22977462 -0.2022459 -0.29763192 -0.424936 -0.27692416
0.040344946 -0.22554487 -0.21929099 -0.16815229 -0.18550202 -0.2591961 -0.22781724 -0.26417106
-0.2261799 -0.21610963 -0.28838295 -0.3026343 -0.22849691 -0.30008143 0.13634664 -0.29323366
-0.20291242 0.07966714 -0.2243026 0.30359456 -0.28506914 -0.29390588 -0.21409847 -0.26032248
-0.22228251 -0.28081807 0.24018121 -0.27017364 -0.1601637 -0.44321713 0.19907422 -0.20608209
-0.16450608 -0.24065179 -0.3308653 -0.06337894 -0.1733207 -0.19201389 -0.25043106 -0.2882815
-0.15258047 -0.29083833 -0.18366149 -0.26894018 -0.21772397 -0.26370907 -0.2049664 -0.21179448
-0.17027107 -0.26036102 -0.22073713 -0.19686866 -0.29251444 -0.30227438 -0.25733313 -0.28461894
-0.18015382 -0.33335918 -0.22481436 -0.12221032 -0.25569206 -0.13647358 -0.22945608 -0.23075849
-0.18872814 -0.19118045 -0.15002371 -0.12594874 -0.13224849 -0.2405458 -0.2625802 -0.16277114
-0.21944934 -0.16380887 -0.20942125 -0.2848682 -0.30866194 -0.34223548 -0.2599858 -0.25152004
-0.19668864 -0.16471858 -0.25009632 -0.21288627 -0.33883125 -0.24263404 -0.12761652 -0.21144618
-0.2368002 -0.22615147 -0.17900905 -0.2519826 -0.24835852 -0.107844375 -0.2022232 -0.21792042
-0.22917779 -0.2785557 -0.25073984 -0.23886742 -0.14369506 -0.2272926 -0.3124725 -0.22470443
-0.20709628 -0.14978758 -0.15208943 -0.26910672 -0.31185445 -0.2826985 -0.16728023 -0.18641931

model.H2X_out_MLP.2.bias f4 [182]
00000000: 90fd c7be e7bb 3bbe 4b9a 8cbe d0e9 56be
00000010: b982 88be 947d 80be 74c2 43be 8b46 6abe
00000020: 87c2 72be b08f 32be 1fed 60be 5675 46be
00000030: cdc5 79be ab5c 93be 62f7 97be dfb3 babe
00000040: 222a 14be d2de 6cbe 8ed1 75be 9fa0 07be
00000050: ef7e 5ebe c066 22be 64b0 5dbe a207 39be
00000060: 5844 55be 46ae 60be c3a3 cfbe 7d35 4fbe
00000070: dd73 8bbe c57d 5fbe 3fa0 2bbe cfb2 76be
00000080: cff2 42be 2f06 7fbe a5e0 76be b572 6abe
00000090: f85d 46be d264 60be cb79 97be f62a 6bbe
000000a0: 6e74 38be b66c 8fbe 7323 8dbe 1fa6 1abe
000000b0: 2823 55be 0544 74be a060 34be eabd 87be
000000c0: da95 47be 09d7 84be 8fc4 7abe ec7a 3cbe
000000d0: 9cbf 97be 08f1 d2be 16ac 38be 200b 8ebe
000000e0: e326 62be 4af9 debe 2415 eebe fd06 30be
000000f0: f69b 14be 050d 52be 31a5 85be 0fe5 39be
00000100: c097 d6be 2740 22be 967a 62be 7ccb 8cbd
00000110: 2a8c 97be 4433 65be 3ead 99be e4bf 59be
00000120: 19e3 1ebe cdba a3be 72bb b4be 2980 e7bd
00000130: 0733 00bd 962b 3fbe 6084 82be 2b47 50be
00000140: e994 763d 5f92 6bbe e978 3fbe e399 83be
00000150: 2ef7 d3be cfcd 4fbe 1aef 8abe 64dd 0fbe
00000160: 9046 7cbe 1598 33be bbab 13be bc53 5cbe
00000170: defe 8dbe b3cf 92be 0f50 86be 7999 82be
00000180: 97b4 2bbe c78a a3be 6838 81be 0fba 95be
00000190: 637f 8dbe 6807 69be 30cd 84be 690e 3fbe
000001a0: 317b 77be 44bb 25be b450 6dbe cddf 99be
000001b0: a3e2 23be d4f8 3cbe 6471 7bbe 4330 64be
000001c0: 84c8 5ebe a9d9 82be 5785 5ebe 222c 84be
000001d0: 3445 9abe db6f 4fbe 4114 8ebe 4050 47be
000001e0: c41e 2ebe 0d8a 69be ce7e 5fbe 29d2 7abe
000001f0: 4503 45be 46cb 48be f13f 94be 06d1 37be
00000200: a860 37be 46e7 02bf d4dd 44be 2ca6 7dbe
00000210: 29c0 44be 0ea1 04be 9874 80be 06bf 83be
00000220: 629f b2be 56fc 3ebe fdba e8be d25b ccbb
00000230: 0bda 29be b856 acbe 3200 52be 4a7e 31be
00000240: e815 90be 2bf6 93be 541e 23be 39b2 8ebe
00000250: 7600 16be fc3d 65be 8793 60be 6cbb 88be
00000260: 0247 13be 5289 59be 182b 4dbe f7c8 a6be
00000270: d27c d9be 043e 20be f11f 6abe 0563 98be
00000280: b352 8ebe 614c 56be 1cb7 68be 4032 8cbe
00000290: 65f9 7ebe ee7f 5cbe d106 3abe 0d93 c6be
000002a0: 8caf 8ebe 8f2b 8ebe d048 86be 9349 7cbe
000002b0: 08dd 75be e3fc 3fbe e8b5 13be 4049 b1be
000002c0: e2ab 4cbe c097 7abe 1cf7 90be 3219 9dbe
000002d0: 653b 12bd 6a82 83be
-0.3906064 -0.18333398 -0.27461466 -0.2098763 -0.26662233 -0.25095809 -0.19117147 -0.22878473
-0.23707019 -0.17437625 -0.21965455 -0.19380698 -0.24391861 -0.28781638 -0.29680926 -0.36465356
-0.14469197 -0.23131874 -0.2400572 -0.13244866 -0.21728109 -0.15859509 -0.21649319 -0.18069318
-0.20826852 -0.2194148 -0.40554628 -0.20235248 -0.27236834 -0.21825321 -0.16760348 -0.24091648
-0.19037937 -0.24904703 -0.24109133 -0.2289532 -0.19371784 -0.2191346 -0.29585108 -0.22965607
-0.18013164 -0.28012627 -0.27566108 -0.15102433 -0.20814192 -0.23854072 -0.17614985 -0.2651208
-0.19490758 -0.2594531 -0.24489044 -0.18406266 -0.29638374 -0.41199517 -0.18034396 -0.27742863
-0.22085147 -0.43549567 -0.46500504 -0.17190166 -0.1451262 -0.20512779 -0.26102594 -0.18153785
-0.4191265 -0.15844785 -0.22117075 -0.06874749 -0.29599124 -0.22382838 -0.30014986 -0.21264607
-0.15516318 -0.31978455 -0.3529926 -0.113037415 -0.031298663 -0.1866897 -0.2549162 -0.20339648
0.060200606 -0.23005055 -0.18698467 -0.25703344 -0.4139952 -0.20293353 -0.27135545 -0.14049298
-0.24636292 -0.17538483 -0.14420979 -0.21516317 -0.2773351 -0.28674087 -0.26232955 -0.25507715
-0.16768108 -0.31941816 -0.25238347 -0.29243514 -0.2763625 -0.22756732 -0.25937796 -0.18657841
-0.24168088 -0.16184717 -0.23175317 -0.3005356 -0.16004424 -0.18454295 -0.24554974 -0.22284035
-0.21756178 -0.25556687 -0.21730553 -0.2581492 -0.30130923 -0.20257513 -0.27749828 -0.19464207
-0.17003924 -0.22806568 -0.21825716 -0.24494232 -0.19239528 -0.19608793 -0.28955033 -0.1795083
-0.17907965 -0.51134145 -0.19225246 -0.24770421 -0.19213928 -0.12952062 -0.25088954 -0.25731677
-0.34887224 -0.18650946 -0.4545516 -0.006236532 -0.16587083 -0.3365991 -0.20507887 -0.17333332
-0.28141713 -0.2889875 -0.15929538 -0.27870348 -0.14648613 -0.22386926 -0.21931277 -0.26705492
-0.14382556 -0.2124379 -0.2003597 -0.325752 -0.42478043 -0.15648657 -0.22863747 -0.29763046
-0.2779747 -0.20927574 -0.227261 -0.27382088 -0.24899824 -0.21533176 -0.18166663 -0.38784066
-0.27868307 -0.27767608 -0.26227427 -0.24637441 -0.24010098 -0.18748812 -0.1442486 -0.34626198
-0.19987443 -0.2447195 -0.2831353 -0.30683285 -0.035701174 -0.25685436

model.H2X_out_MLP.4.weight f4 [1, 182]
00000000: fe55 503d 9b9b 0d3e aba3 3dbe fb68 4a3e
00000010: 118d 0abe 10e6 30be ba34 0fbe f505 303e
00000020: b9d3 f13d c920 5b3e 1c2d 193e ca0d f73d
00000030: 57c3 463e f585 fcbd bf8a 44be bd8d 45be
00000040: caba 333e a6fc 2a3e e03c 073e b2e6 f13d
00000050: b9aa 0a3e 4ed8 dc3d 1186 563e e6f7 483e
00000060: f42d 413e 9688 0e3e a7ec 243e 6019 31be
00000070: 5d6f 60bd ec95 313e 00cf 2f3e 0baa 5d3e
00000080: 288d 51be e0f3 163e 627b 273e 34bd 5abe
00000090: 90ff 063e d5e5 3bbe 434e 53be 4a87 163e
000000a0: 0f24 2d3e 3789 29be ae19 4bbe b043 193e
000000b0: af38 263e a263 2a3e 81d3 6bbe f69b 2f3e
000000c0: 5094 57be 9dce 103e d9ba 2a3e 85d5 273e
000000d0: 7057 5abe a00d 1d3d 6968 303e 1782 6bbe
000000e0: 5d28 5dbe 0947 663d 32dc d13d 587e 373e
000000f0: a266 d93d 6d26 3dbe caca 33be 19ef 233e
00000100: 3d1f fb3d 2b9d 423e 62d8 ff3d 9e9a b5bc
00000110: ad0a 5ebe ba29 4ebe 7402 3fbe f5fd 8dbd
00000120: f5fe 113e ab9f 52be 2e59 9e3c d74e 253e
00000130: c070 dfbb e5dd 2ebe b760 33be 29b8 3f3e
00000140: 0040 66bd cbb0 153e 591d 0d3e 6d51 6dbe
00000150: c08e 133d c3e9 253e 5167 1e3e 372e 1e3e
00000160: 7ea0 0d3e 62be 51be e53e 3d3e bc2b 57be
00000170: 0dbd 103e 16cb 35be 06e5 31be b967 26be
00000180: 52ad 4d3e 09c1 50be 39e2 483e 3f5e 60be
00000190: bf9b 383e 5a36 533e 6958 353e 97e1 483e
000001a0: 9f1a 5abe c8a4 2abe b0c1 2bbe 1793 38be
000001b0: 0d60 1a3e d833 3c3e 061b 63be 69a0 553e
000001c0: ba05 34be 46bd 243e e98f 30be c5b2 153e
000001d0: 9187 34be 9ae5 ee3d 42cf 5fbe 2f09 333e
000001e0: 0c9d 1e3e 30c2 233e b50a 69be 0460 45be
000001f0: 391c 4a3e a024 3abe 438e 0f3e 2938 363e
00000200: bfa5 483e 08f0 613d 0eb0 263e 21e9 233e
00000210: e4d8 123e 6438 4e3e aa9a 2d3e 079c f03d
00000220: e036 52bd 7aac 1c3e 39d7 08be 3c06 f63d
00000230: 9349 4d3e 82b7 79bd 74ab 30be c03f 22be
00000240: 0643 2bbe 5d54 3a3e 4c17 263e 8439 433e
00000250: 1222 2f3e 597e 163e 548b 193e bd67 3ebe
00000260: 9653 fb3d 3496 473e a8b2 273e 708d 683d
00000270: cfc1 6dbe 1d7d 323e 76ab 47be 05c6 51be
00000280: 5db4 4fbe 8ac6 dc3d 447c 343e 9739 5dbe
00000290: ebd1 60bd 1d8d da3d 6507 413e 363f 1cbd
000002a0: 8429 5fbe 0886 333e e823 51be f09e fd3d
000002b0: ee8a 243e 93fe 183e 9eaa 503e 941e 0fbd
000002c0: fa82 073e b3ec 183e fc05 143e 73a1 ac3c
000002d0: 5af3 c33d 088b 5abe
0.05086326 0.1382889 -0.18519466 0.1976661 -0.13530375 -0.17275262 -0.13984957 0.17189772
0.11807961 0.21399225 0.14958614 0.12063177 0.19410454 -0.12330238 -0.19193552 -0.1929235
0.17551723 0.1669794 0.13206816 0.1181158 0.13541688 0.10783444 0.2094958 0.19625816
0.18865186 0.13919291 0.161059 -0.17294836 -0.054793704 0.17342347 0.17168808 0.21646897
-0.20464003 0.14741468 0.1635566 -0.21361238 0.13183427 -0.18349393 -0.20635323 0.14700046
0.16908287 -0.1655625 -0.19834015 0.14967227 0.1623256 0.1663957 -0.23029901 0.17149338
-0.2105267 0.14141317 0.16672839 0.16390045 -0.21322417 0.038343072 0.1722733 -0.22998844
-0.21597429 0.05622009 0.10247077 0.1791929 0.10615279 -0.1847169 -0.17557827 0.16009177
0.122618176 0.19005267 0.124924436 -0.022168454 -0.2168376 -0.20133105 -0.1865328 -0.06933204
0.14257415 -0.20568721 0.019329634 0.16143356 -0.006818861 -0.17076834 -0.17517363 0.18722595
-0.05621338 0.14618222 0.13780726 -0.23175593 0.03602481 0.16202454 0.154691 0.15447317
0.13830754 -0.20482782 0.18481024 -0.21012777 0.14134617 -0.17753252 -0.17372522 -0.16250505
0.20085648 -0.20386137 0.19617547 -0.21910952 0.18028162 0.20626202 0.17709507 0.19617306
-0.21299218 -0.16664422 -0.16773105 -0.1802486 0.15075703 0.18379152 -0.22178277 0.20861973
-0.1758031 0.16087827 -0.17242397 0.14618976 -0.1762984 0.11664887 -0.21856406 0.17483972
0.15489596 0.15992045 -0.2275799 -0.19274908 0.19737329 -0.18178034 0.14019112 0.17794861
0.19594477 0.055160552 0.16278097 0.160069 0.1434055 0.20138699 0.16953531 0.1174851
-0.051321864 0.1530017 -0.13363351 0.12012908 0.20047598 -0.060966022 -0.17252904 -0.15844631
-0.16724786 0.18196245 0.16219825 0.19064909 0.1710284 0.14696635 0.14994556 -0.1859426
0.12271802 0.19490892 0.16376746 0.05677551 -0.23218463 0.1743054 -0.19499001 -0.20485695
-0.20283647 0.10780056 0.17625529 -0.21604 -0.054887693 0.106714465 0.18850477 -0.03814622
-0.2179318 0.17531598 -0.20423853 0.123838305 0.16068622 0.14940862 0.20377585 -0.03494127
0.13233557 0.14934044 0.14455408 0.021073079 0.095679 -0.21342099

exp_avg f4 [91, 91]
00000000: 0f9b cfba ce86 6c3a 99bf 383a 36f1 b839
00000010: a4ce 423b cdbd 1d3a 67eb 813b 04ab a73b
00000020: 836a b6b9 5562 5dbb f20f a0bb 4c2e 963a
00000030: 80cf 88bb c07a 8f3b 569e 733b e7e0 913a
00000040: dd70 9b3b 7578 9c3b d3eb 633b f70f 87bb
00000050: 04ec 94bb 1812 83bb 0aa3 4c3b 0f23 9bbb
00000060: 9bd1 adba 3332 693b c535 fe3a dd9e 2abb
00000070: 2508 22bb fc60 7bbb e50e 56bb 73a2 8abb
00000080: 5b3c 783b 31c2 893b 9af4 3a3a ba6a 453b
00000090: 8111 c7ba 48db 87bb 03a4 a4ba b8d1 223b
000000a0: e360 a63b 4ed5 b439 7e36 38bb 9a2b fd3a
000000b0: dbbb fdba 6f24 13bb 614c 603b 5827 ae3b
000000c0: 18f2 4f3b 8418 77bb 2045 81bb 401f 91bb
000000d0: 4b3c 543b 4e76 873b f851 99bb 8cc2 163a
000000e0: c775 4c3b 0c57 973b c2ab 87b9 f1dd 2838
000000f0: 8240 873a 0ede 723b 57bc 89bb c31d 32b8
00000100: c2b8 4d3b 038b 583b 99c2 4abb 5b6b 033b
00000110: f8ef 34bb 3ed3 523b 8460 3039 b718 8c3b
00000120: 49b7 353b 7a98 393b fc1b 453b 3393 6abb
00000130: 4716 2e3b 25c0 36bb e7bb d13a eb6c dab9
00000140: 706c 613b 8d59 85bb 5fd3 633b b945 973b
00000150: a037 84bb 912c 6fbb 13f5 8db9 da8a 82ba
00000160: eae2 9cbb 56eb be39 25b6 97bb 8dc7 3e39
00000170: 8941 b1b9 09f6 e6b9 f0a9 8f39 8a85 083a
00000180: 93bf e5b8 45d1 a8b9 750b 53b6 c7d8 9538
00000190: a238 ec39 4e6f b3b8 c52e ac38 293d 083a
000001a0: 1604 1ab9 9d85 ccb8 1c35 0f3a bd57 f836
000001b0: 866c 0b36 d3bf 4439 d35a 93b9 70f8 9339
000001c0: b991 00b9 8127 b939 6003 0739 0ea8 91b8
000001d0: af83 6339 e109 023a 3e6a 1339 107f d6b8
000001e0: e5f6 81b9 8a4d d5b7 b289 d4b9 6bf1 b9b9
000001f0: cec8 4c39 e1eb afb8 a208 0d39 5c97 20ba
00000200: a211 3fb9 adf7 1737 a234 4b37 86ff 0e3a
00000210: adbd 2e39 6b45 17b8 1438 95b8 95b7 5237
00000220: 7a2f adb9 1ed8 d4b9 5443 1939 b0f7 1938
00000230: 8369 0eba 6f60 3b38 49fc 36b9 b104 c037
00000240: f0b5 dcb8 bd39 3dba 7292 003a c309 8539
00000250: e26d 55b9 f0d4 06ba 9416 e938 3684 de39
00000260: bca7 f1b7 e824 3db9 9de6 2439 1ed8 4ab9
00000270: ca8f af39 a527 06b9 5307 e939 8a75 79b9
00000280: b782 e6b9 949e cfb8 c582 89b8 814d 94b8
00000290: 8e4f 3e3a 1156 83b9 e986 f3b7 8f90 0938
000002a0: 3bef 7338 e02e 8539 93a1 03b9 1eec 18b8
000002b0: c122 91b9 b7ca 1439 b74b 5839 381a 7ab9
000002c0: 899d 82b8 3300 01b9 25b3 00b9 2647 e5b9
000002d0: 42bf a339 b38a adb7 0703 7a3a 1a37 99ba
000002e0: 538f 39b9 3c16 9339 14ec e5ba 297a 4dba
000002f0: d45f 1dbb 18d2 11bb 3a9f a03a df40 053b
00000300: bf38 fe3a 811d a4ba 61e0 223b 8f8c e8ba
00000310: 7fa1 42bb 46b5 e338 085f 22bb b6a4 fcba
00000320: c101 45bb e523 213b 841e 163b 3385 353b
00000330: 2adc ddba a993 d83a 56ee 1e3a 8eed 39bb
00000340: af21 cbba dde1 a03a 115f fb3a 3d8e 2e3b
00000350: d29c 153b ffbd 263b 73a9 1bbb d796 37bb
00000360: c387 02bb cbbb 21bb 34e0 743a 064a 213b
00000370: 79c0 3539 6b2f 17bb 4410 1dbb 1fbf e9b9
00000380: 7ac6 233b 59da dcba 3dc7 883a 4b33 e03a
00000390: d52d 1cbb fae7 17bb 36e3 1cbb d556 023b
000003a0: 0bee 3b3b 3019 5f3b 0f4b 55bb c6d3 a1ba
000003b0: 3bcf db3a d976 903a db76 e7ba 7686 26bb
000003c0: b57d 9939 4036 c0b9 ab7e 94ba 7ba8 1ebb
000003d0: 6797 9b3a b857 3f3a 0a69 43bb ceb1 c3ba
000003e0: 4950 503a 31b4 00bb 0b5b 063b 38ac 07bb
000003f0: f1bd 9ab9 b2b0 d3ba 312a b8ba 3914 cdba
-0.0015839058 0.0009022773 0.0007047593 0.0003527493 0.0029725218 0.0006017357 0.0039648297 0.005116822
-0.00034793103 -0.0033780534 -0.0048847133 0.0011457889 -0.0041751266 0.0043786466 0.0037173233 0.0011129648
0.004743679 0.004775102 0.0034778013 -0.004121776 -0.004544737 -0.0039999597 0.0031225109 -0.004734404
-0.001326132 0.00355829 0.0019394687 -0.0026034631 -0.0024724093 -0.0038357368 -0.0032662686 -0.0042307912
0.0037877772 0.0042040576 0.00071317854 0.0030123428 -0.0015187712 -0.0041460134 -0.0012561086 0.002484424
0.0050774678 0.000344912 -0.0028108652 0.0019315362 -0.0019358353 -0.0022452136 0.0034225213 0.0053147487
0.0031729992 -0.0037703821 -0.003945008 -0.004428774 0.003238457 0.004133976 -0.004678961 0.00057510356
0.003119813 0.004618531 -0.00025877176 4.026102e-05 0.0010318907 0.0037058624 -0.00420336 -4.2466225e-05
0.0031390642 0.0033041842 -0.0030938743 0.0020053003 -0.0027608853 0.0032169367 0.00016820623 0.004275407
0.0027727655 0.0028319643 0.0030076494 -0.0035793304 0.0026563571 -0.0027885523 0.0016001434 -0.0004166135
0.003439691 -0.004069513 0.0034763438 0.004616466 -0.0040349513 -0.003649507 -0.0002707621 -0.0009959594
-0.0047877925 0.00036414963 -0.0046298676 0.0001819415 -0.00033808898 -0.0004405233 0.000274017 0.0005207887
-0.000109552544 -0.00032199375 -3.144812e-06 7.1452516e-05 0.00045055622 -8.556117e-05 8.2103106e-05 0.0005197102
-0.00014688107 -9.7523654e-05 0.0005462931 7.40119e-06 2.0775783e-06 0.00018763477 -0.00028105694 0.00028223125
-0.00012261317 0.00035315382 0.0001287586 -6.9454414e-05 0.00021697463 0.00049605785 0.00014058591 -0.000102279824
-0.00024788748 -2.5427686e-05 -0.00040538382 -0.0003546582 0.00019529762 -8.388586e-05 0.00013450024 -0.000612607
-0.00018221748 9.057968e-06 1.2111997e-05 0.0005454946 0.00016664593 -3.6065856e-05 -7.115319e-05 1.2559719e-05
-0.00033032504 -0.0004059681 0.00014616299 3.670872e-05 -0.00054325926 4.4674085e-05 -0.00017450856 2.2890368e-05
-0.00010524306 -0.00072183815 0.00049046346 0.0002537501 -0.00020354197 -0.00051434245 0.00011114511 0.00042441644
-2.8807546e-05 -0.00018038193 0.00015726169 -0.00019344731 0.00033485732 -0.00012794005 0.0004444668 -0.00023790277
-0.0004396641 -9.900067e-05 -6.557027e-05 -7.071626e-05 0.00072597794 -0.00025050392 -2.903068e-05 3.2797976e-05
5.8158515e-05 0.0002540266 -0.00012553325 -3.6459525e-05 -0.0002768245 0.00014189897 0.00020627571 -0.00023851625
-6.228226e-05 -0.00012302473 -0.00012273768 -0.00043731293 0.0003123228 -2.0687794e-05 0.0009537194 -0.0011689395
-0.00017696367 0.0002805459 -0.001754167 -0.00078383327 -0.0024013417 -0.002225047 0.0012254484 0.0020332856
0.0019395574 -0.0012521 0.0024852979 -0.0017742085 -0.002969831 0.00010857968 -0.0024775881 -0.0019275162
-0.003006086 0.0024588045 0.0022906372 0.00276978 -0.0016926576 0.0016523498 0.00060627365 -0.0028370353
-0.0015497709 0.0012274344 0.0019178112 0.0026635074 0.0022829068 0.0025442836 -0.0023752123 -0.0028013492
-0.0019917346 -0.0024678584 0.000934127 0.0024610772 0.00017333207 -0.0023069035 -0.0023965994 -0.0004458362
0.0024990127 -0.0016849741 0.0010435354 0.001710513 -0.002383103 -0.002317904 -0.002393914 0.0019888182
0.002867582 0.0034042113 -0.003254596 -0.0012346439 0.0016770134 0.0011021747 -0.0017659323 -0.0025409735
0.00029276093 -0.00036661513 -0.0011329254 -0.002420931 0.0011870683 0.0007299143 -0.0029817247 -0.0014930309
0.0007946534 -0.0019638652 0.0020501043 -0.0020702016 -0.00029514686 -0.0016150682 -0.001405066 -0.0015646286

exp_avg_sq f4 [91, 91]
00000000: 7f6d 6141 a038 1d44 155a 6644 16a2 4d44
00000010: 9879 d343 a201 0343 42ba 2443 0427 9d44
00000020: 9963 7f43 ae2a c843 489e 8f42 c37b 1942
00000030: 974b f540 55ef 9040 1096 b143 26c9 5b44
00000040: 5caa 8d40 cc6c 4744 878e 0b43 b75a 7342
00000050: 0692 1141 3905 ce40 eb1e 9143 6d8c 1b44
00000060: 6c59 0a3d 1862 1e42 d072 0843 e4f7 8742
00000070: 4c6d 2443 239d 1b42 ebef 9443 e80f 9143
00000080: 9b97 cb40 59d8 b940 17ab 1f44 1789 2843
00000090: 61ec 2b42 2c74 a842 ca82 2a43 04c9 8d42
000000a0: d4c5 c143 6f79 2542 dc27 2744 1b9d aa44
000000b0: 5158 9142 bccc 8d43 a9d0 3143 b8e2 2944
000000c0: a0bd 0942 3baa 1e43 ff6f 2842 414c 0441
000000d0: 2ecc 8343 2eeb 9a43 8f68 3244 169b 5744
000000e0: 26f5 9e40 a4f4 8541 ff3d 4d43 6751 0f40
000000f0: a2ee 6343 2201 2443 efee e742 3f3d 0743
00000100: f99d 0f44 7b80 2442 6acb c243 36c7 8442
00000110: a1bd d841 8fa3 3344 a76a 4443 6835 d543
00000120: 93e3 ad42 c91e 9443 e7e4 0242 3aec 1843
00000130: 57d4 9043 4da4 8241 8659 3e41 1a48 e041
00000140: 00c7 ad43 e0cf e441 d0d7 3141 2341 2643
00000150: 5821 cf41 5cff f542 0b6f 5b44 71b9 4940
00000160: 306a 7843 8bd3 d142 f838 2844 edcb 2a40
00000170: 3a3a 3141 abd3 0143 9dec 8841 a15f 9341
00000180: 5965 c83e ca11 cb41 afdd 0343 c1d3 c841
00000190: 7dfd bd41 5d84 c23e ca71 2241 359a 1a42
000001a0: abd7 0f42 8d06 d83e 73a0 4c42 41c1 0541
000001b0: 9442 af42 7458 8e40 0886 1f42 4e0f 0442
000001c0: 8a42 8741 ddcb be41 d450 9b41 ca80 fc40
000001d0: 15d2 fd41 5ddb 9d41 27b7 2240 55bf 6f41
000001e0: 48e0 fb41 8a6f 3a42 8ff4 1441 f9ae 3a40
000001f0: 2d55 e13e 204d 1d42 ca80 f53f a7f8 b741
00000200: 8ec6 0d3f d0a1 9a42 4796 9c3f 9c18 f940
00000210: c303 3440 492a a341 80de 3542 eca6 0240
00000220: d882 8e3f 828e 2c41 6620 2f41 5433 c041
00000230: f24a aa41 1d19 973f a26f e140 9838 393f
00000240: 6cc7 3040 35e8 1442 a90e 0a41 fbf2 9441
00000250: 07f6 1d41 c7d8 8140 ffea 3d42 b4af e741
00000260: 41c7 833f 730d 633e ba1f 913e 14c5 6c41
00000270: a360 2e40 c8b7 b841 2538 1642 8545 dd3f
00000280: de93 1e42 dba6 c840 73cf 6942 eee5 a93e
00000290: a0f4 ee41 fed7 a841 d8c0 c03f 615a 8a41
000002a0: 99dd 0742 1d71 5f42 31bd f940 6e04 b93e
000002b0: 9c04 bd3f 3065 3840 abc6 c340 0bfe 9c41
000002c0: f48a 4c42 9abc 2041 0e1a d840 d573 0342
000002d0: 3282 be40 32c8 a241 fed6 9840 b835 753f
000002e0: 9cb8 f03f cd74 bd3e facc 813f 38cf 0c41
000002f0: 7bf9 343f d2f0 d23f 02e0 d73e bb53 b33b
00000300: 2c4b f240 955c 5741 37c5 6941 8f13 9241
00000310: e91d c441 33e4 e33f 26b8 b840 52d2 1b40
00000320: 81ba 8241 1164 be40 1a72 8b41 0f03 ed3e
00000330: 30a4 a740 b75a 803f d742 ec40 bb20 8140
00000340: fb25 0440 96f6 493f 3738 3e3e 3807 cb40
00000350: 7129 7c3f d78d b23f 381e b040 96fa b340
00000360: c604 af3e 42f5 2841 8b3c 8841 e276 233f
00000370: f76e 8d40 2655 8a3e 6ed2 e73e 1a01 0c3f
00000380: 53cd 633c 302c 5b40 c620 9a40 b741 7341
00000390: 4e38 dd40 3d9e df3f bb4d eb40 4a83 613e
000003a0: 7d58 4a41 b58c a040 a44f b341 adc7 b341
000003b0: 639d cf3e ee94 b941 f488 fc40 a8a2 0f41
000003c0: cd86 693e 45b6 4241 bf86 ea3f 4aee 5d41
000003d0: e78e 0841 01bc 1641 1dc4 9941 49ca de40
000003e0: 2887 8a3e b7ac b840 58fe 9140 8301 6041
000003f0: 4b5c ae3f d6b8 f73f 56fe 7f3c a712 473f
14.089232 628.88477 921.40753 822.5326 422.94995 131.00638 164.72757 1257.2192
255.38905 400.33344 71.80914 38.37086 7.6654773 4.5292153 355.17236 879.14294
4.427046 797.69995 139.55675 60.83859 9.09815 6.4381375 290.24155 622.19415
0.033776686 39.595795 136.44849 67.98416 164.42694 38.903454 297.87436 290.12427
6.3622565 5.8076596 638.6733 168.5355 42.98084 84.2269 170.5109 70.89261
387.54553 41.368587 668.6228 1364.9095 72.67249 283.5995 177.81508 679.5425
34.43518 158.66496 42.10937 8.268617 263.59515 309.83734 713.6337 862.4232
4.9674253 16.744453 205.24217 2.2393434 227.93216 164.00443 115.96667 135.23924
574.4683 41.12547 389.58917 66.389084 27.092592 718.5556 196.41661 426.41724
86.94448 296.2405 32.723537 152.92276 289.6589 16.330225 11.896856 28.035206
347.5547 28.601501 11.115189 166.25444 25.891281 122.99875 877.73505 3.1519434
248.4148 104.91317 672.89014 2.6686966 11.076715 129.82683 17.115534 18.421694
0.39139822 25.383686 131.86595 25.103395 23.748774 0.3799161 10.152781 38.650593
35.960613 0.42192498 51.15669 8.359681 87.630035 4.4482975 39.88089 33.014946
16.90749 23.849543 19.414467 7.8907213 31.72758 19.732111 2.5424287 14.984212
31.484512 46.608925 9.309707 2.9169295 0.44010296 39.325317 1.9179928 22.996412
0.55381095 77.31604 1.2233361 7.784254 2.8127296 20.395647 45.467285 2.041438
1.113368 10.784792 10.94541 24.025063 21.286594 1.1804539 7.044877 0.7235198
2.7621717 37.226765 8.628579 18.618643 9.872565 4.057712 47.47949 28.960793
1.0295182 0.22173099 0.28344518 14.798115 2.7246482 23.089737 37.55483 1.7286841
39.6444 6.270368 58.452587 0.33183235 29.869446 21.105465 1.5058851 17.29413
33.966404 55.860462 7.8043447 0.36136192 1.4767032 2.881176 6.1180015 19.624044
51.135696 10.046045 6.7531805 32.863117 5.953393 20.347752 4.776244 0.95785093
1.8806338 0.37003174 1.0140679 8.8005905 0.70693177 1.6479743 0.42163092 0.005472628
7.5716763 13.460103 14.610648 18.25955 24.514605 1.7804016 5.772479 2.434712
16.341066 5.949715 17.430714 0.46291396 5.2387924 1.0027684 7.383159 4.0352454
2.0648181 0.78891885 0.18576132 6.344631 0.98500735 1.3949536 5.503689 5.624339
0.3418333 10.559877 17.029562 0.63853276 4.4197955 0.27018088 0.45277733 0.5468918
0.013903934 3.424572 4.8165007 15.203544 6.913123 1.7470165 7.3532386 0.22022739
12.646604 5.017176 22.413887 22.472498 0.40549764 23.19772 7.891718 8.977211
0.22805329 12.169499 1.8322371 13.870676 8.534888 9.420899 19.220758 6.962193
0.2705624 5.7710834 4.562298 14.000369 1.3621916 1.9353282 0.015624603 0.77762836
