GRNN/0074xd80/checkpoints/epoch=3-step=560.ckpt (torch, 23885 bytes, 40 tensors)

model.A f4 [2, 2]
0	0x3e6e1154	0.23248798
1	0xbe7ee74e	-0.24892923
2	0xbf36c4fa	-0.7139431
3	0xbf181f14	-0.5942242

model.B f4 [2, 1]
0	0xbdbf93f9	-0.093543954
1	0x3f50c5ef	0.8155202

model.D f4 [2]
0	0xbd342333	-0.04397888
1	0x3d5daa3f	0.054117437

model.H2X_out_MLP.0.weight f4 [6, 2]
0	0x3d851058	0.06497258
1	0xbe8bef7b	-0.27331147
2	0x3c93be40	0.018035054
3	0x3ed3177e	0.4122886
4	0xbc916d00	-0.01775217
5	0x3f2f0871	0.68372256
6	0xbeffa795	-0.49932542
7	0xbea1576c	-0.3151201
8	0xbe1b9234	-0.15192491
9	0x3ebb855e	0.3662519
10	0xbf20de83	-0.62839526
11	0xbd479ae0	-0.048731685

model.H2X_out_MLP.0.bias f4 [6]
0	0x3dfc836f	0.123297565
1	0x3e779568	0.24178088
2	0x3f13a423	0.5767233
3	0x3e8a23b6	0.2698037
4	0xbe732368	-0.23743975
5	0x3e4a3be0	0.19749403

model.H2X_out_MLP.2.weight f4 [6, 6]
0	0x3da19933	0.078905486
1	0x3d10a8e0	0.0353173
2	0xbe5477ee	-0.20748875
3	0xbdf4f880	-0.1196146
4	0xbe87345a	-0.2640713
5	0xbec7e9fb	-0.390457
6	0xbebd0f44	-0.3692571
7	0x3d748ed0	0.05970651
8	0xbeb444d1	-0.35208753
9	0xbe5e3605	-0.21700294
10	0x3e9940a4	0.2993213
11	0x3d9e67ec	0.07734665
12	0x3eaf3a77	0.34224293
13	0x3da47cb8	0.08031601
14	0x3eb7f11a	0.35926133
15	0xbec1a380	-0.37820053
16	0x3e23ea40	0.16007328
17	0xbd0b70b8	-0.034043044
18	0x3d631a21	0.05544484
19	0xbea805c6	-0.32816905
20	0xbdc77f74	-0.09741107
21	0xbeb93db7	-0.36179897
22	0x3e92147e	0.2853126
23	0x3eaa47a6	0.33257788
24	0xbe958992	-0.2920652
25	0xbe7eaaff	-0.24869917
26	0x3eb7af36	0.35875863
27	0xbe85af3e	-0.26110262
28	0x3ec5eb84	0.38656247
29	0x3eca432e	0.3950438
30	0xbecb8ecc	-0.39757383
31	0x3db32d34	0.08748856
32	0xbe8f26b7	-0.27959225
33	0x3e3c1a88	0.18369496
34	0xbe04ded0	-0.12975621
35	0xbea32cae	-0.31870025

model.H2X_out_MLP.2.bias f4 [6]
0	0x3dadcb22	0.0848601
1	0xbe1c1e52	-0.15245941
2	0x3e1f7412	0.15571621
3	0x3ec84458	0.39114642
4	0x3e9a3e54	0.30125678
5	0x3dee4c08	0.116355956

model.H2X_out_MLP.4.weight f4 [1, 6]
0	0xbed547e6	-0.41656417
1	0x3eb74262	0.35792834
2	0x3e3b7f87	0.18310367
3	0xbd70b941	-0.058770422
4	0xbc18eda0	-0.009333998
5	0x3d2467c0	0.040138006

model.inputMLP.0.weight f4 [6, 1]
0	0xbeec783c	-0.46185482
1	0xbe477400	-0.19477844
2	0x3e94d17c	0.29066074
3	0xbe713cfc	-0.2355842
4	0x3f4ad29b	0.7922761
5	0xbe9382a2	-0.28810602

model.inputMLP.0.bias f4 [6]
0	0xbf0b56c8	-0.5442929
1	0x3e23cd79	0.1599635
2	0x3f3df8dd	0.7420786
3	0x3f556cb5	0.83369
4	0x3da2059c	0.07911226
5	0x3e76492d	0.24051352

model.inputMLP.2.weight f4 [6, 6]
0	0x3ebf87d4	0.37408316
1	0xbe0e482e	-0.13894722
2	0xbbd0ed80	-0.0063759685
3	0xbe597a92	-0.21238163
4	0x3d7ca090	0.06167656
5	0x3e8cf8ee	0.27533668
6	0xbe2498fe	-0.16073987
7	0xbecb139f	-0.39663407
8	0xbeba1556	-0.36344403
9	0x3cb87a40	0.02251923
10	0x3cd19330	0.02558288
11	0xbd8eb06c	-0.069672436
12	0xbe214500	-0.15748978
13	0x3e191048	0.14947617
14	0x3c2322e4	0.009957049
15	0xbca0d291	-0.019631656
16	0xbe868b4f	-0.2627816
17	0xbeb209cc	-0.347731
18	0x3e1e3fcc	0.15454024
19	0xbe34e564	-0.1766563
20	0xbe965f61	-0.29369643
21	0xbe5842ec	-0.21119279
22	0x3deef830	0.11668432
23	0xbe9ee9b0	-0.31037664
24	0x3e56c500	0.20973587
25	0xbeb652da	-0.35610086
26	0x3d09288f	0.033485945
27	0x3e8774b9	0.2645624
28	0x3d740917	0.05957898
29	0xbd2a6eca	-0.041609563
30	0xbe99d4f2	-0.30045277
31	0xbdd06928	-0.10176307
32	0xbec5c1cd	-0.3862442
33	0xbeca21cb	-0.39478907
34	0x3e94d96e	0.29072136
35	0x3ead3ac4	0.33833897

model.inputMLP.2.bias f4 [6]
0	0xbde88ad0	-0.113546014
1	0x3e9e778c	0.30950582
2	0x3c90ade1	0.017661037
3	0xbe9a2626	-0.3010723
4	0x3e32b532	0.17451933
5	0xbec5a412	-0.38601738

model.inputMLP.4.weight f4 [2, 6]
0	0x3e21be94	0.15795356
1	0xbebd0e13	-0.369248
2	0x3dcaeef1	0.09908856
3	0xbe338fbd	-0.175353
4	0x3e83f66b	0.2577394
5	0xbe248ba6	-0.16068897
6	0xbe8e6e02	-0.27818304
7	0xbe8e1fc7	-0.2775862
8	0x3d378d3b	0.044812422
9	0x3e8a881a	0.27056962
10	0xbd7dbe3d	-0.061949003
11	0xbe2d08d4	-0.16897899

model.inputMLP.4.bias f4 [2]
0	0x3dfbc52b	0.12293466
1	0x3d8d6e6a	0.069058254

exp_avg f4 [2, 2]
0	0x38138b34	3.5177174e-05
1	0xb73b2c2d	-1.1156354e-05
2	0xb81b9869	-3.7096823e-05
3	0x37ce7c07	2.4614868e-05

exp_avg_sq f4 [2, 2]
0	0x352f5bc2	6.5326105e-07
1	0x33e4d416	1.06556556e-07
2	0x3587d361	1.0119803e-06
3	0x34fc6576	4.701248e-07

exp_avg f4 [2]
0	0x38a92f75	8.0673875e-05
1	0xb7cfa0b7	-2.4751162e-05

exp_avg_sq f4 [2]
0	0x36602841	3.3402032e-06
1	0x350106eb	4.806631e-07

exp_avg f4 [6, 2]
0	0x397b9742	0.00023993573
1	0xb9614fc4	-0.00021487387
2	0x00000000	0.0
3	0x00000000	0.0
4	0x00000000	0.0
5	0x00000000	0.0
6	0x00000000	0.0
7	0x00000000	0.0
8	0x00000000	0.0
9	0x00000000	0.0
10	0x00000000	0.0
11	0x00000000	0.0

exp_avg_sq f4 [6, 2]
0	0x38c556b3	9.409841e-05
1	0x38aa75bc	8.1281614e-05
2	0x00000000	0.0
3	0x00000000	0.0
4	0x00000000	0.0
5	0x00000000	0.0
6	0x00000000	0.0
7	0x00000000	0.0
8	0x00000000	0.0
9	0x00000000	0.0
10	0x00000000	0.0
11	0x00000000	0.0

exp_avg f4 [6]
0	0x37652e04	1.36601775e-05
1	0x00000000	0.0
2	0x00000000	0.0
3	0x00000000	0.0
4	0x00000000	0.0
5	0x00000000	0.0

exp_avg_sq f4 [6]
0	0x3488f908	2.5513168e-07
1	0x00000000	0.0
2	0x00000000	0.0
3	0x00000000	0.0
4	0x00000000	0.0
5	0x00000000	0.0

exp_avg f4 [6, 6]
0	0xba9b2778	-0.0011837324
1	0x00000000	0.0
2	0x00000000	0.0
3	0x00000000	0.0
4	0x00000000	0.0
5	0x00000000	0.0
6	0x00000000	0.0
7	0x00000000	0.0
8	0x00000000	0.0
9	0x00000000	0.0
10	0x00000000	0.0
11	0x00000000	0.0
12	0x3a089eec	0.00052116695
13	0x00000000	0.0
14	0x00000000	0.0
15	0x00000000	0.0
16	0x00000000	0.0
17	0x00000000	0.0
18	0xb92e949b	-0.00016649293
19	0x00000000	0.0
20	0x00000000	0.0
21	0x00000000	0.0
22	0x00000000	0.0
23	0x00000000	0.0
24	0x00000000	0.0
25	0x00000000	0.0
26	0x00000000	0.0
27	0x00000000	0.0
28	0x00000000	0.0
29	0x00000000	0.0
30	0x00000000	0.0
31	0x00000000	0.0
32	0x00000000	0.0
33	0x00000000	0.0
34	0x00000000	0.0
35	0x00000000	0.0

exp_avg_sq f4 [6, 6]
0	0x3b391d12	0.0028246087
1	0x00000000	0.0
2	0x00000000	0.0
3	0x00000000	0.0
4	0x00000000	0.0
5	0x00000000	0.0
6	0x00000000	0.0
7	0x00000000	0.0
8	0x00000000	0.0
9	0x00000000	0.0
10	0x00000000	0.0
11	0x00000000	0.0
12	0x3a131e78	0.0005612145
13	0x00000000	0.0
14	0x00000000	0.0
15	0x00000000	0.0
16	0x00000000	0.0
17	0x00000000	0.0
18	0x3899a55a	7.326408e-05
19	0x00000000	0.0
20	0x00000000	0.0
21	0x00000000	0.0
22	0x00000000	0.0
23	0x00000000	0.0
24	0x00000000	0.0
25	0x00000000	0.0
26	0x00000000	0.0
27	0x00000000	0.0
28	0x00000000	0.0
29	0x00000000	0.0
30	0x00000000	0.0
31	0x00000000	0.0
32	0x00000000	0.0
33	0x00000000	0.0
34	0x00000000	0.0
35	0x00000000	0.0

exp_avg f4 [6]
0	0xb95ecb23	-0.00021247244
1	0x00000000	0.0
2	0x38c42e37	9.3546165e-05
3	0xb7fab037	-2.9884379e-05
4	0x00000000	0.0
5	0x00000000	0.0

exp_avg_sq f4 [6]
0	0x38621d38	5.390981e-05
1	0x00000000	0.0
2	0x372c595a	1.0272803e-05
3	0x35c4ee72	1.4672535e-06
4	0x00000000	0.0
5	0x00000000	0.0

exp_avg f4 [1, 6]
0	0x398bf35b	0.0002669346
1	0x00000000	0.0
2	0x3a8a0b85	0.0010531998
3	0x39baf9ec	0.0003566289
4	0x00000000	0.0
5	0x00000000	0.0

exp_avg_sq f4 [1, 6]
0	0x3908699e	0.00013009316
1	0x00000000	0.0
2	0x3b0d910c	0.0021601347
3	0x39784f7f	0.00023680738
4	0x00000000	0.0
5	0x00000000	0.0

exp_avg f4 [6, 1]
0	0x00000000	0.0
1	0xb398fe7b	-7.124341e-08
2	0x31e8f330	6.779736e-09
3	0x335568bb	4.968818e-08
4	0x324fcefb	1.2096048e-08
5	0xb20ab184	-8.07302e-09

exp_avg_sq f4 [6, 1]
0	0x00000000	0.0
1	0x2fa642be	3.0242647e-10
2	0x2d2ba53c	9.756914e-12
3	0x2f7ba3fc	2.2886576e-10
4	0x2d89a19d	1.5646867e-11
5	0x2be42d67	1.6212976e-12

exp_avg f4 [6]
0	0x00000000	0.0
1	0xb705831e	-7.957946e-06
2	0x354ae974	7.5590583e-07
3	0x36c6b9c0	5.922484e-06
4	0x35b3874a	1.3375914e-06
5	0xb578186f	-9.2422755e-07

exp_avg_sq f4 [6]
0	0x00000000	0.0
1	0x3323005b	3.7951718e-08
2	0x30a8ab96	1.2272376e-09
3	0x32f6eb23	2.8745097e-08
4	0x31073199	1.9673279e-09
5	0x2f5e3737	2.0210399e-10

exp_avg f4 [6, 6]
0	0x00000000	0.0
1	0x00000000	0.0
2	0x00000000	0.0
3	0x00000000	0.0
4	0x00000000	0.0
5	0x00000000	0.0
6	0x00000000	0.0
7	0x00000000	0.0
8	0x00000000	0.0
9	0x00000000	0.0
10	0x00000000	0.0
11	0x00000000	0.0
12	0x00000000	0.0
13	0x07cc45be	3.07355e-34
14	0x08f2a92f	1.460462e-33
15	0x0909db9e	1.6594039e-33
16	0x07301d68	1.324941e-34
17	0x083a0425	5.597721e-34
18	0x00000000	0.0
19	0x00000000	0.0
20	0x00000000	0.0
21	0x00000000	0.0
22	0x00000000	0.0
23	0x00000000	0.0
24	0x00000000	0.0
25	0x366cda90	3.529396e-06
26	0x378bad2d	1.6650733e-05
27	0x379c10ca	1.8604467e-05
28	0x36011970	1.9237305e-06
29	0x36b21000	5.306676e-06
30	0x00000000	0.0
31	0x00000000	0.0
32	0x00000000	0.0
33	0x00000000	0.0
34	0x00000000	0.0
35	0x00000000	0.0

exp_avg_sq f4 [6, 6]
0	0x00000000	0.0
1	0x00000000	0.0
2	0x00000000	0.0
3	0x00000000	0.0
4	0x00000000	0.0
5	0x00000000	0.0
6	0x00000000	0.0
7	0x00000000	0.0
8	0x00000000	0.0
9	0x00000000	0.0
10	0x00000000	0.0
11	0x00000000	0.0
12	0x00000000	0.0
13	0x213e8259	6.454702e-19
14	0x23864872	1.4558991e-17
15	0x23ad66e2	1.880027e-17
16	0x200dc73a	1.2009083e-19
17	0x221ddf12	2.139556e-18
18	0x00000000	0.0
19	0x00000000	0.0
20	0x00000000	0.0
21	0x00000000	0.0
22	0x00000000	0.0
23	0x00000000	0.0
24	0x00000000	0.0
25	0x31b0c64e	5.144819e-09
26	0x346bd9a3	2.1965256e-07
27	0x347ffcd7	2.3840708e-07
28	0x3246388b	1.1537973e-08
29	0x32b811ef	2.1428574e-08
30	0x00000000	0.0
31	0x00000000	0.0
32	0x00000000	0.0
33	0x00000000	0.0
34	0x00000000	0.0
35	0x00000000	0.0

exp_avg f4 [6]
0	0x00000000	0.0
1	0x00000000	0.0
2	0x0920a212	1.9335505e-33
3	0x00000000	0.0
4	0x37bb8d05	2.2357804e-05
5	0x00000000	0.0

exp_avg_sq f4 [6]
0	0x00000000	0.0
1	0x00000000	0.0
2	0x23eb6b13	2.5524099e-17
3	0x00000000	0.0
4	0x34b5a1cd	3.3831603e-07
5	0x00000000	0.0

exp_avg f4 [2, 6]
0	0x00000000	0.0
1	0x00000000	0.0
2	0x80152738	-1.942614e-39
3	0x00000000	0.0
4	0x37f36ad6	2.9017607e-05
5	0x00000000	0.0
6	0x00000000	0.0
7	0x00000000	0.0
8	0x072b5786	1.2890331e-34
9	0x00000000	0.0
10	0xb7155323	-8.900449e-06
11	0x00000000	0.0

exp_avg_sq f4 [2, 6]
0	0x00000000	0.0
1	0x00000000	0.0
2	0x1005b15c	2.6366258e-29
3	0x00000000	0.0
4	0x35364472	6.7899884e-07
5	0x00000000	0.0
6	0x00000000	0.0
7	0x00000000	0.0
8	0x201aeea4	1.3123267e-19
9	0x00000000	0.0
10	0x33e5c7f4	1.0700015e-07
11	0x00000000	0.0

exp_avg f4 [2]
0	0x38a92f75	8.0673875e-05
1	0xb7cfa0b7	-2.4751162e-05

exp_avg_sq f4 [2]
0	0x36602841	3.3402032e-06
1	0x350106eb	4.806631e-07
