GRNN/hmjjrszb/checkpoints/epoch=0-step=140.ckpt (torch, 23373 bytes, 40 tensors)

model.A f4 [2, 2]
0	0x3ef18e28	0.4717877
1	0x3f734b00	0.95036316
2	0x3d376592	0.0447746
3	0x3de6bac4	0.112660915

model.B f4 [2, 1]
0	0x3f56978f	0.8382501
1	0x3dcf55e8	0.10123807

model.D f4 [2]
0	0x3c437d14	0.011931676
1	0xbaf824f2	-0.0018931909

model.H2X_out_MLP.0.weight f4 [4, 2]
0	0xbe2d4e00	-0.16924286
1	0x3ee145e2	0.4399863
2	0xbec56334	-0.38552248
3	0x3ef9d0d8	0.48792148
4	0xbef56e5a	-0.47935754
5	0x3dbbd44d	0.091713525
6	0x3ec7bbdd	0.39010516
7	0xbef3575e	-0.47527593

model.H2X_out_MLP.0.bias f4 [4]
0	0x3d9ab6b0	0.07554376
1	0xbf0a84b9	-0.5410877
2	0x3efde94f	0.49592063
3	0x3e599232	0.21247175

model.H2X_out_MLP.2.weight f4 [4, 4]
0	0x3d97dc90	0.07415116
1	0x3ee524ab	0.44754538
2	0x3ec7f063	0.39050588
3	0x3edc8990	0.43073702
4	0xbd99e978	-0.07515234
5	0x3e2ff390	0.17182755
6	0xbe8380d4	-0.25684226
7	0x3c47b680	0.0121895075
8	0x3d9a62f8	0.07538408
9	0x3e57d71a	0.21078148
10	0x3eb6d2d0	0.35707712
11	0xbddd79f7	-0.108142786
12	0xbe802780	-0.25030136
13	0xbeebf8ca	-0.46088248
14	0x3cc0a1aa	0.023514587
15	0xbe8592c5	-0.2608854

model.H2X_out_MLP.2.bias f4 [4]
0	0x3e924773	0.28570136
1	0x3ee8af86	0.45446414
2	0x3d94369e	0.0723698
3	0xbd5df231	-0.05418605

model.H2X_out_MLP.4.weight f4 [1, 4]
0	0xbd12c340	-0.035830736
1	0xbda41b78	-0.08013052
2	0xbcdc9715	-0.02692751
3	0x3cf880f6	0.03033493

model.inputMLP.0.weight f4 [4, 1]
0	0xbefb4a44	-0.49080098
1	0xbf0dec84	-0.5543902
2	0x3f364024	0.7119162
3	0xbf6ed22f	-0.93289465

model.inputMLP.0.bias f4 [4]
0	0xbea02908	-0.31281304
1	0x3f191daf	0.5981092
2	0x3e381bce	0.17979357
3	0x3ddf7e92	0.10912813

model.inputMLP.2.weight f4 [4, 4]
0	0xbd825018	-0.06362933
1	0x3e91c541	0.28470805
2	0xbed7fa0c	-0.42182958
3	0x3e9dba3a	0.30806142
4	0xbca99280	-0.02069974
5	0x3edcb25a	0.4310482
6	0xbeacb280	-0.33729935
7	0xbe967b38	-0.29390883
8	0x3ebadcf8	0.3649671
9	0xbe453adc	-0.19260734
10	0xbedd5126	-0.43225974
11	0x3e5d2b54	0.2159856
12	0x3dbf8d18	0.09353083
13	0xbda211d0	-0.07913554
14	0xbe2712a4	-0.16315705
15	0xbed8fada	-0.42378885

model.inputMLP.2.bias f4 [4]
0	0xbbfa3675	-0.0076358863
1	0xbec3d378	-0.38247275
2	0x3de839c8	0.11339146
3	0xbefbad76	-0.49155778

model.inputMLP.4.weight f4 [2, 4]
0	0x3ef6968b	0.4816173
1	0xbdc96500	-0.09833717
2	0x3db69d18	0.08916682
3	0xbe117034	-0.14202958
4	0xbd711598	-0.058858484
5	0xbe659a68	-0.22422183
6	0x3daeab70	0.08528793
7	0x3e631aec	0.22178239

model.inputMLP.4.bias f4 [2]
0	0x3ea27e36	0.31736916
1	0xbe735f61	-0.23766853

exp_avg f4 [2, 2]
0	0xb658eee1	-3.2325554e-06
1	0x365ed29d	3.320317e-06
2	0xb599757d	-1.1433582e-06
3	0x3721f2dd	9.652894e-06

exp_avg_sq f4 [2, 2]
0	0x3866e0d9	5.504568e-05
1	0x3807ac04	3.234671e-05
2	0x398e3bcf	0.00027128911
3	0x393586c5	0.0001731171

exp_avg f4 [2]
0	0xb70f8ca7	-8.556212e-06
1	0xb78c0a50	-1.6694103e-05

exp_avg_sq f4 [2]
0	0x39868ddf	0.00025664174
1	0x3a4b9152	0.000776549

exp_avg f4 [4, 2]
0	0x00000000	0.0
1	0x00000000	0.0
2	0xb2b4474c	-2.098718e-08
3	0xb28887f9	-1.5894317e-08
4	0xb7911976	-1.7297203e-05
5	0xb785a50e	-1.5931695e-05
6	0xb719c9be	-9.166482e-06
7	0xb70db0f4	-8.445455e-06

exp_avg_sq f4 [4, 2]
0	0x00000000	0.0
1	0x00000000	0.0
2	0x38199615	3.6617817e-05
3	0x37aef7cd	2.0857808e-05
4	0x39024e0f	0.00012426845
5	0x38b47f7d	8.6068154e-05
6	0x379c706f	1.8649005e-05
7	0x3776529e	1.4681978e-05

exp_avg f4 [4]
0	0x00000000	0.0
1	0x30bf5a54	1.3922752e-09
2	0x359af053	1.1543838e-06
3	0x352433d8	6.1170203e-07

exp_avg_sq f4 [4]
0	0x00000000	0.0
1	0x342bb53c	1.5991549e-07
2	0x352b7a22	6.388019e-07
3	0x33e2f919	1.0569256e-07

exp_avg f4 [4, 4]
0	0x00000000	0.0
1	0x308b81d4	1.015048e-09
2	0x373c70e1	1.1231955e-05
3	0x35de08af	1.6542816e-06
4	0x00000000	0.0
5	0x00000000	0.0
6	0x00000000	0.0
7	0x00000000	0.0
8	0x00000000	0.0
9	0x306bf169	8.5835566e-10
10	0x370e1caa	8.470533e-06
11	0x35a75758	1.246789e-06
12	0x00000000	0.0
13	0x00000000	0.0
14	0xb0858c3c	-9.716881e-10
15	0x2e3a3277	4.2336325e-11

exp_avg_sq f4 [4, 4]
0	0x00000000	0.0
1	0x33f7c69f	1.1537963e-07
2	0x3863b189	5.428636e-05
3	0x347cf635	2.3558898e-07
4	0x00000000	0.0
5	0x00000000	0.0
6	0x00000000	0.0
7	0x00000000	0.0
8	0x00000000	0.0
9	0x33b2ada2	8.3203545e-08
10	0x3811a698	3.4725846e-05
11	0x3412ecda	1.3683476e-07
12	0x00000000	0.0
13	0x00000000	0.0
14	0x36109eac	2.1550031e-06
15	0x2f4f9c42	1.8882054e-10

exp_avg f4 [4]
0	0x35ea8c6c	1.7475227e-06
1	0x00000000	0.0
2	0x35b0de55	1.3177729e-06
3	0xae3f4a67	-4.3494455e-11

exp_avg_sq f4 [4]
0	0x35b234d5	1.327741e-06
1	0x00000000	0.0
2	0x35604b7b	8.355634e-07
3	0x33861060	6.24284e-08

exp_avg f4 [1, 4]
0	0xb921853a	-0.00015403787
1	0x00000000	0.0
2	0xb8e46991	-0.000108915505
3	0xb02cf192	-6.291653e-10

exp_avg_sq f4 [1, 4]
0	0x3be14313	0.006874451
1	0x00000000	0.0
2	0x3b8cec8c	0.0043006595
3	0x346e06a0	2.2167887e-07

exp_avg f4 [4, 1]
0	0x00000000	0.0
1	0xb3426ab8	-4.5266205e-08
2	0x3390f39b	6.749834e-08
3	0xb40ed6b4	-1.3302889e-07

exp_avg_sq f4 [4, 1]
0	0x00000000	0.0
1	0x30b22814	1.2962595e-09
2	0x315e05df	3.230859e-09
3	0x30e2f5d8	1.6513537e-09

exp_avg f4 [4]
0	0x00000000	0.0
1	0xb58390f7	-9.802451e-07
2	0x35c396f2	1.4572563e-06
3	0xb5d73e95	-1.6036962e-06

exp_avg_sq f4 [4]
0	0x00000000	0.0
1	0x34302b5c	1.6407051e-07
2	0x34dba3d1	4.091112e-07
3	0x3460ced8	2.0936875e-07

exp_avg f4 [4, 4]
0	0x00000000	0.0
1	0xb60464ac	-1.9728132e-06
2	0xb545952b	-7.3605287e-07
3	0xb42f5765	-1.6329939e-07
4	0x00000000	0.0
5	0x00000000	0.0
6	0x00000000	0.0
7	0x00000000	0.0
8	0x00000000	0.0
9	0x00000000	0.0
10	0x00000000	0.0
11	0x00000000	0.0
12	0x00000000	0.0
13	0x00000000	0.0
14	0x00000000	0.0
15	0x00000000	0.0

exp_avg_sq f4 [4, 4]
0	0x00000000	0.0
1	0x35293ab8	6.3042853e-07
2	0x34187357	1.4198064e-07
3	0x302c733d	6.2737e-10
4	0x00000000	0.0
5	0x00000000	0.0
6	0x00000000	0.0
7	0x00000000	0.0
8	0x00000000	0.0
9	0x00000000	0.0
10	0x00000000	0.0
11	0x00000000	0.0
12	0x00000000	0.0
13	0x00000000	0.0
14	0x00000000	0.0
15	0x00000000	0.0

exp_avg f4 [4]
0	0xb667880c	-3.4500872e-06
1	0x00000000	0.0
2	0x00000000	0.0
3	0x00000000	0.0

exp_avg_sq f4 [4]
0	0x36122a27	2.1780231e-06
1	0x00000000	0.0
2	0x00000000	0.0
3	0x00000000	0.0

exp_avg f4 [2, 4]
0	0xb54718ec	-7.4169543e-07
1	0x00000000	0.0
2	0x00000000	0.0
3	0x00000000	0.0
4	0xb5bfea9f	-1.4298893e-06
5	0x00000000	0.0
6	0x00000000	0.0
7	0x00000000	0.0

exp_avg_sq f4 [2, 4]
0	0x325be0f3	1.2798625e-08
1	0x00000000	0.0
2	0x00000000	0.0
3	0x00000000	0.0
4	0x33510d9b	4.867398e-08
5	0x00000000	0.0
6	0x00000000	0.0
7	0x00000000	0.0

exp_avg f4 [2]
0	0xb70f8ca7	-8.556212e-06
1	0xb78c0a50	-1.6694103e-05

exp_avg_sq f4 [2]
0	0x39868ddf	0.00025664174
1	0x3a4b9152	0.000776549
