GRNN with input mlp/3up7bubp/checkpoints/epoch=16-step=170.ckpt (torch, 463425 bytes, 54 tensors)

model.GCNN.graph_convolution.bias f4 [10]
000000 3d ad 00 bc 1d d8 06 bc c7 52 0d 3a a2 6a c4 bb
       -0.007853803 -0.008230236 0.0005391058 -0.005994157
000010 cd 31 8b bb 77 f2 13 bc 4f 25 90 3b 9b fb c5 3a
       -0.00424788 -0.009029976 0.004398979 0.0015104891
000020 b7 7c f5 ba 67 b0 c8 3b
       -0.0018729185 0.0061245444

model.GCNN.graph_convolution.lin.weight f4 [10, 1]
000000 f1 74 fa 3e 06 e5 1a be b8 15 5a be 2e 1f 90 be
       0.48917344 -0.15126428 -0.21297348 -0.28148788
000010 66 5a d4 3e 52 2e 1f 3f 0f 18 1e be b7 d8 60 be
       0.4147522 0.62180054 -0.15438865 -0.2195767
000020 69 c9 3b 3f 46 6e c5 bc
       0.733542 -0.024100434

model.RNN.weight_ih_l0 f4 [50, 11]
000000 e4 e6 05 3e 82 21 05 be 23 9e f2 bd 84 81 9c 3d
       0.13076359 -0.13001063 -0.118465684 0.07641891
000010 a4 d3 a6 3d d9 5c 01 be 23 4c 1d bc f0 bf 0f bd
       0.08145836 -0.12633075 -0.009600672 -0.035095155
000020 63 95 fe bb 83 aa 8d 3d f1 5d 02 3e b7 0d 15 3d
       -0.007769273 0.06917288 0.12731148 0.036390033
000030 2e 04 3c bc ea b5 09 be 0f b3 e5 bd 5f d7 a0 bd
       -0.011475606 -0.13448301 -0.11215793 -0.07853579
000040 65 41 9c 3d 9e 6d 8e bd 68 36 e2 bc 10 6c 4d 3d
       0.076296605 -0.069545016 -0.027613834 0.050151885
000050 75 00 97 3c 4b d6 94 bd bc 45 03 bd 62 03 d0 3d
       0.018432835 -0.07267436 -0.032048926 0.10156895
000060 e0 99 b7 bc 78 5e cf 3d 50 87 66 bd aa e8 3f bd
       -0.02241224 0.1012544 -0.056281388 -0.046852745
000070 63 7c 38 bd 6a 6f 6c bd 21 d6 b0 3d 68 5d 11 bd
       -0.0450405 -0.05772344 0.08634592 -0.03548947
000080 b7 26 8e 3a 89 da c5 3d 04 25 a1 bd fa e9 aa bd
       0.0010845278 0.09660823 -0.07868388 -0.08345409
000090 45 81 00 3e eb 11 87 bd d4 35 05 3e bd 27 da bc
       0.12549312 -0.065952145 0.13008815 -0.026630277
0000a0 34 66 f4 bc 80 bc a2 bd 49 a8 c3 bc 43 70 64 bc
       -0.02983389 -0.0794611 -0.023883956 -0.013942781
0000b0 54 4a ee 3d 87 44 c8 bc b0 a4 29 3b e1 4b d7 bd
       0.11635271 -0.024446739 0.0025885515 -0.1051252
0000c0 ba d8 f0 ba fe 64 fe 3c c2 91 2b bd 44 79 0e bc
       -0.0018375136 0.031054016 -0.041887052 -0.008695904
0000d0 a8 a7 bf 3d 92 d0 ca 3d 26 aa bc bd aa 35 9c bd
       0.0935815 0.09903063 -0.09212141 -0.07627423
0000e0 96 2b 47 3c 92 35 b1 3d b3 8e 01 3e 9f eb 18 3e
       0.012156388 0.08652796 0.12652092 0.14933632
0000f0 c5 be f5 3d 66 da 7e 3c 73 c9 6c bc 2a 62 ed 3d
       0.11999277 0.015555 -0.014452326 0.11590989
000100 19 bb a3 3d e6 fa 16 be b6 ca 14 3e 9e 22 ff 3d
       0.079946704 -0.14744148 0.14530453 0.124577746
000110 80 0b 11 3e 05 ce bf bd ff c8 af 3c 3f 66 f0 bc
       0.14164543 -0.09365467 0.021458147 -0.02934563
000120 92 6a 3c bd 4d 5e 93 bd f8 6e 09 3d c6 37 ec bd
       -0.04600007 -0.07195721 0.033553094 -0.115340754
000130 10 0b 00 3d 1f 87 de bd 65 59 59 3d a5 49 dd bd
       0.03126055 -0.10865616 0.05306377 -0.10805062
000140 4b 30 eb bd 8e 74 25 bd 8e b9 d5 bc 21 45 0e 3e
       -0.114838205 -0.04039436 -0.026089456 0.13893558
000150 c6 30 50 bd f8 49 e8 3d 2b 54 72 3d c6 b2 7e bc
       -0.050827764 0.113422334 0.0591623 -0.015545553
000160 29 6b 32 3d 96 ef 8c 3d 6d 0f bd 3d 36 b2 bc bd
       0.043559227 0.06881635 0.09231458 -0.092136785
000170 ac 18 e2 bc b0 fc c3 bd c0 16 73 3d 8b 8f aa bd
       -0.027599655 -0.09569681 0.059347868 -0.0832816
000180 7d 81 f7 3d de 14 82 3d a6 dd e0 bd af 71 aa bd
       0.12085245 0.06351636 -0.10979776 -0.08322465
000190 92 6c de bd 2f e4 93 3d a4 1f e3 3d 53 8d ba 3c
       -0.10860552 0.07221257 0.11090019 0.022772467
0001a0 7d 54 0f be 42 9c ba bc e3 c9 01 3e c4 06 b0 3d
       -0.13997073 -0.022779588 0.1267467 0.085950404
0001b0 e2 93 fa bd 69 43 12 bd 2f 1b d7 3d f1 62 98 3d
       -0.12235238 -0.03570882 0.10503232 0.074407466
0001c0 f7 a6 86 bc cb 1b c6 3d 92 63 07 bd 45 1c 10 be
       -0.016437037 0.0967327 -0.033053942 -0.14073284
0001d0 8c 6b f4 bd 50 d4 83 bd 17 4e fb bd 5e de 9d bd
       -0.119345754 -0.0643698 -0.12270754 -0.07708429
0001e0 dc 70 8b bc 77 26 e0 bd 93 bc 64 3d 71 22 61 3d
       -0.017021589 -0.109448366 0.0558439 0.054964487
0001f0 5d 39 ee 3d e8 8c b7 3d 3f 4f 9a 3c f9 53 ae bd
       0.11632035 0.089624226 0.018836616 -0.0851211
000200 24 8c c2 3d fa 20 cf bd 7c c9 d4 3d 01 85 8c bd
       0.09499386 -0.10113712 0.103899926 -0.06861306
000210 be 39 08 bd cb d7 ed bd 5a 1b aa 3c d9 5f be 3d
       -0.033258192 -0.11613425 0.020764995 0.09295625
000220 69 30 9c bd 66 df a8 3a a4 93 e0 3c 5c 46 64 bd
       -0.07626421 0.0012883961 0.02741415 -0.055731162
000230 bd 12 ec bd 21 23 c0 bd 1c b5 97 3d 92 29 ad 3d
       -0.115270115 -0.093817 0.07407591 0.084551945
000240 cf 99 80 3d 57 c1 88 bd 22 9e 6c bd c4 13 af bd
       0.06279337 -0.06677502 -0.057767995 -0.08548692
000250 19 2e 61 3d e0 73 e4 bc 20 99 4d 3b d0 52 b1 3d
       0.054975603 -0.027887285 0.0031371787 0.08658373
000260 6a 2b 56 3d ea fb 5d 3d af ec fb 3c 9b 5c 1a 3d
       0.052287497 0.054195322 0.030752508 0.03768597
000270 ba c0 fe 3d df 51 d1 bd 2d 43 df bd 07 45 2f bd
       0.124391034 -0.10220694 -0.10901485 -0.04279044
000280 79 16 cc bd 22 0e 46 bd 08 b6 c8 bc cb 01 3d 3d
       -0.09965224 -0.04835332 -0.024500862 0.046144288
000290 eb 8d f1 bd 5a 29 2c bd 7e e6 f8 bd 3e 00 db 3d
       -0.11794647 -0.042031623 -0.12153338 0.106934056
0002a0 91 8f ed 3d e6 4d b6 bc 0c 02 11 3e 19 a5 cc bd
       0.11599649 -0.022253942 0.14160937 -0.099924274
0002b0 7f 29 aa 3d 0b c7 83 3d 3c b4 0a 3e 84 b9 82 3d
       0.08308696 0.06434449 0.13545316 0.063830405
0002c0 9b f5 b8 3c 9f f7 ed 3d 87 6d 04 be d4 d5 31 3c
       0.022578051 0.116194956 -0.12932406 0.010854203
0002d0 c9 a3 04 3e d8 d1 48 bd ac 83 d7 bd 38 de 8e 3c
       0.12953104 -0.049028248 -0.10523161 0.017439947
0002e0 01 28 51 bd 7b 3a 7e bd 4b 1c 04 bc fa 71 05 be
       -0.05106354 -0.06206749 -0.008063386 -0.1303176
0002f0 e5 15 0c be 8f 0a 90 3d d7 c2 da bc 13 4d 71 3d
       -0.13680227 0.07033264 -0.026704235 0.058911394
000300 80 21 95 3d 1b 2f 11 3e 22 e1 7b 3d 25 34 db 3a
       0.0728178 0.14178126 0.061494 0.0016723914
000310 23 59 6e 3d d3 ba 47 bd 25 7b b4 3d cb 62 83 3c
       0.058190476 -0.048762154 0.088125505 0.01603832
000320 43 29 da bb 7c 94 b1 3b e0 b8 26 bc 18 1b 0b 3d
       -0.006657751 0.005419312 -0.010175914 0.033961385
000330 ae d7 78 3d 2f fc 1d bd d4 80 22 3d 1d 62 cf 3d
       0.060752563 -0.03857058 0.03967364 0.101261355
000340 30 25 af 3d 0d 3c e8 bd 18 9e 90 bc 74 0f 6c bd
       0.08552015 -0.11339579 -0.01765351 -0.057631925
000350 e5 1a a4 bc 6f b8 d2 bd 9b ba 2d bd 99 82 8f 3b
       -0.020032356 -0.10289084 -0.04241429 0.004379582
000360 9c b0 9a bd fa 2a e8 3d b7 6d 23 3c d4 4b 8e bd
       -0.07553217 0.11336322 0.0099748885 -0.06948057
000370 c2 38 0d be 4f a1 2a bd 7d 57 55 3d ac cb f7 3d
       -0.13791183 -0.041657742 0.05208539 0.12099394
000380 b1 4a d0 3d 7b 01 aa 3c f7 91 02 be d1 40 1a 3d
       0.10170496 0.020752659 -0.12750994 0.03765947
000390 09 c2 6d 3c a8 f9 d8 bd 1f 9d 68 bd 76 2f 7c 3d
       0.014511594 -0.10594493 -0.056790467 0.0615687
0003a0 e4 5f 01 3e bb 9f 80 3d a9 16 1e 3c a4 98 d8 bd
       0.12634236 0.06280466 0.009648957 -0.10575989
0003b0 d1 06 12 be 89 9c 50 3b f4 8c 60 bd 07 c8 aa 3d
       -0.14260413 0.0031831583 -0.054821923 0.083389334
0003c0 ff fd ae 3c ba eb e8 bd ea 8e 24 bd fc b1 04 be
       0.02136135 -0.11373086 -0.040175356 -0.1295852
0003d0 20 70 45 3d a5 09 c1 bd ac 4f 9f bd 38 f7 95 3d
       0.048202634 -0.09425668 -0.07778868 0.07322544
0003e0 e3 6a d6 bd 0b d1 4c 3d bf 72 12 bc 58 62 cf bd
       -0.10469606 0.050004046 -0.00893849 -0.101261795
0003f0 31 dd aa 3d cd 0b 3a bd 1f cb 3e 3d 85 04 21 bd
       0.0834297 -0.04542141 0.04658043 -0.03931095

model.RNN.weight_hh_l0 f4 [50, 50]
000000 46 5f 57 3d 6f c9 c2 3d 71 e6 aa bd e7 4a 13 3d
       0.052581094 0.09511077 -0.083447345 0.035960104
000010 db 53 32 3c 87 76 af 3d 18 fc a5 3c ec fe a6 3d
       0.0108842505 0.08567529 0.02026181 0.08154091
000020 b5 51 1d bd 51 aa 50 bd 47 b7 a1 3d 7b 0e dd 3d
       -0.038408 -0.050943676 0.078962855 0.107937776
000030 45 e4 2d 3d 7c f8 11 3e 23 bb ba 3d 2c 05 33 3d
       0.042454023 0.14254946 0.09117725 0.043706104
000040 b9 24 ce bd dc fa 86 3d d6 dd ce bd ba 2b f5 bd
       -0.10065598 0.065908164 -0.101009056 -0.11971231
000050 7a 11 be bd 17 c7 03 bd 8b 80 01 be 07 b7 a7 3d
       -0.09280677 -0.03217229 -0.12646692 0.081892066
000060 bb 36 ba bc f6 14 fe bc 3e 47 ec bb 6d 10 0d bd
       -0.022731176 -0.031015854 -0.007210641 -0.034439493
000070 75 bb 03 be 5a 1b c8 bd 23 1d 87 bc b2 91 ce bd
       -0.12864478 -0.09770842 -0.016493386 -0.10086383
000080 fa 80 4e bd de 30 bc 3d 3f 39 b6 3d 23 50 a0 3c
       -0.05041597 0.09189008 0.088976376 0.019569462
000090 bd ff ff 3d af 90 69 bd 5b 2c 9b 3d 15 e0 d4 bd
       0.1249995 -0.057022747 0.075768195 -0.10394303
0000a0 4e 6c 56 bc 2c a1 8a bd aa 60 04 3e c3 ae 43 bd
       -0.013087345 -0.06769022 0.129275 -0.047774088
0000b0 dc bc ea bc 52 83 70 3c 60 02 88 3c ca 01 2c bd
       -0.028654508 0.014679747 0.016602695 -0.041993894
0000c0 ef 55 06 3e 8f 21 6e bd e1 54 cc bd 6b c3 3e 3d
       0.13118719 -0.058137473 -0.09977127 0.046573084
0000d0 5a f5 03 be 0d b0 97 3d 1a 78 19 3c 23 7b 4b bc
       -0.12886563 0.07406626 0.009367013 -0.012419495
0000e0 44 c4 12 be 42 34 81 bc 7c e7 a1 bd 86 79 b0 bd
       -0.14332682 -0.015771989 -0.0790548 -0.08616929
0000f0 06 06 0b be 53 2c 50 bd aa 2b bd bc 93 e6 39 bd
       -0.13576517 -0.05082352 -0.02309211 -0.04538591
000100 9d e0 e7 3d 95 84 0e bd 05 8c c9 bd 19 b9 63 bd
       0.113221385 -0.03479441 -0.0984116 -0.055596445
000110 ba 8a b8 bd c5 26 47 bc 02 d7 c5 3d ef 2f aa 3d
       -0.09010835 -0.0121552395 0.0966015 0.08309924
000120 bb f0 ee 3d fe 8d c6 bd a2 44 9e bd f7 92 c3 3d
       0.116670094 -0.096950516 -0.077279344 0.09549516
000130 d4 4b 9b bc f8 9e 13 be c5 f0 b2 3d 26 ac 14 3d
       -0.018957056 -0.1441611 0.087373294 0.036296986
000140 12 b2 90 3d 31 41 9b bc 20 8c cb 3d f2 95 99 3d
       0.07065214 -0.018951984 0.09938836 0.07499303
000150 94 c5 a8 3c 8e 59 3c bd 5f 83 f5 bd 1b 61 24 bd
       0.020602025 -0.045983844 -0.11987948 -0.04013167
000160 79 c0 5b 3a 25 ec 01 bd 2b db 04 3e cd d7 e1 3d
       0.00083828677 -0.031719346 0.12974231 0.11027489
000170 1a 56 6e bc b0 fe 0f be 47 ed ad 3c 68 84 32 bd
       -0.014546895 -0.14062 0.021231307 -0.043583304
000180 25 c4 8e 3d 40 7d 2c 3d 39 29 d0 3d 21 f5 f1 3c
       0.06971005 0.042111635 0.101641126 0.029535832
000190 e1 fd 8a bd 06 89 fd 3d c1 e7 03 bd 56 15 ab 3d
       -0.06786705 0.12379651 -0.03220344 0.08353679
0001a0 cc 47 05 be 37 e7 a7 3d fe ea 90 bd 09 79 01 be
       -0.1301567 0.081983976 -0.07076071 -0.12643827
0001b0 67 f8 db bd 57 ad 01 3e 67 87 9c bb de 5f ad 3d
       -0.10740738 0.1266378 -0.0047768834 0.08465551
0001c0 6b a0 f2 bd a8 26 e7 bd f9 7e 08 be f5 f8 8b 3d
       -0.118470035 -0.1128667 -0.13329686 0.06834594
0001d0 91 a8 f3 3c ba 20 13 bd e9 03 13 bd ae 41 a9 bc
       0.029743465 -0.035919882 -0.0358924 -0.020661201
0001e0 06 85 7b bd a7 45 5c bc 86 24 a8 3d 84 d2 21 bd
       -0.061406158 -0.013444341 0.08210091 -0.039507404
0001f0 29 6d e9 bd ff a6 0a 3e e1 c8 21 3b 5f 7e 0d 3e
       -0.11397774 0.13540266 0.0024686384 0.13817738
000200 5c 67 1d 3d 83 29 93 3c d5 c2 93 bd 99 6f eb 3d
       0.03842865 0.01796413 -0.07214896 0.11495895
000210 d2 30 da bc d6 e2 a9 3c 47 5c 10 bd a9 12 08 be
       -0.026634607 0.020738047 -0.035244253 -0.13288368
000220 b5 da f1 3d be 7a df bd d6 ea 73 bd 37 4a a5 3d
       0.11809293 -0.10912083 -0.05955013 0.08070796
000230 0b 6b 81 bd 3d d2 83 bb 31 ef f4 3d 08 3c e0 bd
       -0.06319245 -0.004022865 0.11959685 -0.1094895
000240 7e f2 08 be 23 cb 07 be 8e f8 03 be fb da f5 bd
       -0.13373753 -0.13261084 -0.12887785 -0.12004658
000250 ea bc f3 3d 46 39 20 bd 81 45 e4 bc 8a 58 70 bc
       0.11901267 -0.03911712 -0.027865173 -0.014669547
000260 c8 62 cf bd 41 7f 8e 3d 88 fe ed 3b 6f 6b 87 bd
       -0.10126263 0.069578655 0.0072630085 -0.06612288
000270 f1 36 9b 3d 0b 7d f6 bd cf cf 87 bd 40 44 23 bd
       0.075788386 -0.12035569 -0.06631433 -0.03986001
000280 bb 50 ee bc e3 22 2e bd 7c 83 f2 3b 4d b1 a1 3d
       -0.02909123 -0.04251374 0.007400928 0.078951456
000290 f8 a9 04 bd 69 67 94 3d df c7 84 bd 68 d8 68 3d
       -0.032388657 0.072462864 -0.06483435 0.056847006
0002a0 e9 63 3b 3d aa 62 07 3e 1b 2a ff 3c 51 0c d7 3d
       0.04574958 0.13221231 0.031148007 0.10500396
0002b0 9d 46 00 be 90 38 9d 3d 7f 63 fa 3d 7f f8 01 be
       -0.12526937 0.07676804 0.122260086 -0.1269245
0002c0 73 c8 03 3e 3a 51 09 be fa 91 cf 3c 0c 75 90 bc
       0.12869434 -0.13409892 0.025338162 -0.017633937
0002d0 d0 9e ff bd 03 ff 06 3e 81 df ac bd 09 77 2e bd
       -0.12481463 0.13183217 -0.084410675 -0.04259399
0002e0 03 1d 12 be 9a 87 f3 3d 8a 0d cb 3d 7c 3c c6 3d
       -0.1426888 0.11891098 0.09914692 0.09679505
0002f0 9b 9a 91 3c 84 66 e6 bd a6 b9 c9 3d 91 26 43 3d
       0.017773917 -0.11250022 0.09849863 0.0476442
000300 07 bf de 3c d2 8a 04 be c6 df de 3d 38 d6 35 bd
       0.027190698 -0.12943581 0.10882525 -0.044393748
000310 ef 94 14 be 42 90 cd 3d 69 e5 84 3c f9 42 4f bd
       -0.14509939 0.100372806 0.016222673 -0.05060098
000320 7c 7f dd bd 74 7f 0b 3e c0 da 70 3d 23 26 d1 3d
       -0.10815331 0.13622838 0.058802366 0.10212352
000330 47 ff d7 bb 95 92 13 3d 9a 40 c6 ba 33 05 08 3e
       -0.0065917107 0.036028463 -0.0015125454 0.13283233
000340 24 b7 c0 bd cc 04 bd 3c 76 85 4c bb 68 c8 84 3a
       -0.09409931 0.023073576 -0.0031207479 0.0010130526
000350 98 0e 8b bd 8c 04 71 bd da b0 b2 3d ce e0 b4 bd
       -0.06789893 -0.058842227 0.08725138 -0.088319406
000360 38 3a 92 3d 82 81 d1 bc 1a 35 65 bd 2b 6e 01 3d
       0.071400106 -0.02557445 -0.055958845 0.031599205
000370 71 2c 44 bd 67 c3 73 3d 93 d1 62 3a 7a 12 34 3c
       -0.047893945 0.059512522 0.0008652445 0.010990733
000380 fa 93 70 bd a7 ff cd bd 37 31 a8 3b 99 4d 0d be
       -0.05873487 -0.100585274 0.00513282 -0.13799132
000390 ac 77 04 3e a5 06 cb bd 3e 03 3d 3c 69 25 e1 bc
       0.12936276 -0.09913377 0.0115364175 -0.027483659
0003a0 a5 f2 f8 bd 0b 76 e6 bc 69 65 ae bd 92 8f ff bd
       -0.12155656 -0.02813246 -0.08515436 -0.12478556
0003b0 28 21 5e bd 3c 8b b7 bc 49 dd 6b 3d 37 4e 00 be
       -0.05423084 -0.02240526 0.05758408 -0.12529837
0003c0 73 bc d5 bd 6d 7b 36 3b 5a ad cb 3c 8b 86 03 be
       -0.104363345 0.0027844564 0.024862934 -0.12844293
0003d0 c2 ab b6 bd 02 a9 a1 3d 02 a8 09 3e a0 56 fe 3c
       -0.08919479 0.07893564 0.13442996 0.031047165
0003e0 4d 45 32 3c bb 78 33 3c 01 42 42 bc aa 3f ab 3c
       0.01088078 0.010954077 -0.011856557 0.02090438
0003f0 f6 4f 23 3d 1f 90 36 3d 63 04 85 bc 99 13 27 bd
       0.03987118 0.04457104 -0.016237443 -0.040790174

model.RNN.bias_ih_l0 f4 [50]
000000 69 87 89 3d c2 e8 d0 3d b3 e6 91 3d 93 88 e6 3d
       0.067152806 0.10200645 0.071240805 0.11256518
000010 3d 97 7b 3d 4b 93 87 3d e6 05 43 3c 54 26 03 3e
       0.06142353 0.06619891 0.011903262 0.1280759
000020 e7 4e c9 3d 99 97 db bd ed c7 e1 3d 4c ec 52 bd
       0.098295026 -0.10722274 0.11024461 -0.05149488
000030 1a fe ab 3c cc 1c 9a 3b 3e cf 5a 3c e3 97 61 3c
       0.020995189 0.00470314 0.013355074 0.013769123
000040 fc e1 d4 bd be 3a f0 bd 99 7a c2 bd e9 ee 88 3d
       -0.103946656 -0.11729954 -0.0949604 0.066861935
000050 4c bb 92 bc fd 49 16 3a 74 e6 d8 bd af f1 c1 3d
       -0.017911576 0.0005733071 -0.105908304 0.094699256
000060 1d e5 00 be 1a 3d 16 3d ca 37 55 3d b3 9e 13 3e
       -0.125874 0.036679365 0.052055158 0.14416008
000070 53 a9 ac 3d 3b 28 31 bd e4 ad b5 bd 69 63 b5 3d
       0.084307335 -0.043251257 -0.08871058 0.088568516
000080 cd 44 ed 3d 10 32 09 be 99 f5 32 3c 4a b1 12 be
       0.11585388 -0.13398004 0.010922813 -0.14325443
000090 fe a6 7e bc ad 88 ea bd a8 26 75 3c dc d3 ae bd
       -0.015542744 -0.1145185 0.01496283 -0.08536503
0000a0 04 f1 d1 bd 8e d1 f0 bd 3d e9 68 bd 36 4c c8 3c
       -0.10251048 -0.117587194 -0.05686306 0.024450403
0000b0 4a 86 f5 bd 9f 03 a1 3b 03 53 03 3d 9f 80 23 3d
       -0.11988504 0.0049137617 0.032061588 0.039917585
0000c0 96 8b 6e bd e9 6b 0a 3d
       -0.05823859 0.033794317

model.RNN.bias_hh_l0 f4 [50]
000000 04 a3 28 bd d1 f0 d1 bb 81 2f 81 3d 04 0b 89 3d
       -0.04117109 -0.0064068814 0.06307889 0.06691554
000010 53 0d d3 bd 41 0b 3b bb 0e 94 24 3b ea 63 3f bd
       -0.10305276 -0.0028540643 0.0025112662 -0.046726145
000020 70 3f d1 bd e5 a1 e0 bb c0 e5 b5 bd ca 98 86 3d
       -0.10217178 -0.006855237 -0.08881712 0.06572111
000030 f1 a8 72 3c 6e 86 00 be 03 0c 59 3d cf c6 4e 3d
       0.014810787 -0.12551281 0.05298997 0.050482567
000040 20 1d 1b bd 90 5f ba bd d1 c7 42 bd 17 b0 20 bc
       -0.037869573 -0.09100258 -0.04755384 -0.009807608
000050 ee 27 e1 bd e7 d5 1d bc 84 ff 90 bd c8 bd e4 bc
       -0.10993944 -0.009633518 -0.07079986 -0.027922526
000060 5a aa 34 3d ca cf 44 3d 0a 1a b5 3c 9c 42 aa 3d
       0.044107772 0.048049726 0.022107143 0.08313486
000070 7a 07 16 3e 85 0a fb bc 89 37 68 3d 89 dd 6a bd
       0.1465129 -0.030644665 0.056693587 -0.05734018
000080 c4 6b ca 3d b1 82 f5 3d 1e 7f 1b bc 1a d6 aa bb
       0.09883836 0.11987818 -0.009490756 -0.005213511
000090 13 26 98 bd 54 0c ed 3d 12 1c 59 bd f0 10 c6 bd
       -0.07429137 0.11574617 -0.053005286 -0.09671199
0000a0 42 f9 28 bd c4 b7 d5 3d 64 93 65 3d 06 9f b6 bd
       -0.041253336 0.10435441 0.056048766 -0.0891705
0000b0 ec d3 31 3d 22 51 49 3d 95 c6 60 bd 95 74 ab 3d
       0.043414995 0.04914964 -0.054876883 0.08371846
0000c0 04 14 b3 3d 98 01 03 3e
       0.08744052 0.12793577

model.MLP2RNN.0.weight f4 [30, 10]
000000 6e d9 1e 3d 7c e9 74 be d2 f2 81 be c5 b8 0a be
       0.038781576 -0.23917192 -0.2538057 -0.13547046
000010 58 35 92 3e 42 b3 0c be c6 a5 d4 bd cb 3c 6e be
       0.28556323 -0.13740256 -0.10383181 -0.23265378
000020 a8 4f f0 bc a0 35 51 be 04 7e 93 be 0e cc 8e be
       -0.029334858 -0.20430613 -0.2880708 -0.27890056
000030 86 59 e0 bd 40 06 7c 3c 56 ba 61 3e b5 f7 a0 3e
       -0.10954575 0.0153823495 0.22043738 0.31438985
000040 bc 95 ae 3d 28 67 cf bd 1a 89 57 3e 28 8d 77 bd
       0.08524653 -0.10127097 0.21048394 -0.06043735
000050 b4 7a f5 3d 72 72 cc bd fe 5b bc bd 51 c9 8b be
       0.119862944 -0.09982766 -0.091972336 -0.2730203
000060 fc d5 9a 3d 50 27 95 be cc b6 86 bd de 6e 3c 3e
       0.075603455 -0.29131556 -0.065778345 0.18401667
000070 84 ca fb 3d 16 01 88 be 1b 74 93 3e e2 4a 92 be
       0.12294486 -0.26563329 0.2879952 -0.28572756
000080 38 e9 12 3d 9d f5 99 3e bf 63 82 3e 48 ee 8f 3d
       0.035866946 0.300702 0.25466725 0.070278704
000090 5f 0d 8a 3e f6 2b 88 be 80 d5 18 3c cd b3 a1 be
       0.26963326 -0.2659604 0.009328246 -0.3158249
0000a0 48 4d 2b be 6a 9f 06 3e 38 e3 8b 3d 70 df 0b 3e
       -0.16728699 0.13146749 0.06830448 0.13659453
0000b0 14 41 83 3d 77 34 a0 3e 16 82 a0 be 82 7c 6b 3e
       0.06408897 0.31290027 -0.31349248 0.22996715
0000c0 d8 35 e2 3d 00 48 21 39 c8 8a 00 3e 1e f2 7d 3e
       0.11045426 0.00015380979 0.12552941 0.24799392
0000d0 60 27 b2 bc be a9 50 3e d0 1f 0f bd c7 02 36 be
       -0.021747291 0.20377252 -0.03494245 -0.17774497
0000e0 cf e1 97 be 3e b4 6b 3e 69 23 35 be 5c a8 e5 3d
       -0.29664466 0.23017976 -0.17689289 0.112137526
0000f0 21 a5 80 3e 20 34 83 bc 7c 68 9d be a8 6c 6e 3d
       0.25125983 -0.016016066 -0.30743778 0.05820909
000100 81 e6 90 be 40 b9 40 bc f0 8c 17 be ec 24 32 3e
       -0.2830086 -0.011762917 -0.14799857 0.17396897
000110 1e ba 65 3e 12 7e 3a be 19 53 8e 3e 42 30 8c be
       0.2243428 -0.18212155 0.27797773 -0.27380568
000120 ba 66 2b 3e 70 13 60 bd f1 5d 98 3e bf 17 89 3e
       0.16738406 -0.054706037 0.29759172 0.2677593
000130 48 b9 10 bd b9 fc 82 be a0 c9 e2 bc 0a 27 76 3e
       -0.035332948 -0.25583437 -0.027684033 0.2403833
000140 0c 3f 82 be 78 71 3c be 81 33 01 3e bc 62 46 be
       -0.25438726 -0.1840266 0.12617303 -0.19373602
000150 d0 63 99 3e 68 45 5c be db 78 97 3d 8a 0b 6c 3e
       0.29958963 -0.21510851 0.07396098 0.23051277
000160 7b 83 16 bd 65 a7 14 3e e5 a3 93 3e 1b d8 92 3e
       -0.036746483 0.14516981 0.2883598 0.286805
000170 00 6c f6 bb 23 b4 94 3e 6a 79 cb bd cf 6f 95 be
       -0.007520199 0.29043683 -0.09935267 -0.29186866
000180 9f 13 93 3e 7e 50 00 3e 5a c7 21 be 70 72 73 bd
       0.28725907 0.12530705 -0.15798703 -0.059435308
000190 20 c1 81 be 5e 5b a1 be 54 6e 7c be fe 18 7b 3e
       -0.25342655 -0.3151502 -0.24651462 0.24521253
0001a0 1e 7e 30 3e 63 26 8f 3e 70 8e 93 3d 32 f4 7d 3e
       0.1723561 0.27958974 0.07204902 0.24800184
0001b0 90 64 64 bd 71 b0 8d be 70 78 60 bd 46 10 a1 be
       -0.055759966 -0.27673677 -0.05480236 -0.31457728
0001c0 d4 9c ce bd 94 52 8c 3e 32 2c 6b bd 1e 90 39 3e
       -0.10088506 0.27406752 -0.057415195 0.18121383
0001d0 8d a6 85 3e c1 b8 13 3c fb 10 5d 3d 31 2f ca bd
       0.2610363 0.009016217 0.053971272 -0.09872282
0001e0 7c b2 ea 3d 6e 0e bb 3d e6 08 86 3e 18 1e a8 bb
       0.114598244 0.091336116 0.26178664 -0.0051305406
0001f0 67 95 82 3e 1e 43 40 3e ae 24 48 be ac e6 88 3e
       0.2550461 0.18775603 -0.19545242 0.2673849
000200 5a 50 c4 3d 51 55 17 be c0 50 eb 3d 08 3a 59 3d
       0.09585638 -0.1477864 0.11490011 0.05303386
000210 48 2b e4 3d df b0 92 be 4c 6a 6c be c8 1b ca bd
       0.11141068 -0.28650567 -0.23087424 -0.0986858
000220 6e dc d1 bd 59 f6 9b 3e 12 20 35 3e 4e e4 af bd
       -0.10247122 0.30461386 0.17688015 -0.085884675
000230 cf 28 6e 3c 74 94 f1 bc ce 80 21 3e 45 10 d5 3d
       0.014536097 -0.029489733 0.15771791 0.10403494
000240 78 ee 25 be 22 af 71 be d0 1e b7 bd f7 db 25 3d
       -0.1620425 -0.23601964 -0.08941424 0.040492978
000250 e8 e7 8a 3e 2e 95 0f 3e e0 36 dc bd 00 ec 6c bd
       0.27130055 0.14021751 -0.10752654 -0.057842255
000260 80 18 fe bc 63 83 77 be 32 29 47 be 43 6a 84 3e
       -0.031017542 -0.24171214 -0.19449309 0.2586232
000270 40 08 74 bc b4 ae d3 bd 20 ef 7f bd 10 73 07 3e
       -0.014894545 -0.10336056 -0.062483907 0.13227487
000280 7c 93 28 3e da 4d 66 bd 3c 99 50 be 9f f0 8f 3e
       0.16462511 -0.05622659 -0.20370954 0.28113267
000290 41 c4 d9 3d 65 ca 4f 3e c3 07 8b 3d 9d 72 ab bd
       0.106331356 0.20292051 0.0678859 -0.0837147
0002a0 b0 c0 9f 3d b2 db 77 be 41 a4 9b 3e 1d 43 95 3e
       0.07800424 -0.24204901 0.30398753 0.29152766
0002b0 66 d4 39 3e b0 c2 4d bd f6 8b 3b 3e ef 75 88 3e
       0.1814743 -0.050234497 0.1831511 0.26652476
0002c0 84 88 f5 3d 2b 1c 23 be 10 a3 40 bd d0 89 76 bd
       0.11988929 -0.15928714 -0.04703051 -0.060190022
0002d0 c5 d7 9c 3e 00 27 9b 3d f0 7e a7 3d c8 2d c3 3d
       0.3063337 0.07575798 0.08178508 0.095302165
0002e0 78 62 a5 3d 4b fd 87 be 44 de 89 3d a0 68 20 bd
       0.08075422 -0.26560435 0.06731847 -0.03916228
0002f0 0b 41 56 be f6 e8 53 be 8b 2f 16 be 87 65 88 be
       -0.2092325 -0.20694336 -0.14666574 -0.2663996
000300 58 2c 1f 3d 18 f4 be 3d 80 df c0 3c 74 d3 95 be
       0.03886065 0.09323901 0.023544073 -0.29262888
000310 44 0e 5f be 20 3e 07 3e a1 7d 89 be 96 c3 5c 3e
       -0.21782786 0.13207293 -0.2685366 0.21558985
000320 37 da 41 3e ac 3c 8c 3e 56 f4 9a be 0d 0d fd bd
       0.18930899 0.2739004 -0.3026454 -0.12356005
000330 20 44 8b 3e 94 6b 8e 3e ee f6 6d be 4f 3a 53 3e
       0.27200413 0.2781645 -0.23238727 0.20627712
000340 99 d3 36 3e 11 e7 bb bd 83 15 6f be da b0 81 3d
       0.17854156 -0.09174932 -0.2334805 0.0633256
000350 2d ea 35 be 5e 8a 88 3e 46 89 a9 bc 70 c0 83 3e
       -0.17765112 0.26668066 -0.02069534 0.25732756
000360 94 f8 a5 3d 88 93 20 be 86 57 8a be 7f f6 bf 3c
       0.08104053 -0.15681279 -0.270199 0.023432968
000370 0d e7 2a be 00 32 2b ba a0 f1 e5 bc 00 2a 9f be
       -0.16689701 -0.0006530583 -0.028069317 -0.3108673
000380 5e 49 64 3e 61 0d 29 be 36 3a 60 3e 19 d8 a0 be
       0.22293612 -0.1650901 0.21897206 -0.3141487
000390 b8 dc 05 3d 6c ff df bd 37 87 f0 3b 11 c1 88 3e
       0.032681197 -0.1093739 0.0073403376 0.26709798
0003a0 98 56 08 bc 0d 35 6d be ad ea ca bd a7 5d fa 3c
       -0.008321427 -0.23164769 -0.09908042 0.030562235
0003b0 37 cc 40 be 0b 87 33 be 9a 39 35 3e 2a d5 42 3e
       -0.18827902 -0.17531984 0.17697755 0.19026628
0003c0 a2 40 5d 3e f6 6a b7 bd a3 72 9d 3e b2 1e 67 3e
       0.21606687 -0.08955948 0.30751523 0.22570303
0003d0 0a db d7 bd 08 c0 32 3e d7 32 86 3e fa 32 16 3e
       -0.10539825 0.17456067 0.26210663 0.14667884
0003e0 e3 7a 7a be 3d ce 6e be 35 8e 25 be 14 37 a7 bd
       -0.2446094 -0.23320861 -0.16167529 -0.08164802
0003f0 ca fd 2a 3e 00 74 f6 ba b4 77 08 3e b4 63 63 be
       0.16698375 -0.0018802881 0.13326913 -0.22206002

model.MLP2RNN.0.bias f4 [30]
000000 c8 51 7b 3d 61 ed 3e be a9 41 0b be 06 5b 58 be
       0.06135729 -0.1864524 -0.13599266 -0.21128473
000010 2e 4b 90 be a0 8d dc bc 66 80 75 be 1a c1 89 be
       -0.28182358 -0.026923 -0.23974761 -0.26905137
000020 4a b0 d5 3d cd 64 a0 be 3e 23 ab bd 52 9e 01 3e
       0.10434015 -0.31326905 -0.08356331 0.1265805
000030 cb 32 92 3e 6a 6a 9f be aa 5f a4 3e a4 22 8f be
       0.28554377 -0.31135875 0.32104236 -0.27956116
000040 9a c4 af 3c a8 8f 7d be de ed cc bd 00 00 95 37
       0.021456052 -0.24761832 -0.10006307 1.7762184e-05
000050 a0 f3 47 be 4d 12 54 3c 8c 72 67 be d1 28 99 3e
       -0.1952653 0.012943816 -0.2260229 0.29913953
000060 30 d0 fd bc 30 6b ff bc d2 a1 53 be db bc 02 be
       -0.03098306 -0.03117904 -0.20667198 -0.12767355
000070 75 91 25 3c 4a ac 57 bd
       0.01010548 -0.052654542

model.MLP2RNN.2.weight f4 [30, 30]
000000 01 4b 14 be a2 26 f5 bd 50 a0 9b 3d 38 05 87 3d
       -0.14481737 -0.11970259 0.075989366 0.06592792
000010 69 43 a7 bd cf 5f f4 bd c0 d3 9c 3d 00 94 ec 3b
       -0.08167154 -0.119323365 0.076575756 0.0072197914
000020 60 ac 09 3c 2a 77 f6 bd 97 14 8e bd 20 7a f8 3d
       0.008402914 -0.120344475 -0.06937521 0.121326685
000030 4b f1 15 be a0 77 a5 3b 54 39 1c 3e 28 17 16 3e
       -0.14642827 0.005049661 0.15256244 0.14657271
000040 f0 96 42 3d e2 59 03 3e 10 7e 07 3e f0 ea df bc
       0.047507226 0.12827256 0.13231683 -0.027333707
000050 40 cd b3 3d 1e 1c 25 3e ce f7 39 be 50 f3 b5 3d
       0.08779383 0.16124007 -0.18160936 0.08884299
000060 60 ec d8 3d b2 b8 fa bd 6c 00 43 bd 6c 5b f9 3d
       0.1059196 -0.12242259 -0.047607824 0.121756405
000070 ec 8b df 3d 00 2f 2c bd 0e 4c 00 be 94 27 ef 3d
       0.1091536 -0.04203701 -0.12529013 0.11677471
000080 7e 57 2d be 47 a4 b6 bd 96 87 2b 3e c8 b9 fb bc
       -0.16927907 -0.08918052 0.1675094 -0.030728236
000090 d0 c0 50 3c 28 f8 d1 3d de 1a 05 bd 68 d9 a5 3d
       0.012741283 0.1025241 -0.032496326 0.080981076
0000a0 54 7f f7 3d 66 30 6d bd 26 6f 96 bd 7c de 69 bd
       0.12084833 -0.057907484 -0.07345419 -0.057096943
0000b0 83 7e c4 bd 58 41 32 3d 12 ef 1c 3e 58 16 0c bd
       -0.09594443 0.043519348 0.15325573 -0.034200996
0000c0 d0 12 2b bc ba cd 19 be 05 82 2d be 96 04 6c 3d
       -0.010441497 -0.15019885 -0.1694413 0.05762156
0000d0 98 69 df 3c 31 3a 26 3e c0 6d 79 3b a8 2a 73 3d
       0.02727203 0.16233136 0.00380598 0.059366852
0000e0 2c bc 38 be 38 19 1f 3d b4 24 d8 bd 56 8a 31 3e
       -0.18040532 0.03884241 -0.105538756 0.17337927
0000f0 0e bf b4 3b 1e 76 0f 3e 28 a3 c6 bd 69 10 24 be
       0.0055159396 0.14009902 -0.09699088 -0.16021885
000100 40 23 a6 3d f4 9a 1e 3e b0 dd a9 3c fc 0a 01 be
       0.08112192 0.15488797 0.020735592 -0.12601846
000110 4b 2e 0e be e4 59 ca 3d fc 21 0c be da d0 b1 3d
       -0.13884847 0.098804265 -0.13684839 0.086824134
000120 f9 72 2e 3e c6 5e 26 be 4a db d0 3d 30 fd 62 bd
       0.17036046 -0.1624709 0.10198076 -0.05541724
000130 20 1a f8 3d 4c 1a 28 3e 0e 27 37 3e a0 7e 0e bd
       0.12114358 0.16416281 0.17885992 -0.034788728
000140 4b 89 f7 3b 1e c1 c2 ba 2c a3 25 3e 0f 9f 36 3e
       0.0075542084 -0.0014858579 0.16175526 0.17834114
000150 30 dc 2a 3c 68 c5 c8 3c e0 62 0b bd dc 9d 0d be
       0.010428473 0.024508193 -0.03402984 -0.1382975
000160 1f 6e 06 be 2d db cc bb 40 86 ed bc e6 46 9c bd
       -0.13127945 -0.0062517137 -0.02899468 -0.0763071
000170 a8 0d ff 3d 32 10 f4 bd d4 49 db bd 40 49 bd 3c
       0.124537766 -0.119171515 -0.10707441 0.023106217
000180 e5 11 b8 bd 26 65 0c be 18 94 31 3d 1e 62 af bd
       -0.08987788 -0.1371046 0.043354124 -0.08563636
000190 08 91 c3 3c 82 ff c5 3c 65 91 11 3e 75 c6 b0 bd
       0.023872867 0.024169687 0.1421562 -0.08631603
0001a0 70 99 80 bd 0c c0 41 bd 39 81 d6 bd 04 c6 36 bd
       -0.06279266 -0.04730229 -0.10473866 -0.044622436
0001b0 2c 9b ff 3d 57 e4 c1 bd c0 51 e0 bb e2 0e 4a 3c
       0.124807686 -0.094673805 -0.006845683 0.01233265
0001c0 35 5e b7 bd 29 40 36 bd d4 58 df 3d 28 cc 02 be
       -0.089535154 -0.04449478 0.109056145 -0.12773192
0001d0 ac 6f 21 3e d2 79 15 3e ab 85 34 be ab c2 4f bd
       0.15765256 0.14597252 -0.17629115 -0.05072276
0001e0 84 72 0f 3e 34 aa 38 be da 52 1b 3e 3b d7 1e be
       0.14008528 -0.18033677 0.15168324 -0.15511791
0001f0 64 63 d6 3d 40 89 4b 3d 6f e4 20 be a8 8f b4 3d
       0.10468176 0.04969144 -0.1571214 0.08816463
000200 28 e2 01 3e 7c 1b ec 3d 61 85 3a be 26 49 8e bd
       0.12683928 0.1152868 -0.18214943 -0.06947546
000210 e9 7f 3a bd 44 eb 24 be cb 16 02 be 4e 3a 0d be
       -0.04553214 -0.16105372 -0.12704007 -0.13791773
000220 73 49 fa bc c9 2d ae bd b8 49 de 3d 08 e6 86 bd
       -0.030552601 -0.085048266 0.108539045 -0.06586844
000230 34 0e 18 bd 45 6f 8e bd a8 f5 ee bc 0d f0 ab 3d
       -0.03712292 -0.06954817 -0.029169872 0.083953954
000240 c0 c8 26 3d b8 8d 76 3d 58 f9 c7 bc a0 18 78 bd
       0.040718794 0.060193747 -0.024410889 -0.06057036
000250 07 20 2e be a1 c9 7b bd 9b 5f fe 3d 9c 54 03 3e
       -0.17004405 -0.061471585 0.12420579 0.12825245
000260 b5 e7 33 be a8 9b a4 3d 30 5d 08 bc 38 9e 96 bd
       -0.17568858 0.080375016 -0.008322999 -0.073543966
000270 f0 42 e3 3d 23 4d 39 be bd 73 09 be 9a 66 0d be
       0.11096752 -0.18095832 -0.13423057 -0.1380867
000280 10 d6 17 3e 82 f9 93 3d 8f d6 20 bd 28 c9 19 be
       0.14827752 0.07225324 -0.03926712 -0.15018141
000290 85 3b 05 be 14 87 0e bd 07 0f 2a 3e b6 f7 83 bd
       -0.13010986 -0.03479679 0.16607295 -0.064437315
0002a0 3e 54 33 be 74 a6 18 be b4 8d d5 bd e2 19 0e be
       -0.17512605 -0.14907247 -0.10427418 -0.13877061
0002b0 08 21 b3 3c 03 a8 cb 3d 79 61 f7 bd 90 bc 09 3e
       0.021866336 0.09944155 -0.12079138 0.13450837
0002c0 f8 51 d5 3d 02 be 71 bd a8 06 37 3e ae ed 29 bd
       0.10416025 -0.059019096 0.17873633 -0.041486435
0002d0 c8 e7 fb bd b2 1f 0d be 16 78 81 3d 70 b1 68 bd
       -0.12300068 -0.13781622 0.06321733 -0.056809843
0002e0 b1 ef 81 bd ed ea 02 be 1c fd ba 3d 38 30 69 bd
       -0.06344546 -0.1278493 0.09130308 -0.05693075
0002f0 23 fa ab 3d 36 c3 a0 bd 05 cf ea bd 9a 8a e8 3c
       0.08397319 -0.078497335 -0.11465267 0.028386403
000300 b7 8d e9 3d 00 c0 49 38 50 0b 00 3e 95 5c 24 be
       0.11403983 4.810095e-05 0.12504315 -0.16050942
000310 23 e2 31 3e 40 9f 45 bb 62 82 20 3e 00 5f 4f bc
       0.1737142 -0.0030154735 0.15674737 -0.012656927
000320 7b 42 b2 3d 74 55 1d be 9e c1 37 be 4a 9d 9d 3c
       0.087040864 -0.15364629 -0.17944953 0.01924004
000330 60 2b ca 3d 30 91 95 3d 08 0f fa 3c 1e 1c 20 3e
       0.098715544 0.07303083 0.030524746 0.15635726
000340 56 63 0c 3e b1 90 85 bd 8c 1d 34 bd dc 65 1c 3d
       0.13709769 -0.06521738 -0.04397349 0.03818308
000350 8b 60 03 be 0c 58 62 bd e0 7f 9b bc ec 7f 30 be
       -0.12829797 -0.05525975 -0.018981874 -0.17236298
000360 bc 7e 37 bd d4 df 29 bd a8 52 06 3d 70 2f 21 3c
       -0.044798598 -0.041473225 0.03279367 0.00983797
000370 d0 8c 93 3c e0 d5 4d 3d 46 27 09 3e 40 53 82 3b
       0.01801148 0.050252795 0.13393888 0.0039772093
000380 88 35 13 3e 60 aa 04 3c 44 98 08 3e 18 88 a5 3c
       0.1437589 0.008097261 0.13339335 0.020206496
000390 10 8d 6b 3c de f4 ed bd 26 d6 2f 3e 3a 6d 22 be
       0.014376894 -0.1161897 0.17171535 -0.15861979
0003a0 8a 56 1e 3e 78 c7 f1 bc 18 1e 7d 3d c8 26 ca 3c
       0.154627 -0.02951406 0.061796278 0.024676695
0003b0 10 ba 9b 3d a4 5b 86 bd 54 50 99 3d 68 f4 07 3d
       0.07603848 -0.06560448 0.074860245 0.03319207
0003c0 16 8d 3f 3d dc 9c 11 3e a3 17 8f bd 7f 63 ca bd
       0.04676541 0.14219993 -0.0698693 -0.098822586
0003d0 dc cf 0e 3d be 77 88 3d 3c c9 f1 bd 1e 38 19 be
       0.0348662 0.06663464 -0.118059605 -0.14962813
0003e0 79 54 d2 bd 3e 84 17 3e 80 6f 6b bd 85 1b fb bc
       -0.10270018 0.1479654 -0.05747938 -0.03065277
0003f0 38 1c 6e bd 41 0f b6 bd 47 94 f7 3d c0 d9 7c bb
       -0.05813238 -0.08889628 0.120888285 -0.0038581938

model.MLP2RNN.2.bias f4 [30]
000000 43 b3 b6 bd 9d 2a 8a 3d d9 72 6d bd 37 d1 57 bc
       -0.0892091 0.06746409 -0.057970855 -0.013172439
000010 e1 c5 7b 3d ed b7 f9 3d e5 03 d8 bd e2 df 38 be
       0.06146801 0.12193284 -0.10547618 -0.18054155
000020 a4 09 89 3d 43 88 ff bd 07 1d 0a 3e fd 96 e4 3d
       0.06691292 -0.12477162 0.13487636 0.11161611
000030 c0 a4 d0 3b 2a 4f f6 3d 8a d6 13 be bc 3b ea 3d
       0.006367296 0.12026818 -0.14437309 0.11437175
000040 ef 34 b6 3d bf f3 0a 3e 95 c6 04 be b7 de 27 be
       0.08896815 0.13569544 -0.12966378 -0.16393553
000050 b4 d0 20 bd 00 c2 b1 bd 1b 6f 83 3d a7 74 3d 3e
       -0.039261535 -0.08679581 0.06417676 0.1850153
000060 1a 26 18 be df 81 22 be 38 da 2c be 8b 68 f4 3b
       -0.14858285 -0.15869854 -0.16880119 0.0074587516
000070 c2 43 ec 3d e8 de 8e 3d
       0.11536361 0.0697611

model.MLP2RNN.4.weight f4 [10, 30]
000000 c0 b6 a4 bc e6 8e 14 3e 47 71 0a 3d 0b 51 66 bd
       -0.020106673 0.14507636 0.033799436 -0.056229632
000010 e2 8f 94 3d 5e c3 a9 3c fd 3c 73 bd 00 1b a7 3c
       0.07254006 0.020723041 -0.059384335 0.020398617
000020 a1 aa 70 3c 7c d5 0b 3d 06 e1 00 be 7c b0 f8 bd
       0.014689119 0.03413914 -0.1258584 -0.12143037
000030 38 0f 82 bc 09 1e a2 bd 48 5c 00 3e 28 13 48 bd
       -0.015876397 -0.07915885 0.12535203 -0.048846394
000040 d8 6b 01 3e bd c2 28 3d 74 85 28 3e 1a e5 1c 3e
       0.12638795 0.041201342 0.16457158 0.1532177
000050 bc 35 31 3d e2 95 05 3e 0b 42 d6 3d a3 2e 91 3d
       0.043264136 0.13045457 0.104618154 0.070889734
000060 9c 8b cb bd c4 9e aa 3d b8 ac 9c 3d f9 a3 09 be
       -0.09938738 0.083310634 0.07650131 -0.13441457
000070 9e 47 de bc 80 33 0d bb 54 95 19 be ca 95 2a 3e
       -0.02713376 -0.002154559 -0.1499837 0.16658702
000080 8d 63 24 3d 84 74 20 3e af 3d 15 3e 4b 77 22 bd
       0.040134 0.15669447 0.14574312 -0.039664548
000090 a9 c7 fb 3d d2 9d 2b 3e d4 8a 24 be 80 96 35 3e
       0.122939415 0.16759422 -0.16068584 0.17733192
0000a0 a3 ea 37 b9 ae 31 af 3d 20 98 97 bb 8b ae 0c 3d
       -0.00017539649 0.085543975 -0.004626289 0.034346145
0000b0 52 63 d3 bd 3e fd 08 3e b8 33 56 bd 2c c9 b9 3d
       -0.10321678 0.13377854 -0.052295417 0.090715736
0000c0 84 f5 07 3e 08 17 97 3d a0 90 9e 3d 54 83 26 3e
       0.1327725 0.0737744 0.07742429 0.16261035
0000d0 7e 68 c9 bd 5a ef a7 bd 29 a0 1a be f4 1e b2 3d
       -0.098343834 -0.081999496 -0.15100159 0.0869731
0000e0 c0 4b 96 3d 47 0c e5 bd b9 90 2a 3e ca 32 3a be
       0.07338667 -0.11183982 0.1665677 -0.18183437
0000f0 48 7c 14 3e 26 cc 8f 3c 8b f2 8f bc af 16 d8 3d
       0.14500535 0.0175534 -0.017571708 0.105512016
000100 d6 5b 2f 3e 02 c8 89 3c e8 27 32 3e ee 5b 34 3e
       0.17124876 0.016819004 0.17398036 0.17613193
000110 4d 82 b9 3d 28 96 ae bc 53 cc 96 3d 88 be e6 3d
       0.09058056 -0.021311834 0.073631905 0.1126681
000120 58 06 9a 3d 47 61 20 bd 3c 98 e8 3d f2 8b ff 3d
       0.07520741 -0.03915527 0.113571614 0.12477864
000130 73 18 02 be 7b 0e ee bd 48 cd a6 3c a8 e0 9e bc
       -0.12704639 -0.11623856 0.020361558 -0.019394234
000140 76 8e b3 bd 10 35 ed bd 6b 15 43 bd a1 9c 06 be
       -0.08767407 -0.115823865 -0.047627848 -0.13145687
000150 b8 13 1a be 98 85 77 3d 59 72 0b be fc 0b 25 3e
       -0.15046585 0.06043014 -0.13617839 0.16117853
000160 50 a9 f3 3d 30 57 c2 3c fd 96 9e bd 36 57 7a 3d
       0.11897528 0.023723215 -0.077436425 0.061118327
000170 3c 0d a0 bd 0f 19 1c be 53 15 0b 3e d3 a5 14 3d
       -0.07815024 -0.15243934 0.13582353 0.036290955
000180 b7 0e 81 3d e0 65 0c be b0 d7 eb bd 08 4b f5 bc
       0.06301635 -0.13710737 -0.115157485 -0.029943004
000190 6e fc ad 3d 20 57 cc bc a5 ee d6 bd 3f e9 76 3d
       0.08495413 -0.024943888 -0.104947366 0.060281035
0001a0 6a 35 05 3e 75 7b 35 3a a4 1d 27 bb 4a f6 f0 3d
       0.13008657 0.00069229986 -0.0025499845 0.11765726
0001b0 58 2e fa bc 1c 90 67 3d dc 97 3a be f6 16 03 be
       -0.030539677 0.056533918 -0.18221992 -0.12801728
0001c0 74 6d 13 bb c3 c9 9c bd 1c 14 0d 3e 5e 7d 29 3e
       -0.002249566 -0.076556705 0.13777202 0.1655173
0001d0 f0 b0 2b bd f0 94 81 bc dc d0 30 3e f4 ec 31 bd
       -0.041916788 -0.01581809 0.17267174 -0.043438867
0001e0 a8 f4 23 3d 7d c6 05 be 87 2c 36 3e 65 fd ec 3d
       0.040028244 -0.13063999 0.17790423 0.11571769
0001f0 39 54 c0 3d 1d 5b ff bd c1 4c 34 bc df 9a a7 bd
       0.09391064 -0.1246855 -0.011004628 -0.08183836
000200 9f f7 12 be f0 12 0f bc b9 81 ef bd 02 99 ea bd
       -0.14352272 -0.008732542 -0.116946645 -0.11454965
000210 c2 e3 71 bd 18 c6 03 3e 42 bc 17 3e fa 0b a2 bd
       -0.059055097 0.12868536 0.14817908 -0.079124406
000220 34 3e 24 be 14 f6 f3 3d a0 20 c0 bc 44 2b 23 bd
       -0.16039354 0.1191217 -0.023453057 -0.039836183
000230 40 24 8b 3b 0f 9b 2c be 44 11 03 3e b6 24 af bd
       0.0042462647 -0.16856025 0.12799555 -0.08551924
000240 1a de 13 3e 80 72 ef 3b 34 56 e3 3d 15 c4 97 3d
       0.14440194 0.0073073506 0.11100426 0.074104466
000250 23 0c 9b 3d 76 3c 25 3e 00 27 fe 3d c9 89 a4 bd
       0.07570674 0.16136345 0.124097824 -0.08034093
000260 f0 42 39 3e 6c d0 31 be 65 b8 96 3d 56 b0 23 be
       0.18091941 -0.17364663 0.07359389 -0.15985236
000270 8a 9d b9 bb 14 4e be 3d 50 d8 cc bb be 84 20 3e
       -0.005664532 0.09292236 -0.0062513724 0.15675637
000280 a9 6e 2d 3e 7a b9 03 3e 3b 2e 12 be 67 66 56 bd
       0.16936745 0.12863722 -0.14275448 -0.052343752
000290 88 32 35 3d 1a 3c 02 bd 25 de d1 3d 9c 84 a6 3d
       0.044237643 -0.0317956 0.10247449 0.08130762
0002a0 48 aa f4 3d dc 2d 1c 3e 77 48 ce bd c0 af 84 3b
       0.11946541 0.15251869 -0.10072415 0.0040492713
0002b0 f8 ae ec bd 60 23 d0 bd ac 2c 4a bd 99 c2 f2 bd
       -0.1155681 -0.10162997 -0.04935901 -0.11853523
0002c0 bf eb 2f be 51 61 4b 3c cc bb 37 be cd 2f a6 bd
       -0.17179774 0.012413339 -0.17942733 -0.08114586
0002d0 71 b3 b2 bd 77 a7 38 be 98 57 58 3d b9 14 d0 bd
       -0.08725632 -0.18032633 0.05281791 -0.101602025
0002e0 c0 01 1f 3d 7b f4 de bd 04 63 26 3e b8 59 be 3c
       0.03882003 -0.10886475 0.16248709 0.02323614
0002f0 ad b7 5f bd dc 0d ad 3d c3 3a 30 3c 91 06 7b bd
       -0.054618526 0.08449909 0.010756197 -0.06128556
000300 4b 0a f0 bd 97 57 4b bd 3c 46 e5 bd 5d 41 c7 bb
       -0.11720713 -0.04964408 -0.11195037 -0.00608079
000310 97 30 0d 3d ce 58 52 3d e0 be 2b 3d 06 09 f2 bd
       0.034470167 0.051354222 0.04193008 -0.11818127
000320 40 1d 2d bb 80 fa eb bb f8 a0 be 3d 19 01 2a be
       -0.002641514 -0.007201493 0.09308046 -0.16601981
000330 dc ae 09 bd cf 07 ff bd 2f 4c 34 be bc 87 23 be
       -0.033614025 -0.12452661 -0.17607187 -0.15969747
000340 0c 4b e9 3d 28 f8 3a bd 48 ae 3a bd 23 1d 84 bd
       0.11391267 -0.045646816 -0.045576364 -0.0645087
000350 0f 14 e2 bd 41 b0 53 bd 83 db 3b be 5d dc 58 3d
       -0.11038982 -0.05168176 -0.18345456 0.05294453
000360 d5 bc fd 3d 80 b2 bb 3a b3 b1 21 3e 3e f6 15 3e
       0.123895325 0.0014320165 0.15790443 0.14644715
000370 91 f3 9c bd 08 76 1c 3e f6 f8 04 be 8d ab 11 3e
       -0.07663644 0.152794 -0.12985596 0.14225598
000380 80 c6 2a bd 29 dd d3 b9 38 f2 16 be bb 49 ac 3d
       -0.04169321 -0.00040409833 -0.14740837 0.084125005
000390 38 bc 8e 3d dc 0c 1e 3d c0 f8 b2 bd 98 65 9e 3c
       0.06969494 0.038586482 -0.087388515 0.019335553
0003a0 a8 ce 14 be 85 23 53 3d 63 93 d1 bd 44 5b ab 3d
       -0.14531958 0.051547546 -0.1023319 0.08367017
0003b0 38 7b cc 3c 44 9c 2f 3e 9c 54 1c be 90 eb 9a 3d
       0.024961099 0.17149454 -0.15266651 0.07564461
0003c0 54 ac e6 bd da d0 1d 3e a3 ac 3d be 02 84 f9 bd
       -0.11263338 0.15411702 -0.18522887 -0.121833816
0003d0 bf 47 c2 3c ec dc 9d 3d 5b 87 a0 3d e0 5e f8 bc
       0.023715852 0.07708153 0.07838317 -0.030318677
0003e0 47 f3 2c 3e e4 cf cd 3d 91 b9 93 bb d8 bc 58 bd
       0.16889678 0.100494176 -0.004508205 -0.05291447
0003f0 1d 8a 03 be 3b 15 42 bd 4a 9c a8 bd 0d 7f 90 3d
       -0.12845655 -0.04738353 -0.08232935 0.07055483

model.MLP2RNN.4.bias f4 [10]
000000 cf b5 11 3d cc fe 15 3e fe ef 4f bd c2 d2 a4 bd
       0.035573777 0.14647979 -0.050765984 -0.08048011
000010 d4 50 39 be ae c4 08 be e4 4c 01 3b c2 7e 05 3e
       -0.1809724 -0.13356277 0.0019729668 0.13036636
000020 24 7e 18 be 01 a2 2d 3d
       -0.14891869 0.042390827

model.MLP.0.weight f4 [150, 50]
000000 f8 77 c6 3d 24 3b 5b 3d 46 64 03 be c8 99 28 bd
       0.09690851 0.053523198 -0.1283122 -0.041162282
000010 9c 0d e1 bd 23 c0 86 3d 65 12 54 3d c3 f4 68 bc
       -0.10988924 0.06579616 0.051775355 -0.014218512
000020 59 f0 6c 3d 1f 6d f2 3d ca fe f3 3d e7 1e 5a 3d
       0.0578464 0.118372194 0.119138315 0.053252127
000030 02 d9 86 bd f0 99 a0 bd 28 1f 23 3d 68 89 d1 3d
       -0.0658436 -0.07841861 0.039824635 0.10231286
000040 dc 02 ca bd 83 e3 f9 bd 11 bb 75 3d 48 47 80 bc
       -0.09863827 -0.122015975 0.059992854 -0.01565899
000050 1f a8 d1 bd da 12 d3 bd 63 53 1b 3e 31 4c 93 3a
       -0.10237145 -0.1030633 0.15168528 0.0011237917
000060 7d 58 ae bd b7 69 a2 3d d4 52 75 3d 89 80 2a bd
       -0.085129716 0.0793032 0.059893444 -0.041626487
000070 ce 05 46 bc 2b 10 37 bc 88 2f 15 3e 09 1c b4 bd
       -0.012086345 -0.011173288 0.14568913 -0.0879441
000080 b1 b9 4e bc 41 72 8a bd ec ba d7 3d 06 25 89 3d
       -0.0126175145 -0.067600735 0.105336994 0.06696515
000090 b4 b1 75 3d 94 66 e0 3d 5c e2 8e bd 2e f1 ce 3d
       0.059983924 0.10957065 -0.069767684 0.10104595
0000a0 be 9d fe bd 80 e4 8d 3d 04 f6 54 bd 0d 06 c4 3d
       -0.12432431 0.069283485 -0.05199243 0.095714666
0000b0 85 a5 83 3d a8 28 e3 3d 40 ec 21 b8 33 10 2c 3d
       0.06428055 0.11091739 -3.8605416e-05 0.042007636
0000c0 da 43 12 be 6e 11 af bc 58 2c 60 bd 0f 0a c3 bd
       -0.14283696 -0.021370616 -0.05472979 -0.09523403
0000d0 44 9f 54 3d 9e 26 0a be f7 fe ef bd 50 95 51 bc
       0.0519097 -0.13491294 -0.117185526 -0.0127919465
0000e0 18 e5 7c bd d7 17 89 bd c2 7f 07 bd 80 e9 39 3d
       -0.06174192 -0.06694 -0.033080824 0.0453887
0000f0 50 58 13 bc bc 5f 7f 3d ea 0d 92 3d c6 cd a3 3d
       -0.008993223 0.06234716 0.0713156 0.079982325
000100 5c 74 d3 3d 5e 98 75 bd 0c 5c b2 3d 18 e6 8e 3c
       0.10324928 -0.05995976 0.08708963 0.017443702
000110 5e 65 ef 3d b6 61 6f bd ee 72 ee bd fc 7c b4 3d
       0.11689256 -0.058442794 -0.11643015 0.088129014
000120 13 c6 09 3e a0 d5 61 bc ff 2a fd bd 4c d3 18 bd
       0.13454466 -0.013783842 -0.123617165 -0.037310883
000130 7a c4 f2 3d d0 66 e6 3c af af 0a 3e aa 04 85 bd
       0.11853881 0.028125197 0.1354358 -0.0649503
000140 9e b2 e8 3d db a3 d7 bd d7 d1 06 be 74 28 a8 bd
       0.113621935 -0.105293 -0.13165985 -0.08210841
000150 1a 4a 8f 3d a0 8e cb bc 35 e5 0a 3e 31 c5 9b bd
       0.069965556 -0.024848282 0.13563998 -0.07605971
000160 fc 6f a5 bd 08 91 7a 3d 18 02 03 3d e5 ba 99 bd
       -0.08078 0.06117347 0.03198442 -0.075063504
000170 de af 96 3d b8 59 ae 3c 18 1a 1e 3d 02 56 f4 3d
       0.07357763 0.021283016 0.038599104 0.11930467
000180 b9 61 ce bd 60 c6 b0 3c e0 10 a4 3b 18 5f af 3d
       -0.10077233 0.021578968 0.0050068945 0.085630596
000190 ce 2d 6a 3c 5d 33 b7 bc d7 f8 9e bc 8d 12 72 3b
       0.014293147 -0.02236336 -0.019405765 0.0036937327
0001a0 6d 6b b0 bd c0 44 e0 3d c4 65 5b bd 9c ae a4 bd
       -0.0861424 0.10950613 -0.05356385 -0.080411166
0001b0 92 9a 8c bd 82 87 e7 bc 38 50 8c 3d 67 84 90 3d
       -0.068654194 -0.028262857 0.06851238 0.07056504
0001c0 bd a2 97 3d ef 64 5a bd 9e 5c 81 bd 61 0e 1a bd
       0.07404087 -0.053318914 -0.063164935 -0.03761137
0001d0 90 e5 14 be 64 14 43 bd b2 9f d0 bd 1b af 14 bd
       -0.14540696 -0.047626868 -0.101867095 -0.036299806
0001e0 dd 5b 9f 3c 66 5b df bd 84 df 74 bd b0 6c db bd
       0.019452984 -0.10906105 -0.059783474 -0.1071409
0001f0 eb 10 b5 3d 39 73 a7 bd 34 9e e6 3d 44 01 cc 3d
       0.088411175 -0.08176274 0.112606436 0.09961179
000200 4f 97 dd 3d df 77 af 3a a2 a6 b3 3b 00 ec 24 3d
       0.108198754 0.0013387165 0.0054825107 0.04026413
000210 fe 5e 0a 3e 12 be 89 3d 3a f6 00 3e 4d e3 e8 bd
       0.13512799 0.06725706 0.12593928 -0.11371479
000220 7a 53 99 bc 55 19 01 bd 63 2d 0d be b2 cc 81 3d
       -0.018716563 -0.0315183 -0.13786845 0.06337871
000230 c5 5a 25 3d 45 c1 7b 3d 2b 07 95 bd f8 cd c5 3c
       0.040369768 0.061463613 -0.07276758 0.024146065
000240 9d 44 06 3e e0 a0 fc bd 07 bb 39 3d 74 85 bf 3d
       0.13112111 -0.12335372 0.04534438 0.09351626
000250 1a f1 65 3d 8d 60 d0 bc cc e6 88 bd f2 e2 d1 bc
       0.056138135 -0.025436664 -0.06684646 -0.025620911
000260 2a b7 e5 bd bd 70 f8 bd 48 53 70 bc 3d 4d 9f bd
       -0.112165764 -0.12130878 -0.014668293 -0.07778404
000270 c2 b8 38 bd cc a6 3a bd 18 53 a0 bd d1 c6 ed 3d
       -0.045098074 -0.045569226 -0.07828349 0.11610187
000280 5c 40 94 3d ee 10 76 3d 68 82 40 bd 39 1d 75 bd
       0.07238838 0.06007474 -0.046999365 -0.059842322
000290 2b 48 85 bd 01 9d 41 bc 0f 44 8a 3d 87 ca ef bd
       -0.065079056 -0.011817218 0.067512624 -0.11708551
0002a0 84 dc cb bd 1b 66 7a bd c2 e9 10 bc 6c d8 33 3c
       -0.099541694 -0.06113253 -0.008844795 0.010976892
0002b0 34 f8 89 3c 9d 30 48 bd 5e 55 74 3d 15 98 00 be
       0.016841985 -0.048874486 0.059651725 -0.12558015
0002c0 8d 3f 7d bd dd 52 d2 3d 07 bf 03 3e 4d 82 03 be
       -0.061828185 0.10269711 0.1286584 -0.12842675
0002d0 a7 03 01 3d 2a 5d d3 bd 82 98 d7 3d 8a b0 04 bc
       0.031497624 -0.10320504 0.105271354 -0.008098731
0002e0 d5 d5 9f bd 2c bc 6b bd 6c d7 aa bc b3 ca 62 3c
       -0.07804457 -0.0575525 -0.020854674 0.013842273
0002f0 8f 4d ed bd a4 d2 93 3d 27 f3 a9 3c 6b 96 0a 3d
       -0.11587059 0.07217911 0.020745827 0.033834856
000300 f5 35 12 be ec be 9c bd db b5 c7 3d 0d d6 89 3c
       -0.14278395 -0.07653603 0.09751483 0.0168257
000310 a6 b7 bf 3d 32 ec 33 bd f1 05 a7 3d 8f ef ca bd
       0.093612 -0.043926425 0.0815543 -0.099089734
000320 16 21 51 bd ec 35 bf 3d 9d 50 f1 bc b9 1e f1 3d
       -0.051056944 0.09336457 -0.029457385 0.11773438
000330 35 e5 78 3d bc b1 32 3c d8 e0 0f bc ae 8f fb bd
       0.060765464 0.010906633 -0.008781634 -0.12283264
000340 07 55 af bd 3a b6 4d bd df a6 97 bd ca 6d db 3d
       -0.085611396 -0.050222613 -0.07404875 0.107143
000350 a9 31 07 3d 38 aa ec bc 7a 96 80 3c 5d ef 80 3c
       0.033006344 -0.02888976 0.015696753 0.015739137
000360 68 89 1f bd b8 62 91 bc d2 3e 0f 3e bf be 6b bd
       -0.0389494 -0.017747268 0.13988808 -0.057554957
000370 44 31 d2 3d 5d cd a9 3b b4 b2 ef 3c d5 3a 8d bd
       0.10263303 0.005181952 0.029260017 -0.06895987
000380 14 5d b1 3b 75 05 bb bc 7f 43 ff bd 88 bd e8 3d
       0.005412707 -0.02282975 -0.12464046 0.11364275
000390 ef 42 c2 3c f8 be 99 bc f6 34 ad bd 8f ce a4 3c
       0.023713557 -0.018767819 -0.08457367 0.020118026
0003a0 a3 e3 15 be 18 b9 a4 bd 28 52 79 bc eb f9 0a bd
       -0.14637618 -0.08043116 -0.0152173415 -0.033929747
0003b0 3c 2e 0a be 60 18 bc 3d 61 ec 9e bd 69 81 f3 bd
       -0.134942 0.09184337 -0.077599294 -0.118899174
0003c0 8c 76 d9 bd 75 20 36 bd eb fc da bc 4f 61 ab 3c
       -0.10618314 -0.044464547 -0.026731929 0.020920424
0003d0 7a e2 c4 ba ff a0 e8 bd 0f dd 65 bd e9 04 f0 bd
       -0.0015021109 -0.113588326 -0.05611902 -0.117196865
0003e0 af a1 0d be 03 1c a1 bd 80 f2 49 3c 68 ff c3 3c
       -0.13831209 -0.07866671 0.012325883 0.023925498
0003f0 7e 02 fa bd 1a c7 09 be e4 36 13 3d aa 27 9e 3d
       -0.122075066 -0.13454857 0.03594102 0.07722409
