Covid prediction Graph 300 train days/7avhfaja/checkpoints/epoch=2-step=111.ckpt (torch, 684236 bytes, 24 tensors)

model.A f4 [65, 65]
000000 71 f0 88 3d f3 54 2a 3e 00 4d 09 bf 94 52 5b be
       0.066864856 0.16633968 -0.5363312 -0.2141822
000010 0f f0 c8 3e d6 fc 1a 3e d2 13 95 3e 99 ed 0e be
       0.3924565 0.15135512 0.29116684 -0.13957824
000020 a3 39 31 3e db 38 e4 3e 96 a5 bb 3c ae a3 4b bd
       0.17307143 0.44574627 0.022906106 -0.049716644
000030 17 09 6a 39 ae a2 26 be ea da 92 3e 3f d9 ea 3c
       0.00022319365 -0.16272995 0.28682643 0.028668044
000040 ea 60 73 3e d0 23 86 bc 65 00 68 be 44 f1 02 3c
       0.23767439 -0.016374499 -0.226564 0.0079920925
000050 21 17 8d 3e ee 95 2d 3e 6f 59 fb 3e c7 e6 1e 3f
       0.27556708 0.16951725 0.4909167 0.6207089
000060 f3 5f f4 3e 00 ff 3f be 3f a1 92 3e 31 70 46 3f
       0.47729453 -0.18749619 0.28638646 0.7751494
000070 00 bb 26 be 54 95 5e 3e 68 3b 05 bf d4 7d fd 3d
       -0.16282272 0.21736652 -0.5204377 0.123775154
000080 2d fe 4e be 53 91 95 3e 3e 7e c1 3e 0a 41 dc be
       -0.20214148 0.29212436 0.37791628 -0.4301837
000090 5c 3e 98 3e 2d 7d d4 bd d3 08 76 bd b0 21 00 bf
       0.29735076 -0.10375438 -0.06006701 -0.50051403
0000a0 55 f2 c6 be 01 0a f8 bd ce c2 04 be 39 3c 62 be
       -0.3885676 -0.12111283 -0.12964937 -0.22093286
0000b0 1b 45 0b be 76 77 28 3c 14 e4 de bb 1f b8 9f 3e
       -0.1360058 0.010282388 -0.0068020914 0.3119516
0000c0 4d 39 81 3e 62 3b 5c 3e 9e 19 89 3e ec 9a c0 3e
       0.2523903 0.21507028 0.26777357 0.37618196
0000d0 36 71 52 bd ab 21 63 3d de ab a3 3d 47 40 52 be
       -0.051377498 0.05545203 0.079917654 -0.20532332
0000e0 29 f3 86 3e fd dd cb be 8d 85 7d 3d 23 51 d6 3e
       0.2635739 -0.398178 0.061894942 0.41858777
0000f0 be 70 c1 be ea bd 0e be 05 97 56 3e 4e 2f 90 bc
       -0.37781328 -0.13939634 0.20956047 -0.017600682
000100 bd b7 51 3e a6 61 2d be 33 25 cd 3e 9d 67 ff bd
       0.20480247 -0.16931781 0.40067443 -0.124709345
000110 e9 ec 35 3f c7 41 a1 be 0a c9 90 3d ac 69 89 3d
       0.7106462 -0.31495497 0.07069595 0.067096084
000120 6b 4e 5f bd ae e9 5c bd 89 7f 91 bc a5 86 00 3f
       -0.054518145 -0.05393379 -0.017761009 0.5020545
000130 c6 b4 47 bd 31 4f 5b bc 63 c2 7b 3e 42 8e c1 be
       -0.048756383 -0.01338558 0.24585871 -0.37803847
000140 8f d6 3f be 31 6a f7 bc 40 d3 03 bf 65 4c 16 be
       -0.18734191 -0.030202003 -0.51494217 -0.1467758
000150 44 2a c0 bd 8a c9 9b be 79 fa 42 be ac 17 ea be
       -0.093830615 -0.304272 -0.1904086 -0.45721185
000160 3c 6e 01 be e4 b6 93 bd fb 6f 0e 3f fb 21 4e be
       -0.12639707 -0.07212618 0.5563962 -0.2013015
000170 d1 69 28 3c cd 1c a4 3e 8f 44 87 be 64 c5 41 3f
       0.010279135 0.32053223 -0.26419494 0.7569182
000180 24 00 66 3e c5 a2 c4 be db 62 66 bd fd f5 f9 bc
       0.22460991 -0.38405433 -0.05624662 -0.030512804
000190 79 81 4f be d7 9b cc bd 45 5a 30 be 1e 37 91 3e
       -0.20264234 -0.099906616 -0.17221935 0.28362364
0001a0 f3 67 0e be 0b 14 10 3e e9 56 55 be f1 60 b4 3e
       -0.13906841 0.14070146 -0.20833935 0.3523021
0001b0 f1 43 81 be 85 89 cd 3e 5e d9 e5 3e 20 20 1a 3e
       -0.25247148 0.40143982 0.448924 0.15051317
0001c0 49 a4 83 3e c9 40 b4 be 77 82 8b be 5d 14 42 3e
       0.25711277 -0.35205677 -0.27247974 0.1895308
0001d0 81 25 64 be cd ff a3 3e 5a 9a 0b 3e 39 b8 55 bd
       -0.22279932 0.32031098 0.13633099 -0.05217764
0001e0 89 61 dd bc 0c 8b 2b 3e ae e1 9d 3c 04 a8 c8 3e
       -0.027024047 0.16752261 0.019272652 0.39190686
0001f0 4f 8b a0 be eb 7d 66 3e 26 2f b9 bd fc 5c 2f be
       -0.31356284 0.22508971 -0.09042196 -0.17125314
000200 e2 31 91 3e f9 bc b0 3e 80 7b 1a 3e 6a bd 14 3e
       0.2835837 0.34519175 0.15086174 0.1452538
000210 d7 30 4e 3c aa 87 2a 3e 94 7d 0d 3e 02 66 b4 3e
       0.0125848865 0.16653314 0.13817436 0.35234076
000220 35 49 0e 3f b4 8a 20 bf c9 9e 2c bf 1b da 32 be
       0.55580455 -0.62711644 -0.67429787 -0.17466013
000230 70 d7 88 bd 7f 9e ba be f7 b3 0e 3f ea 18 39 3e
       -0.066817164 -0.36449048 0.55743355 0.1807591
000240 9c de 49 3f 4a 6e 9b 3c 65 2c a6 be 86 d2 dd be
       0.788553 0.018973488 -0.32455745 -0.4332468
000250 1d 20 9d bd 4e 6c de 3e 09 66 1b be 87 89 64 bd
       -0.07672141 0.43442005 -0.15175642 -0.05579522
000260 24 d1 b8 3c ad 9d d5 be 21 f5 48 3e 28 e4 9e 3e
       0.022560664 -0.4172186 0.1962476 0.31033444
000270 f4 f7 53 be 6b b7 a1 be 72 2c 7d 3e f8 0b 99 3c
       -0.20700055 -0.3158525 0.24723986 0.018682465
000280 27 58 2c bf d8 b3 49 be ec 58 ae 3b 01 fc 07 3f
       -0.6732201 -0.19697511 0.005320659 0.531189
000290 e2 43 6f bb 9a 8f 1e 3d 74 59 c3 bc e1 a9 41 be
       -0.0036508967 0.038711168 -0.023846366 -0.1891246
0002a0 97 32 7c 3e 2d e4 c1 3d b5 c4 a8 be e0 7f 98 3e
       0.24628673 0.09467349 -0.32962576 0.2978506
0002b0 c2 07 49 3e 2a 61 d0 be 06 d5 82 3e 57 8a 6b be
       0.19631866 -0.4069913 0.2555315 -0.23001991
0002c0 1d c8 95 3e 1d c4 bc be 52 c3 59 bd fe f8 35 be
       0.29254237 -0.36868373 -0.053164788 -0.17770764
0002d0 a5 03 06 3f 88 49 0b be 5b 22 8d 3e d3 d3 c1 3e
       0.5234931 -0.13602269 0.27565274 0.37856922
0002e0 24 03 96 be 5f 58 29 3d 43 35 33 3e e1 9e c8 3d
       -0.2929927 0.041344043 0.17500786 0.09795929
0002f0 37 50 6c be 92 c3 e2 bd ce a9 4b 3e 13 0f eb bc
       -0.23077475 -0.11072458 0.19888994 -0.028693711
000300 29 4a f9 be 44 d9 bd 3e 4a 02 ae be 45 55 98 3e
       -0.48689392 0.37079823 -0.3398612 0.29752555
000310 47 39 c2 be f7 46 b2 3e b5 92 82 be 56 dc 20 3e
       -0.37934324 0.34819767 -0.25502554 0.15709051
000320 0c 89 98 3a ed 08 c9 3e 74 53 b6 3d 71 43 15 3e
       0.0011637523 0.39264622 0.08902636 0.14576508
000330 3d 46 00 bf 26 50 96 be a5 77 38 3e 21 cc c6 bd
       -0.50107175 -0.29358023 0.18014391 -0.09706903
000340 03 55 b0 3e e0 a5 0e be c2 df 62 3e 00 ae 03 3e
       0.3443986 -0.13930464 0.2215567 0.12859344
000350 6d 11 c4 3e d4 42 03 3f 63 c6 ed bc 18 3d 13 bf
       0.38294545 0.51273847 -0.029025262 -0.57515097
000360 1a 43 01 bf e9 cb ae bd 7d 50 1d be b2 3e 68 be
       -0.50493014 -0.085349865 -0.15362735 -0.22680166
000370 85 c4 0b 3f 3e b6 42 bf 44 61 d6 be 4e 5b 98 be
       0.5459674 -0.7605933 -0.41871083 -0.2975716
000380 03 42 03 bf dd ec 55 bd 4a be da be 9c 34 e9 3c
       -0.512726 -0.052227844 -0.42723304 0.028467469
000390 5e d7 9b be 8f c6 8c bd f9 05 b2 3e dd 58 94 3c
       -0.3043775 -0.068738095 0.34770182 0.01810878
0003a0 0f a6 08 3f 9e 06 a5 be b7 d4 68 3e 7b d0 b0 3e
       0.53378385 -0.3223161 0.22737394 0.34534058
0003b0 24 40 5a 3e a9 fd 54 3e 6c c2 a9 3e a4 61 83 be
       0.2131353 0.20799889 0.33156145 -0.2566043
0003c0 e3 f0 e7 be b8 4f f3 be 5d 79 0c bd 45 ee 45 bf
       -0.4530097 -0.47521758 -0.03429543 -0.77316695
0003d0 57 f6 85 3e fc 58 81 be a4 f5 a6 bd 27 47 18 3d
       0.26164505 -0.25263202 -0.08152321 0.03717723
0003e0 bf a3 74 be df 84 58 3d 27 67 2f 3e 4d b2 88 bd
       -0.23890589 0.05286109 0.17129193 -0.06674633
0003f0 d1 12 40 3b 85 21 ed bd 58 cd bb 3e ce db 26 3e
       0.002930809 -0.11578659 0.36680102 0.16294786

model.B f4 [65, 1]
000000 ee db 1b be 6c 19 21 3d 9a 49 80 3e 7c 33 df 3e
       -0.15220615 0.039330885 0.25056154 0.43593967
000010 62 8e 60 be a6 90 13 3e f4 91 2f be 7e b4 44 3e
       -0.21929315 0.14410648 -0.1714552 0.19209477
000020 48 4e f2 3e c1 d1 80 bd 43 04 78 be 86 35 b2 3e
       0.4732535 -0.062900074 -0.24220376 0.3480646
000030 1d 98 a3 3d a5 d3 cd 3d c4 aa ff be f4 e5 8f be
       0.07987998 0.100501336 -0.4993497 -0.28105128
000040 86 a7 19 be 9d 44 6f 3e aa 7a e5 3e f3 cd 95 be
       -0.15005311 0.23366018 0.44820148 -0.2925869
000050 22 cc 87 be f1 74 c6 be be 8c 21 be d5 d7 65 3e
       -0.26522928 -0.38761094 -0.15776345 0.22445615
000060 8f dc 8c be 1f 4e f0 be ff 2e 8a be 3b c8 6b be
       -0.27512023 -0.46934602 -0.2698898 -0.230256
000070 1d f5 c2 bd 57 89 28 3e 59 52 b3 3e e7 a0 8e 3e
       -0.09519408 0.16458641 0.35023764 0.27857134
000080 a0 d5 da be 5c ce 8c be 1f b9 ab 3e ec e8 b6 3e
       -0.42741108 -0.2750119 0.33539674 0.3572458
000090 ae 1f 23 be 76 27 dc 3e 64 69 09 3d 5d 0a 56 3e
       -0.15930054 0.42998856 0.033547774 0.20902391
0000a0 b2 58 f8 3e dd cc 54 3e 14 b7 bf 3e b9 d7 c9 3e
       0.4850517 0.20781274 0.37444365 0.39422396
0000b0 22 3c 66 3e 6f cf 20 3e 35 a9 41 be 92 22 1c 3e
       0.22483876 0.1570413 -0.18912204 0.15247563
0000c0 7d bf 0d bf e1 1c b0 3e 41 db 92 be 4e d9 22 bd
       -0.5537031 0.34397033 -0.28682902 -0.03975802
0000d0 39 f3 25 be fd 0d b5 be 82 de 07 3e 59 e5 6a 3e
       -0.16206063 -0.35362235 0.13268474 0.22939052
0000e0 9c 5d 85 be 2d 15 01 3e 47 b9 9a be 9b 25 d5 be
       -0.2604798 0.12605734 -0.3021948 -0.41630253
0000f0 d4 1e de bc d9 b1 ed bd 28 ad 46 3e 6c 94 a6 bd
       -0.02711431 -0.116061874 0.19401991 -0.08133778
000100 da 40 2c 3d
       0.042054035

model.D f4 [65]
000000 ec 5c 61 3e c2 bc 0d 3e 0b 73 df 3e 03 7f c3 3e
       0.22008103 0.13841537 0.43642458 0.3818284
000010 fc b5 61 3e b5 f1 94 3e b3 ec a9 3e 1e 4a 8b be
       0.22042078 0.29090658 0.331884 -0.27204984
000020 2e 02 18 be 90 9f 8e 3d df 0d 7d be 4d 70 95 be
       -0.14844581 0.06964028 -0.24712323 -0.2918724
000030 e2 e3 3b 3e ca 1f b8 3e 48 80 e4 bd 0c 9e a0 bd
       0.18348649 0.35961753 -0.1115728 -0.07842645
000040 b0 90 9a 3e 03 df 28 bc 9a ae 70 bd 55 2a 8d 3e
       0.30188513 -0.010307076 -0.058760263 0.2757136
000050 c1 86 90 bd f0 03 69 3c 67 fe 34 3e d9 35 02 bf
       -0.07056952 0.01422213 0.17675172 -0.50863415
000060 18 68 cf 3d e1 2e 9c 3e 5a 2d 07 3d 3a 16 b8 be
       0.10127276 0.30504516 0.033002235 -0.35954458
000070 68 49 bb be 8f 74 27 3e 35 04 3b 3d 67 b0 8c be
       -0.36579442 0.16353057 0.04565831 -0.27478334
000080 45 1c 6f 3e 3c 9d 8a 3d 52 9a 2d be 34 da 10 3f
       0.23350628 0.06768271 -0.169534 0.5658295
000090 9a 7f 9e bc 69 b2 ee be c4 75 87 3e a1 7a 71 3e
       -0.019347955 -0.4662049 0.26457036 0.23581935
0000a0 0b ff c3 bc 65 eb a2 3e 64 87 a3 3e 34 32 cc bd
       -0.023925325 0.31820217 0.31939232 -0.09970513
0000b0 be f4 84 be d4 83 eb bc e7 2e 17 3d 88 d3 dc be
       -0.25967973 -0.028749384 0.036909964 -0.43130136
0000c0 c1 d2 8e 3d f5 57 8a be 43 ab 52 be 88 78 fd be
       0.06973792 -0.2702023 -0.20573144 -0.4950602
0000d0 e5 2b 52 3e a5 c0 2f bc cb 1a e6 bd d1 5e 2a 3e
       0.20524557 -0.010727082 -0.11235579 0.16637732
0000e0 47 83 0d be a7 76 95 3e 32 9d 63 be 67 fb 7f be
       -0.1381961 0.29192087 -0.22227934 -0.24998246
0000f0 52 77 3a 3e d6 82 5f 3e 24 93 01 be 8b 43 a9 3e
       0.1820958 0.21827254 -0.12653786 0.33059344
000100 a6 c1 cc be
       -0.39991492

model.H2X_out_MLP.0.weight f4 [195, 65]
000000 c0 47 5d bd cc 93 10 bf 89 74 c2 3e f2 83 f8 bc
       -0.054023504 -0.5647552 0.37979534 -0.030336354
000010 55 2c c6 be 21 33 95 be 2e c7 e5 be 8d 6f c7 3e
       -0.38705698 -0.2914057 -0.44878525 0.38952294
000020 a9 d3 17 bd 37 ab 8d be d1 d8 be 3e 82 fe 09 3f
       -0.03706709 -0.2766969 0.37274793 0.53903973
000030 01 9a 0a bf 90 6f d6 3e a1 27 9d 3e b7 c8 bc 3e
       -0.5414124 0.4188199 0.30694297 0.36871883
000040 12 23 72 3e 37 71 20 bd 1e 7e ea 3d 33 0c 49 bd
       0.23646191 -0.03917047 0.11449836 -0.0490839
000050 fb 38 f4 be fa 0b 9f bd 1c 2e 13 bf 5b 5b e3 3e
       -0.47699723 -0.07765956 -0.5749223 0.44405636
000060 35 7a a9 bd 9b 51 f3 3d 5c ad 24 be 84 a8 47 be
       -0.08275262 0.118807994 -0.16081756 -0.19497877
000070 d7 21 8c 3d 9c 9b 5c be bd 99 d2 3e 0a bb 01 3f
       0.06842392 -0.21543735 0.41132918 0.50676024
000080 2a c5 05 bc dc c1 a6 be 62 dc c6 be 87 60 be 3e
       -0.008164683 -0.32569778 -0.38840014 0.3718302
000090 73 3d 98 3e c6 b0 e9 3e 6d 80 5a be fa b9 78 3e
       0.29734382 0.4564268 -0.21338053 0.24289694
0000a0 45 85 95 3e 9e aa 83 be 6a 7e f7 3e 82 d3 a6 3e
       0.2920324 -0.25716108 0.48338634 0.32583243
0000b0 f4 ed 17 be 36 ab 7c 3d 8f cf 6b be d3 0c 3f 3e
       -0.14836866 0.061686717 -0.23028396 0.18657236
0000c0 e3 c3 a3 bd 57 78 34 bc a1 f4 e8 be f8 50 8c 3e
       -0.07996347 -0.011015019 -0.45499137 0.27405524
0000d0 a4 15 7f 3e 1e 2f 8d be dd 9c 57 3e 00 0d 7a 3c
       0.24910599 -0.2757501 0.21055932 0.0152618885
0000e0 a4 98 d2 be 6a a0 44 be e6 2f db bc 26 9a 8e 3e
       -0.4113208 -0.19201818 -0.026756238 0.2785198
0000f0 12 74 9b be 04 f4 6d be 18 0f 2b 3e 66 42 f4 be
       -0.30361992 -0.23237616 0.16704977 -0.47706908
000100 a2 89 94 3e f6 3a 19 be ef ab fc be a4 3f cb 3e
       0.29011256 -0.14963898 -0.49349925 0.3969699
000110 63 1c d1 bd 79 84 d7 be be f1 4d be 1a 71 e9 be
       -0.102104925 -0.42093256 -0.20111749 -0.45594102
000120 e9 f3 ce 3e 8d f0 ee 3d 3e fa 6c be c6 f1 75 3e
       0.40420464 0.11666975 -0.23142335 0.2401801
000130 36 ce d4 3e ea 9f dc be 4a 62 c2 3e a4 a2 51 3e
       0.41563576 -0.43090755 0.37965614 0.20472199
000140 12 ef ad 3e cb 4c 00 3f 1a 2b 4a bd e3 3f 1a 3d
       0.3397146 0.50117177 -0.04935751 0.037658583
000150 20 aa ea bd 35 cb 58 be b0 0e 4c be 9d a9 f6 be
       -0.1145823 -0.21171267 -0.19927478 -0.4817628
000160 4b fa b9 3e 46 a8 bf 3c 19 14 67 3c 81 3e 27 be
       0.3632377 0.023395669 0.014103913 -0.16332437
000170 71 52 29 be 49 9f bd bd 4d 4f 13 be ab 19 80 3e
       -0.16535355 -0.09258897 -0.1438572 0.25019583
000180 b6 9e d6 3e f8 0c 85 be 8d 9a 1e be 55 3c fa 3d
       0.41917962 -0.25986457 -0.15488644 0.12218539
000190 c1 1f d9 3e 13 4d 8c 3e ca 7d cf 3e c0 cc 9b be
       0.4240704 0.27402553 0.40525657 -0.3042965
0001a0 1b 3d 2d 3e 30 85 d1 3e 0f 25 ab be 30 31 b5 3e
       0.16917841 0.40921926 -0.3342671 0.3538909
0001b0 45 0a 09 3e e1 a1 73 bd d9 b2 10 3d 72 50 84 bd
       0.13382824 -0.05948055 0.035326812 -0.06460656
0001c0 94 2c b7 3e 0e cd 04 3e a9 3d 19 3e bc cf cc be
       0.35776198 0.12968847 0.14964928 -0.4000224
0001d0 8f f3 55 3e e0 5c e2 3c c2 21 39 38 0f 5e 20 3e
       0.20893691 0.027632177 4.4138877e-05 0.1566088
0001e0 32 ba a4 bd 08 a2 b7 be 8e 0b dd bd c6 d5 90 3e
       -0.080433264 -0.35865808 -0.107932195 0.28288096
0001f0 62 24 06 3f 02 79 fe be 71 de f0 be c2 2f 67 3e
       0.52399266 -0.49701697 -0.4704471 0.22576812
000200 77 44 94 be 2e c0 c8 3e 80 76 0d be 39 30 96 3d
       -0.28958485 0.3920912 -0.13814735 0.073334165
000210 a8 3d 0e be ab 28 f1 bd 48 f9 79 bd a7 98 b4 3e
       -0.13890707 -0.11775335 -0.06102875 0.35272714
000220 15 81 af bd fa bb 2f 3e 3d 72 1b 3e 1d 2d b1 3e
       -0.08569542 0.17161551 0.15180297 0.3460473
000230 e3 92 85 3e 88 64 1c be dc 42 70 be 30 ea bf be
       0.26088628 -0.15272725 -0.23463005 -0.37483358
000240 ac cf 53 bd eb f5 a5 3b 43 19 26 3e 7e 71 a7 3d
       -0.051711723 0.005064716 0.16220574 0.08175944
000250 b1 f0 46 be 4f 3d ad bd 21 a9 a7 3e bb 71 b7 bd
       -0.19427754 -0.08458959 0.32746223 -0.08957239
000260 1a 06 0b be df 4d 36 3e 16 93 72 3e b3 e4 dc 3e
       -0.13576546 0.17803143 0.23688921 0.43143234
000270 79 2f 86 3d aa 63 0e 3d c5 60 3c be 00 45 08 be
       0.065520234 0.034763016 -0.1839629 -0.13307571
000280 32 cd 28 ba 82 24 29 3e af ea de be ac 02 3c 3e
       -0.0006439268 0.16517833 -0.43538424 0.18360394
000290 37 73 2b 3e 55 93 a7 be a3 0a ae 3e 1f ec 89 3e
       0.1674317 -0.32729593 0.3399249 0.2693796
0002a0 da 02 61 be 11 19 87 39 63 5f 8d 3e e5 94 91 be
       -0.21973744 0.00025767882 0.27611837 -0.2843391
0002b0 bd f5 30 3d 0a 73 98 be 9b 4c 03 bf 57 1f 22 3e
       0.043203104 -0.29775268 -0.51288766 0.15832268
0002c0 82 0d 73 3e 8d ea 95 3e 16 50 08 3e 1a c1 9c 3d
       0.23735622 0.2928051 0.133118 0.07654019
0002d0 ea 67 ac 3e 29 a8 05 3f 6f 3c 36 be 0f 77 92 3e
       0.3367303 0.5220972 -0.17796491 0.2860646
0002e0 1a 93 d6 3c 4f 35 25 bd 13 71 ba 3e c1 e2 01 bf
       0.02619319 -0.040334042 0.36414394 -0.50736624
0002f0 94 c7 bf bd 9e 15 69 3e f1 09 57 be 07 a7 36 bd
       -0.093642384 0.22762153 -0.20999886 -0.044592883
000300 af 1d 0e 3e 28 0a 4e 3e 9c 26 76 3e c7 cf 42 bd
       0.13878511 0.20121062 0.24038166 -0.047561433
000310 5f 73 36 3d 8e 0f a3 be 17 fc 29 3c 9e 44 3e bd
       0.04454362 -0.31847805 0.010375044 -0.046452157
000320 d7 92 89 3e ed fe ca bd c6 e1 ee 3c d8 c5 50 3c
       0.26869842 -0.099119045 0.029160392 0.012742482
000330 05 c4 c3 3e ae 6a c6 3e 28 d2 6b be bb 31 c1 bd
       0.3823549 0.38753265 -0.23029387 -0.094333135
000340 78 e1 a8 be ab 34 10 be 98 f6 f7 3d 4e e1 4e 3e
       -0.3298452 -0.14082591 0.12107581 0.20203134
000350 a9 be 2f 3d c7 dd 33 be 0d c0 75 bd 84 43 2f 3e
       0.042906437 -0.1756507 -0.059997607 0.17115599
000360 c8 c5 d6 bd 7e 7f 6d bc db 10 fc 3c 9b 1b 6b 3e
       -0.104869425 -0.014495729 0.030769756 0.2295975
000370 7f 13 00 3f 92 80 44 3e 04 c3 8d 3d 16 43 7e bd
       0.5002975 0.1918967 0.06921962 -0.062075697
000380 7e 16 c4 bd f4 a0 46 be 1e da 30 3e 93 34 d9 be
       -0.095746025 -0.19397336 0.17270705 -0.42422923
000390 e9 2a 7b 3e 5f 85 57 3e 2d c0 33 be 32 83 ad 3e
       0.24528088 0.21046971 -0.17553778 0.33889157
0003a0 3b 6f 86 3e 89 94 76 be 2d 09 eb 3d 70 d5 60 3e
       0.26256737 -0.24080099 0.114763595 0.2195642
0003b0 29 bd f7 be 3d 2e 41 3e ec c4 95 be a2 85 fd be
       -0.48386505 0.18865295 -0.29251802 -0.49516016
0003c0 3b 5d c9 3c 1c 96 66 3e 03 ba 57 3e 6f 17 72 3e
       0.024580589 0.225182 0.21067052 0.23641752
0003d0 de 46 0d 3e e2 34 ab 3e 31 9a ae 3e 04 e1 71 be
       0.13796565 0.33438784 0.34102014 -0.23620993
0003e0 06 77 9b 3e 86 60 e4 bc c8 9a e0 3d 45 c6 dd 3e
       0.30364245 -0.027878057 0.10967022 0.4331533
0003f0 3d c2 e9 be 38 a7 63 bd df f6 e6 3e a7 91 56 be
       -0.45656005 -0.055579394 0.45110223 -0.20954

model.H2X_out_MLP.0.bias f4 [195]
000000 d6 62 91 be 89 5f 89 be 9b 5a 95 be 17 2e 91 be
       -0.28395718 -0.268307 -0.2917069 -0.28355476
000010 fa ef 0e bc 5b 39 44 bc 6e 00 f3 be dc b4 ac be
       -0.008724207 -0.011976565 -0.47461265 -0.33731735
000020 31 ab 66 be 1c 04 08 bf 2e b7 36 bd bd 3a f7 be
       -0.22526242 -0.5313127 -0.044608288 -0.48287
000030 aa 4c 4a be 3e 3f 63 bd 63 dd 66 be 1c a4 ad be
       -0.19755808 -0.055480234 -0.2254539 -0.33914268
000040 14 12 99 be 7b ef be be 82 e7 4d be 56 48 d1 be
       -0.29896605 -0.37292084 -0.20107844 -0.408755
000050 74 51 95 be f8 4b 8d bc 0b 8f e0 be 36 56 97 3d
       -0.29163706 -0.017248139 -0.43859133 0.0738949
000060 e5 28 6c be b3 33 5a be 0c d4 6e be 35 72 f5 be
       -0.23062475 -0.21308784 -0.23323077 -0.47938696
000070 cd f4 29 be 9f 31 47 be 8a c1 7f be 3c 6e 09 be
       -0.1659729 -0.19452523 -0.24976173 -0.13420957
000080 3a e2 ab 3e 19 8e 50 3d 04 80 86 be d0 9d bf be
       0.33571035 0.050916765 -0.26269543 -0.3742509
000090 fe 59 09 be 3c 49 73 be b5 7d c2 be 40 89 b4 be
       -0.13413236 -0.23758405 -0.37986532 -0.35260963
0000a0 57 fd 32 bd 3f 1d dc be 5d 4e 2d be 8c 3d e8 be
       -0.043698635 -0.42991063 -0.16924424 -0.45359457
0000b0 53 e6 c7 be 03 f0 a1 be 6e 45 71 be 7f f6 37 bd
       -0.3904291 -0.31628427 -0.23561642 -0.04491281
0000c0 15 55 a5 be 1d 55 cc be 94 ac 85 bd 53 fc b4 be
       -0.32291475 -0.39908686 -0.06527057 -0.35348758
0000d0 81 3d a9 be a1 36 b6 bd c9 87 3b 3d 9f d2 1c be
       -0.33054736 -0.088971384 0.04578379 -0.1531472
0000e0 d5 c9 ec bd d8 76 8a be c5 a7 b8 be 34 b9 95 be
       -0.11561934 -0.27043796 -0.36065498 -0.2924286
0000f0 85 1c d1 be 3c 69 90 be 53 c3 b8 be fe 40 b7 be
       -0.4084207 -0.28205287 -0.3608652 -0.35791773
000100 e5 51 86 be 4b 79 9e be 0f 43 87 be 2d 7a ab be
       -0.26234356 -0.30951914 -0.2641835 -0.3349165
000110 51 00 5d bd 7a ba 2d be b3 4b 2e be c4 2b e1 be
       -0.05395538 -0.16965666 -0.17021064 -0.43978703
000120 65 a1 69 bd 9d 44 ce be 02 b3 a4 be f7 11 c0 be
       -0.057038683 -0.40286723 -0.32167822 -0.37513706
000130 41 ba d0 ba 9a 99 99 be 79 f4 62 be 7d b4 9b be
       -0.0015924649 -0.3 -0.22163571 -0.3041114
000140 a5 f8 7d be bd 87 9b be d3 3d 25 be b1 d7 d6 be
       -0.24801882 -0.30376998 -0.16136865 -0.41961434
000150 33 50 fe be 45 71 e5 bc ff 62 a0 be 20 3b 51 be
       -0.49670562 -0.028008113 -0.31325528 -0.2043271
000160 42 5f 12 bf 74 ee fe be 4d da c2 be fa c7 1a bd
       -0.571766 -0.497913 -0.38057175 -0.03778837
000170 06 b9 c3 be 2f 73 54 be e0 82 33 3e db 52 c8 be
       -0.382271 -0.20747064 0.17530394 -0.39125714
000180 5c f1 58 3e 9a b5 90 be 2e 24 bc be f1 29 82 be
       0.21185821 -0.2826355 -0.36746353 -0.25422624
000190 8e 06 7e be 84 49 6b be 7e ad d0 be 25 bd f2 be
       -0.24807188 -0.22977263 -0.40757364 -0.4740993
0001a0 97 09 42 3c c1 c9 08 bf 1a 48 02 bf 55 fc b1 be
       0.011843107 -0.5343285 -0.5089127 -0.34762827
0001b0 0b b4 2a be a1 37 d7 be 55 c7 bc be 20 24 b8 be
       -0.16670243 -0.4203463 -0.36870828 -0.3596506
0001c0 b7 02 6e 3e 12 93 67 be 07 19 d4 be b5 8e 9d be
       0.23243223 -0.22614697 -0.41425344 -0.3077294
0001d0 e6 ae f4 be 06 77 23 bf fd 2a 82 be 97 6d 68 be
       -0.47789687 -0.6385349 -0.25423422 -0.22698055
0001e0 91 44 a5 3d 98 c8 a3 be a0 5d e2 be 38 0a 91 be
       0.08069719 -0.31988978 -0.44212055 -0.2832811
0001f0 12 69 d5 be 9e f2 4e be e8 61 cb be 96 8f 3d be
       -0.41681725 -0.20209739 -0.39723134 -0.18511805
000200 57 31 e1 be fa bb c3 be c4 ff b6 3e 27 00 db be
       -0.43982956 -0.38229352 0.3574201 -0.42773554
000210 42 19 a8 be 0e 49 d4 bb 23 89 83 be 9b 5a 78 be
       -0.3283177 -0.0064784354 -0.25690565 -0.24253313
000220 71 d8 8d be 03 dd d7 be 43 cc 80 be 29 06 13 be
       -0.27704194 -0.42160806 -0.2515584 -0.14357819
000230 15 4e ae be 8f 6a 23 be 22 66 96 bd f5 3a e5 be
       -0.34043947 -0.15958618 -0.07343699 -0.44771543
000240 db 5a e3 be 00 5e 60 bd 1f ed 14 bf f1 fe e0 be
       -0.44405255 -0.054777145 -0.5817432 -0.43944505
000250 c7 e2 cd be c4 26 57 be 5f f2 a5 be 3d ee f6 bd
       -0.4021208 -0.21010882 -0.32411477 -0.12057159
000260 b0 fa a4 bd 37 33 8e be 82 88 4b 3e ab a9 07 bf
       -0.08055627 -0.2777345 0.19876292 -0.5299327
000270 6f 6b 03 be aa 19 ce bd fe 56 e8 be 15 c8 5d 3d
       -0.12833951 -0.10063489 -0.4537887 0.05414589
000280 7f 65 da be dd 1d dd bd c8 d9 59 be 81 b1 38 3c
       -0.4265556 -0.107967116 -0.21274483 0.011272789
000290 8f 45 d6 be 8e f3 a1 3e 73 7c db be 32 9e b4 be
       -0.41849944 0.3163113 -0.42868385 -0.35276943
0002a0 e0 d3 de be 01 1a 78 be 5d ec a2 be f0 6b ce be
       -0.43521023 -0.2422867 -0.31820956 -0.40316725
0002b0 23 51 8a be b8 c8 9d bc 44 3b aa bd c4 40 e7 be
       -0.27015027 -0.01926075 -0.08312085 -0.451666
0002c0 c5 39 a2 be e7 49 b7 be 63 96 c2 3e 47 43 bf 3d
       -0.316847 -0.3579857 0.3800536 0.09339004
0002d0 df bc 86 3d 63 94 e8 be 43 a7 18 be de 6a f8 be
       0.06578993 -0.4542571 -0.14907555 -0.48519033
0002e0 1f 97 53 be 94 90 c2 be df 46 9e bd d4 30 d0 be
       -0.20663117 -0.3800093 -0.07728361 -0.40662253
0002f0 aa 5c 01 bf 3e 88 09 3e a1 7e a1 be 3e 1a b2 be
       -0.5053202 0.13430879 -0.31541923 -0.34785646
000300 8c 30 06 bf 8d b6 f8 be 18 82 a7 be
       -0.52417827 -0.48576775 -0.3271644

model.H2X_out_MLP.2.weight f4 [195, 195]
000000 de 93 0b bd a1 c3 df bd 2c ec 1e bd 39 43 0b be
       -0.034076564 -0.10925985 -0.03879945 -0.13599862
000010 0b 93 89 be 0f 8b 58 bd 74 45 95 be c5 a6 88 3d
       -0.26869997 -0.05286699 -0.2915455 0.06672434
000020 ea 9e 55 be 03 79 98 be 5e cd 4a bf 19 f9 82 be
       -0.20861402 -0.29779825 -0.79219615 -0.2558067
000030 8c 75 b5 bd 6b f1 bb be 86 e7 25 bd c2 a0 16 bd
       -0.08860311 -0.36707625 -0.040504 -0.036774404
000040 7c 10 8a be 33 09 a7 bd e5 0f 96 be c8 bc 82 be
       -0.26965702 -0.081560515 -0.29309002 -0.25534654
000050 26 5e 9d be 86 74 78 be 5c a8 ae 3e aa 91 50 be
       -0.30735892 -0.242632 0.34112823 -0.20368066
000060 70 81 9f be 4c e4 93 be 23 22 bd bd 35 cb a6 bd
       -0.3115344 -0.28885114 -0.09235027 -0.081442274
000070 43 b4 9c be ac 5b b5 bd 01 a0 91 be d0 1e b2 be
       -0.3060628 -0.08855376 -0.28442386 -0.34789133
000080 b6 0d b5 ba 24 ae 82 be 77 4b 54 be bf 20 18 3d
       -0.001381329 -0.25523484 -0.20731913 0.037140604
000090 9c d1 dd be 81 df b2 bd e0 cd a5 be a4 89 8d be
       -0.43323982 -0.08734036 -0.32383633 -0.27644074
0000a0 94 a9 92 be 79 40 8e be 57 f4 d1 be d6 a8 e7 3d
       -0.28645003 -0.27783564 -0.4100673 0.113115
0000b0 b7 60 8d be ef 8b c6 3d 54 4c 65 be 54 92 a7 be
       -0.2761285 0.09694659 -0.22392398 -0.32728827
0000c0 35 c5 ac be e3 c1 9a be e2 06 b8 bd ec fd ce be
       -0.33744207 -0.3022605 -0.08985688 -0.40428102
0000d0 c3 f0 d9 3d 07 83 87 be 01 46 3f be 07 3d ce be
       0.10641625 -0.26467153 -0.18679048 -0.40280935
0000e0 48 4a 8a be 71 fa af be 0d ee 2f 3d 71 f1 00 be
       -0.27009797 -0.3437076 0.042951632 -0.12592103
0000f0 f7 56 6d be 3d 05 a4 be e1 4a 42 be b8 af c2 bb
       -0.23177706 -0.32035246 -0.18973877 -0.0059413575
000100 b9 d2 92 3e d7 0f a7 be 34 84 29 3e 96 d2 5b be
       0.28676394 -0.32629272 0.16554338 -0.21467051
000110 42 79 f1 be ef 4e e3 be 19 79 93 be f3 36 b3 be
       -0.47162825 -0.4439616 -0.28803328 -0.3500286
000120 b4 3a 59 be 76 09 1e be 2a 73 70 be 39 62 8b 3e
       -0.212138 -0.15433297 -0.23481432 0.27223375
000130 1d fd ab be 15 0b 43 be 0b 32 41 be 9b 8d 88 be
       -0.33591548 -0.19047196 -0.18866746 -0.26670536
000140 c4 f2 bc bd 5d 91 bb bd 0f ba 08 bd a2 bd f9 3d
       -0.09225991 -0.09158585 -0.033380564 0.12194373
000150 d7 cc 4f be 51 70 ab be a8 dd 84 be f2 f6 b7 be
       -0.20292984 -0.33484128 -0.2595036 -0.35930592
000160 f8 dd 77 3c cc 0f 55 be 0f c7 ad be c9 9e aa be
       0.015128605 -0.20806807 -0.33940932 -0.33324268
000170 c8 73 9b 3d 92 e5 97 3d 80 c1 bd be a6 65 9e be
       0.07590443 0.07416834 -0.3706169 -0.30936927
000180 d5 47 22 3d 95 b6 1d bd af f0 d9 3d 67 fd 5a be
       0.039619286 -0.038504202 0.1064161 -0.21385728
000190 86 a4 5d be 7f a3 94 3e af 2f a1 be c3 06 9e 3d
       -0.21644792 0.29030988 -0.31481692 0.077161334
0001a0 dc 39 51 be 14 62 17 bf cb 0a 9f be 87 f8 9d bd
       -0.20432228 -0.5913403 -0.31062922 -0.077134185
0001b0 cd 38 c9 be 4c 7c 21 be b3 d3 8c bd 57 32 14 3e
       -0.39301148 -0.15770072 -0.06876316 0.14472328
0001c0 4e 6c a4 be 1c a0 a9 be 5f 8a c9 bd 72 ac 56 be
       -0.3211388 -0.33129966 -0.09840845 -0.2096422
0001d0 03 b8 94 be a7 e7 38 be ae fb 99 be a6 77 a4 be
       -0.2904664 -0.18057118 -0.3007483 -0.32122535
0001e0 b7 b8 6a be 64 5a 7a be 55 a1 13 3e af c1 06 be
       -0.22922026 -0.24448544 0.14417012 -0.13159822
0001f0 0e 7c 94 3e 0c 0e 9c be 4b 2a 01 be cc be b7 3e
       0.29000896 -0.30479467 -0.1261379 0.35887754
000200 1b 1c 70 3c 99 57 6c 3e 5f 43 d8 be 52 3e 34 3e
       0.014655138 0.23080291 -0.422389 0.17601898
000210 ad f9 82 3d 68 49 49 be 85 fb 33 bf 95 45 93 be
       0.06395278 -0.19656909 -0.70305663 -0.28764024
000220 61 2f 9b be a0 c9 0b be 26 23 9b be 1c 88 19 bf
       -0.30309585 -0.13651133 -0.30300254 -0.5997331
000230 80 a5 69 be b5 72 60 be a7 42 a1 be cf 30 a6 bd
       -0.2281704 -0.21918757 -0.31496164 -0.08114778
000240 d1 2f 9d be 68 58 c5 be 2d 4e 2a bf 9a c8 1a 3e
       -0.30700544 -0.3854401 -0.66525537 0.15115586
000250 37 a2 29 3e b1 04 80 be 82 91 f7 3d fc b1 87 be
       0.16565786 -0.2500358 0.120883 -0.2650298
000260 49 12 30 be 9e 84 ac bd 91 37 62 bd 4a 3a d0 3b
       -0.17194475 -0.08423732 -0.055228774 0.006354605
000270 41 b9 9f 3d 59 7e 95 bd 4c 32 70 bd 53 94 c5 be
       0.07799006 -0.072994895 -0.058641717 -0.38589725
000280 0d 7b 66 bd 6a af c9 be 63 58 7a bd 82 18 a0 be
       -0.056269694 -0.39391643 -0.06111945 -0.31268698
000290 ca 25 65 3e 4f 4d a4 3d 2f 23 85 be ba 52 1c be
       0.22377697 0.08022558 -0.26003405 -0.15265933
0002a0 91 87 85 3e da b3 77 be 50 93 aa be 15 70 91 be
       0.2607999 -0.24189702 -0.33315516 -0.28405824
0002b0 e9 fe 37 be cd 40 d4 be 61 fd bb be 85 a0 96 3c
       -0.17968334 -0.4145569 -0.3671675 0.018387089
0002c0 00 56 91 be 08 06 b1 be 31 82 da bd f1 9a 6e be
       -0.28385925 -0.34574914 -0.10669363 -0.23301293
0002d0 12 2b 7f be b9 ce f9 bd 94 5a 9b be fb 5a 8a be
       -0.24918774 -0.12197632 -0.30342543 -0.27022538
0002e0 b2 b0 61 be 72 84 5b be 81 86 8e be a4 ae fd bd
       -0.2204006 -0.21437243 -0.27836993 -0.12386826
0002f0 7d 3a 0c be 29 57 98 be cc 9c ae be 40 f5 5f be
       -0.13694187 -0.29753998 -0.34104002 -0.21870899
000300 60 0d a0 be 19 74 80 3c ce 9b b0 be 88 52 4d 3e
       -0.31260204 0.01568036 -0.3449387 0.20051014
000310 27 e0 9e bc fb 63 33 be 35 9c 28 be 39 c3 b8 be
       -0.019393994 -0.17518608 -0.16465838 -0.36086443
000320 52 19 64 3e 01 e2 bd 3e 8b eb d5 bd 22 2b ef bd
       0.22275284 0.3708649 -0.10445317 -0.11678149
000330 cc 0c 15 be 4e 08 8c bd 45 50 8e be 41 aa 55 be
       -0.14555663 -0.068375215 -0.27795616 -0.20865728
000340 70 05 be bd c1 20 22 be 00 c9 c6 bd 35 7b 4b bc
       -0.09278381 -0.15832807 -0.097063065 -0.012419512
000350 a0 26 4d be 2b 98 f8 bb 3e 57 e2 3c 92 2c 6a be
       -0.20034266 -0.007586499 0.027629491 -0.22868565
000360 d8 b3 04 be 4b c5 2a bd 8c e3 08 3d 78 cc 9b 3e
       -0.1295923 -0.04169206 0.03342013 0.30429435
000370 3c e1 1a be 8b 8c 6d be 05 e4 b7 bd c4 8a ae 3d
       -0.15124983 -0.23198144 -0.08979038 0.08522561
000380 91 02 5d 3b e2 78 24 be e2 24 05 3e 88 da 01 be
       0.0033723454 -0.16061738 0.13002351 -0.1268102
000390 e3 c3 b5 3c 1a ca 70 3e 28 ea 9c 3d 55 26 77 bd
       0.022188133 0.23514596 0.07661849 -0.06033929
0003a0 39 11 b4 3d 38 f0 48 be b9 b4 36 bc 3f fd 28 bc
       0.087923475 -0.19622886 -0.011151486 -0.010314285
0003b0 3d 70 6d 3d 51 a8 bd bd 1c ff f8 bd 20 e2 c7 bd
       0.057968367 -0.092606194 -0.12158033 -0.09759927
0003c0 3e e7 29 3e 0b e3 8e 3e b3 5e 02 bd fa a2 a3 bd
       0.16592118 0.27907595 -0.031828593 -0.0799007
0003d0 cc 4c 08 be 4c 0e 7e be 01 29 cd bc c7 a7 ca bd
       -0.13310546 -0.24810141 -0.025043966 -0.09895282
0003e0 8b 42 e5 bb 6d 7b 12 bf 0b 66 8e 3b 9d b6 85 3e
       -0.006996458 -0.5721958 0.0043456606 0.26115885
0003f0 6e 57 f4 bd 09 cd 6f 3d 30 a8 0a be 7b ee 1a bc
       -0.119307384 0.058545146 -0.13540721 -0.009456272

model.H2X_out_MLP.2.bias f4 [195]
000000 b3 2d 86 be 80 56 83 bd 59 78 84 be 65 49 aa be
       -0.2620674 -0.06412983 -0.25873068 -0.3325912
000010 cc 81 af be 06 30 af be 15 0b f7 3d 21 a4 08 be
       -0.34278715 -0.34216326 0.120626606 -0.1334386
000020 7a c9 e3 be 2a b0 91 be a3 76 d0 be f7 b0 cc be
       -0.44489652 -0.28454715 -0.40715513 -0.39978763
000030 16 8e be be 8e ed 02 be 4a f1 1d bc 41 1c 69 be
       -0.37217778 -0.12785932 -0.009640047 -0.22764684
000040 da 25 c3 be 04 d9 05 be c6 4a 91 be fd c8 0d be
       -0.38114816 -0.13071066 -0.2837736 -0.13846202
000050 45 14 36 be c6 36 cf be b8 e9 ea be f6 44 97 be
       -0.1778117 -0.40471476 -0.45881438 -0.295448
000060 7c 14 bd be f3 23 d0 be 40 2e cb be cf 07 87 be
       -0.3692969 -0.40652427 -0.39683723 -0.26373145
000070 2b 73 62 be 47 8c b1 be 77 d5 b7 be 62 00 64 be
       -0.22114246 -0.34677336 -0.35905048 -0.22265771
000080 9a 50 de be 20 62 ad be 57 a5 87 be c9 cf 74 be
       -0.4342087 -0.33863926 -0.26493332 -0.23907389
000090 5e e5 85 be 05 a0 98 3e 57 b6 6c bd 2f 09 a2 be
       -0.26151556 0.29809585 -0.05779108 -0.31647632
0000a0 e9 dc b9 be 53 8b ab be 0b 3e ae bd bc a8 30 be
       -0.36301354 -0.33504733 -0.085079275 -0.17251867
0000b0 d6 0e d3 be cf 82 9d be e6 96 82 be ed 91 9f be
       -0.41222256 -0.30763862 -0.2550575 -0.3116602
0000c0 78 d7 c8 be 23 94 cc be 1f c2 d7 be 54 99 a2 be
       -0.3922689 -0.3995677 -0.4214029 -0.31757605
0000d0 7b 9c 9c be aa 33 d8 be 9d ea ca be 47 f0 f8 3d
       -0.30588135 -0.42226917 -0.3963212 0.12155204
0000e0 1f 10 bc be 89 9c 3b be 79 47 c7 be 7b 02 4e 3d
       -0.3673105 -0.18321432 -0.38921717 0.050295334
0000f0 ab 49 95 be f3 5c 65 be 67 e6 92 be fa c2 06 bf
       -0.29157767 -0.22398739 -0.28691408 -0.5264126
000100 95 ff f5 3d 2c d1 1e be cf 32 34 bd 36 9d f0 be
       0.12011639 -0.1550948 -0.043993767 -0.46994942
000110 d3 8f ba be 92 9b 89 bd 6f 82 87 be ed 08 d9 3d
       -0.36437854 -0.06719126 -0.264667 0.105974056
000120 59 29 ae be 82 7d a3 be e2 20 80 be b6 25 8b be
       -0.3401592 -0.31931692 -0.25025088 -0.2717721
000130 12 84 2c 3e 83 67 ac be 9d 08 12 be 96 b3 b9 be
       0.16847256 -0.33672723 -0.14261098 -0.36269826
000140 b0 95 ac be 02 3b dc be 66 f2 e8 be d0 11 ea be
       -0.33707952 -0.4301377 -0.45497435 -0.45716715
000150 8c 3f 73 be 2f 1f 55 be 32 09 80 be bb cb af be
       -0.2375471 -0.20812677 -0.25007015 -0.34335122
000160 a9 f0 f9 be 52 cc 9d be c2 4e 87 be fe c9 63 be
       -0.48816422 -0.30819947 -0.26427275 -0.22245023
000170 62 14 2e be 1a ae 55 be 5a 6a 12 bd 31 93 6c 3e
       -0.16999963 -0.20867196 -0.035745956 0.23103024
000180 ae 50 74 be 34 12 7f be d9 69 e7 be 99 a4 8f be
       -0.23858902 -0.24909288 -0.45197943 -0.28055266
000190 28 26 4e bd 97 af ba bd c7 8e 9e be 4e dc 40 be
       -0.050329357 -0.09115522 -0.30968305 -0.1883404
0001a0 e3 31 9e bd 8b 63 a7 be e4 eb 00 bf 02 b8 e6 3b
       -0.07724359 -0.32693133 -0.5035994 0.0070409784
0001b0 e4 0b a0 3c dc fb 9c be 1e 92 55 bd ea 55 6e be
       0.01953692 -0.30660903 -0.0521413 -0.23274961
0001c0 96 e7 b9 be 0c f6 59 bd cf 23 8a be 50 66 8c be
       -0.363095 -0.053213164 -0.26980445 -0.27421808
0001d0 1f 8e 9c be 31 c5 0b be ec 00 a9 be 5c f8 47 bd
       -0.3057718 -0.13649441 -0.33008516 -0.04882084
0001e0 10 c6 9b be 67 2b 4d be 79 55 a1 be f5 c9 d0 be
       -0.30424547 -0.20036088 -0.31510523 -0.4077908
0001f0 8e b7 5e be ca c7 84 be 82 ee 4b 3e d9 54 b2 be
       -0.21749708 -0.25933677 0.19915202 -0.3483036
000200 b5 cf bb be 69 03 d4 bc 2a 40 b8 be 24 af 85 be
       -0.36681905 -0.025880532 -0.35986453 -0.26110184
000210 a5 d8 15 bd 26 8c 8f 3e 75 50 ec be b6 b5 c6 3d
       -0.03658356 0.28036612 -0.46155134 0.09702627
000220 30 0c 8c be 5c 8f 32 bd 6d 83 12 bf fb e3 cb be
       -0.27353048 -0.04359375 -0.5723179 -0.39822373
000230 34 cc c6 3d ad 4f 03 3e 3f 0c a7 be 69 9c 50 be
       0.097069174 0.12823363 -0.3262653 -0.20372166
000240 cb 95 f5 3b 0f 11 74 be f1 b3 8c be 73 63 a6 be
       0.0074946634 -0.23834632 -0.27481034 -0.3249775
000250 0c a2 c2 be 53 7c d7 bd f2 58 10 be 46 d1 ac be
       -0.38014257 -0.1052176 -0.1409643 -0.33753413
000260 dd c0 8e be 89 cd 7e be c0 09 da bc 42 31 66 be
       -0.27881518 -0.24883093 -0.026615977 -0.22479728
000270 6c ff a7 be fb 97 dd be b9 20 51 be 48 18 8e be
       -0.3281206 -0.43280014 -0.20422639 -0.277529
000280 45 50 11 be 71 e8 b7 be 8d 90 d3 be e9 f3 3a 3e
       -0.14190777 -0.35919526 -0.4132122 0.18257107
000290 1e 0d b9 be 22 d6 d9 be a6 17 04 bf 94 7a b4 bd
       -0.3614282 -0.42546183 -0.51598585 -0.088124424
0002a0 75 22 e7 be c5 9e 1e be 5b d5 4f be 70 79 96 be
       -0.45143476 -0.15490253 -0.20296232 -0.29389524
0002b0 10 17 b1 be 85 f6 ea bd 1a c6 69 be d1 98 b2 be
       -0.34587908 -0.11472801 -0.22829476 -0.34882215
0002c0 54 c9 52 bd 4b b4 90 be 86 70 19 be 0f 84 6c be
       -0.051461533 -0.28262553 -0.1498433 -0.23097251
0002d0 19 ef c9 be d5 4e ce bd ea 55 76 be 24 b6 45 be
       -0.3944023 -0.1007363 -0.24056211 -0.19307762
0002e0 e2 f6 34 3c cb 58 62 be 89 9f ce be 6f 78 83 be
       0.01104519 -0.22104184 -0.4035609 -0.2567782
0002f0 f4 ef a4 be 57 76 cd be 11 25 d5 bc 7d f7 7d bd
       -0.3221432 -0.4012935 -0.026018651 -0.0620036
000300 eb 76 aa be aa 5f 5e be 93 eb 9b be
       -0.33293852 -0.2171618 -0.30453166

model.H2X_out_MLP.4.weight f4 [1, 195]
000000 40 0d 35 be af 49 7f be 6b 65 1a 3e 6a 4e 4e 3e
       -0.17680836 -0.24930452 0.1507775 0.201471
000010 f8 15 67 be cc 8f 50 3e 4e 43 89 be fd ed d7 bd
       -0.22566974 0.20367354 -0.26809162 -0.105434395
000020 ff 8a 4b be f2 9b e7 bd f1 b0 2f 3e 20 90 73 3e
       -0.19877242 -0.11309041 0.17157342 0.23785448
000030 6d 30 4a 3e 4f e1 0b be 02 ed 43 be c5 39 0d be
       0.19745035 -0.13660167 -0.1913338 -0.13791569
000040 bc 30 ba 3d f6 b2 10 be de 0d 6f 3e 7f e0 0b be
       0.090913266 -0.14130768 0.23345134 -0.13659857
000050 b5 d6 74 be 39 36 46 3e 13 55 46 3e 32 fa e2 3d
       -0.23910029 0.19356622 0.1936839 0.11082877
000060 03 2f c0 3d 65 07 31 3e f7 47 13 3e df 8b 83 be
       0.09383967 0.17287977 0.14382921 -0.2569265
000070 d6 83 59 3e b8 cd 79 be 7c 66 d1 bd 68 72 83 3e
       0.21241698 -0.24394882 -0.102246255 0.25673223
000080 cb 43 05 3e b4 33 79 3e 8f f8 7e 3e 2e ef 43 3e
       0.13014142 0.2433613 0.24899505 0.19134209
000090 c7 73 8c be c4 40 9b be 8b 69 aa bd 21 9f 36 3e
       -0.2743208 -0.3032285 -0.08320912 0.1783414
0000a0 4f 80 5e 3e 9b b2 de 3d 1d ad 51 be 4c cd cb bd
       0.21728633 0.1087391 -0.20476194 -0.09951267
0000b0 cb f1 10 be 9e e4 6e 3e f8 31 7b 3e e5 67 c2 bd
       -0.14154737 0.23329398 0.2453078 -0.094924726
0000c0 d6 46 e6 3d ce 29 04 3e 9c 23 21 3e 89 32 6b be
       0.1124398 0.12906572 0.1573624 -0.22968496
0000d0 b0 10 1b be be f4 24 be 53 eb 5c be 14 76 0c be
       -0.15143085 -0.16108987 -0.21574144 -0.13716918
0000e0 ef ee 8a 3e d9 03 e3 3d 5f 38 67 3e 73 49 17 3e
       0.27135417 0.11084718 0.22580098 0.14774112
0000f0 39 77 05 be 61 fe 1b be 56 22 1d be 55 5e 71 3e
       -0.13033761 -0.15233757 -0.1534513 0.23571141
000100 78 fe 8a be 79 66 1c be ae 56 0b be 10 1e 39 be
       -0.2714727 -0.15273465 -0.13607284 -0.18077874
000110 90 b3 50 3e ff e7 06 bd 5f d0 49 3e 46 90 76 be
       0.20380998 -0.032936092 0.19708394 -0.24078473
000120 4a 41 20 3e fc ed 0e 3e 6c 4c 7f be 59 68 59 be
       0.15649906 0.13957971 -0.24931496 -0.21231212
000130 5b 8c 8f be 82 cf 6e be a0 34 c2 bd 14 85 5e 3e
       -0.2803677 -0.23321345 -0.09482694 0.21730453
000140 d2 94 11 3e c0 1f 21 3e 80 f4 49 3d 9e 88 68 be
       0.14216927 0.15734768 0.04930544 -0.22708365
000150 29 2b 54 3e 67 cf 07 be fc 5d b6 bd 66 e6 6c 3e
       0.2071959 -0.13262711 -0.08904645 0.23134765
000160 2d 55 53 be 02 e5 47 3e b4 08 25 be a1 78 8d be
       -0.2063796 0.19520953 -0.16116601 -0.27631095
000170 1e 77 c8 bd 2f 0c c7 bd 58 49 ee bd 15 80 9f be
       -0.09788345 -0.09719121 -0.11635083 -0.31152406
000180 df 5b 60 3e 71 f9 17 be e7 88 59 3e 74 35 89 3e
       0.21910046 -0.14841248 0.2124363 0.26798594
000190 08 fc 2a bd 3f 15 10 be 34 13 73 be bc ef 04 be
       -0.041744262 -0.14070605 -0.23737794 -0.12982076
0001a0 46 34 59 bc 59 26 15 be 54 e1 ee bc 2e 64 2d be
       -0.013257092 -0.1456541 -0.02916018 -0.16932747
0001b0 a5 c7 0d be 5d 33 83 3e 83 73 0a be c0 6d e2 bd
       -0.1384569 0.25625125 -0.13520627 -0.110560894
0001c0 13 60 4a 3e a6 6e 9c bd 02 2c 50 3e 7d fd e9 bd
       0.19763212 -0.07638292 0.20329288 -0.11425302
0001d0 fd 19 18 be 30 49 10 3c 80 36 e7 3d 35 92 f8 bd
       -0.14853664 0.008806512 0.11289692 -0.12137262
0001e0 eb b6 3b 3e 98 58 c7 bd 51 d7 63 3e f3 83 10 3e
       0.18331496 -0.09733695 0.22250105 0.14112835
0001f0 57 6c 86 3e ff 26 28 be 50 43 8a be 23 57 4b be
       0.26254532 -0.16421126 -0.2700448 -0.19857459
000200 bf 98 7c 3e e0 a9 d6 bd c5 f0 5a 3e b5 be 14 be
       0.24667643 -0.1048162 0.21380909 -0.14525874
000210 c7 64 8a be 07 a0 8e be 28 c0 17 3e 44 b9 3b be
       -0.27030012 -0.27856466 0.14819396 -0.18332392
000220 90 04 79 3e c5 a9 18 be 38 4b 83 bd 7e 21 4c 3e
       0.24318147 -0.14908512 -0.06410831 0.19934651
000230 11 58 0f be 20 f1 80 be 5b 08 58 3e 24 17 38 be
       -0.13998438 -0.25183964 0.21096937 -0.17977577
000240 dc 7a e4 bd ef bf 8e 3e b8 13 33 be 13 77 65 3e
       -0.11156246 0.2788081 -0.17487991 0.22408704
000250 b9 95 09 3e ff fc 32 be 65 04 20 3f 48 3e 4e 3e
       0.13436021 -0.17479323 0.62506706 0.20140946
000260 b8 97 33 be 5e 70 53 be 89 ac 2a be cf 77 8a be
       -0.17538345 -0.20648333 -0.1666738 -0.27044532
000270 04 36 3f 3e 20 a1 73 be 4a 25 0e be a7 4e 44 be
       0.18672949 -0.23791933 -0.13881412 -0.19170628
000280 d3 5f c7 bd e9 55 76 be da 50 46 3e f7 86 7f be
       -0.09735074 -0.2405621 0.1936678 -0.24953829
000290 4e 27 78 be 45 1e 10 3e bd ae 04 bd d4 03 31 be
       -0.24233744 0.14074047 -0.032393206 -0.17286617
0002a0 de cd 4a 3e d9 27 27 be 71 fc e9 bd 52 75 64 3e
       0.19805095 -0.16323794 -0.114251025 0.22310379
0002b0 6a 4f 1f be 41 5d 05 be ed 11 24 be 38 08 0c 3d
       -0.15557638 -0.13023855 -0.16022463 0.034187526
0002c0 9f d2 83 be 49 2b eb bd 14 a9 ac bd 60 6d 40 be
       -0.2574663 -0.11482865 -0.084306866 -0.18791723
0002d0 b9 a7 76 be f6 82 0d be d7 a6 8b be d5 55 1c be
       -0.24087419 -0.13819489 -0.27275726 -0.15267117
0002e0 26 fd 34 be 8c f1 71 3e 43 ed 01 be 56 67 30 3e
       -0.17674693 0.23627299 -0.12688164 0.1722692
0002f0 cf d5 1b be 85 3e 49 3e c1 91 a5 bd 01 7a 33 be
       -0.1521828 0.19652756 -0.08084441 -0.1752701
000300 1e b4 7e be 07 88 d8 bd a2 a0 6a be
       -0.24873397 -0.1057282 -0.22912839

exp_avg f4 [65, 65]
000000 0f 66 ca ba 59 a7 18 3a 10 c6 27 ba a9 fa 2e 3a
       -0.0015441793 0.00058232766 -0.0006400058 0.00066749245
000010 de eb 15 ba 72 03 8f b8 ef bd d5 ba 62 b0 a0 3a
       -0.0005719046 -6.819413e-05 -0.0016307215 0.0012259597
000020 5c c2 50 ba 44 b1 74 b9 29 b3 63 38 7f b5 e5 39
       -0.0007963532 -0.0002333569 5.4287873e-05 0.0004381351
000030 e3 a2 15 b9 66 e3 5a b9 8e eb b6 ba bb 9a 0c bb
       -0.00014270427 -0.00020874813 -0.0013955699 -0.0021454531
000040 1b bc f5 ba c4 68 11 ba 6b 6b 68 b8 46 20 97 3a
       -0.0018748076 -0.00055469223 -5.541315e-05 0.0011530004
000050 ba 6e f1 b9 f9 b1 d4 ba c2 17 a8 ba 06 b7 c7 3a
       -0.000460496 -0.0016227356 -0.0012824463 0.001523704
000060 de 32 6a ba f3 e1 6d ba c2 b3 02 37 80 77 5b b8
       -0.00089339714 -0.00090745016 7.790457e-06 -5.2324962e-05
000070 19 d0 36 3a 93 05 8b ba dc fd 44 3a 3b 5e a1 3a
       0.0006973758 -0.001060652 0.00075146346 0.0012311408
000080 71 1b 05 3a 48 49 8d 39 e7 bc fd b8 7f a1 00 b7
       0.00050776365 0.00026948215 -0.00012099166 -7.666996e-06
000090 5c fe 06 bb 32 1e 8a 3a 6f d9 e4 3a e1 10 e4 b9
       -0.0020598387 0.0010537563 0.001745982 -0.00043500125
0000a0 cf f0 b6 3a c2 9a 4b 38 45 94 90 3a f6 49 05 ba
       0.0013957265 4.85431e-05 0.0011030516 -0.00050845684
0000b0 70 4b f4 3a 71 82 67 3a b5 bd 5f 38 c3 47 37 3a
       0.0018638205 0.0008831388 5.334402e-05 0.00069915893
0000c0 d3 e8 f9 35 7b c4 04 ba 4f b8 cf 39 1f b3 07 bb
       1.8619706e-06 -0.0005064678 0.00039619437 -0.002070613
0000d0 e3 97 eb 39 58 8b e4 b9 9e 8e fc 39 02 04 a7 3a
       0.00044935857 -0.00043591368 0.00048171444 0.0012742283
0000e0 98 e9 4a 39 43 c8 1b 3a ee a6 2c 3a b6 e1 93 ba
       0.00019351242 0.0005942622 0.0006586154 -0.0011282477
0000f0 16 5a a3 39 f0 61 cb ba b8 9e 1c ba c1 5b e5 39
       0.00031156902 -0.0015516859 -0.00059745787 0.00043746646
000100 6f 40 9e 3a 6f 26 ac b9 ab e7 ae ba e4 78 4c 3a
       0.0012073646 -0.00032835032 -0.0013344189 0.00077999965
000110 a9 43 8d ba 9e 6a 97 ba fe 56 4a 3a a9 ce 64 ba
       -0.0010777611 -0.001155216 0.00077186513 -0.00087283045
000120 b4 69 88 3a ce 2a f2 3a 24 fe 78 39 85 f1 65 ba
       0.0010407479 0.0018475892 0.00023745798 -0.0008771646
000130 ad 89 c5 3a 57 c6 56 b9 31 69 a1 38 6e 96 80 ba
       0.0015070938 -0.00020482518 7.696672e-05 -0.0009810457
000140 ba 41 21 3a b5 1a 18 3a 03 ec fc 3a 7f d7 90 3a
       0.00061514566 0.00058023195 0.0019296411 0.0011050551
000150 ad 7d 18 bb a0 ad 20 ba 99 53 43 ba 36 d9 4f ba
       -0.0023268268 -0.0006129388 -0.00074511167 -0.00079287903
000160 bb 90 f5 3a c0 1f 93 ba 1b d3 86 ba 8e 16 0d ba
       0.001873515 -0.0011224672 -0.0010286303 -0.0005382084
000170 e5 41 cf ba 11 2a 08 ba d2 56 7c 3a f0 ed 96 3a
       -0.0015812485 -0.00051942567 0.00096259743 0.0011515003
000180 d8 18 1b 3a 5c d1 99 ba e1 77 d1 ba 0c 1e 84 3a
       0.0005916483 -0.0011735368 -0.0015981161 0.0010079755
000190 db 22 34 3a e6 2e db 3a 60 f8 19 3b d3 67 27 bb
       0.0006871649 0.0016722351 0.002349399 -0.0025544062
0001a0 66 4e d8 3a 48 9a fa 3a 6b dd a9 39 15 4a 02 3a
       0.0016502857 0.0019119466 0.0003239916 0.00049701455
0001b0 bf 5a ce 3a 1c 20 b5 ba fa e0 eb 38 0e 9f 24 bb
       0.0015743597 -0.0013818773 0.000112475784 -0.0025119218
0001c0 ea 24 6e 3a 14 1a 78 ba 2a 14 5f 3b ca ef ed ba
       0.000908448 -0.0009464335 0.0034039118 -0.0018153128
0001d0 a7 28 80 3b d4 cd ff ba 32 28 c4 ba cf 15 8c 3a
       0.003911096 -0.0019516298 -0.0014965592 0.0010687652
0001e0 cf f2 12 3a fa b0 a3 ba ad 4f 90 ba 8e 94 f1 ba
       0.00056056393 -0.0012488656 -0.0011010073 -0.0018431114
0001f0 94 88 ff 3a dd 2f b3 b9 ae 9b 1a 3a 54 50 c5 3a
       0.001949566 -0.000341772 0.0005897832 0.0015053847
000200 ba 10 0a bb 13 13 87 38 cd b0 1d bc 38 52 b5 3c
       -0.0021067099 6.4408545e-05 -0.009624672 0.022133932
000210 11 3a f2 bb 4a f2 25 bb f2 4b cd 3a 0f cf b9 ba
       -0.007392176 -0.0025321417 0.0015662892 -0.0014176088
000220 fa 45 17 bc 10 8c 13 3c 1c 7e 1a bc 8a 41 b4 3b
       -0.009232992 0.0090055615 -0.009429481 0.005500977
000230 16 02 37 bb 97 24 d6 bb 56 3e e9 bb df c9 05 bc
       -0.0027924827 -0.0065351236 -0.0071180267 -0.008165806
000240 9b 81 b8 b8 77 fe 7e bc ad a5 9f bb 0c c5 2d 3a
       -8.7979446e-05 -0.015563599 -0.004872045 0.00066287885
000250 24 1a 4d 3a e1 25 dc 3a 22 9f e0 3b 01 a3 f7 3a
       0.00078240247 0.0016795957 0.0068549076 0.0018893183
000260 3d 1c a8 39 1c 74 ec 3b 7c f8 e5 3b 94 3d 5d bc
       0.00032064496 0.0072159898 0.007018147 -0.013503451
000270 82 bc f8 3b 4e 6a f5 3b 8d 53 92 bb fa da 35 3b
       0.0075908313 0.007489479 -0.0044655264 0.0027748928
000280 af 2e a0 ba 15 eb 8d 3c 4e 92 d1 3b 4c 99 b0 ba
       -0.0012220944 0.01732401 0.0063956147 -0.001347342
000290 9b 8c 84 ba 0c cd fe bb 76 e0 3c bc 5f f7 ba 3c
       -0.0010112704 -0.0077759083 -0.011528125 0.022823034
0002a0 49 72 fa 3a b9 03 20 bc db 91 d3 3b 69 ea 89 ba
       0.0019107546 -0.009766513 0.0064565963 -0.001052213
0002b0 83 86 9d bb 70 76 4a bb 1f 4c c8 bb 02 e9 31 ba
       -0.004807295 -0.0030893348 -0.00611259 -0.0006786735
0002c0 fc af 13 3c d0 18 cd 39 12 09 e7 3b 6a c2 f2 ba
       0.009014126 0.00039119134 0.007050642 -0.0018521075
0002d0 fc ad 09 3c 77 84 0c 3c 87 a5 5c ba eb 15 14 bc
       0.0084032975 0.008576504 -0.00084169995 -0.009038429
0002e0 8a ff d1 37 48 0d 19 3c 2e bb f3 bb da 83 c4 bb
       2.5033736e-05 0.009341545 -0.007438085 -0.0059971632
0002f0 ad ce e9 bb 2f 01 5e bc 88 74 17 bc f5 8a 8c bc
       -0.0071352334 -0.013550087 -0.009244092 -0.017156104
000300 4e 76 b4 bb 67 86 e0 bb f8 03 85 3c c4 5d dd 3a
       -0.005507267 -0.0068519595 0.016237244 0.0016888906
000310 e2 5c 53 ba 20 36 d1 b9 b3 3e 8a ba d8 e0 9c 3a
       -0.0008062852 -0.00039903913 -0.001054725 0.0011968864
000320 1a a6 be ba 0c d8 e2 3a 32 ef 18 bb cd b3 04 bb
       -0.0014545352 0.0017306819 -0.002333593 -0.0020248771
000330 2c 1b 80 ba 49 4e 49 39 ce 35 1e ba 3c 1c 39 3a
       -0.0009773723 0.00019198017 -0.0006035239 0.0007061397
000340 30 9f 94 ba de b2 0c 3b 28 f1 ff 39 f1 c1 43 ba
       -0.0011338945 0.0021468918 0.00048817066 -0.0007467559
000350 28 02 13 ba d4 46 40 ba 9d 3b 9a 39 49 db a2 b7
       -0.0005607926 -0.0007334773 0.00029417584 -1.9414018e-05
000360 09 b2 ea 3a 00 e7 a3 3a e1 9a 1b bb e9 7e a7 b9
       0.0017905842 0.0012504756 -0.0023743438 -0.00031947278
000370 ee fd 06 3a d9 de d9 3a 47 95 31 38 1c 79 83 3a
       0.0005149533 0.00166222 4.2339114e-05 0.00100306
000380 ca 12 0b 3a bf 7e f9 ba 59 b5 cf ba 4a f1 ec 3a
       0.0005305229 -0.0019034966 -0.0015846892 0.0018077281
000390 3c a5 e7 38 cb 0b 0d ba 84 39 68 ba 0c 83 a8 ba
       0.00011045716 -0.00053804804 -0.0008858668 -0.0012856438
0003a0 bf b5 66 bb 94 b0 c1 b9 bf 6c 64 38 15 cf 5d bb
       -0.0035203544 -0.0003694339 5.4460714e-05 -0.0033845354
0003b0 29 97 a1 39 3c 8b e0 ba 4b f6 94 b9 70 6f 41 3a
       0.00030820936 -0.0017131339 -0.00028412262 0.0007378971
0003c0 5b 56 06 ba 8f 11 e0 39 dd a4 91 ba fe 47 f5 39
       -0.00051245623 0.00042737692 -0.0011111755 0.0004678368
0003d0 08 6c 84 bb d2 5d 1e 3b 51 a9 29 b8 76 78 41 b9
       -0.0040411986 0.0024164808 -4.0450428e-05 -0.0001845079
0003e0 04 e8 1b 3a e9 f8 e3 ba 6b 16 2a bb 84 95 5c 3a
       0.0005947354 -0.0017392907 -0.0025953304 0.00084146135
0003f0 bf d5 81 3a be c8 1e 3a 00 c2 3c ba f3 0c 03 ba
       0.000990562 0.00060571346 -0.0007200539 -0.0004999183
