GCNN RNN with input mlp/w24j20nj/checkpoints/epoch=210-step=2110.ckpt (torch, 29953 bytes, 54 tensors)

model.GCNN.graph_convolution.bias f4 [10]
000000 ea 01 f0 3c 72 29 d2 3c fc b6 06 bd 6b ab b2 3c
       0.029297788 0.025654528 -0.03288935 0.021810254
000010 9f c5 03 3d 09 e4 ac bc de 50 b3 3c 70 25 fb 3c
       0.032170888 -0.02110483 0.021889146 0.0306575
000020 85 03 09 3d 51 14 c3 3b
       0.033450622 0.0059533496

model.GCNN.graph_convolution.lin.weight f4 [10, 1]
000000 a3 62 14 3f 16 b2 68 be ee 5c 1b bf 43 a3 64 3e
       0.5796301 -0.22724184 -0.60688674 0.22327904
000010 eb d4 b6 3d 11 f9 3b bf 66 90 f7 3e b1 12 13 3f
       0.0892733 -0.7342692 0.48352355 0.57450396
000020 b3 20 2c 3e 21 a2 13 3f
       0.16809349 0.57669264

model.RNN.weight_ih_l0 f4 [5, 11]
000000 f4 a1 74 be d2 2e d6 3e 3a 71 c9 3e 27 d6 b0 3e
       -0.23889905 0.41832596 0.39344198 0.34538385
000010 a0 ae 7d bd 45 3c 54 3e 3a de a5 bd 7d 2e c9 be
       -0.061934114 0.20726116 -0.08099027 -0.3929328
000020 3f f2 34 3e cc 9b 1f 3e 54 c9 96 3e be de d0 be
       0.17670535 0.15586776 0.29450476 -0.4079494
000030 6a d3 db be 81 50 92 3e 24 43 8c 3e f7 c6 97 be
       -0.42934734 0.28577045 0.27394974 -0.29643986
000040 04 d3 e9 3e 3b 9f 8d 3e 2e 51 95 be 13 66 ca 3e
       0.45668805 0.27660546 -0.29163498 0.39531
000050 ad 8d 71 3e 1c fe c5 3d 3f 79 90 3d 29 a1 20 3e
       0.23589201 0.09667608 0.07054376 0.15686478
000060 fb 3a 20 be 9a 4b c3 3d ca b2 6a be e8 01 af 3e
       -0.156475 0.09535904 -0.22919765 0.34181142
000070 f5 88 45 3e 4b 42 d9 be 7e 99 33 be ad 0d 4a bd
       0.19290526 -0.4243339 -0.17539021 -0.04932945
000080 5d 21 b5 be 31 29 81 3d b9 7f 80 be ac 7e 9f 3e
       -0.35377017 0.06306685 -0.25097445 0.3115133
000090 87 95 b5 3d 55 1e c9 be be 5b ba 3e 1b c8 d3 3e
       0.08866411 -0.39280954 0.3639812 0.41363606
0000a0 76 e5 ed 3e dc 1e fd 3b a7 40 64 be b4 44 1e 3e
       0.46464127 0.007724626 -0.22290288 0.15455896
0000b0 4e c8 b0 3e d5 38 dc be 4f c7 ed be ee 10 65 be
       0.3452782 -0.4301211 -0.46441123 -0.2236974
0000c0 20 25 00 3e 30 d1 c8 3e f3 2f bd be 80 64 e9 be
       0.12514162 0.39222097 -0.36950645 -0.45584488
0000d0 4e 66 cb be 53 42 b6 be 5e 79 46 3e
       -0.3972649 -0.35597476 0.19382235

model.RNN.weight_hh_l0 f4 [5, 5]
000000 c8 4f eb be b9 37 55 be aa 5b 8f 3d 81 ab ad 3e
       -0.45959306 -0.20822038 0.069999054 0.3391991
000010 eb 5c d2 be bd 65 d7 be 9a b3 6e 3e 09 4a ca 3e
       -0.41086516 -0.42069808 0.233107 0.3950961
000020 54 7a 1f be fc c3 b4 be ff 9e 7b 3e 10 b3 9d 3e
       -0.15574008 -0.35305774 0.24572371 0.30800676
000030 e0 cf dd bd de e2 dc be 95 15 6c 3c 08 2f 55 be
       -0.10830665 -0.43141836 0.014409442 -0.20818722
000040 0f 6f 7c 3e 70 d4 30 be 49 98 b6 be 9c 2e 93 3d
       0.2465174 -0.17268538 -0.3566306 0.071866244
000050 c9 0c b1 3e 99 9d 88 3e a4 66 a2 3d 26 f9 7d be
       0.34580067 0.26682737 0.079297334 -0.24802074
000060 9f 20 52 be
       -0.20520256

model.RNN.bias_ih_l0 f4 [5]
000000 dc 44 18 be 36 60 67 3e ea 44 35 be 8e 14 da bb
       -0.14870018 0.22595295 -0.1770207 -0.0066552823
000010 bc 7b 83 3e
       0.2568034

model.RNN.bias_hh_l0 f4 [5]
000000 96 45 71 3e c5 7d dc be a2 13 5c 3e 82 4d 8f be
       0.23561701 -0.43064705 0.21491864 -0.2798882
000010 19 70 f3 3e
       0.4754646

model.MLP2RNN.0.weight f4 [10, 10]
000000 f0 ba 31 3e 10 c9 aa bd 81 dd d2 bd a6 db 8e be
       0.17356467 -0.08339131 -0.10296155 -0.27901953
000010 4a 72 91 3e 45 2b 8b 3d 80 5e 92 3e 6a 86 72 3d
       0.28407508 0.067953624 0.28587723 0.05921022
000020 cf f7 86 3e 2a 37 46 be 82 34 47 3e db ed 7d be
       0.26360938 -0.19356981 0.19453624 -0.24797766
000030 4d 93 4a 3e 97 a5 3b 3e 5c d4 67 3e 59 ff 46 3e
       0.19782753 0.18324886 0.22639602 0.19433345
000040 bb 4a 25 bc fb 18 78 bd 1a 05 b0 3e dd 97 71 be
       -0.010088618 -0.0605707 0.34378892 -0.23593087
000050 b4 68 29 3e 8f 08 8b 3e 96 92 38 3e d2 5e 33 3e
       0.16543847 0.27154967 0.18024668 0.1751664
000060 b8 70 db bd 90 d6 97 3d a0 0f 5c bc f9 0a 9e 3e
       -0.10714859 0.074139714 -0.01343146 0.30867746
000070 70 6f 65 3d 00 a8 3a 3d 44 fd 32 be db ae 90 3e
       0.05601448 0.045570374 -0.17479426 0.28258404
000080 88 c4 bd bd c2 65 40 be 0c 05 a1 be 50 c4 fd bc
       -0.09266001 -0.18788818 -0.31449163 -0.030977398
000090 6a b6 9d be 9f 40 40 be 78 fd 37 3d 54 7e d9 3d
       -0.30803233 -0.18774651 0.04491946 0.10619798
0000a0 bd 24 7c be 11 47 83 3e 5b a4 a1 be 1e a6 54 3e
       -0.2462339 0.25640157 -0.31570706 0.20766494
0000b0 0c c2 42 be 69 f4 30 3d 40 39 82 be 16 06 95 3e
       -0.19019336 0.043201838 -0.25434303 0.29106206
0000c0 28 3f a9 3c 96 c1 98 bd 00 bc 6b 3d 0b ff 97 3e
       0.020659998 -0.074587986 0.057552338 0.2968677
0000d0 fa 78 8a bd 37 58 83 3e 8d 4f 8d be e1 32 47 be
       -0.06761356 0.2565324 -0.27599755 -0.19453003
0000e0 82 02 60 3e 9a f8 53 3e a7 ea 23 be f8 ca 51 3d
       0.21875957 0.20700303 -0.16007482 0.051218957
0000f0 92 8e 73 be 60 db 35 bc 92 58 79 be 1c 72 c2 3d
       -0.23784855 -0.011099666 -0.24350193 0.09494421
000100 2c b4 db bd f8 1e 97 3d 13 20 89 be 00 3b 1a 3d
       -0.107277244 0.07378954 -0.26782283 0.037653923
000110 60 e8 99 3c d4 62 b6 bd 3c ec 68 be c8 72 09 be
       0.018787563 -0.08905569 -0.22746366 -0.13422692
000120 56 52 74 3e cc 7b 28 3e 68 68 ad 3d 42 95 51 be
       0.23859534 0.16453475 0.084671795 -0.20467094
000130 70 98 9a 3d 9c f3 6a be f0 cd af 3c b0 6e ac 3d
       0.075486064 -0.22944492 0.021460503 0.084195495
000140 60 01 0f 3d cc 18 ca 3d ec bd e7 3d 74 6b 2b 3e
       0.03491342 0.09868011 0.113155216 0.16740209
000150 f4 16 66 be 30 f6 a7 3d 0b 3d 9a be de 14 52 3e
       -0.22469693 0.082012534 -0.30124697 0.20515773
000160 e0 c8 a3 3c 76 9b ad bd 21 99 67 3e 84 60 37 3d
       0.019993246 -0.084769174 0.22617008 0.04476978
000170 6d a5 05 be 4c b4 24 3d 3d 97 92 3e 99 e5 93 be
       -0.13051386 0.040211007 0.2863101 -0.28886107
000180 16 4f 47 3e e7 58 91 3e ee cd 77 3e da 93 95 3e
       0.19463763 0.2838814 0.2419965 0.29214364

model.MLP2RNN.0.bias f4 [10]
000000 24 69 1c 3e b2 4c b9 3d 16 53 a1 be 39 d4 4d be
       0.15274483 0.090478316 -0.31508702 -0.20100488
000010 74 5e ac 3e 3c f7 8e be c7 a7 80 be 6e a4 cc bd
       0.33665812 -0.27923 -0.25128004 -0.099923
000020 f3 8c 73 be 3d d8 7a 3e
       -0.23784237 0.24496551

model.MLP2RNN.2.weight f4 [10, 10]
000000 61 39 b4 bd 5c 95 ad 3e ec bd 96 be c0 ca 53 3d
       -0.08800007 0.33903015 -0.29441774 0.05170703
000010 71 73 a9 3e 3b e1 91 3e dc 11 00 3e 52 6a 4c 3e
       0.33095887 0.2849215 0.12506813 0.19962433
000020 fc 63 a0 be 30 d5 8a 3e 2b e4 4c 3d f1 41 46 be
       -0.31326282 0.27115774 0.050022285 -0.19361092
000030 52 d2 67 3e a6 69 50 3e 3d a0 24 be 3a 91 8e bd
       0.22638825 0.20352802 -0.16076751 -0.069612935
000040 58 4c 9a 3d 14 96 3a 3e f8 f0 e5 3d 1a fe 19 3d
       0.07534093 0.18221313 0.11227602 0.037595846
000050 50 50 fc 3c f4 54 b2 3d 04 5f bf bd 60 a4 0b bd
       0.030800015 0.0870761 -0.09344295 -0.034092307
000060 05 3d a1 3e 00 e7 5d bb af 81 94 be 68 6d 86 be
       0.31491867 -0.003385961 -0.2900519 -0.26255345
000070 e0 8b 58 3d 30 07 01 bd 1a a0 02 bd ac 3a ec 3c
       0.05286777 -0.031500995 -0.031890966 0.02883657
000080 96 92 4c be 16 48 3a be 5b f5 0a 3e 8c 6f e7 bd
       -0.19977793 -0.18191561 0.13570158 -0.11300573
000090 02 d1 eb bd f0 f1 2d bd 38 f0 43 3d 2e 2a 4b bd
       -0.115144745 -0.042467058 0.047836512 -0.049600773
0000a0 d9 34 ac 3e 45 3b 48 3e b4 a9 93 be e0 cc 28 3c
       0.3363407 0.1955386 -0.2884041 0.010302752
0000b0 ba d6 b0 3e 08 72 2b be d2 9a 73 be c0 2c c4 3d
       0.34538823 -0.16742718 -0.23789528 0.09578848
0000c0 b0 e9 b3 3c ae 9c 11 3e b1 43 9d be 3a 10 3b 3e
       0.021962017 0.14219925 -0.30715707 0.18267909
0000d0 c0 ed 15 3d 42 1e 6c 3e 54 99 c5 3d f0 39 98 be
       0.03660369 0.23058417 0.09648386 -0.29731703
0000e0 66 2f 18 3e 6b b7 82 3e c3 17 90 3e 30 ce 81 3d
       0.14861831 0.25530562 0.2814313 0.06338155
0000f0 89 96 81 3e b3 4c 87 3e 80 7f ab 3d c0 07 6b bd
       0.25310162 0.26425704 0.08373928 -0.057380438
000100 31 a7 8a 3e 04 88 7b be 76 d8 9e bd 2e 89 8e be
       0.27080682 -0.24563605 -0.077561304 -0.27839035
000110 3c d4 fc bd 37 9c 84 3e 63 31 64 be f2 d3 21 3e
       -0.12345168 0.25900432 -0.22284465 0.15803507
000120 ee 5e 77 3e 8f 6a 46 be 1d 73 1d be fa a7 39 be
       0.24157307 -0.19376586 -0.15375943 -0.18130484
000130 44 ea bc 3d 36 71 9d be fb ef 8a be ac f7 91 3d
       0.0922437 -0.30750436 -0.27136216 0.07127318
000140 af 85 e7 3e 06 90 90 bd c0 f7 94 3c d2 9c 57 3e
       0.4521918 -0.0705872 0.018184543 0.21055916
000150 42 79 df 3e 68 95 0f bd 4d 8b 81 be 8e cc 0d be
       0.436472 -0.035054594 -0.2530159 -0.13847563
000160 9b d3 66 be db 28 eb 3e 10 21 48 3e 55 48 74 3e
       -0.22541659 0.45929608 0.19543862 0.23855717
000170 bc 2f 01 3e bf 76 87 be cd 74 3d bd b0 10 c5 bc
       0.12615865 -0.26457784 -0.046253968 -0.024055809
000180 78 01 64 bd 02 d7 1b be 90 04 61 be fe 14 2e be
       -0.055665463 -0.15218738 -0.21974397 -0.17000195

model.MLP2RNN.2.bias f4 [10]
000000 65 92 fd 3d ba f0 9d 3e be e5 ff bd a1 e0 41 3e
       0.12381438 0.30847722 -0.12494992 0.18933345
000010 7f b7 8c 3e 48 36 88 be 12 a8 75 3e 74 58 49 be
       0.27483746 -0.26603913 0.23989895 -0.19662648
000020 d8 5e d9 bd 55 f5 46 3e
       -0.10613793 0.19429524

model.MLP2RNN.4.weight f4 [10, 10]
000000 ff 33 91 bd 2f 71 1c bd 10 c3 4a bd 8c b7 74 be
       -0.070899956 -0.038193878 -0.049502432 -0.23898143
000010 02 fa dd 3d 18 8b 22 3d a2 1c 82 be d3 14 86 be
       0.10838701 0.03968343 -0.2541247 -0.26187763
000020 90 8c e4 3e 0b 00 7f be 86 59 00 3e 3d c6 38 be
       0.4463849 -0.2490236 0.1253415 -0.18044372
000030 ef 68 9f 3e 55 ef 0a be 80 88 19 be 00 12 34 3e
       0.31134745 -0.1356786 -0.14993477 0.17584991
000040 9a dd 9e be 43 72 9f 3e e6 69 5c 3d 19 68 95 be
       -0.31028444 0.31141862 0.05381193 -0.29180983
000050 09 55 4c 3e fe 00 8b be 03 ec 27 be 19 25 72 3e
       0.19954313 -0.27149194 -0.16398625 0.23646964
000060 89 4c 5e 3e de 4a 70 3e dd be 58 be 20 ba 81 bd
       0.21708883 0.2346606 -0.21166559 -0.06334329
000070 b9 e9 00 3f 93 a1 27 3e 46 13 85 3d 76 ef 4a be
       0.5035663 0.1637023 0.06497817 -0.1981791
000080 41 d8 9f be 18 aa c4 bd 84 e6 4f 3d 34 c5 a0 be
       -0.31219676 -0.09602755 0.050756946 -0.31400454
000090 4c 52 a9 bd 2e 30 47 3e 82 94 40 3d d2 ad 3c 3e
       -0.0826765 0.19451973 0.047016628 0.18425682
0000a0 6a 53 4b 3e f7 53 52 be 0c 6f e4 3d af c2 31 be
       0.19856039 -0.20539843 0.11153993 -0.17359422
0000b0 0a c9 47 be 34 b9 e4 3d 9c 26 2e bd ec e9 ba bd
       -0.19510284 0.11168137 -0.04251729 -0.09126648
0000c0 03 f7 82 3e a2 0c aa 3d d7 72 a4 bd 37 db 97 be
       0.2557908 0.08303191 -0.080297165 -0.29659435
0000d0 6a 3a 51 3e d6 ec 68 3e 65 73 0d be 76 03 73 3e
       0.2043244 0.22746596 -0.13813551 0.23731789
0000e0 f9 20 2e 3c 71 cf 8a 3e b4 ab dc 3e 2c 09 9b be
       0.0106279785 0.2711139 0.4309975 -0.30280435
0000f0 5a 59 05 be b3 59 5b be 1e d3 d0 bd 9c e9 26 3d
       -0.13022366 -0.21420936 -0.101965174 0.04075013
000100 6b a0 a3 be 80 26 39 be bd d8 58 be ae ba e9 bd
       -0.31958327 -0.18081093 -0.21176429 -0.114125594
000110 ea 8d 4d ba ff 45 a8 3d 6c 4c 41 3d 5d 9e a8 bc
       -0.0007841276 0.08216476 0.047192022 -0.020583326
000120 5e de 81 be 3c f2 bc bd a4 57 3a be d0 84 00 bd
       -0.25364965 -0.0922589 -0.18197495 -0.03137666
000130 d1 52 6d be 40 ee c8 3b 70 63 dd bd 72 1b 61 bd
       -0.23176123 0.0061319172 -0.10809982 -0.054957815
000140 ac 1f e2 3d fe 71 3f be 9d 33 9e 3e b9 96 95 be
       0.11041197 -0.18695828 0.30898753 -0.29216555
000150 a9 00 65 3e a2 0a 54 3e 5e 44 a5 bd a0 ef c2 bd
       0.22363533 0.20707181 -0.08069681 -0.09518361
000160 93 c1 f2 3e cf b2 88 3e cc 95 a3 bd 7d e7 62 be
       0.4741331 0.2669892 -0.07987556 -0.22158618
000170 94 29 af 3d b5 04 6e 3e cc 82 86 3e c0 8f 94 bc
       0.08552852 0.23243983 0.26271665 -0.018134952
000180 a2 0a 6f be fa 1c 29 3e 8b 79 36 3d d0 ac 4b 3e
       -0.233439 0.1651496 0.044549506 0.19890141

model.MLP2RNN.4.bias f4 [10]
000000 9a 2b 49 be 9c 11 35 be 6e ba a2 bd cd 26 a8 be
       -0.19645539 -0.17682499 -0.07945715 -0.32842103
000010 ac 37 0e 3e 79 a7 19 3d 67 74 38 3e b8 17 72 be
       0.13888425 0.03751323 0.18013154 -0.2364186
000020 be 7f af bd 03 02 d3 3d
       -0.08569287 0.10303118

model.MLP.0.weight f4 [5, 5]
000000 03 9f 6d be 67 bd 6f 3e 2d ed e0 be b7 c7 30 be
       -0.2320519 0.23412095 -0.4393095 -0.17263685
000010 f9 d1 7e 3e cf 08 c7 3e f5 c5 e2 bd b1 05 16 bd
       0.24884786 0.38873908 -0.110729136 -0.03662652
000020 f6 2f 69 bd 71 cd a6 3e 8c fe 2a 3d fe 03 16 bd
       -0.056930505 0.32578614 0.04174666 -0.0366249
000030 70 61 67 bc 03 a5 5f 3d ba 1b 76 3e 1a 76 c6 be
       -0.014122352 0.054600727 0.24034014 -0.3876198
000040 5a ee 7b 3d b9 14 ba be b9 2c 9e be ed f0 d7 3d
       0.061506607 -0.36343935 -0.30893496 0.10544
000050 35 bc 5b be 11 6e ad be ec 37 ad 3e 71 4a 24 bd
       -0.21458514 -0.33873037 0.33831728 -0.040110055
000060 91 53 b7 3e
       0.35805944

model.MLP.0.bias f4 [5]
000000 64 db 8f be 6d 66 1b bd e6 70 ae 3e 53 92 86 be
       -0.2809707 -0.037939478 0.3407051 -0.26283512
000010 c6 33 ae be
       -0.34023875

model.MLP.2.weight f4 [5, 5]
000000 07 72 91 bd 97 11 7c bc bb 3d ad be e1 16 58 3d
       -0.07101827 -0.015385053 -0.3383616 0.052756194
000010 22 7f eb be 28 d0 8c 3d b4 32 e3 3e 80 40 5e bb
       -0.45995432 0.0687564 0.4437462 -0.0033912957
000020 de 89 e2 3e 80 c0 27 3e 68 13 10 3d aa 20 d1 3e
       0.4424581 0.16382027 0.035174757 0.40845233
000030 1a 31 c8 bd 6d 49 d8 3d 1a 3c 24 bd 20 ff 4b be
       -0.097749904 0.1056088 -0.04009638 -0.19921541
000040 0d 6a 85 3e f9 35 47 3e 03 6d 6a be 2b f5 e7 3d
       0.26057473 0.19454183 -0.22893147 0.11326059
000050 e8 d1 c3 be 95 af 6a be 6c 63 c2 3e 47 c3 7b 3d
       -0.38246083 -0.22918542 0.37966478 0.061465528
000060 24 f0 88 3e
       0.26745713

model.MLP.2.bias f4 [5]
000000 7b f6 71 3e 2e a6 d5 be c9 83 c6 3e f3 e4 04 3a
       0.23629181 -0.41728348 0.3877242 0.00050695165
000010 df ea 9c bd
       -0.076619856

model.MLP.4.weight f4 [11, 5]
000000 2a 00 81 be 2c 6b 82 3e 41 5b 2f be e8 c1 7e 3e
       -0.25195438 0.2547239 -0.17124654 0.24878657
000010 1d 03 a9 3d d8 ab 54 3e 40 e4 89 bd 58 47 ac 3e
       0.08252547 0.20768678 -0.06732988 0.3364818
000020 d0 b4 2e bd 40 8f 7e bd 88 c5 e2 be 4a eb d8 be
       -0.042652905 -0.062148333 -0.4429133 -0.4236701
000030 24 dd 56 3e f0 d2 59 3d 88 0a b3 3e e4 de 83 be
       0.20982796 0.05317968 0.34968972 -0.2575599
000040 3a 4d bd 3e 7c 08 bc 3e 8a dc ce be a3 71 6f be
       0.36972982 0.36725223 -0.40402633 -0.23383193
000050 37 d4 c6 be 3f 58 b2 be dc ca dd bd 6c 87 3b 3e
       -0.38833782 -0.3483295 -0.10829708 0.18313378
000060 9c 68 14 be 36 81 c6 3e 20 94 bb be c0 36 89 3c
       -0.1449303 0.38770455 -0.36636448 0.01674974
000070 74 c6 1e 3e 40 2f 8a be e8 51 f7 bd ac 97 c5 3e
       0.15505391 -0.26989174 -0.12076169 0.3859228
000080 32 43 a2 3e 85 3f 56 be 58 89 96 be e0 b6 cf 3e
       0.3169189 -0.20922668 -0.2940166 0.4056921
000090 32 3b 95 be 79 2c b1 be 94 d9 46 3e 32 3b ce 3e
       -0.29146725 -0.34604242 0.19418937 0.40279537
0000a0 70 d2 5d 3e 8d 93 7b be 6e 12 9a 3e 4e 97 22 be
       0.21662307 -0.24568005 0.30092186 -0.1587803
0000b0 20 a3 95 3e 30 43 3e 3e e8 7f 89 3d cc c4 d1 3e
       0.29226017 0.18580317 0.06713849 0.40970457
0000c0 e0 ca d9 3d 6a ef b4 3e 0a c4 e0 be b4 cb 28 3e
       0.106343985 0.35338908 -0.43899566 0.16483957
0000d0 bc 29 58 be 88 cc 25 3e 35 80 72 be
       -0.2110967 0.16191304 -0.2368172

model.MLP.4.bias f4 [11]
000000 d5 5c 09 3e 80 42 4e 3c c8 54 11 3e 80 f8 22 be
       0.13414319 0.012589097 0.14192498 -0.15915108
000010 40 e0 5b bd 18 83 b6 bd 50 76 7f 3e 00 89 7b 3e
       -0.05368066 -0.08911723 0.24947476 0.2456398
000020 a2 bb c6 be 9f 53 89 be f0 cf a2 3e
       -0.38815027 -0.2682161 0.3179927

exp_avg f4 [10]
000000 d8 f4 4b 33 17 fd 92 b6 f9 2e f3 36 de 34 b0 b5
       4.7487305e-08 -4.3806026e-06 7.2474327e-06 -1.3128408e-06
000010 9d 3b 0a b6 c9 33 5e 36 09 79 2c b5 1d b3 0a b7
       -2.0598302e-06 3.311072e-06 -6.425112e-07 -8.267144e-06
000020 1c a2 85 b6 de 49 1b b6
       -3.982581e-06 -2.3139796e-06

exp_avg_sq f4 [10]
000000 5d 6f e2 30 a9 7a d4 30 14 15 b0 31 c9 50 0d 30
       1.6475316e-09 1.5459892e-09 5.1246705e-09 5.1410304e-10
000010 45 2f cd 31 5b 90 9e 30 0f f7 97 30 11 eb 4d 32
       5.971659e-09 1.1537041e-09 1.1056914e-09 1.1986018e-08
000020 7d 71 51 32 ec 55 91 30
       1.2191205e-08 1.0574559e-09

exp_avg f4 [10, 1]
000000 2a 27 b5 b2 37 2e 05 b5 61 e3 65 35 f7 8c 21 b4
       -2.1088983e-08 -4.961361e-07 8.564003e-07 -1.5045576e-07
000010 74 33 98 b4 6b 16 c7 34 c2 03 cd b3 5a 25 84 b5
       -2.8349643e-07 3.708295e-07 -9.54674e-08 -9.845637e-07
000020 21 32 0c b5 64 00 80 b4
       -5.222701e-07 -2.3842142e-07

exp_avg_sq f4 [10, 1]
000000 2f a5 c1 2d 0c ee b8 2d 20 cb 98 2e 60 7f f3 2c
       2.2014916e-11 2.1024092e-11 6.948242e-11 6.920617e-12
000010 95 33 b0 2e e0 fc 89 2d ad 21 81 2d d1 7f 32 2f
       8.012716e-11 1.5687396e-11 1.4680557e-11 1.6234415e-10
000020 63 74 34 2f 54 2b 7b 2d
       1.6412254e-10 1.4277319e-11

exp_avg f4 [5, 11]
000000 76 fa 09 b6 1a f3 6c 36 c9 33 e0 36 2a e4 1b b6
       -2.0560378e-06 3.5308244e-06 6.681749e-06 -2.3229609e-06
000010 8d e5 a1 36 73 95 a5 b5 40 2b 25 33 cb 0b 2a 36
       4.824897e-06 -1.2336953e-06 3.8456392e-08 2.5338838e-06
000020 70 65 ec 36 76 08 dc b5 b5 21 f9 b5 ff 78 92 b6
       7.045157e-06 -1.639374e-06 -1.8561756e-06 -4.365225e-06
000030 34 7a 22 37 41 6b 96 37 66 89 ca b6 4e 2f 59 37
       9.684405e-06 1.7931337e-05 -6.0360644e-06 1.2945222e-05
000040 d8 c3 57 b6 e4 89 99 34 8d 71 df 36 7a c2 9d 37
       -3.2151493e-06 2.85988e-07 6.659137e-06 1.8806419e-05
000050 cc 38 8c b6 94 3f a9 b6 a4 fb 58 33 a7 5d d6 33
       -4.178937e-06 -5.043994e-06 5.0520285e-08 9.982187e-08
000060 05 b5 77 34 02 12 dd b3 c4 e8 34 34 c1 5f 64 b3
       2.3069522e-07 -1.029439e-07 1.6848486e-07 -5.3172474e-08
000070 bb 00 a1 b2 cc 83 da 33 3e 54 88 34 74 82 ad b3
       -1.8743199e-08 1.017539e-07 2.5393268e-07 -8.0796696e-08
000080 bc 18 7c b3 f1 f2 05 36 1a df 71 b6 b9 62 e4 b6
       -5.8695818e-08 1.9959955e-06 -3.604166e-06 -6.8064223e-06
000090 5f 5b 1e 36 94 ed a4 b6 81 3d a8 35 c7 66 43 b3
       2.359702e-06 -4.9152386e-06 1.2534875e-06 -4.549545e-08
0000a0 ca df 2c b6 c2 b0 f0 b6 91 1e df 35 b5 1e fe 35
       -2.576026e-06 -7.1731347e-06 1.6623691e-06 1.8933412e-06
0000b0 db 53 76 36 41 ab 10 b7 48 77 85 b7 f6 c4 b2 36
       3.6705667e-06 -8.622942e-06 -1.591038e-05 5.3277427e-06
0000c0 9b b4 40 b7 07 87 3e 36 d6 43 96 b4 2f 93 c5 b6
       -1.1486142e-05 2.8390803e-06 -2.7989034e-07 -5.888192e-06
0000d0 b2 db 8b b7 09 b8 76 36 3c 7c 96 36
       -1.6672395e-05 3.676398e-06 4.484811e-06

exp_avg_sq f4 [5, 11]
000000 31 32 8d 31 33 f8 73 33 dc bd 73 33 6a b2 8f 30
       4.109346e-09 5.6803582e-08 5.6750523e-08 1.0455328e-09
000010 27 71 0d 33 98 03 35 2f a3 43 a6 31 ad d6 9e 30
       3.2932032e-08 1.6463131e-10 4.8389253e-09 1.1557028e-09
000020 e5 92 5a 33 b6 7e 7c 30 bd a0 1c 32 2f 45 88 31
       5.089068e-08 9.1857133e-10 9.116943e-09 3.965986e-09
000030 b9 6a 63 33 fc a6 82 33 a9 1e 71 30 a1 25 11 33
       5.294962e-08 6.083971e-08 8.771886e-10 3.3794667e-08
000040 22 3f d3 2e 49 a5 a8 31 b9 e7 20 31 70 ca 69 33
       9.606384e-11 4.9082343e-09 2.3414783e-09 5.4433656e-08
000050 a4 9e a6 30 81 29 00 32 7b f7 97 33 5f 08 82 35
       1.2123178e-09 7.4600175e-09 7.076502e-08 9.688191e-07
000060 7d 08 86 35 15 cc 96 32 ef cd 19 35 2b 7d 30 31
       9.986248e-07 1.7555104e-08 5.7296614e-07 2.568252e-09
000070 34 ec b5 33 a9 22 d6 32 a3 f9 6f 35 6a fa 93 32
       8.4714344e-08 2.492864e-08 8.939771e-07 1.7226927e-08
000080 8f 83 22 34 27 4e b1 30 71 bb 99 32 d5 57 96 32
       1.5135286e-07 1.2900657e-09 1.7896783e-08 1.750224e-08
000090 e5 8b bf 2f 87 61 2d 32 89 80 87 2e d0 b3 d4 30
       3.48421e-10 1.00921005e-08 6.161922e-11 1.5476136e-09
0000a0 bf 90 b8 2f 34 95 86 32 6a c5 90 2f 75 71 4b 31
       3.3572253e-10 1.5667503e-08 2.6333719e-10 2.960488e-09
0000b0 77 8d 00 32 e1 62 d8 33 a5 e8 ee 33 50 13 ed 30
       7.482746e-09 1.007627e-07 1.11250564e-07 1.7249508e-09
0000c0 71 60 86 33 2b 9e 60 2f c9 2d 1d 32 c9 98 80 31
       6.257404e-08 2.0428874e-10 9.149013e-09 3.74266e-09
0000d0 27 ad d5 33 f0 ab 12 31 5f 00 7d 32
       9.950082e-08 2.1343531e-09 1.4726623e-08

exp_avg f4 [5, 5]
000000 a0 3c 85 35 63 99 e0 36 7c 07 17 b7 cd 1f 2e 37
       9.926916e-07 6.693577e-06 -9.002044e-06 1.0378612e-05
000010 7c d1 07 b8 aa ab 0b 36 ac 60 f3 36 af 6f e4 b6
       -3.2381606e-05 2.0812536e-06 7.2532184e-06 -6.807931e-06
000020 75 2f 17 37 24 fb f6 b7 34 bc 3c 36 dd fe 0a b6
       9.011351e-06 -2.9442432e-05 2.8123732e-06 -2.0711952e-06
000030 2b 35 67 36 9e 8d c6 b6 2d 69 8d 37 b4 8b a4 36
       3.445263e-06 -5.9173462e-06 1.6857486e-05 4.9038445e-06
000040 af 58 28 36 f3 b3 9f 35 b2 fe 01 b6 18 b3 2e 36
       2.5085571e-06 1.1898795e-06 -1.937075e-06 2.6032267e-06
000050 e0 e0 d6 37 20 7a d9 37 dd 82 a6 b7 c8 e2 88 37
       2.5615504e-05 2.5925285e-05 -1.984968e-05 1.6318067e-05
000060 27 8f 88 b8
       -6.5116496e-05

exp_avg_sq f4 [5, 5]
000000 42 fe 4e 33 07 f8 48 33 c3 71 5c 31 af 2d cb 31
       4.819436e-08 4.679171e-08 3.207888e-09 5.913271e-09
000010 37 88 10 34 5d 03 3e 33 8d 66 5f 33 35 2e ef 30
       1.34606e-07 4.424088e-08 5.2014503e-08 1.7402672e-09
000020 6f 19 e9 31 4d 04 17 34 e7 f8 63 35 f3 de 66 35
       6.784084e-09 1.4064535e-07 8.492629e-07 8.600611e-07
000030 dd 89 5e 33 d7 d1 f8 33 ff 75 27 36 0e 24 ae 32
       5.181379e-08 1.15865696e-07 2.4953622e-06 2.0272662e-08
000040 39 19 9b 32 70 a5 bc 30 11 29 2f 31 dd 3c 6f 33
       1.8055845e-08 1.372582e-09 2.5489195e-09 5.570188e-08
000050 13 cb d7 33 d0 30 f7 33 bd eb a6 31 73 e5 83 32
       1.0048657e-07 1.1510713e-07 4.858036e-09 1.5354749e-08
000060 f9 b7 a8 34
       3.1426296e-07

exp_avg f4 [5]
000000 23 91 58 b7 c2 03 c1 b7 34 06 c7 36 9c 15 ca b7
       -1.2908396e-05 -2.3009143e-05 5.9313843e-06 -2.409034e-05
000010 b8 d4 9e b8
       -7.573649e-05

exp_avg_sq f4 [5]
000000 db 3d 9b 34 1b ad 98 34 3b 44 af 36 79 e1 e6 33
       2.8916006e-07 2.8438157e-07 5.2233495e-06 1.0751223e-07
000010 70 ae 24 35
       6.13486e-07

exp_avg f4 [5]
000000 23 91 58 b7 c2 03 c1 b7 34 06 c7 36 9c 15 ca b7
       -1.2908396e-05 -2.3009143e-05 5.9313843e-06 -2.409034e-05
000010 b8 d4 9e b8
       -7.573649e-05

exp_avg_sq f4 [5]
000000 db 3d 9b 34 1b ad 98 34 3b 44 af 36 79 e1 e6 33
       2.8916006e-07 2.8438157e-07 5.2233495e-06 1.0751223e-07
000010 70 ae 24 35
       6.13486e-07

exp_avg f4 [10, 10]
000000 36 47 23 b5 35 55 e7 32 7a 27 2e 35 24 dd 9d b4
       -6.082586e-07 2.6930687e-08 6.4877497e-07 -2.940443e-07
000010 1a 16 87 b4 d6 13 36 35 dd 40 04 b5 35 2b 24 b5
       -2.516179e-07 6.782915e-07 -4.926822e-07 -6.1157635e-07
000020 50 27 ab b4 f2 6b fd b4 87 d8 73 34 61 ef 76 32
       -3.1879836e-07 -4.7203463e-07 2.2709911e-07 1.4373513e-08
000030 c1 c4 82 b4 67 8e fa 33 c3 f1 f0 33 30 38 82 b4
       -2.4357544e-07 1.1667435e-07 1.1219847e-07 -2.425527e-07
000040 e0 ad 43 34 90 3b 76 34 05 79 11 34 90 ae 2c 34
       1.8224046e-07 2.2932204e-07 1.3548204e-07 1.6082254e-07
000050 00 00 00 00 00 00 00 00 00 00 00 00 00 00 00 00
       0.0 0.0 0.0 0.0
000060 00 00 00 00 00 00 00 00 00 00 00 00 00 00 00 00
       0.0 0.0 0.0 0.0
000070 00 00 00 00 00 00 00 00 00 00 00 00 00 00 00 00
       0.0 0.0 0.0 0.0
000080 00 00 00 00 00 00 00 00 00 00 00 00 00 00 00 00
       0.0 0.0 0.0 0.0
000090 00 00 00 00 00 00 00 00 00 00 00 00 00 00 00 00
       0.0 0.0 0.0 0.0
0000a0 4f db b8 b5 e5 f1 c7 32 58 72 c5 35 62 94 35 b5
       -1.3772895e-06 2.327665e-08 1.4710922e-06 -6.764368e-07
0000b0 61 81 20 b5 b6 eb cb 35 96 60 95 b5 10 11 ba b5
       -5.9792916e-07 1.519328e-06 -1.1129475e-06 -1.3863046e-06
0000c0 c2 97 48 b5 46 42 8c b5 00 00 00 00 00 00 00 00
       -7.472664e-07 -1.0450101e-06 0.0 0.0
0000d0 00 00 00 00 00 00 00 00 00 00 00 00 00 00 00 00
       0.0 0.0 0.0 0.0
0000e0 00 00 00 00 00 00 00 00 00 00 00 00 00 00 00 00
       0.0 0.0 0.0 0.0
0000f0 00 00 00 00 00 00 00 00 00 00 00 00 00 00 00 00
       0.0 0.0 0.0 0.0
000100 00 00 00 00 00 00 00 00 00 00 00 00 00 00 00 00
       0.0 0.0 0.0 0.0
000110 00 00 00 00 00 00 00 00 00 00 00 00 00 00 00 00
       0.0 0.0 0.0 0.0
000120 00 00 00 00 00 00 00 00 00 00 00 00 00 00 00 00
       0.0 0.0 0.0 0.0
000130 00 00 00 00 00 00 00 00 00 00 00 00 00 00 00 00
       0.0 0.0 0.0 0.0
000140 00 00 00 00 00 00 00 00 00 00 00 00 00 00 00 00
       0.0 0.0 0.0 0.0
000150 00 00 00 00 00 00 00 00 00 00 00 00 00 00 00 00
       0.0 0.0 0.0 0.0
000160 00 00 00 00 00 00 00 00 10 6e ab b5 77 ba a1 32
       0.0 0.0 -1.2772525e-06 1.8827661e-08
000170 c3 20 b7 35 db 99 28 b5 ea 65 15 b5 51 f3 bc 35
       1.3644097e-06 -6.2808766e-07 -5.565513e-07 1.4077906e-06
000180 8f 80 8a b5 8a 91 ac b5 27 85 3a b5 47 d7 81 b5
       -1.0319217e-06 -1.2857356e-06 -6.948416e-07 -9.673903e-07

exp_avg_sq f4 [10, 10]
000000 4f 58 38 2f 06 31 c1 2c a8 1d 36 2f 16 3f e1 2d
       1.6766076e-10 5.4908326e-12 1.656334e-10 2.5607554e-11
000010 29 d9 bb 2d db 0f 60 2f ee c9 e6 2e fe 72 26 2f
       2.1355877e-11 2.0378314e-10 1.0495059e-10 1.5138465e-10
000020 dd 4d 1b 2e 64 0f f9 2e 4b 2b 66 2e e1 87 07 2c
       3.5312076e-11 1.1325943e-10 5.2334397e-11 1.9260082e-12
000030 05 62 66 2e ad c1 0f 2d 6f be dd 2c 75 e0 8f 2e
       5.2383004e-11 8.1716136e-12 6.30234e-12 6.542759e-11
000040 7d 66 0e 2e 0c 78 52 2e fb e0 3b 2d 8f e4 22 2e
       3.237809e-11 4.7855095e-11 1.0679675e-11 3.7037536e-11
000050 00 00 00 00 00 00 00 00 00 00 00 00 00 00 00 00
       0.0 0.0 0.0 0.0
000060 00 00 00 00 00 00 00 00 00 00 00 00 00 00 00 00
       0.0 0.0 0.0 0.0
000070 00 00 00 00 00 00 00 00 00 00 00 00 00 00 00 00
       0.0 0.0 0.0 0.0
000080 00 00 00 00 00 00 00 00 00 00 00 00 00 00 00 00
       0.0 0.0 0.0 0.0
000090 00 00 00 00 00 00 00 00 00 00 00 00 00 00 00 00
       0.0 0.0 0.0 0.0
0000a0 c8 db 46 2f 9b b2 51 2d 62 38 52 2f 79 3d 04 2e
       1.8086077e-10 1.1919933e-11 1.911942e-10 3.0067924e-11
0000b0 8c 99 8e 2d 30 2c 8c 2f dd d6 ef 2e cd 77 3f 2f
       1.621172e-11 2.549725e-10 1.0906629e-10 1.741391e-10
0000c0 ae b9 08 2e 56 19 29 2f 00 00 00 00 00 00 00 00
       3.1087737e-11 1.5379462e-10 0.0 0.0
0000d0 00 00 00 00 00 00 00 00 00 00 00 00 00 00 00 00
       0.0 0.0 0.0 0.0
0000e0 00 00 00 00 00 00 00 00 00 00 00 00 00 00 00 00
       0.0 0.0 0.0 0.0
0000f0 00 00 00 00 00 00 00 00 00 00 00 00 00 00 00 00
       0.0 0.0 0.0 0.0
000100 00 00 00 00 00 00 00 00 00 00 00 00 00 00 00 00
       0.0 0.0 0.0 0.0
000110 00 00 00 00 00 00 00 00 00 00 00 00 00 00 00 00
       0.0 0.0 0.0 0.0
000120 00 00 00 00 00 00 00 00 00 00 00 00 00 00 00 00
       0.0 0.0 0.0 0.0
000130 00 00 00 00 00 00 00 00 00 00 00 00 00 00 00 00
       0.0 0.0 0.0 0.0
000140 00 00 00 00 00 00 00 00 00 00 00 00 00 00 00 00
       0.0 0.0 0.0 0.0
000150 00 00 00 00 00 00 00 00 00 00 00 00 00 00 00 00
       0.0 0.0 0.0 0.0
000160 00 00 00 00 00 00 00 00 c4 39 b9 2f 43 10 e4 2d
       0.0 0.0 3.369235e-10 2.592782e-11
000170 e7 7e c6 2f c8 d6 77 2e 4d b1 ef 2d 31 b1 06 30
       3.610616e-10 5.6352062e-11 2.7249892e-11 4.900072e-10
000180 20 9c 5f 2f 91 9a b4 2f 82 ed 6f 2e 31 9b a4 2f
       2.0337199e-10 3.2851635e-10 5.4553258e-11 2.9941696e-10

exp_avg f4 [10]
000000 3e d3 bf b6 cd 98 3b 36 00 00 00 00 00 00 00 00
       -5.7168354e-06 2.7954113e-06 0.0 0.0
000010 7d 4d 6a b7 00 00 00 00 00 00 00 00 00 00 00 00
       -1.39655285e-05 0.0 0.0 0.0
000020 00 00 00 00 4f 87 5a b7
       0.0 -1.3025317e-05

exp_avg_sq f4 [10]
000000 8b b9 c1 32 41 94 fa 31 00 00 00 00 00 00 00 00
       2.2552532e-08 7.292812e-09 0.0 0.0
000010 ef 9d 00 33 00 00 00 00 00 00 00 00 00 00 00 00
       2.9945962e-08 0.0 0.0 0.0
000020 00 00 00 00 96 80 7c 33
       0.0 5.879027e-08

exp_avg f4 [10, 10]
000000 1c d2 12 b6 d0 fa 6c b5 00 00 00 00 00 00 00 00
       -2.1877995e-06 -8.828183e-07 0.0 0.0
000010 44 14 7e b6 00 00 00 00 00 00 00 00 00 00 00 00
       -3.7860746e-06 0.0 0.0 0.0
000020 00 00 00 00 81 48 94 b6 49 4c 67 36 a4 b9 c0 35
       0.0 -4.4191843e-06 3.4466086e-06 1.4359143e-06
000030 00 00 00 00 00 00 00 00 61 72 ca 36 00 00 00 00
       0.0 0.0 6.0333846e-06 0.0
000040 00 00 00 00 00 00 00 00 00 00 00 00 b1 44 e6 36
       0.0 0.0 0.0 6.862531e-06
000050 00 00 00 00 00 00 00 00 00 00 00 00 00 00 00 00
       0.0 0.0 0.0 0.0
000060 00 00 00 00 00 00 00 00 00 00 00 00 00 00 00 00
       0.0 0.0 0.0 0.0
000070 00 00 00 00 00 00 00 00 86 57 c2 35 78 8f 19 35
       0.0 0.0 1.4479599e-06 5.7205716e-07
000080 00 00 00 00 00 00 00 00 f2 e7 26 36 00 00 00 00
       0.0 0.0 2.4870938e-06 0.0
000090 00 00 00 00 00 00 00 00 00 00 00 00 42 15 46 36
       0.0 0.0 0.0 2.9516673e-06
0000a0 1b 1d 67 b4 50 49 26 b3 00 00 00 00 00 00 00 00
       -2.152414e-07 -3.8716564e-08 0.0 0.0
0000b0 b4 77 a0 b4 00 00 00 00 00 00 00 00 00 00 00 00
       -2.9889418e-07 0.0 0.0 0.0
0000c0 00 00 00 00 4f 2a 11 b5 00 00 00 00 00 00 00 00
       0.0 -5.4078276e-07 0.0 0.0
0000d0 00 00 00 00 00 00 00 00 00 00 00 00 00 00 00 00
       0.0 0.0 0.0 0.0
0000e0 00 00 00 00 00 00 00 00 00 00 00 00 00 00 00 00
       0.0 0.0 0.0 0.0
0000f0 0b 48 8c 36 73 70 e7 35 00 00 00 00 00 00 00 00
       4.180712e-06 1.7243568e-06 0.0 0.0
000100 3e ac f4 36 00 00 00 00 00 00 00 00 00 00 00 00
       7.2918183e-06 0.0 0.0 0.0
000110 00 00 00 00 d2 4c 0c 37 00 00 00 00 00 00 00 00
       0.0 8.362536e-06 0.0 0.0
000120 00 00 00 00 00 00 00 00 00 00 00 00 00 00 00 00
       0.0 0.0 0.0 0.0
000130 00 00 00 00 00 00 00 00 00 00 00 00 00 00 00 00
       0.0 0.0 0.0 0.0
000140 9d fc cf b6 a9 0e 2a b6 00 00 00 00 00 00 00 00
       -6.198489e-06 -2.5340507e-06 0.0 0.0
000150 43 cf 34 b7 00 00 00 00 00 00 00 00 00 00 00 00
       -1.0777093e-05 0.0 0.0 0.0
000160 00 00 00 00 f3 d7 50 b7 ee b2 e1 35 fc 4d 3d 35
       0.0 -1.2448046e-05 1.6815882e-06 7.052147e-07
000170 00 00 00 00 00 00 00 00 12 08 46 36 00 00 00 00
       0.0 0.0 2.9508997e-06 0.0
000180 00 00 00 00 00 00 00 00 00 00 00 00 dc 00 60 36
       0.0 0.0 0.0 3.3379101e-06

exp_avg_sq f4 [10, 10]
000000 d9 3c 1b 30 70 09 3b 2e 00 00 00 00 00 00 00 00
       5.647514e-10 4.252726e-11 0.0 0.0
000010 f7 fa 33 31 00 00 00 00 00 00 00 00 00 00 00 00
       2.6190585e-09 0.0 0.0 0.0
000020 00 00 00 00 9e 4d 56 31 00 6c 2c 31 5c ab ba 2f
       0.0 3.1185219e-09 2.5090685e-09 3.395496e-10
000030 00 00 00 00 00 00 00 00 5b 06 14 32 00 00 00 00
       0.0 0.0 8.616179e-09 0.0
000040 00 00 00 00 00 00 00 00 00 00 00 00 3b 6c 42 32
       0.0 0.0 0.0 1.1316895e-08
000050 00 00 00 00 00 00 00 00 00 00 00 00 00 00 00 00
       0.0 0.0 0.0 0.0
000060 00 00 00 00 00 00 00 00 00 00 00 00 00 00 00 00
       0.0 0.0 0.0 0.0
000070 00 00 00 00 00 00 00 00 d1 e8 28 30 c4 09 40 2e
       0.0 0.0 6.1448896e-10 4.366442e-11
000080 00 00 00 00 00 00 00 00 68 3d 46 31 00 00 00 00
       0.0 0.0 2.8847698e-09 0.0
000090 00 00 00 00 00 00 00 00 00 00 00 00 ea 4f 6a 31
       0.0 0.0 0.0 3.4096908e-09
0000a0 63 ec 38 30 dc 35 bb 2e 00 00 00 00 00 00 00 00
       6.7274736e-10 8.513343e-11 0.0 0.0
0000b0 84 48 25 31 00 00 00 00 00 00 00 00 00 00 00 00
       2.405188e-09 0.0 0.0 0.0
0000c0 00 00 00 00 00 2f 58 31 00 00 00 00 00 00 00 00
       0.0 3.1458853e-09 0.0 0.0
0000d0 00 00 00 00 00 00 00 00 00 00 00 00 00 00 00 00
       0.0 0.0 0.0 0.0
0000e0 00 00 00 00 00 00 00 00 00 00 00 00 00 00 00 00
       0.0 0.0 0.0 0.0
0000f0 60 63 f0 31 1e d9 5e 30 00 00 00 00 00 00 00 00
       6.996217e-09 8.107167e-10 0.0 0.0
000100 3c ef e6 32 00 00 00 00 00 00 00 00 00 00 00 00
       2.6884315e-08 0.0 0.0 0.0
000110 00 00 00 00 6d 2d 12 33 00 00 00 00 00 00 00 00
       0.0 3.403459e-08 0.0 0.0
000120 00 00 00 00 00 00 00 00 00 00 00 00 00 00 00 00
       0.0 0.0 0.0 0.0
000130 00 00 00 00 00 00 00 00 00 00 00 00 00 00 00 00
       0.0 0.0 0.0 0.0
000140 2c 62 04 2e fd e6 ca 2c 00 00 00 00 00 00 00 00
       3.010052e-11 5.76683e-12 0.0 0.0
000150 37 0d ae 2e 00 00 00 00 00 00 00 00 00 00 00 00
       7.914951e-11 0.0 0.0 0.0
000160 00 00 00 00 0b f0 f3 2e 0d 02 f8 30 e9 44 fb 2e
       0.0 1.1093001e-10 1.8044958e-09 1.14263994e-10
000170 00 00 00 00 00 00 00 00 6f 9a 15 32 00 00 00 00
       0.0 0.0 8.708056e-09 0.0
000180 00 00 00 00 00 00 00 00 00 00 00 00 52 aa 2e 32
       0.0 0.0 0.0 1.0166859e-08

exp_avg f4 [10]
000000 08 61 37 b7 e3 14 92 37 00 00 00 00 01 f6 f0 36
       -1.0930242e-05 1.7414282e-05 0.0 7.181196e-06
000010 c1 cc 68 b5 00 00 00 00 90 90 b0 37 00 00 00 00
       -8.672469e-07 0.0 2.1048152e-05 0.0
000020 e0 7b 02 b8 5a e2 0e 37
       -3.1109783e-05 8.516561e-06

exp_avg_sq f4 [10]
000000 07 24 fe 32 bf 99 bf 33 00 00 00 00 51 26 0d 33
       2.9585875e-08 8.922097e-08 0.0 3.286397e-08
000010 23 ab d7 32 00 00 00 00 cf 63 9a 34 00 00 00 00
       2.5107118e-08 0.0 2.8757356e-07 0.0
000020 d6 13 41 30 d0 79 d7 33
       7.024118e-10 1.0033875e-07

exp_avg f4 [10, 10]
000000 9f e2 39 b6 c3 f8 07 b6 00 00 00 00 52 07 da b5
       -2.769906e-06 -2.0261366e-06 0.0 -1.6244396e-06
000010 c4 a0 8a b6 00 00 00 00 9b a1 84 b6 00 00 00 00
       -4.131436e-06 0.0 -3.95272e-06 0.0
000020 c6 93 25 b6 db bd aa b5 2d d7 21 b7 21 04 ee b6
       -2.4672931e-06 -1.2721242e-06 -9.646447e-06 -7.0934334e-06
000030 00 00 00 00 3a 74 c1 b6 83 81 72 b7 00 00 00 00
       0.0 -5.765379e-06 -1.4454478e-05 0.0
000040 5e 09 67 b7 00 00 00 00 77 05 0c b7 e1 e8 99 b6
       -1.3770854e-05 0.0 -8.345923e-06 -4.586866e-06
000050 b7 7d fe b6 31 f2 ba b6 00 00 00 00 d7 8b 97 b6
       -7.584425e-06 -5.5714268e-06 0.0 -4.51643e-06
000060 52 7f 3e b7 00 00 00 00 f6 a2 35 b7 00 00 00 00
       -1.1354527e-05 0.0 -1.0826383e-05 0.0
000070 d6 73 dd b6 a3 69 70 b6 d6 22 7d 36 72 6e 3a 36
       -6.5997983e-06 -3.5824276e-06 3.7720215e-06 2.7780447e-06
000080 00 00 00 00 6c 29 18 36 e6 ea bd 36 00 00 00 00
       0.0 2.2673876e-06 5.6599847e-06 0.0
000090 78 b2 b4 36 00 00 00 00 0f 1a 59 36 0d 42 f3 35
       5.3851945e-06 0.0 3.2350688e-06 1.8124134e-06
0000a0 44 ed 39 b5 b3 03 08 b5 00 00 00 00 a1 37 da b4
       -6.926314e-07 -5.066933e-07 0.0 -4.064614e-07
0000b0 7e ad 8a b5 00 00 00 00 8f a7 84 b5 00 00 00 00
       -1.0332294e-06 0.0 -9.883532e-07 0.0
0000c0 cd 8c 25 b5 4f fd aa b4 93 a9 ba b6 94 8f 89 b6
       -6.167218e-07 -3.1849274e-07 -5.562973e-06 -4.099633e-06
0000d0 00 00 00 00 2a e9 60 b6 4a 1f 0c b7 00 00 00 00
       0.0 -3.351432e-06 -8.351935e-06 0.0
0000e0 7a 40 05 b7 00 00 00 00 c4 84 9f b6 42 1b 34 b6
       -7.94243e-06 0.0 -4.754025e-06 -2.6837956e-06
0000f0 74 a4 44 36 4b 1f 0f 36 00 00 00 00 b2 6f e2 35
       2.9302e-06 2.1326875e-06 0.0 1.687082e-06
000100 7f 01 92 36 00 00 00 00 d2 42 8c 36 00 00 00 00
       4.3513132e-06 0.0 4.180104e-06 0.0
000110 41 e8 33 36 a5 85 ae 35 49 c3 34 b7 38 e4 04 b7
       2.6808268e-06 1.3002906e-06 -1.0774304e-05 -7.920949e-06
000120 00 00 00 00 70 e4 d7 b6 f3 66 87 b7 00 00 00 00
       0.0 -6.434093e-06 -1.6141194e-05 0.0
000130 c6 05 81 b7 00 00 00 00 ef 98 1c b7 ca a4 ab b6
       -1.5380687e-05 0.0 -9.333932e-06 -5.115381e-06
000140 be 40 1b b7 2d 1f e4 b6 00 00 00 00 49 fb b8 b6
       -9.253794e-06 -6.798559e-06 0.0 -5.5128808e-06
000150 84 73 68 b7 00 00 00 00 39 9e 5d b7 00 00 00 00
       -1.3855173e-05 0.0 -1.3209466e-05 0.0
000160 20 01 07 b7 64 c7 92 b6 07 3b cb 34 b6 93 96 34
       -8.046889e-06 -4.374351e-06 3.7854645e-07 2.804715e-07
000170 00 00 00 00 e1 22 7a 34 f5 57 19 35 00 00 00 00
       0.0 2.3295753e-07 5.7124936e-07 0.0
000180 c4 12 11 35 00 00 00 00 e2 7b a8 34 3a c6 4b 34
       5.4044017e-07 0.0 3.1382575e-07 1.8977963e-07

exp_avg_sq f4 [10, 10]
000000 87 cd 84 32 02 13 5e 32 00 00 00 00 d5 a7 65 32
       1.5460285e-08 1.2926423e-08 0.0 1.3367715e-08
000010 99 50 27 33 00 00 00 00 33 e8 2a 33 00 00 00 00
       3.895602e-08 0.0 3.9792393e-08 0.0
000020 ba 57 d9 2b d8 8d f1 31 9d 2e d3 32 b7 90 aa 32
       1.5443126e-12 7.030149e-09 2.458483e-08 1.9856413e-08
000030 00 00 00 00 ab fb 99 32 75 af 84 33 00 00 00 00
       0.0 1.792599e-08 6.1786444e-08 0.0
000040 ad 09 87 33 00 00 00 00 63 1b 87 2e 92 0c 25 32
       6.2881874e-08 0.0 6.143954e-11 9.607122e-09
000050 b4 66 7c 31 50 a6 56 31 00 00 00 00 28 f1 66 31
       3.6729206e-09 3.1235636e-09 0.0 3.3606486e-09
000060 21 55 21 32 00 00 00 00 1d 36 24 32 00 00 00 00
       9.3907895e-09 0.0 9.55836e-09 0.0
000070 81 cc e8 2d 6b aa f6 30 ab 32 31 32 d8 8d 16 32
       2.6466164e-11 1.7947291e-09 1.03142765e-08 8.763401e-09
000080 00 00 00 00 c2 f5 22 32 b6 92 e0 32 00 00 00 00
       0.0 9.48552e-09 2.6143748e-08 0.0
000090 8b 95 e5 32 00 00 00 00 1b 6a 93 2c eb 8b ab 31
       2.6727113e-08 0.0 4.1897714e-12 4.992662e-09
0000a0 96 09 b7 33 4d 9f 99 33 00 00 00 00 30 db a0 33
       8.523345e-08 7.153594e-08 0.0 7.4904506e-08
0000b0 db c5 66 34 00 00 00 00 dc f9 6b 34 00 00 00 00
       2.1492399e-07 0.0 2.1976979e-07 0.0
0000c0 6f 64 a2 2b fc 19 29 33 19 8b 63 31 6f fe 42 31
       1.1538668e-12 3.937201e-08 3.3111915e-09 2.8375344e-09
0000d0 00 00 00 00 86 3b 52 31 f8 6e 12 32 00 00 00 00
       0.0 3.0592857e-09 8.52355e-09 0.0
0000e0 67 ef 14 32 00 00 00 00 81 1e 48 2d 00 83 e1 30
       8.669168e-09 0.0 1.1375457e-11 1.6408137e-09
0000f0 24 f1 d8 33 0a fc b3 33 00 00 00 00 22 4e b5 33
       1.0102147e-07 8.381183e-08 0.0 8.4426816e-08
000100 5a 65 88 34 00 00 00 00 2b 5e 8b 34 00 00 00 00
       2.5405717e-07 0.0 2.5959284e-07 0.0
000110 a3 07 11 2d d8 00 3f 33 6b d3 41 33 b9 b6 1e 33
       8.243991e-12 4.447142e-08 4.5128598e-08 3.6953427e-08
000120 00 00 00 00 57 cd 18 33 14 47 f3 33 00 00 00 00
       0.0 3.5577013e-08 1.1328498e-07 0.0
000130 a8 22 f8 33 00 00 00 00 26 ff a3 2e 28 d4 a1 32
       1.1554704e-07 0.0 7.457705e-11 1.8839344e-08
000140 87 a1 5d 32 e4 d5 34 32 00 00 00 00 ef c4 2c 32
       1.290062e-08 1.0526012e-08 0.0 1.0056495e-08
000150 fe f3 0a 33 00 00 00 00 13 a4 0d 33 00 00 00 00
       3.235254e-08 0.0 3.2978345e-08 0.0
000160 18 6d 48 2e 08 2d b7 31 df a6 c0 32 5a 82 a0 32
       4.557163e-11 5.3311204e-09 2.2427626e-08 1.8685729e-08
000170 00 00 00 00 fa 99 a2 32 3c 32 73 33 00 00 00 00
       0.0 1.8929303e-08 5.6623534e-08 0.0
000180 bb 50 78 33 00 00 00 00 e9 ca 80 2c 9b 04 2c 32
       5.7815424e-08 0.0 3.6605064e-12 1.0012765e-08

exp_avg f4 [10]
000000 69 e7 00 b7 f4 39 e3 b7 32 3b b2 b7 ef 5d 32 37
       -7.683274e-06 -2.7087495e-05 -2.1246819e-05 1.0631497e-05
000010 70 fc 00 b6 29 b8 83 b7 32 c2 06 37 f9 a7 fd b7
       -1.9220424e-06 -1.5702173e-05 8.032237e-06 -3.0238169e-05
000020 6e 85 d9 b7 b3 6a 91 35
       -2.5930549e-05 1.0834395e-06

exp_avg_sq f4 [10]
000000 a9 f4 68 34 70 af a3 34 a9 3d 66 33 7c 91 22 34
       2.169569e-07 3.0488764e-07 5.3607128e-08 1.5140353e-07
000010 33 72 a2 35 6d e5 50 33 36 96 b9 35 ef f0 1e 35
       1.2103177e-06 4.8637435e-08 1.3827291e-06 5.921019e-07
000020 08 4b 34 34 6a e1 a5 34
       1.6791103e-07 3.0897655e-07

exp_avg f4 [5, 5]
000000 04 00 00 80 04 00 00 80 04 00 00 80 04 00 00 80
       -6e-45 -6e-45 -6e-45 -6e-45
000010 04 00 00 00 c6 ae 3b 37 36 ca 8c b6 75 19 9b b7
       6e-45 1.1186761e-05 -4.1958656e-06 -1.8489294e-05
000020 56 5f 87 b6 36 b6 6a b7 6f 32 c7 b4 3b b7 10 39
       -4.034412e-06 -1.3989911e-05 -3.7103334e-07 0.00013801169
000030 c9 41 b2 38 40 ee d3 38 87 61 0b b9 c0 05 00 80
       8.499955e-05 0.000101056416 -0.00013292405 -2.063e-42
000040 d4 08 00 80 3c 00 00 80 6d 05 00 80 5d 0e 00 00
       -3.167e-42 -8.4e-44 -1.946e-42 5.153e-42
000050 88 40 05 b8 d8 3e 00 b8 aa c5 db 37 86 22 8a b7
       -3.176977e-05 -3.0576106e-05 2.6198879e-05 -1.6466958e-05
000060 b6 97 8d 38
       6.751662e-05

exp_avg_sq f4 [5, 5]
000000 f4 ee 0f 32 d4 bd d6 31 a3 ee a5 30 97 62 96 30
       8.378027e-09 6.2498007e-09 1.2073155e-09 1.0941957e-09
000010 11 21 b4 32 9f 39 91 34 c9 83 a5 34 d8 1c aa 32
       2.0969795e-08 2.705028e-07 3.082953e-07 1.9803721e-08
000020 83 d3 44 33 97 fe 5c 35 30 73 4f 36 50 4b 7d 36
       4.5827175e-08 8.2326864e-07 3.0912452e-06 3.7743775e-06
000030 61 41 5c 34 6b 6a 16 35 68 f8 22 37 bd 73 94 35
       2.0512881e-07 5.6034213e-07 9.713789e-06 1.1060544e-06
000040 16 ea 91 35 71 c8 9d 33 a8 7e 19 34 3b 34 54 36
       1.087147e-06 7.347342e-08 1.4295313e-07 3.1620864e-06
000050 34 8d 6a 36 80 b3 7b 36 cb 90 43 34 5d ce 05 35
       3.4950908e-06 3.7506397e-06 1.8213466e-07 4.984666e-07
000060 3d 49 31 37
       1.0567074e-05

exp_avg f4 [5]
000000 04 00 00 00 c1 9b 89 37 71 34 f7 b9 dc 12 00 00
       6e-45 1.6404201e-05 -0.00047150583 6.765e-42
000010 93 c6 aa 38
       8.143219e-05

exp_avg_sq f4 [5]
000000 89 ea 41 33 40 28 e5 35 d8 26 ad 37 80 3d d2 36
       4.5149623e-08 1.7073544e-06 2.0641295e-05 6.2656472e-06
000010 db 8b a9 37
       2.0211495e-05

exp_avg f4 [5, 5]
000000 04 00 00 00 2e a8 f9 38 73 7e ee 39 07 00 00 00
       6e-45 0.00011904571 0.0004548911 1e-44
000010 73 da 5f 37 00 00 00 00 00 00 00 00 00 00 00 00
       1.33426975e-05 0.0 0.0 0.0
000020 00 00 00 00 00 00 00 00 04 00 00 00 79 ea 8c 37
       0.0 0.0 6e-45 1.6798485e-05
000030 dd 97 92 38 04 00 00 00 ee ef b7 b8 04 00 00 80
       6.990109e-05 6e-45 -8.7708104e-05 -6e-45
000040 ad aa cc b7 5e e9 d4 b8 07 00 00 80 53 92 05 39
       -2.4398172e-05 -0.00010152416 -1e-44 0.00012738378
000050 00 00 00 00 78 05 08 b7 40 81 0d b8 04 00 00 80
       0.0 -8.107505e-06 -3.3737393e-05 -6e-45
000060 0b 95 31 38
       4.2338896e-05

exp_avg_sq f4 [5, 5]
000000 cb f4 24 2f bf 43 e3 35 69 0a 62 37 f9 f8 a6 34
       1.5002681e-10 1.6932535e-06 1.34730735e-05 3.110106e-07
000010 48 e5 40 35 00 00 00 00 00 00 00 00 00 00 00 00
       7.185922e-07 0.0 0.0 0.0
000020 00 00 00 00 00 00 00 00 19 f9 a8 2e 13 50 74 35
       0.0 0.0 7.684004e-11 9.1013607e-07
000030 97 85 f6 36 71 8b 29 34 f7 5a 0d 35 42 4d b0 2e
       7.346923e-06 1.579008e-07 5.2658964e-07 8.017277e-11
000040 84 82 98 35 0e d5 1b 37 1c 84 3b 34 de b6 4d 35
       1.1362868e-06 9.288326e-06 1.7463793e-07 7.663456e-07
000050 00 00 00 00 67 04 f2 32 5f f0 90 34 60 79 b2 2d
       0.0 2.817451e-08 2.6996983e-07 2.0290158e-11
000060 23 48 88 33
       6.346115e-08

exp_avg f4 [5]
000000 0e 2b 85 3a 00 00 00 00 df f9 6d 39 00 d1 ac b9
       0.0010159926 0.0 0.00022695166 -0.00032962114
000010 86 ba e5 b8
       -0.000109543136

exp_avg_sq f4 [5]
000000 36 7e a3 38 00 00 00 00 80 16 2f 38 b3 1c 5a 38
       7.795954e-05 0.0 4.1744206e-05 5.200198e-05
000010 83 07 a8 35
       1.2519162e-06

exp_avg f4 [11, 5]
000000 7c 0f a3 b9 00 00 00 00 20 22 0c ba 0c 0d 47 b8
       -0.0003110132 0.0 -0.0005345661 -4.7457448e-05
000010 8d e1 de 38 00 00 00 00 00 00 00 00 00 00 00 00
       0.00010627797 0.0 0.0 0.0
000020 00 00 00 00 00 00 00 00 00 00 00 00 00 00 00 00
       0.0 0.0 0.0 0.0
000030 00 00 00 00 00 00 00 00 00 00 00 00 00 00 00 00
       0.0 0.0 0.0 0.0
000040 00 00 00 00 00 00 00 00 00 00 00 00 00 00 00 00
       0.0 0.0 0.0 0.0
000050 00 00 00 00 00 00 00 00 00 00 00 00 00 00 00 00
       0.0 0.0 0.0 0.0
000060 00 00 00 00 00 00 00 00 00 00 00 00 00 00 00 00
       0.0 0.0 0.0 0.0
000070 00 00 00 00 00 00 00 00 00 00 00 00 00 00 00 00
       0.0 0.0 0.0 0.0
000080 00 00 00 00 00 00 00 00 00 00 00 00 00 00 00 00
       0.0 0.0 0.0 0.0
000090 00 00 00 00 00 00 00 00 00 00 00 00 00 00 00 00
       0.0 0.0 0.0 0.0
0000a0 00 00 00 00 00 00 00 00 00 00 00 00 00 00 00 00
       0.0 0.0 0.0 0.0
0000b0 00 00 00 00 00 00 00 00 00 00 00 00 00 00 00 00
       0.0 0.0 0.0 0.0
0000c0 00 00 00 00 00 00 00 00 00 00 00 00 00 00 00 00
       0.0 0.0 0.0 0.0
0000d0 00 00 00 00 00 00 00 00 00 00 00 00
       0.0 0.0 0.0

exp_avg_sq f4 [11, 5]
000000 1d 19 51 37 00 00 00 00 2d d3 63 39 56 b0 f9 36
       1.2463218e-05 0.0 0.00021727076 7.4413065e-06
000010 56 89 3c 35 00 00 00 00 00 00 00 00 00 00 00 00
       7.023531e-07 0.0 0.0 0.0
000020 00 00 00 00 00 00 00 00 00 00 00 00 00 00 00 00
       0.0 0.0 0.0 0.0
000030 00 00 00 00 00 00 00 00 00 00 00 00 00 00 00 00
       0.0 0.0 0.0 0.0
000040 00 00 00 00 00 00 00 00 00 00 00 00 00 00 00 00
       0.0 0.0 0.0 0.0
000050 00 00 00 00 00 00 00 00 00 00 00 00 00 00 00 00
       0.0 0.0 0.0 0.0
000060 00 00 00 00 00 00 00 00 00 00 00 00 00 00 00 00
       0.0 0.0 0.0 0.0
000070 00 00 00 00 00 00 00 00 00 00 00 00 00 00 00 00
       0.0 0.0 0.0 0.0
000080 00 00 00 00 00 00 00 00 00 00 00 00 00 00 00 00
       0.0 0.0 0.0 0.0
000090 00 00 00 00 00 00 00 00 00 00 00 00 00 00 00 00
       0.0 0.0 0.0 0.0
0000a0 00 00 00 00 00 00 00 00 00 00 00 00 00 00 00 00
       0.0 0.0 0.0 0.0
0000b0 00 00 00 00 00 00 00 00 00 00 00 00 00 00 00 00
       0.0 0.0 0.0 0.0
0000c0 00 00 00 00 00 00 00 00 00 00 00 00 00 00 00 00
       0.0 0.0 0.0 0.0
0000d0 00 00 00 00 00 00 00 00 00 00 00 00
       0.0 0.0 0.0

exp_avg f4 [11]
000000 86 ab ad ba 00 00 00 00 00 00 00 00 00 00 00 00
       -0.001324997 0.0 0.0 0.0
000010 00 00 00 00 00 00 00 00 00 00 00 00 00 00 00 00
       0.0 0.0 0.0 0.0
000020 00 00 00 00 00 00 00 00 00 00 00 00
       0.0 0.0 0.0

exp_avg_sq f4 [11]
000000 3c c1 8e 3a 00 00 00 00 00 00 00 00 00 00 00 00
       0.0010891329 0.0 0.0 0.0
000010 00 00 00 00 00 00 00 00 00 00 00 00 00 00 00 00
       0.0 0.0 0.0 0.0
000020 00 00 00 00 00 00 00 00 00 00 00 00
       0.0 0.0 0.0
