GCNN RNN with input mlp/w24j20nj/checkpoints/epoch=65-step=660.ckpt (torch, 29953 bytes, 54 tensors)

model.GCNN.graph_convolution.bias f4 [10]
0	0x3d227333	0.039660644
1	0x3c827c10	0.015928298
2	0xbcf87d58	-0.030333206
3	0x3c246f53	0.010036307
4	0x3d1f97a1	0.038962964
5	0xbc7eb0bd	-0.015545067
6	0x3d0c28c6	0.034218572
7	0x3cf0dde7	0.029402686
8	0x3d1ab190	0.037766993
9	0xbb8a5baa	-0.004222353

model.GCNN.graph_convolution.lin.weight f4 [10, 1]
0	0x3f16fa71	0.58975893
1	0xbe729404	-0.23689276
2	0xbf1aa7b0	-0.6041212
3	0x3e587e39	0.211419
4	0x3dc43023	0.09579494
5	0xbf3a9949	-0.72890145
6	0x3efdca9a	0.49568635
7	0x3f12b41d	0.5730608
8	0x3e303d24	0.17210823
9	0x3f1126eb	0.5670001

model.RNN.weight_ih_l0 f4 [5, 11]
0	0xbe7bad01	-0.24577715
1	0x3ed8eed9	0.42369726
2	0x3ecd8d8d	0.40147057
3	0x3eafad97	0.34312126
4	0xbd627540	-0.0552876
5	0x3e4a23db	0.1974024
6	0xbd98f0b7	-0.07467788
7	0xbebf8725	-0.37407795
8	0x3e3d5d4b	0.1849262
9	0x3e211e26	0.15734157
10	0x3e949251	0.2901788
11	0xbed89deb	-0.42307982
12	0xbed56ae5	-0.41683117
13	0x3e9b4eb9	0.30333498
14	0x3e8854ad	0.26627102
15	0xbe901cf0	-0.28147078
16	0x3ed97a1e	0.4247598
17	0x3e949914	0.2902304
18	0xbe85e342	-0.26149946
19	0x3ed3a69f	0.4133806
20	0x3e7315f4	0.23738843
21	0x3daf5520	0.08561158
22	0x3d9407e7	0.0722807
23	0x3e1f248e	0.15541288
24	0xbe226206	-0.15857705
25	0x3dc3bc58	0.09557408
26	0xbe6c79a7	-0.23093282
27	0x3eb035c7	0.3441603
28	0x3e43b6a6	0.19112644
29	0xbedb8165	-0.42872158
30	0xbe35c9dd	-0.17752786
31	0xbd4d0122	-0.05004991
32	0xbeb48b71	-0.35262635
33	0x3d9869cd	0.07442055
34	0xbe84f3f7	-0.2596738
35	0x3e98c115	0.2983481
36	0x3dbc9743	0.092085384
37	0xbeceb530	-0.4037261
38	0x3ec1da3e	0.37861818
39	0x3ece9327	0.40346643
40	0x3edd7715	0.43254915
41	0xbbbcdf99	-0.0057639596
42	0xbe66f3db	-0.22553961
43	0x3e2550f0	0.16144156
44	0x3eb4c93a	0.35309774
45	0xbedf91a0	-0.4366579
46	0xbef2934d	-0.47378007
47	0xbe6083f9	-0.21925344
48	0x3deff80c	0.11717233
49	0x3ed10aa7	0.4082844
50	0xbec0ce6e	-0.37657493
51	0xbef22606	-0.47294635
52	0xbed05796	-0.40691823
53	0xbeb67d85	-0.3564264
54	0x3e4c5ae9	0.19956554

model.RNN.weight_hh_l0 f4 [5, 5]
0	0xbee98de6	-0.45616072
1	0xbe4fa240	-0.20276737
2	0x3d74a380	0.05972624
3	0x3eb41a7f	0.35176465
4	0xbed66b54	-0.4187876
5	0xbed19109	-0.40930966
6	0x3e7cb771	0.24679352
7	0x3ebc83d9	0.36819342
8	0xbe077df0	-0.13231635
9	0xbebd3985	-0.36957946
10	0x3e7aacaa	0.24479929
11	0x3e9cff3d	0.3066348
12	0xbdd7e645	-0.10541967
13	0xbede7e99	-0.4345596
14	0x3c8680fe	0.01641893
15	0xbe4e6c43	-0.20158486
16	0x3e81f0ab	0.25378928
17	0xbe3368d7	-0.17520462
18	0xbeb43b68	-0.35201573
19	0x3d893dfa	0.06701274
20	0x3eb7f08e	0.35925716
21	0x3e904f83	0.28185663
22	0x3d68e99b	0.05686341
23	0xbe68a3d8	-0.22718751
24	0xbe627791	-0.22115923

model.RNN.bias_ih_l0 f4 [5]
0	0xbe1c0882	-0.1523762
1	0x3e5a3e6e	0.21312878
2	0xbe33e7d6	-0.17568907
3	0xbc8d3bb5	-0.017240385
4	0x3e7919ed	0.24326296

model.RNN.bias_hh_l0 f4 [5]
0	0x3e6d81f0	0.23194098
1	0xbee30e96	-0.44347066
2	0x3e5d70b6	0.21625027
3	0xbe94b8f4	-0.29047358
4	0x3eec8162	0.4619246

model.MLP2RNN.0.weight f4 [10, 10]
0	0x3e39edc4	0.18157107
1	0xbdb33e2d	-0.087520935
2	0xbde273b9	-0.110572286
3	0xbe8b087a	-0.27154905
4	0x3e96b8ae	0.29437774
5	0x3d7a33f9	0.06108472
6	0x3e96a946	0.2942602
7	0x3d88dc13	0.06682601
8	0x3e8bc667	0.27299806
9	0xbe404363	-0.18775706
10	0x3e502858	0.2032789
11	0xbe808112	-0.25098473
12	0x3e41c879	0.1892413
13	0x3e44fd5d	0.19237275
14	0x3e7382eb	0.2378041
15	0x3e3f0c33	0.18656997
16	0xba8521ec	-0.0010157204
17	0xbd55083d	-0.05200981
18	0x3eb563e8	0.35427785
19	0xbe6ab536	-0.22920689
20	0x3e2968b4	0.16543847
21	0x3e8b088f	0.27154967
22	0x3e389296	0.18024668
23	0x3e335ed2	0.1751664
24	0xbddb70b8	-0.10714859
25	0x3d97d690	0.074139714
26	0xbc5c0fa0	-0.01343146
27	0x3e9e0af9	0.30867746
28	0x3d656f70	0.05601448
29	0x3d3aa800	0.045570374
30	0xbe32fd44	-0.17479426
31	0x3e90aedb	0.28258404
32	0xbdbdc488	-0.09266001
33	0xbe4065c2	-0.18788818
34	0xbea1050c	-0.31449163
35	0xbcfdc450	-0.030977398
36	0xbe9db66a	-0.30803233
37	0xbe40409f	-0.18774651
38	0x3d37fd78	0.04491946
39	0x3dd97e54	0.10619798
40	0xbe7ffe9a	-0.24999467
41	0x3e839ccb	0.2570556
42	0xbe9fa634	-0.3118149
43	0x3e4fe7b6	0.20303234
44	0xbe480c5c	-0.19535965
45	0x3d3f66d6	0.04672893
46	0xbe8432b8	-0.25819945
47	0x3e930ca3	0.2872058
48	0x3c824063	0.015899843
49	0xbd9f4794	-0.07777324
50	0x3d6bbc00	0.057552338
51	0x3e97ff0b	0.2968677
52	0xbd8a78fa	-0.06761356
53	0x3e835837	0.2565324
54	0xbe8d4f8d	-0.27599755
55	0xbe4732e1	-0.19453003
56	0x3e600282	0.21875957
57	0x3e53f89a	0.20700303
58	0xbe23eaa7	-0.16007482
59	0x3d51caf8	0.051218957
60	0xbe738e92	-0.23784855
61	0xbc35db60	-0.011099666
62	0xbe795892	-0.24350193
63	0x3dc2721c	0.09494421
64	0xbddbb42c	-0.107277244
65	0x3d971ef8	0.07378954
66	0xbe892013	-0.26782283
67	0x3d1a3b00	0.037653923
68	0x3c99e860	0.018787563
69	0xbdb662d4	-0.08905569
70	0xbe68ec3c	-0.22746366
71	0xbe0972c8	-0.13422692
72	0x3e745256	0.23859534
73	0x3e287bcc	0.16453475
74	0x3dad6868	0.084671795
75	0xbe519542	-0.20467094
76	0x3d9a9870	0.075486064
77	0xbe6af39c	-0.22944492
78	0x3cafcdf0	0.021460503
79	0x3dac6eb0	0.084195495
80	0x3d0f0160	0.03491342
81	0x3dca18cc	0.09868011
82	0x3de7bdec	0.113155216
83	0x3e2b6b74	0.16740209
84	0xbe6616f4	-0.22469693
85	0x3da7f630	0.082012534
86	0xbe9a3d0b	-0.30124697
87	0x3e5214de	0.20515773
88	0x3ca3c8e0	0.019993246
89	0xbdad9b76	-0.084769174
90	0x3e674b1f	0.2258725
91	0x3d35bea0	0.044371247
92	0xbe051e45	-0.12999828
93	0x3d2095d1	0.039205376
94	0x3e927aea	0.286094
95	0xbe93a23e	-0.28834718
96	0x3e47141f	0.1944127
97	0x3e911849	0.2833884
98	0x3e77685a	0.241609
99	0x3e954820	0.2915659

model.MLP2RNN.0.bias f4 [10]
0	0x3e236dc2	0.15959838
1	0x3dc8eb4d	0.09810505
2	0xbea15316	-0.31508702
3	0xbe4dd439	-0.20100488
4	0x3eaae275	0.33375898
5	0xbe8ef73c	-0.27923
6	0xbe80a7c7	-0.25128004
7	0xbdcca46e	-0.099923
8	0xbe738cf3	-0.23784237
9	0x3e7a89eb	0.24466674

model.MLP2RNN.2.weight f4 [10, 10]
0	0xbdd5ae6a	-0.104336575
1	0x3e9ff2e9	0.31240013
2	0xbe96bdec	-0.29441774
3	0x3d53cac0	0.05170703
4	0x3ea34480	0.318882
5	0x3e91e13b	0.2849215
6	0x3e0011dc	0.12506813
7	0x3e4c6a52	0.19962433
8	0xbea063fc	-0.31326282
9	0x3e840b4f	0.25789878
10	0x3d8929fe	0.066974625
11	0xbe30f42b	-0.17280643
12	0x3e67d252	0.22638825
13	0x3e5069a6	0.20352802
14	0xbe15bdff	-0.14623259
15	0xbd8e913a	-0.069612935
16	0x3d9a4c58	0.07534093
17	0x3e3a9614	0.18221313
18	0x3de5f0f8	0.11227602
19	0x3d57ca22	0.052683003
20	0x3cfc5050	0.030800015
21	0x3db254f4	0.0870761
22	0xbdbf5f04	-0.09344295
23	0xbd0ba460	-0.034092307
24	0x3ea13d05	0.31491867
25	0xbb5de700	-0.003385961
26	0xbe9481af	-0.2900519
27	0xbe866d68	-0.26255345
28	0x3d588be0	0.05286777
29	0xbd010730	-0.031500995
30	0xbc9f9ea5	-0.019484827
31	0x3d4b4119	0.04962263
32	0xbe4c9296	-0.19977793
33	0xbe3a4816	-0.18191561
34	0x3e14298d	0.14468975
35	0xbde76f8c	-0.11300573
36	0xbdebd102	-0.115144745
37	0xbd2df1f0	-0.042467058
38	0x3d43f038	0.047836512
39	0xbd223a55	-0.03960641
40	0x3eab65b4	0.3347603
41	0x3e468bba	0.19389239
42	0xbe93a9b4	-0.2884041
43	0x3c28cce0	0.010302752
44	0x3eb04133	0.34424743
45	0xbe2b7208	-0.16742718
46	0xbe739ad2	-0.23789528
47	0x3dc42cc0	0.09578848
48	0x3cb3e9b0	0.021962017
49	0x3e1017ed	0.14071627
50	0xbe9d43b1	-0.30715707
51	0x3e3b103a	0.18267909
52	0x3d15edc0	0.03660369
53	0x3e6c1e42	0.23058417
54	0x3dc59954	0.09648386
55	0xbe9839f0	-0.29731703
56	0x3e182f66	0.14861831
57	0x3e82b76b	0.25530562
58	0x3e9017c3	0.2814313
59	0x3d81ce30	0.06338155
60	0x3e886a6d	0.26643696
61	0x3e9056cf	0.2819123
62	0x3dab7f80	0.08373928
63	0xbd6b07c0	-0.057380438
64	0x3e902a0b	0.28157076
65	0xbe7b8804	-0.24563605
66	0xbd9ed876	-0.077561304
67	0xbe8e892e	-0.27839035
68	0xbdfcd43c	-0.12345168
69	0x3e8a75f8	0.27043128
70	0xbe643163	-0.22284465
71	0x3e21d3f2	0.15803507
72	0x3e775eee	0.24157307
73	0xbe466a8f	-0.19376586
74	0xbe1d731d	-0.15375943
75	0xbe39a7fa	-0.18130484
76	0x3dbcea44	0.0922437
77	0xbe9d7136	-0.30750436
78	0xbe8aeffb	-0.27136216
79	0x3d91f7ac	0.07127318
80	0x3eb010b7	0.34387752
81	0xbe33a1b9	-0.17542161
82	0x3c94f7c0	0.018184543
83	0x3e579cd2	0.21055916
84	0x3ea353f6	0.31899995
85	0xbd0f9568	-0.035054594
86	0xbe818b4d	-0.2530159
87	0xbe0dcc8e	-0.13847563
88	0xbe66d39b	-0.22541659
89	0x3eb063fc	0.34451282
90	0x3e4da32b	0.20081775
91	0x3e7e2df9	0.24822225
92	0x3e012fbc	0.12615865
93	0xbe8776bf	-0.26457784
94	0xbd2d332c	-0.04228513
95	0xbcc510b0	-0.024055809
96	0xbd640178	-0.055665463
97	0xbe1bd702	-0.15218738
98	0xbe610490	-0.21974397
99	0xbe29ad1b	-0.16569941

model.MLP2RNN.2.bias f4 [10]
0	0x3de789a2	0.11305548
1	0x3ea4e043	0.32202348
2	0xbdffe5be	-0.12494992
3	0x3e4a123f	0.19733523
4	0x3e8c29b6	0.27375573
5	0xbe883648	-0.26603913
6	0x3e7fc62a	0.24977937
7	0xbe495874	-0.19662648
8	0xbe624adb	-0.22098868
9	0x3e4a891d	0.19778867

model.MLP2RNN.4.weight f4 [10, 10]
0	0xbd95f420	-0.07321954
1	0xbd24dea1	-0.040251378
2	0xbd4ac310	-0.049502432
3	0xbe7659c1	-0.24057676
4	0x3dd94ba5	0.10610131
5	0x3d228b18	0.03968343
6	0xbe833eee	-0.2563395
7	0xbe8614d3	-0.26187763
8	0x3e946105	0.2898027
9	0xbe8069b1	-0.25080636
10	0x3de4f4da	0.11179514
11	0xbe454d08	-0.19267666
12	0x3e9f68ef	0.31134745
13	0xbe156749	-0.14590181
14	0xbe273df6	-0.1633223
15	0x3e341200	0.17584991
16	0xbea57f36	-0.32323617
17	0x3e9f7243	0.31141862
18	0xbe1877a2	-0.14889386
19	0xbe9b3ec7	-0.30321333
20	0x3e350b0b	0.17679994
21	0xbe953476	-0.29141587
22	0xbe27ec03	-0.16398625
23	0x3e628ede	0.22124812
24	0x3e478619	0.19484748
25	0x3e704ade	0.2346606
26	0xbe6ec245	-0.23316295
27	0xbd81ba20	-0.06334329
28	0x3e87b728	0.26506925
29	0x3e163ac1	0.1467085
30	0x3d8c97e3	0.068649076
31	0xbe47b8c6	-0.19504079
32	0xbe9fd841	-0.31219676
33	0xbdbfb3c5	-0.0936046
34	0x3d5e7fdd	0.05432116
35	0xbea0c534	-0.31400454
36	0xbda258cd	-0.07927094
37	0x3e47302e	0.19451973
38	0x3e8b0579	0.27152613
39	0x3e3f7722	0.1869779
40	0x3e4c1c7b	0.1993274
41	0xbe5199ed	-0.20468874
42	0x3de46f0c	0.11153993
43	0xbe313347	-0.17304717
44	0xbe46fe87	-0.19433032
45	0x3de4b934	0.11168137
46	0xbd2b0f24	-0.041762486
47	0xbdbae9ec	-0.09126648
48	0x3ea20f58	0.3165233
49	0x3dab524d	0.08365307
50	0xbdbe7ccb	-0.09301146
51	0xbe9d7a71	-0.30757478
52	0x3e513a6a	0.2043244
53	0x3e6043f8	0.21900928
54	0xbe1a1519	-0.1504711
55	0x3e730376	0.23731789
56	0xbaa29791	-0.001240479
57	0x3e8acf71	0.2711139
58	0x3e5bfbf4	0.21482831
59	0xbe9fddae	-0.31223816
60	0xbe049753	-0.1294835
61	0xbe5aafd7	-0.2135614
62	0xbdd0d31e	-0.101965174
63	0x3d28f9c7	0.04125383
64	0xbea341b2	-0.3188606
65	0xbe392680	-0.18081093
66	0xbe58213e	-0.21106431
67	0xbde9baae	-0.114125594
68	0x3d34e079	0.044159386
69	0x3da9680c	0.082717985
70	0x3d133592	0.03593976
71	0xbcfb5bea	-0.030683476
72	0xbe81de5e	-0.25364965
73	0xbdcdaef5	-0.10043136
74	0xbe45bd5d	-0.19310518
75	0xbd0084d0	-0.03137666
76	0xbe785772	-0.24252108
77	0x3bc8ee40	0.0061319172
78	0xbea65cca	-0.32492667
79	0xbd8354fa	-0.06412692
80	0x3dc06a77	0.093953066
81	0xbe4e9558	-0.20174158
82	0x3e9e339d	0.30898753
83	0xbe9bbb1e	-0.30416197
84	0x3e5454aa	0.20735422
85	0x3e540aa2	0.20707181
86	0xbdc5820c	-0.09643945
87	0xbdc2efa0	-0.09518361
88	0x3e7c8c92	0.24662998
89	0x3e81d02b	0.25354132
90	0xbdaa7a03	-0.08324053
91	0xbe660601	-0.22463228
92	0x3daf2994	0.08552852
93	0x3e6b9263	0.23005061
94	0x3e84cc6f	0.2593722
95	0xbc948fc0	-0.018134952
96	0xbe725e8f	-0.23668884
97	0x3e291cfa	0.1651496
98	0xbd8c0d4e	-0.06838475
99	0x3e48ecee	0.19621632

model.MLP2RNN.4.bias f4 [10]
0	0xbe4b042a	-0.19825807
1	0xbe409977	-0.18808542
2	0xbdc6437e	-0.09680842
3	0xbea6b9e9	-0.32563713
4	0x3e0ed6cb	0.13949125
5	0x3ce40104	0.027832516
6	0x3e390a9f	0.18070458
7	0xbe7b6858	-0.24551523
8	0xbdcad1d0	-0.099033
9	0x3dcd8a99	0.10036201

model.MLP.0.weight f4 [5, 5]
0	0xbe6d9f03	-0.2320519
1	0x3e6fbd67	0.23412095
2	0xbee0ed2d	-0.4393095
3	0xbe30c7b7	-0.17263685
4	0x3e7ed1f9	0.24884786
5	0x3ec9e74c	0.39434278
6	0xbde5cc5c	-0.11220619
7	0xbd6d5d19	-0.057950113
8	0xbd786369	-0.06064168
9	0x3ea50e60	0.3223753
10	0x3d1b863c	0.037969813
11	0xbcd5859a	-0.026064683
12	0x3c98d625	0.0186568
13	0x3d94ace4	0.07259539
14	0x3e73de35	0.23815234
15	0xbec64b5c	-0.3872937
16	0x3d7d3d66	0.061826132
17	0xbeba51d9	-0.3639057
18	0xbe9df868	-0.3085358
19	0x3dd75183	0.10513594
20	0xbe605c95	-0.21910317
21	0xbeaff7d7	-0.34368774
22	0x3eb1a925	0.3469936
23	0xbd417602	-0.04723168
24	0x3eba11b5	0.36341634

model.MLP.0.bias f4 [5]
0	0xbe8fdb64	-0.2809707
1	0xbd0ce007	-0.034393337
2	0x3ea70a56	0.32625073
3	0xbe86b40c	-0.2630924
4	0xbeabcda6	-0.33555335

model.MLP.2.weight f4 [5, 5]
0	0xbd917207	-0.07101827
1	0xbb85ca26	-0.004082936
2	0xbea55f3c	-0.3229922
3	0x3d5816e1	0.052756194
4	0xbeeb6597	-0.45975944
5	0x3d8cd028	0.0687564
6	0x3ee332b4	0.4437462
7	0xbb5e4080	-0.0033912957
8	0x3ee289de	0.4424581
9	0x3e27c080	0.16382027
10	0x3d101368	0.035174757
11	0x3ed25c42	0.41086012
12	0xbdc1d051	-0.09463561
13	0x3dd845d8	0.10560197
14	0xbd797d7c	-0.060910687
15	0xbe4bff20	-0.19921541
16	0x3e83d70f	0.25750014
17	0x3e43291e	0.19058654
18	0xbe6a6a9a	-0.22892228
19	0x3e0d41db	0.13794653
20	0xbec3d1e8	-0.38246083
21	0xbe72899e	-0.2368531
22	0x3ebdc2a9	0.37062576
23	0x3d7d4502	0.06183339
24	0x3e9a4886	0.30133456

model.MLP.2.bias f4 [5]
0	0x3e80f3d9	0.2518604
1	0xbed5a62e	-0.41728348
2	0x3ec94681	0.39311603
3	0xbbd1477e	-0.0063866964
4	0xbdc0c4f1	-0.094125636

model.MLP.4.weight f4 [11, 5]
0	0xbe89320e	-0.26796
1	0x3e826b2c	0.2547239
2	0xbe352361	-0.17689277
3	0x3e7e4212	0.24829891
4	0x3dea726d	0.11447606
5	0x3e54abd8	0.20768678
6	0xbd89e440	-0.06732988
7	0x3eac4758	0.3364818
8	0xbd2eb4d0	-0.042652905
9	0xbd7e8f40	-0.062148333
10	0xbee2c588	-0.4429133
11	0xbed8eb4a	-0.4236701
12	0x3e56dd24	0.20982796
13	0x3d59d2f0	0.05317968
14	0x3eb30a88	0.34968972
15	0xbe83dee4	-0.2575599
16	0x3ebd4d3a	0.36972982
17	0x3ebc087c	0.36725223
18	0xbecedc8a	-0.40402633
19	0xbe6f71a3	-0.23383193
20	0xbec6d437	-0.38833782
21	0xbeb2583f	-0.3483295
22	0xbdddcadc	-0.10829708
23	0x3e3b876c	0.18313378
24	0xbe14689c	-0.1449303
25	0x3ec68136	0.38770455
26	0xbebb9420	-0.36636448
27	0x3c8936c0	0.01674974
28	0x3e1ec674	0.15505391
29	0xbe8a2f40	-0.26989174
30	0xbdf751e8	-0.12076169
31	0x3ec597ac	0.3859228
32	0x3ea24332	0.3169189
33	0xbe563f85	-0.20922668
34	0xbe968958	-0.2940166
35	0x3ecfb6e0	0.4056921
36	0xbe953b32	-0.29146725
37	0xbeb12c79	-0.34604242
38	0x3e46d994	0.19418937
39	0x3ece3b32	0.40279537
40	0x3e5dd270	0.21662307
41	0xbe7b938d	-0.24568005
42	0x3e9a126e	0.30092186
43	0xbe22974e	-0.1587803
44	0x3e95a320	0.29226017
45	0x3e3e4330	0.18580317
46	0x3d897fe8	0.06713849
47	0x3ed1c4cc	0.40970457
48	0x3dd9cae0	0.106343985
49	0x3eb4ef6a	0.35338908
50	0xbee0c40a	-0.43899566
51	0x3e28cbb4	0.16483957
52	0xbe5829bc	-0.2110967
53	0x3e25cc88	0.16191304
54	0xbe728035	-0.2368172

model.MLP.4.bias f4 [11]
0	0x3e032724	0.128079
1	0x3c4e4280	0.012589097
2	0x3e1154c8	0.14192498
3	0xbe22f880	-0.15915108
4	0xbd5be040	-0.05368066
5	0xbdb68318	-0.08911723
6	0x3e7f7650	0.24947476
7	0x3e7b8900	0.2456398
8	0xbec6bba2	-0.38815027
9	0xbe89539f	-0.2682161
10	0x3ea2cff0	0.3179927

exp_avg f4 [10]
0	0x36dd2115	6.5901645e-06
1	0xb1fee220	-7.4180804e-09
2	0xb6ecef74	-7.061224e-06
3	0xb66872c5	-3.4637499e-06
4	0x3738d9b1	1.101794e-05
5	0xb6045cf8	-1.9723648e-06
6	0x37069008	8.020557e-06
7	0x3712b606	8.744659e-06
8	0x374cdb92	1.221047e-05
9	0xb5d4c447	-1.5852355e-06

exp_avg_sq f4 [10]
0	0x31ef687d	6.9676944e-09
1	0x31e0d223	6.543148e-09
2	0x32bb0c22	2.1775183e-08
3	0x3115590e	2.1732975e-09
4	0x32d9bcb0	2.534793e-08
5	0x31a864ab	4.900888e-09
6	0x319fd7fa	4.6520627e-09
7	0x335b1f75	5.101852e-08
8	0x335eb9c7	5.1857366e-08
9	0x3199e04a	4.4783848e-09

exp_avg f4 [10, 1]
0	0x354d55ab	7.6493114e-07
1	0x31ba26d0	5.417725e-09
2	0xb55c86b6	-8.2152417e-07
3	0xb4dc3178	-4.1014187e-07
4	0x35ab474f	1.2761246e-06
5	0xb48327b5	-2.4429542e-07
6	0x357b98cb	9.372713e-07
7	0x358854fc	1.0157523e-06
8	0x35bc8027	1.4044389e-06
9	0xb430bb67	-1.6459454e-07

exp_avg_sq f4 [10, 1]
0	0x2eccc59a	9.311947e-11
1	0x2ec3b262	8.8992605e-11
2	0x2fa24b10	2.9520963e-10
3	0x2e00a543	2.9250612e-11
4	0x2fbb0051	3.4015327e-10
5	0x2e929094	6.6649936e-11
6	0x2e87d282	6.176483e-11
7	0x303def27	6.9097655e-10
8	0x303fe99a	6.9817363e-10
9	0x2e850ab1	6.050039e-11

exp_avg f4 [5, 11]
0	0xb6cd81f7	-6.124606e-06
1	0x37a9623c	2.0192114e-05
2	0x37f788ee	2.9508457e-05
3	0x3617fd98	2.2648364e-06
4	0x3790d4d5	1.7265245e-05
5	0xb591910f	-1.084556e-06
6	0x370e5a66	8.484907e-06
7	0x371dd850	9.408293e-06
8	0x37e9650b	2.7822816e-05
9	0x366b41e0	3.5056073e-06
10	0xb6afe278	-5.241771e-06
11	0xb73db0f4	-1.1306478e-05
12	0x381f8f35	3.8041926e-05
13	0x38689226	5.544922e-05
14	0x368fe52f	4.2884126e-06
15	0x380869b1	3.252336e-05
16	0xb605805b	-1.9893257e-06
17	0x37861fd8	1.5988873e-05
18	0x3793d432	1.7622577e-05
19	0x385b1494	5.2232834e-05
20	0x36deed5e	6.6437487e-06
21	0xb7268100	-9.924406e-06
22	0x37021315	7.753047e-06
23	0xb7d8ead5	-2.5858559e-05
24	0xb81e46bc	-3.7736012e-05
25	0xb64312e3	-2.9068258e-06
26	0xb7b97685	-2.2108909e-05
27	0x35b7c28a	1.3691181e-06
28	0xb7365158	-1.0866985e-05
29	0xb74988a9	-1.2012352e-05
30	0xb8152957	-3.556287e-05
31	0xb6971073	-4.5020656e-06
32	0x36e1d6c1	6.730523e-06
33	0x36f70e96	7.3628717e-06
34	0xb7c7ba79	-2.3809482e-05
35	0xb811e286	-3.478166e-05
36	0xb63366be	-2.6732882e-06
37	0xb7aac55b	-2.035748e-05
38	0x35aafd6a	1.273974e-06
39	0xb727dcf0	-1.0005417e-05
40	0xb739f48a	-1.10837955e-05
41	0xb80987fb	-3.2789987e-05
42	0xb68ad92f	-4.138004e-06
43	0x36cf8ad2	6.1852415e-06
44	0x36ed39b2	7.069867e-06
45	0xb7caa80e	-2.4158533e-05
46	0xb81387ce	-3.517401e-05
47	0xb6371ec3	-2.728703e-06
48	0xb7ad3fea	-2.065297e-05
49	0x35a79d12	1.2488183e-06
50	0xb72a5d58	-1.0154523e-05
51	0xb73b4ce8	-1.1163975e-05
52	0xb80aeb4e	-3.312091e-05
53	0xb68de860	-4.2291795e-06
54	0x36d3eae7	6.3156363e-06

exp_avg_sq f4 [5, 11]
0	0x32961cd0	1.74754e-08
1	0x3481d5ed	2.4183774e-07
2	0x348167c4	2.4103622e-07
3	0x3198e706	4.4500466e-09
4	0x34166753	1.4007428e-07
5	0x303fb711	6.974555e-10
6	0x32b0bc0b	2.0574609e-08
7	0x31a55e8f	4.812882e-09
8	0x34680d05	2.161142e-07
9	0x318653c7	3.9094377e-09
10	0x3326d79c	3.8845982e-08
11	0x328f2b3e	1.6667055e-08
12	0x3470002b	2.2351803e-07
13	0x348886b9	2.5429998e-07
14	0x317c1d6b	3.6687549e-09
15	0x34188a3b	1.4206391e-07
16	0x2fcf90db	3.7756007e-10
17	0x32b14383	2.0636213e-08
18	0x3221a304	9.408499e-09
19	0x34740a2a	2.2727968e-07
20	0x31b00558	5.1228817e-09
21	0x3307987b	3.1570817e-08
22	0x34a209bc	3.0181934e-07
23	0x368aa8b3	4.1323597e-06
24	0x368ee5c1	4.2586767e-06
25	0x33a0cecd	7.4881974e-08
26	0x3623ff1b	2.4437384e-06
27	0x323c248b	1.0951349e-08
28	0x34c1f756	3.6129012e-07
29	0x33e403a5	1.061774e-07
30	0x367fd7fa	3.8123676e-06
31	0x339dcb31	7.3478425e-08
32	0x352d4f02	6.4562494e-07
33	0x31bb6d9e	5.4548783e-09
34	0x33a31015	7.593204e-08
35	0x339e66e0	7.376161e-08
36	0x30cafc17	1.4769083e-09
37	0x33376822	4.2702716e-08
38	0x2f8e44a4	2.5878422e-10
39	0x31e0ce51	6.5427135e-09
40	0x30b739a2	1.3331383e-09
41	0x338dbd0f	6.600214e-08
42	0x30992e27	1.1145332e-09
43	0x32584b0a	1.2589917e-08
44	0x33088c57	3.1792606e-08
45	0x34e61e7f	4.2863027e-07
46	0x34fd5144	4.718405e-07
47	0x31fb4968	7.3134068e-09
48	0x348eb680	2.6582347e-07
49	0x306a477a	8.523028e-10
50	0x3326fc3d	3.8879296e-08
51	0x32868253	1.5658918e-08
52	0x34e27bf1	4.218596e-07
53	0x321bf51e	9.077921e-09
54	0x33869e9f	6.268714e-08

exp_avg f4 [5, 5]
0	0x369a4a2e	4.5981933e-06
1	0x37007567	7.656729e-06
2	0xb5f6af29	-1.8379407e-06
3	0x36ab56e5	5.106313e-06
4	0xb76adfef	-1.39996255e-05
5	0x38226eae	3.872689e-05
6	0x3853b40a	5.0473995e-05
7	0xb75117e8	-1.2462937e-05
8	0x37de3a58	2.649163e-05
9	0xb8aa3d39	-8.117635e-05
10	0xb7105db5	-8.604887e-06
11	0xb74c5b8b	-1.21806615e-05
12	0x370c0278	8.345225e-06
13	0xb742b183	-1.1604631e-05
14	0x3802ae94	3.1157004e-05
15	0x372727ad	9.963213e-06
16	0x37481b9c	1.1927357e-05
17	0x35f195c4	1.7999487e-06
18	0x35df0951	1.6617506e-06
19	0xb71be4ae	-9.291964e-06
20	0x38898500	6.557442e-05
21	0x38af2bfc	8.352843e-05
22	0xb7876fa5	-1.6145243e-05
23	0x38221148	3.8639904e-05
24	0xb90127fc	-0.00012317294

exp_avg_sq f4 [5, 5]
0	0x345c948f	2.0543142e-07
1	0x3455e9d1	1.9922233e-07
2	0x32692a05	1.3571939e-08
3	0x32d65adc	2.4954197e-08
4	0x35197942	5.7173395e-07
5	0x3448c2ce	1.8697321e-07
6	0x346b21f1	2.1898428e-07
7	0x31f325bf	7.076522e-09
8	0x32efb021	2.7903356e-08
9	0x351e2e28	5.8926753e-07
10	0x36731ef7	3.6227846e-06
11	0x36763198	3.6685724e-06
12	0x346d33aa	2.209114e-07
13	0x3504980c	4.939509e-07
14	0x37328cd5	1.0642417e-05
15	0x33b930d8	8.6236184e-08
16	0x33a4d020	7.674703e-08
17	0x31c8ed8b	5.8477716e-09
18	0x323a676d	1.0850141e-08
19	0x347eaf5e	2.3719392e-07
20	0x34e36650	4.2356487e-07
21	0x3501d3bf	4.8364376e-07
22	0x32abd98d	2.000595e-08
23	0x3388b0c2	6.3651456e-08
24	0x35b0f830	1.3185254e-06

exp_avg f4 [5]
0	0xb727b95f	-9.997136e-06
1	0xb8bdbc3e	-9.047285e-05
2	0x37f8cb73	2.9658642e-05
3	0xb820022e	-3.8149003e-05
4	0xb9193809	-0.00014612092

exp_avg_sq f4 [5]
0	0x35a56b0e	1.2324615e-06
1	0x35a10b14	1.1998659e-06
2	0x37bae6d8	2.2280423e-05
3	0x34f4746b	4.5533247e-07
4	0x362d8ac7	2.5859788e-06

exp_avg f4 [5]
0	0xb727b95f	-9.997136e-06
1	0xb8bdbc3e	-9.047285e-05
2	0x37f8cb73	2.9658642e-05
3	0xb820022e	-3.8149003e-05
4	0xb9193809	-0.00014612092

exp_avg_sq f4 [5]
0	0x35a56b0e	1.2324615e-06
1	0x35a10b14	1.1998659e-06
2	0x37bae6d8	2.2280423e-05
3	0x34f4746b	4.5533247e-07
4	0x362d8ac7	2.5859788e-06

exp_avg f4 [10, 10]
0	0x3634232b	2.684256e-06
1	0xb498f36e	-2.8489325e-07
2	0xb6274a8a	-2.4928327e-06
3	0x3565ca6b	8.5603705e-07
4	0x35a74651	1.2462934e-06
5	0xb626a72b	-2.4833232e-06
6	0x3618f3ec	2.2791746e-06
7	0x361fbb1c	2.3801758e-06
8	0x35c0b067	1.4356455e-06
9	0x35ccaaed	1.524893e-06
10	0x34d38670	3.939963e-07
11	0xb3170de1	-3.517005e-08
12	0xb4c34a17	-3.6375488e-07
13	0x3405fe89	1.247919e-07
14	0x344bb3e7	1.8971296e-07
15	0xb4bff1d1	-3.5752467e-07
16	0x34b3b2e8	3.347152e-07
17	0x34ba8ac1	3.4746157e-07
18	0x34682186	2.161888e-07
19	0x3466d9b5	2.149962e-07
20	0x00000000	0.0
21	0x00000000	0.0
22	0x00000000	0.0
23	0x00000000	0.0
24	0x00000000	0.0
25	0x00000000	0.0
26	0x00000000	0.0
27	0x00000000	0.0
28	0x00000000	0.0
29	0x00000000	0.0
30	0x00000000	0.0
31	0x00000000	0.0
32	0x00000000	0.0
33	0x00000000	0.0
34	0x00000000	0.0
35	0x00000000	0.0
36	0x00000000	0.0
37	0x00000000	0.0
38	0x00000000	0.0
39	0x00000000	0.0
40	0x35872d3d	1.007145e-06
41	0xb3dedf67	-1.0378317e-07
42	0xb57ace3a	-9.3432357e-07
43	0x34ac3b98	3.2080857e-07
44	0x34fcbff4	4.7078322e-07
45	0xb5793dc1	-9.284959e-07
46	0x356592e1	8.5522885e-07
47	0x356f7d63	8.92169e-07
48	0x3511481e	5.4121654e-07
49	0x35187a8b	5.6802736e-07
50	0x00000000	0.0
51	0x00000000	0.0
52	0x00000000	0.0
53	0x00000000	0.0
54	0x00000000	0.0
55	0x00000000	0.0
56	0x00000000	0.0
57	0x00000000	0.0
58	0x00000000	0.0
59	0x00000000	0.0
60	0x00000000	0.0
61	0x00000000	0.0
62	0x00000000	0.0
63	0x00000000	0.0
64	0x00000000	0.0
65	0x00000000	0.0
66	0x00000000	0.0
67	0x00000000	0.0
68	0x00000000	0.0
69	0x00000000	0.0
70	0x00000000	0.0
71	0x00000000	0.0
72	0x00000000	0.0
73	0x00000000	0.0
74	0x00000000	0.0
75	0x00000000	0.0
76	0x00000000	0.0
77	0x00000000	0.0
78	0x00000000	0.0
79	0x00000000	0.0
80	0x00000000	0.0
81	0x00000000	0.0
82	0x00000000	0.0
83	0x00000000	0.0
84	0x00000000	0.0
85	0x00000000	0.0
86	0x00000000	0.0
87	0x00000000	0.0
88	0x00000000	0.0
89	0x00000000	0.0
90	0x35ebde99	1.7573649e-06
91	0xb44db7ff	-1.915905e-07
92	0xb5db4508	-1.6336862e-06
93	0x3516a0e6	5.611349e-07
94	0x3559a2b3	8.107556e-07
95	0xb5daee0c	-1.6311546e-06
96	0x35c840ee	1.4920058e-06
97	0x35d15887	1.5597478e-06
98	0x357b2f48	9.357359e-07
99	0x3586e6d8	1.0050962e-06

exp_avg_sq f4 [10, 10]
0	0x3042ede8	7.0914874e-10
1	0x2dcd86dc	2.3365691e-11
2	0x3040b64b	7.0108247e-10
3	0x2eee69c0	1.0841772e-10
4	0x2ec596b9	8.9852965e-11
5	0x306d6d77	8.6375657e-10
6	0x2ff3d461	4.4352347e-10
7	0x303022b5	6.407775e-10
8	0x2f23b9b7	1.4890743e-10
9	0x30043096	4.8090365e-10
10	0x2f74165b	2.2199613e-10
11	0x2d1069e8	8.208968e-12
12	0x2f745d1a	2.2224747e-10
13	0x2e185c30	3.4642678e-11
14	0x2dea3c1a	2.662941e-11
15	0x2f98c209	2.778651e-10
16	0x2f16f1dc	1.3728346e-10
17	0x2f5f3f91	2.0304315e-10
18	0x2e46c120	4.5191517e-11
19	0x2f2d2346	1.574679e-10
20	0x00000000	0.0
21	0x00000000	0.0
22	0x00000000	0.0
23	0x00000000	0.0
24	0x00000000	0.0
25	0x00000000	0.0
26	0x00000000	0.0
27	0x00000000	0.0
28	0x00000000	0.0
29	0x00000000	0.0
30	0x00000000	0.0
31	0x00000000	0.0
32	0x00000000	0.0
33	0x00000000	0.0
34	0x00000000	0.0
35	0x00000000	0.0
36	0x00000000	0.0
37	0x00000000	0.0
38	0x00000000	0.0
39	0x00000000	0.0
40	0x30533a2f	7.6844037e-10
41	0x2e5f98e1	5.0840113e-11
42	0x305f4d6e	8.123696e-10
43	0x2f0c54be	1.2763032e-10
44	0x2e96c946	6.8569636e-11
45	0x3095052f	1.084265e-09
46	0x2ffea980	4.6322768e-10
47	0x304b64da	7.399429e-10
48	0x2f10d6a8	1.3172985e-10
49	0x3033e949	6.545134e-10
50	0x00000000	0.0
51	0x00000000	0.0
52	0x00000000	0.0
53	0x00000000	0.0
54	0x00000000	0.0
55	0x00000000	0.0
56	0x00000000	0.0
57	0x00000000	0.0
58	0x00000000	0.0
59	0x00000000	0.0
60	0x00000000	0.0
61	0x00000000	0.0
62	0x00000000	0.0
63	0x00000000	0.0
64	0x00000000	0.0
65	0x00000000	0.0
66	0x00000000	0.0
67	0x00000000	0.0
68	0x00000000	0.0
69	0x00000000	0.0
70	0x00000000	0.0
71	0x00000000	0.0
72	0x00000000	0.0
73	0x00000000	0.0
74	0x00000000	0.0
75	0x00000000	0.0
76	0x00000000	0.0
77	0x00000000	0.0
78	0x00000000	0.0
79	0x00000000	0.0
80	0x00000000	0.0
81	0x00000000	0.0
82	0x00000000	0.0
83	0x00000000	0.0
84	0x00000000	0.0
85	0x00000000	0.0
86	0x00000000	0.0
87	0x00000000	0.0
88	0x00000000	0.0
89	0x00000000	0.0
90	0x30c51b61	1.4341418e-09
91	0x2ef33183	1.1059156e-10
92	0x30d3432b	1.5371361e-09
93	0x2f83da32	2.3983798e-10
94	0x2efe3fda	1.1561925e-10
95	0x310f6cbe	2.0871052e-09
96	0x306de42a	8.654434e-10
97	0x30c03922	1.3986077e-09
98	0x2f7ee0f0	2.3181079e-10
99	0x30af5b98	1.2758958e-09

exp_avg f4 [10]
0	0x37d0b617	2.4880324e-05
1	0x36818b41	3.860711e-06
2	0x00000000	0.0
3	0x00000000	0.0
4	0x371e42d1	9.433091e-06
5	0x00000000	0.0
6	0x00000000	0.0
7	0x00000000	0.0
8	0x00000000	0.0
9	0x37874ef3	1.6130018e-05

exp_avg_sq f4 [10]
0	0x33cd61d0	9.5638484e-08
1	0x33050e96	3.097974e-08
2	0x00000000	0.0
3	0x00000000	0.0
4	0x3408d6fa	1.2744195e-07
5	0x00000000	0.0
6	0x00000000	0.0
7	0x00000000	0.0
8	0x00000000	0.0
9	0x34867c08	2.504969e-07

exp_avg f4 [10, 10]
0	0xb696d8af	-4.4955736e-06
1	0xb6099d38	-2.0506104e-06
2	0x00000000	0.0
3	0x00000000	0.0
4	0xb6d73a67	-6.4142982e-06
5	0x00000000	0.0
6	0x00000000	0.0
7	0x00000000	0.0
8	0x00000000	0.0
9	0xb705daa0	-7.97832e-06
10	0x3731f6d3	1.060749e-05
11	0x36a3629a	4.8692573e-06
12	0x00000000	0.0
13	0x00000000	0.0
14	0x377ed635	1.5189454e-05
15	0x00000000	0.0
16	0x00000000	0.0
17	0x00000000	0.0
18	0x00000000	0.0
19	0x379d5cb7	1.8759032e-05
20	0x00000000	0.0
21	0x00000000	0.0
22	0x00000000	0.0
23	0x00000000	0.0
24	0x00000000	0.0
25	0x00000000	0.0
26	0x00000000	0.0
27	0x00000000	0.0
28	0x00000000	0.0
29	0x00000000	0.0
30	0x36b3432e	5.3424365e-06
31	0x362326f9	2.4311578e-06
32	0x00000000	0.0
33	0x00000000	0.0
34	0x36ff6ebd	7.612484e-06
35	0x00000000	0.0
36	0x00000000	0.0
37	0x00000000	0.0
38	0x00000000	0.0
39	0x371f473c	9.493724e-06
40	0xb6116f61	-2.1671515e-06
41	0xb57ff09c	-9.5345035e-07
42	0x00000000	0.0
43	0x00000000	0.0
44	0xb64b594f	-3.0301342e-06
45	0x00000000	0.0
46	0x00000000	0.0
47	0x00000000	0.0
48	0x00000000	0.0
49	0xb6839a29	-3.922051e-06
50	0x00000000	0.0
51	0x00000000	0.0
52	0x00000000	0.0
53	0x00000000	0.0
54	0x00000000	0.0
55	0x00000000	0.0
56	0x00000000	0.0
57	0x00000000	0.0
58	0x00000000	0.0
59	0x00000000	0.0
60	0x3780cfc4	1.5355537e-05
61	0x36ebcb3a	7.0272044e-06
62	0x00000000	0.0
63	0x00000000	0.0
64	0x37b82202	2.1950345e-05
65	0x00000000	0.0
66	0x00000000	0.0
67	0x00000000	0.0
68	0x00000000	0.0
69	0x37e43150	2.7202681e-05
70	0x00000000	0.0
71	0x00000000	0.0
72	0x00000000	0.0
73	0x00000000	0.0
74	0x00000000	0.0
75	0x00000000	0.0
76	0x00000000	0.0
77	0x00000000	0.0
78	0x00000000	0.0
79	0x00000000	0.0
80	0x36325465	2.657319e-06
81	0x35a383f3	1.2182849e-06
82	0x00000000	0.0
83	0x00000000	0.0
84	0x367f2e38	3.8024864e-06
85	0x00000000	0.0
86	0x00000000	0.0
87	0x00000000	0.0
88	0x00000000	0.0
89	0x369dcc44	4.7027443e-06
90	0x35d684db	1.5982909e-06
91	0x354a2845	7.5309464e-07
92	0x00000000	0.0
93	0x00000000	0.0
94	0x361be2ca	2.3228808e-06
95	0x00000000	0.0
96	0x00000000	0.0
97	0x00000000	0.0
98	0x00000000	0.0
99	0x363ad9db	2.7842968e-06

exp_avg_sq f4 [10, 10]
0	0x3122ba8f	2.368015e-09
1	0x2f3e7a57	1.7323863e-10
2	0x00000000	0.0
3	0x00000000	0.0
4	0x323e257f	1.1067981e-08
5	0x00000000	0.0
6	0x00000000	0.0
7	0x00000000	0.0
8	0x00000000	0.0
9	0x3261f93a	1.3153391e-08
10	0x3234516d	1.0495893e-08
11	0x30c13c66	1.4059764e-09
12	0x00000000	0.0
13	0x00000000	0.0
14	0x331ba20f	3.623614e-08
15	0x00000000	0.0
16	0x00000000	0.0
17	0x00000000	0.0
18	0x00000000	0.0
19	0x334c2e18	4.7539373e-08
20	0x00000000	0.0
21	0x00000000	0.0
22	0x00000000	0.0
23	0x00000000	0.0
24	0x00000000	0.0
25	0x00000000	0.0
26	0x00000000	0.0
27	0x00000000	0.0
28	0x00000000	0.0
29	0x00000000	0.0
30	0x313247e2	2.594327e-09
31	0x2f46cf07	1.8081546e-10
32	0x00000000	0.0
33	0x00000000	0.0
34	0x32524d3c	1.224117e-08
35	0x00000000	0.0
36	0x00000000	0.0
37	0x00000000	0.0
38	0x00000000	0.0
39	0x32783ed6	1.4449787e-08
40	0x314510a6	2.8676737e-09
41	0x2fc76d19	3.6275408e-10
42	0x00000000	0.0
43	0x00000000	0.0
44	0x32302ff8	1.0255455e-08
45	0x00000000	0.0
46	0x00000000	0.0
47	0x00000000	0.0
48	0x00000000	0.0
49	0x32666afd	1.3412088e-08
50	0x00000000	0.0
51	0x00000000	0.0
52	0x00000000	0.0
53	0x00000000	0.0
54	0x00000000	0.0
55	0x00000000	0.0
56	0x00000000	0.0
57	0x00000000	0.0
58	0x00000000	0.0
59	0x00000000	0.0
60	0x32fd436e	2.948374e-08
61	0x31689266	3.3843661e-09
62	0x00000000	0.0
63	0x00000000	0.0
64	0x33f45f00	1.1379416e-07
65	0x00000000	0.0
66	0x00000000	0.0
67	0x00000000	0.0
68	0x00000000	0.0
69	0x341a85ca	1.439104e-07
70	0x00000000	0.0
71	0x00000000	0.0
72	0x00000000	0.0
73	0x00000000	0.0
74	0x00000000	0.0
75	0x00000000	0.0
76	0x00000000	0.0
77	0x00000000	0.0
78	0x00000000	0.0
79	0x00000000	0.0
80	0x2e26c70a	3.7920812e-11
81	0x2d099afd	7.821963e-12
82	0x00000000	0.0
83	0x00000000	0.0
84	0x2eb26a93	8.113434e-11
85	0x00000000	0.0
86	0x00000000	0.0
87	0x00000000	0.0
88	0x00000000	0.0
89	0x2f059f9a	1.2152981e-10
90	0x3203fe9c	7.683095e-09
91	0x30052626	4.843933e-10
92	0x00000000	0.0
93	0x00000000	0.0
94	0x331f624b	3.710947e-08
95	0x00000000	0.0
96	0x00000000	0.0
97	0x00000000	0.0
98	0x00000000	0.0
99	0x333a0ca2	4.331799e-08

exp_avg f4 [10]
0	0xb7a450d5	-1.9587964e-05
1	0x38427e27	4.6370693e-05
2	0x00000000	0.0
3	0x37c3086f	2.3249739e-05
4	0xb71b879f	-9.270297e-06
5	0x00000000	0.0
6	0x388c8d89	6.702083e-05
7	0x00000000	0.0
8	0x3742c477	1.1609044e-05
9	0x36eda22d	7.08203e-06

exp_avg_sq f4 [10]
0	0x340682f0	1.2527357e-07
1	0x34c9d25e	3.759223e-07
2	0x00000000	0.0
3	0x3415e6bd	1.3960648e-07
4	0x33e5e985	1.07061204e-07
5	0x00000000	0.0
6	0x35a39247	1.2187019e-06
7	0x00000000	0.0
8	0x3053880d	7.695469e-10
9	0x34e59ea4	4.277e-07

exp_avg f4 [10, 10]
0	0xb699612a	-4.5710667e-06
1	0xb68791dc	-4.040294e-06
2	0x00000000	0.0
3	0xb653b50f	-3.154684e-06
4	0xb6fa46fa	-7.4588434e-06
5	0x00000000	0.0
6	0xb6fb7647	-7.494152e-06
7	0x00000000	0.0
8	0xb5a1473c	-1.2016167e-06
9	0xb62d8c09	-2.586052e-06
10	0xb7c5c216	-2.3574608e-05
11	0xb7af0cf1	-2.0867652e-05
12	0x00000000	0.0
13	0xb7893ab4	-1.6359008e-05
14	0xb8218d37	-3.8516908e-05
15	0x00000000	0.0
16	0xb8221913	-3.8647162e-05
17	0x00000000	0.0
18	0xb6c92301	-5.994342e-06
19	0xb761c4fd	-1.345691e-05
20	0xb77937da	-1.48545605e-05
21	0xb75c93a8	-1.3147401e-05
22	0x00000000	0.0
23	0xb72cdc42	-1.0303282e-05
24	0xb7cb91ac	-2.426732e-05
25	0x00000000	0.0
26	0xb7cc482b	-2.43523e-05
27	0x00000000	0.0
28	0xb67e3e20	-3.788511e-06
29	0xb70e270d	-8.472952e-06
30	0xb55cec29	-8.2300045e-07
31	0xb54129d8	-7.1958993e-07
32	0x00000000	0.0
33	0xb51271b4	-5.45547e-07
34	0xb5b293d0	-1.3305053e-06
35	0x00000000	0.0
36	0xb5b522f5	-1.3495725e-06
37	0x00000000	0.0
38	0xb48ec94c	-2.6596024e-07
39	0xb4e9e375	-4.356513e-07
40	0x36d788da	6.423431e-06
41	0x36beac9a	5.6825347e-06
42	0x00000000	0.0
43	0x369540ae	4.4480757e-06
44	0x372ffc88	1.048961e-05
45	0x00000000	0.0
46	0x3730ab0c	1.0530242e-05
47	0x00000000	0.0
48	0x35dde7f0	1.6533286e-06
49	0x36753c1a	3.6542829e-06
50	0xb662b288	-3.3780543e-06
51	0xb649834b	-3.0027757e-06
52	0x00000000	0.0
53	0xb61fbd16	-2.3802909e-06
54	0xb6b9dd2d	-5.539178e-06
55	0x00000000	0.0
56	0xb6b9ccda	-5.5372775e-06
57	0x00000000	0.0
58	0xb55103d2	-7.7864127e-07
59	0xb604a5b1	-1.9765978e-06
60	0x36963b60	4.4772605e-06
61	0x368493f4	3.9511306e-06
62	0x00000000	0.0
63	0x364e18e3	3.0710878e-06
64	0x36f4cbe1	7.2955013e-06
65	0x00000000	0.0
66	0x36f655dc	7.3413667e-06
67	0x00000000	0.0
68	0x35a3e757	1.2211775e-06
69	0x362846aa	2.5075083e-06
70	0xb7ef91b5	-2.855887e-05
71	0xb7d40b22	-2.5277554e-05
72	0x00000000	0.0
73	0xb7a630ca	-1.9811461e-05
74	0xb843b186	-4.6656955e-05
75	0x00000000	0.0
76	0xb8445f05	-4.6818535e-05
77	0x00000000	0.0
78	0xb6f42930	-7.2765615e-06
79	0xb788ae2e	-1.6293572e-05
80	0xb7c1a39b	-2.3083578e-05
81	0xb7ab5ee0	-2.0428968e-05
82	0x00000000	0.0
83	0xb78644cd	-1.6006083e-05
84	0xb81e28ab	-3.770801e-05
85	0x00000000	0.0
86	0xb81eb973	-3.784285e-05
87	0x00000000	0.0
88	0xb6c5e86c	-5.898115e-06
89	0xb75cca6c	-1.3160152e-05
90	0xb7072fe2	-8.057776e-06
91	0xb6ef1255	-7.124889e-06
92	0x00000000	0.0
93	0xb6bae594	-5.5699584e-06
94	0xb75cabef	-1.3153053e-05
95	0x00000000	0.0
96	0xb75d9e9e	-1.3209557e-05
97	0x00000000	0.0
98	0xb60ca197	-2.0955683e-06
99	0xb6995fea	-4.570921e-06

exp_avg_sq f4 [10, 10]
0	0x338d961c	6.593129e-08
1	0x336cc78a	5.512951e-08
2	0x00000000	0.0
3	0x3374e44f	5.7018323e-08
4	0x343261b3	1.6613085e-07
5	0x00000000	0.0
6	0x34363739	1.6970161e-07
7	0x00000000	0.0
8	0x2b967320	1.0690095e-12
9	0x3300c8a2	2.9984797e-08
10	0x33de78ad	1.03596314e-07
11	0x33b41425	8.3855674e-08
12	0x00000000	0.0
13	0x33a3125f	7.593621e-08
14	0x348bd048	2.6042312e-07
15	0x00000000	0.0
16	0x348e6622	2.6523873e-07
17	0x00000000	0.0
18	0x2d886921	1.5508097e-11
19	0x332e7c4e	4.0625586e-08
20	0x32821d55	1.514733e-08
21	0x325f0904	1.2982358e-08
22	0x00000000	0.0
23	0x327296ee	1.4120571e-08
24	0x33269391	3.8784098e-08
25	0x00000000	0.0
26	0x3329e7f7	3.955935e-08
27	0x00000000	0.0
28	0x2c219556	2.2962374e-12
29	0x32011077	7.512532e-09
30	0x333cc480	4.3950877e-08
31	0x33206fd4	3.735461e-08
32	0x00000000	0.0
33	0x332db72f	4.0446306e-08
34	0x33ef410b	1.1141136e-07
35	0x00000000	0.0
36	0x33f49ddf	1.1390852e-07
37	0x00000000	0.0
38	0x2a46b901	1.7650119e-13
39	0x32b6d89a	2.1286088e-08
40	0x34c333b6	3.6359205e-07
41	0x34a3d550	3.051632e-07
42	0x00000000	0.0
43	0x34ab8d6c	3.195413e-07
44	0x35761be7	9.1682745e-07
45	0x00000000	0.0
46	0x357ba8b1	9.3750265e-07
47	0x00000000	0.0
48	0x2c4815a7	2.8433729e-12
49	0x34345828	1.6795877e-07
50	0x326fde34	1.3962154e-08
51	0x324e326c	1.2002243e-08
52	0x00000000	0.0
53	0x325f1561	1.2985169e-08
54	0x331a7c7e	3.5969144e-08
55	0x00000000	0.0
56	0x331d426c	3.661482e-08
57	0x00000000	0.0
58	0x2bd033d0	1.479367e-12
59	0x31ef0178	6.9559825e-09
60	0x34e75b3c	4.3093485e-07
61	0x34bff28d	3.5753e-07
62	0x00000000	0.0
63	0x34c15c8c	3.6016388e-07
64	0x3591757f	1.0837538e-06
65	0x00000000	0.0
66	0x3594a10b	1.1073729e-06
67	0x00000000	0.0
68	0x2dd64924	2.4361464e-11
69	0x344bb3a5	1.8971203e-07
70	0x344cfca7	1.9090895e-07
71	0x34281e23	1.5657183e-07
72	0x00000000	0.0
73	0x34223d98	1.5109833e-07
74	0x3500a9aa	4.793061e-07
75	0x00000000	0.0
76	0x35034ce4	4.8913193e-07
77	0x00000000	0.0
78	0x2d5d7b2a	1.25897435e-11
79	0x33ab9fab	7.9918514e-08
80	0x33683549	5.4065172e-08
81	0x333e17cc	4.4259465e-08
82	0x00000000	0.0
83	0x333684c2	4.249592e-08
84	0x3411a16a	1.35629e-07
85	0x00000000	0.0
86	0x34149c27	1.3840382e-07
87	0x00000000	0.0
88	0x2cc2d8eb	5.5378944e-12
89	0x32c108d2	2.2472168e-08
90	0x33cd46dd	9.558946e-08
91	0x33ab0dea	7.965339e-08
92	0x00000000	0.0
93	0x33ad562c	8.071615e-08
94	0x34819139	2.4133786e-07
95	0x00000000	0.0
96	0x34844d05	2.4642955e-07
97	0x00000000	0.0
98	0x2cc64ae5	5.6358134e-12
99	0x333759e0	4.268975e-08

exp_avg f4 [10]
0	0xb766f405	-1.37658835e-05
1	0xb8957486	-7.126578e-05
2	0xb83c492c	-4.489084e-05
3	0xb621c994	-2.4108203e-06
4	0x37a2a7ca	1.9390038e-05
5	0xb72d2845	-1.03209795e-05
6	0x37613feb	1.3425927e-05
7	0xb8b50383	-8.631407e-05
8	0xb89243aa	-6.974426e-05
9	0xb7cbcaa7	-2.4293853e-05

exp_avg_sq f4 [10]
0	0x357865ff	9.2535623e-07
1	0x35ad171e	1.2896232e-06
2	0x3470c30e	2.2422702e-07
3	0x352d4510	6.454802e-07
4	0x36ad3f3c	5.163163e-06
5	0x345d4e37	2.0610683e-07
6	0x36c5ecb3	5.898613e-06
7	0x36289515	2.5120728e-06
8	0x353e0c3a	7.079831e-07
9	0x35b0cfd8	1.3173512e-06

exp_avg f4 [5, 5]
0	0x89a62e1e	-4.0006415e-33
1	0x8990c87a	-3.4855266e-33
2	0x890f4d17	-1.7249246e-33
3	0x88f78519	-1.4897063e-33
4	0x0a0822d1	6.55471e-33
5	0x382a08e8	4.0539453e-05
6	0xb7f4aed2	-2.9168474e-05
7	0xb8364805	-4.3459255e-05
8	0xb7b9ec14	-2.2163651e-05
9	0xb80a1c8e	-3.2928358e-05
10	0xb8cac962	-9.669621e-05
11	0x39a57ba6	0.00031563378
12	0x394eecf8	0.00019733969
13	0x3950315d	0.00019854815
14	0xb87a1fea	-5.9634367e-05
15	0x37b7cf34	2.1911786e-05
16	0x37b648ff	2.1730082e-05
17	0xb7074a0d	-8.063868e-06
18	0x3722d445	9.705375e-06
19	0xb8108bf1	-3.4462606e-05
20	0xb8e6d69b	-0.00011007228
21	0xb90b052e	-0.00013258003
22	0x381cbfdc	3.737198e-05
23	0xb888bfb8	-6.520696e-05
24	0x395a7356	0.00020833066

exp_avg_sq f4 [5, 5]
0	0x33198269	3.5741696e-08
1	0x32e5075c	2.6662455e-08
2	0x31b0f8e4	5.1505697e-09
3	0x31a063fd	4.6679802e-09
4	0x33c01d15	8.945987e-08
5	0x359a8863	1.1513588e-06
6	0x35b076f6	1.3147644e-06
7	0x33b0116b	8.198807e-08
8	0x3451a3da	1.952425e-07
9	0x366b75f7	3.5086393e-06
10	0x375cfaf8	1.3171455e-05
11	0x378612db	1.5982825e-05
12	0x355afca5	8.1578975e-07
13	0x361d08a0	2.3399843e-06
14	0x382db146	4.1411513e-05
15	0x369e52c8	4.718404e-06
16	0x369b9dee	4.6377454e-06
17	0x34a844a1	3.1342373e-07
18	0x3523b29e	6.0982154e-07
19	0x376250b6	1.3489442e-05
20	0x3779cd34	1.4889334e-05
21	0x3785fd3e	1.597276e-05
22	0x354f85bf	7.7308135e-07
23	0x360e33a7	2.1189715e-06
24	0x383cb551	4.4991557e-05

exp_avg f4 [5]
0	0x0a4ae495	9.768938e-33
1	0x38ec16db	0.00011257614
2	0xba6f1d82	-0.00091215235
3	0xb82ab77c	-4.070204e-05
4	0x39822cf8	0.00024829037

exp_avg_sq f4 [5]
0	0x344ed15b	1.9261408e-07
1	0x36f423b3	7.2759226e-06
2	0x38b6290d	8.6860826e-05
3	0x37e038ed	2.6729389e-05
4	0x38b48d99	8.6094435e-05

exp_avg f4 [5, 5]
0	0x081df961	4.7538612e-34
1	0x3939c180	0.00017715059
2	0x3a2c69f6	0.00065770687
3	0x2481e38f	5.633033e-17
4	0x26282aac	5.834454e-16
5	0x00000000	0.0
6	0x00000000	0.0
7	0x00000000	0.0
8	0x00000000	0.0
9	0x00000000	0.0
10	0x07e1d704	3.3980612e-34
11	0x38414ce2	4.608639e-05
12	0x39220c5a	0.00015454125
13	0xb4a1d8fd	-3.0146467e-07
14	0xb936111f	-0.0001736325
15	0x87e89f88	-3.5001244e-34
16	0xb8879f58	-6.466982e-05
17	0xb96363e8	-0.00021685625
18	0x34e31ddd	4.2303773e-07
19	0x397f7de7	0.00024365597
20	0x00000000	0.0
21	0xb7fa8304	-2.9863331e-05
22	0xb8d2033a	-0.00010014181
23	0x3451b962	1.9532084e-07
24	0x38ebeb03	0.000112494476

exp_avg_sq f4 [5, 5]
0	0x302fee60	6.400338e-10
1	0x36f0645d	7.164241e-06
2	0x386d6d1a	5.6606812e-05
3	0x35b214e7	1.3268117e-06
4	0x364db97c	3.0655347e-06
5	0x00000000	0.0
6	0x00000000	0.0
7	0x00000000	0.0
8	0x00000000	0.0
9	0x00000000	0.0
10	0x2fb43718	3.2780956e-10
11	0x36823481	3.880414e-06
12	0x38035428	3.131121e-05
13	0x3534d337	6.7362583e-07
14	0x361269e6	2.1817336e-06
15	0x2fbc0835	3.4202832e-10
16	0x36a27f1a	4.842773e-06
17	0x3825ed8d	3.9560302e-05
18	0x3547fdef	7.45028e-07
19	0x36529088	3.1376567e-06
20	0x00000000	0.0
21	0x340046af	1.1946643e-07
22	0x3599473f	1.1420124e-06
23	0x2ebe560c	8.655485e-11
24	0x34864570	2.5009967e-07

exp_avg f4 [5]
0	0x3ae26a1e	0.0017274057
1	0x00000000	0.0
2	0x3a1a4660	0.00058851205
3	0xba587c3d	-0.0008258259
4	0xb9c7edad	-0.0003813332

exp_avg_sq f4 [5]
0	0x39aba9a0	0.00032742042
1	0x00000000	0.0
2	0x393a55e1	0.00017770335
3	0x3967ce93	0.00022106832
4	0x36af1ed6	5.218996e-06

exp_avg f4 [11, 5]
0	0xba593472	-0.0008285708
1	0x00000000	0.0
2	0xbab66c15	-0.0013917709
3	0xb8a178e9	-7.6995995e-05
4	0x39b64650	0.00034766132
5	0x00000000	0.0
6	0x00000000	0.0
7	0x00000000	0.0
8	0x00000000	0.0
9	0x00000000	0.0
10	0x00000000	0.0
11	0x00000000	0.0
12	0x00000000	0.0
13	0x00000000	0.0
14	0x00000000	0.0
15	0x00000000	0.0
16	0x00000000	0.0
17	0x00000000	0.0
18	0x00000000	0.0
19	0x00000000	0.0
20	0x00000000	0.0
21	0x00000000	0.0
22	0x00000000	0.0
23	0x00000000	0.0
24	0x00000000	0.0
25	0x00000000	0.0
26	0x00000000	0.0
27	0x00000000	0.0
28	0x00000000	0.0
29	0x00000000	0.0
30	0x00000000	0.0
31	0x00000000	0.0
32	0x00000000	0.0
33	0x00000000	0.0
34	0x00000000	0.0
35	0x00000000	0.0
36	0x00000000	0.0
37	0x00000000	0.0
38	0x00000000	0.0
39	0x00000000	0.0
40	0x00000000	0.0
41	0x00000000	0.0
42	0x00000000	0.0
43	0x00000000	0.0
44	0x00000000	0.0
45	0x00000000	0.0
46	0x00000000	0.0
47	0x00000000	0.0
48	0x00000000	0.0
49	0x00000000	0.0
50	0x00000000	0.0
51	0x00000000	0.0
52	0x00000000	0.0
53	0x00000000	0.0
54	0x00000000	0.0

exp_avg_sq f4 [11, 5]
0	0x385b4c5c	5.2284784e-05
1	0x00000000	0.0
2	0x3a726b2a	0.0009247536
3	0x3804fa61	3.1704436e-05
4	0x3639b601	2.7673088e-06
5	0x00000000	0.0
6	0x00000000	0.0
7	0x00000000	0.0
8	0x00000000	0.0
9	0x00000000	0.0
10	0x00000000	0.0
11	0x00000000	0.0
12	0x00000000	0.0
13	0x00000000	0.0
14	0x00000000	0.0
15	0x00000000	0.0
16	0x00000000	0.0
17	0x00000000	0.0
18	0x00000000	0.0
19	0x00000000	0.0
20	0x00000000	0.0
21	0x00000000	0.0
22	0x00000000	0.0
23	0x00000000	0.0
24	0x00000000	0.0
25	0x00000000	0.0
26	0x00000000	0.0
27	0x00000000	0.0
28	0x00000000	0.0
29	0x00000000	0.0
30	0x00000000	0.0
31	0x00000000	0.0
32	0x00000000	0.0
33	0x00000000	0.0
34	0x00000000	0.0
35	0x00000000	0.0
36	0x00000000	0.0
37	0x00000000	0.0
38	0x00000000	0.0
39	0x00000000	0.0
40	0x00000000	0.0
41	0x00000000	0.0
42	0x00000000	0.0
43	0x00000000	0.0
44	0x00000000	0.0
45	0x00000000	0.0
46	0x00000000	0.0
47	0x00000000	0.0
48	0x00000000	0.0
49	0x00000000	0.0
50	0x00000000	0.0
51	0x00000000	0.0
52	0x00000000	0.0
53	0x00000000	0.0
54	0x00000000	0.0

exp_avg f4 [11]
0	0xbb59fb8f	-0.0033261513
1	0x00000000	0.0
2	0x00000000	0.0
3	0x00000000	0.0
4	0x00000000	0.0
5	0x00000000	0.0
6	0x00000000	0.0
7	0x00000000	0.0
8	0x00000000	0.0
9	0x00000000	0.0
10	0x00000000	0.0

exp_avg_sq f4 [11]
0	0x3b97d6c4	0.0046337564
1	0x00000000	0.0
2	0x00000000	0.0
3	0x00000000	0.0
4	0x00000000	0.0
5	0x00000000	0.0
6	0x00000000	0.0
7	0x00000000	0.0
8	0x00000000	0.0
9	0x00000000	0.0
10	0x00000000	0.0
