GRNN/oqk052eu/checkpoints/epoch=4-step=700.ckpt (torch, 36749 bytes, 40 tensors)

model.A f4 [9, 9]
000000 13 f1 da be dc ca f0 bd 78 56 51 3e 28 75 a8 3e
       -0.4276205 -0.11757442 0.20443141 0.32901883
000010 71 c3 ff be b6 f3 25 bf 22 63 b6 bc 88 48 f9 bd
       -0.49953797 -0.64825 -0.022264067 -0.12172037
000020 b8 b3 70 3e 69 8d 31 3f 80 96 0d be 21 5a 70 3f
       0.23506057 0.693564 -0.13826942 0.93887526
000030 b5 c8 20 3e d7 76 27 3e 27 68 09 3e 14 64 c4 be
       0.15701564 0.16353928 0.13418637 -0.38357604
000040 8c b3 5b 3e f4 3a de 3c 26 24 71 3e 0d e0 85 bd
       0.2145521 0.02712772 0.23548946 -0.06536875
000050 ca d8 77 be 42 16 72 3e 53 ca 80 be d0 49 94 3d
       -0.24203792 0.23641303 -0.2515436 0.07240641
000060 bb 6d 76 3e 28 d0 c3 3d 18 f3 d3 be 81 1f 1c bd
       0.24065296 0.09561187 -0.41396403 -0.038115982
000070 f6 6b 97 3e 71 72 0f 3f 86 2f 09 3e 7d 31 ef 3e
       0.29574555 0.56034 0.13397035 0.46717444
000080 14 c0 6d bd 3b 1f b5 bc ed e4 55 3c 07 2c d0 3d
       -0.058044508 -0.022109618 0.013055068 0.101646475
000090 3e 6b c8 3e b1 c2 e6 bd 69 af 5c 3e e9 70 3a 3b
       0.3914432 -0.11267603 0.21551289 0.0028448647
0000a0 f8 76 a8 be 73 5e 1f be 6f e6 63 3e 00 4e 25 be
       -0.32903266 -0.15563373 0.22255872 -0.16143036
0000b0 29 4e b8 3c 46 00 8b be 2b 2f 57 3e 4f 3c 66 3e
       0.022498207 -0.27148646 0.21014087 0.22483943
0000c0 31 30 24 be ef bd 2d bf 43 ce f5 be c1 a8 c8 bc
       -0.16034009 -0.6786794 -0.48008928 -0.02449453
0000d0 a5 9f 25 bd 78 5e f3 bd df 4c 93 bd c0 04 86 bd
       -0.040435452 -0.11883253 -0.071923964 -0.06543875
0000e0 48 b6 13 3f 53 4a a6 3d 05 3b 8c 3d f7 33 8b be
       0.57700014 0.08119645 0.068471946 -0.27188084
0000f0 a0 46 c5 bd 37 06 c8 be 1b 62 91 3e 25 f0 c6 3b
       -0.09632611 -0.39067242 0.2839516 0.006071108
000100 ab 80 ca be c9 06 73 3d 37 29 a4 be 73 3b a5 3e
       -0.3955129 0.059332643 -0.32062694 0.3227192
000110 10 dc e7 be 3d 1f d9 be 2f b7 d2 3e df 9b 50 3e
       -0.45285082 -0.42406645 0.41155383 0.2037196
000120 ee fa 43 3d 79 bf ba 3c e5 97 2e be 02 e4 5b be
       0.047846727 0.02279638 -0.1705013 -0.21473697
000130 36 68 6d 3e 7e 56 c0 bc 70 ec d4 bd 1a c4 91 be
       0.23184285 -0.023478743 -0.103966594 -0.28469926
000140 7c 1c 0f bf
       -0.5590284

model.B f4 [9, 1]
000000 f7 bc b8 be 9a cc 22 3e f9 32 b8 be 4f 65 14 3f
       -0.3608167 0.15898362 -0.3597639 0.57967085
000010 71 cb ca 3d 45 d6 b0 3e 2f d7 b9 3d 93 2e ad 3e
       0.099020846 0.34538475 0.09074246 0.33824596
000020 12 6e de be
       -0.43443352

model.D f4 [9]
000000 36 d3 09 bb bc ed 8c bc 74 0b 23 bc aa 80 fe bb
       -0.0021030433 -0.017203204 -0.009951461 -0.007766803
000010 db 28 6b 3c cf 7e e4 3b 3a 04 d8 bc 22 7c a4 3b
       0.014353002 0.0069731246 -0.026369203 0.0050196806
000020 d0 55 18 bb
       -0.0023244508

model.H2X_out_MLP.0.weight f4 [18, 9]
000000 31 e3 30 be 29 42 33 be 9b b6 d5 bc e0 e6 83 3e
       -0.17274167 -0.17505707 -0.02608805 0.2576208
000010 66 49 f6 3d e3 b9 03 be ca 2c 6b 3d 4f f5 cd bd
       0.120257184 -0.12863879 0.05741576 -0.100565545
000020 bc d1 79 3e 10 d4 b7 3c 10 c3 2e be 00 c6 0b 3a
       0.24396414 0.022439986 -0.17066598 0.00053319335
000030 d2 f3 47 3e 98 a3 86 be 7b d0 24 be 12 73 01 3e
       0.19526604 -0.26296687 -0.16095154 0.12641552
000040 55 b3 96 3e 29 17 a4 3e 94 58 d4 3d 18 45 65 bd
       0.29433694 0.3204892 0.103684574 -0.055974096
000050 90 ea 35 be 68 1c 27 3e f0 51 88 be f1 de a5 3e
       -0.1776526 0.1631943 -0.26625013 0.32396653
000060 48 f2 63 3d e0 50 62 be 9c 9c 93 bd 21 d4 a0 be
       0.05565098 -0.22101164 -0.07207605 -0.31411842
000070 3c 2c 49 3e 9a dd aa bd 24 45 4f 3e 4b 05 97 bd
       0.1964578 -0.083430484 0.20241219 -0.073740564
000080 32 7c b6 3d 19 98 bd bd 54 34 97 3c bd 74 96 bd
       0.08910407 -0.09257526 0.01845757 -0.07346485
000090 61 6c 51 3e 23 85 40 3e 96 be a7 be ac 76 67 3e
       0.204515 0.18800788 -0.32762593 0.22603863
0000a0 40 06 58 3e 8f 35 8a be 98 e9 53 be 7e e5 5e 3c
       0.21096134 -0.26993987 -0.20694578 0.01360452
0000b0 fb 6d 6f be 16 f2 30 3d 8e bd 20 be 88 88 70 be
       -0.23381798 0.04319962 -0.1569731 -0.23489583
0000c0 ff 3e fb 3d b6 a4 66 be 52 36 12 3e 87 b6 9b 3e
       0.12267875 -0.2252377 0.14278534 0.30412695
0000d0 4f c4 36 be aa 54 b0 3c 65 4c 56 be 3d 9c d6 3d
       -0.17848323 0.021524746 -0.2092758 0.10479019
0000e0 45 dc 21 be 4e 97 4b be a9 8f 8e 3d 5b 2e a3 be
       -0.15806682 -0.19881937 0.06960995 -0.31871304
0000f0 0b ef 7d 3e 48 48 ac 3e 9e cc 7a 3e b5 7f 97 3e
       0.24798219 0.33648896 0.24492118 0.2958962
000100 56 ef cb bc c0 65 16 3e d2 f9 40 be 65 71 4f 3e
       -0.024894398 0.14687252 -0.18845299 0.202581
000110 6f ae 31 3e b0 5f 94 be 04 b6 75 be 4b 0c 18 3d
       0.17351697 -0.28979254 -0.23995215 0.0371211
000120 96 68 84 3e 0f 85 63 3d d1 bf 7c be 61 71 61 be
       0.25861043 0.055546816 -0.24682547 -0.22015907
000130 29 7f 79 bd b6 c4 48 be 27 81 1d 3e cf 57 bf bd
       -0.060912285 -0.1960629 0.15381299 -0.0934292
000140 f3 80 66 be 48 c4 4c 3d 2e 6b 7d be 90 02 ea 3d
       -0.22510128 0.049991876 -0.24747917 0.1142627
000150 08 d7 37 bd b8 f8 7b bd 85 e4 a8 3e 6b d6 83 be
       -0.044882804 -0.061516494 0.32986847 -0.25749525
000160 ae c0 07 3e 3c 77 d2 3d 87 57 4a 3e a2 98 7f be
       0.13257095 0.102766484 0.19759952 -0.24960569
000170 25 e0 77 3d e6 6e ac be 85 34 28 3e 91 c4 07 bb
       0.060516495 -0.3367836 0.16426285 -0.0020716528
000180 72 bd 47 3d cc 0e 4e be 2a 46 42 3e 15 23 0e be
       0.048764654 -0.20122832 0.18972078 -0.1388057
000190 a3 01 89 be ab 71 54 3e c6 fe 66 3e ff 9a 9e 3e
       -0.2675906 0.20746486 0.22558126 0.30977628
0001a0 6c 9d 19 3d f0 79 16 3d 3e d7 ab bd 34 1c a0 bd
       0.037503645 0.036737382 -0.083906636 -0.07817879
0001b0 0c 87 0f bd 67 e8 c0 bc 38 f3 26 be 0c 2f 8b 3c
       -0.0350409 -0.023548318 -0.16303718 0.016990207
0001c0 e3 d7 32 3e 08 1a 40 3e e7 a3 f7 3d 15 78 79 be
       0.17465167 0.1875993 0.12091809 -0.24362214
0001d0 e8 45 23 3e 48 b0 59 be 7e c9 0a 3e e8 61 14 bd
       0.15944636 -0.21258652 0.13553426 -0.036226183
0001e0 73 fe 60 be 1e 53 3a 3e 70 ff e6 3d 68 5a a6 be
       -0.21972065 0.18195769 0.112791896 -0.3249085
0001f0 b8 ba 45 be 50 ec cf bd ed 8c bc bb 91 66 84 bd
       -0.19309509 -0.10152495 -0.0057541043 -0.064648755
000200 dd 8a b5 bd 0b d6 c7 3d a5 c0 0b bd be 81 d9 3d
       -0.08864377 0.09757622 -0.034119267 0.106204495
000210 42 66 79 3c 39 90 9c be ca 8b a1 3e d2 5c 9f bd
       0.015222134 -0.30578783 0.31551963 -0.07781376
000220 41 26 58 3e 49 2e a5 39 ba a4 47 3e 2d bd ff bc
       0.21108343 0.00031505738 0.19496432 -0.031218136
000230 f4 f0 92 be 79 a9 72 bd 8e 02 8d 3e 7c 6c ce 3d
       -0.28699458 -0.059243653 0.27541012 0.100792855
000240 55 d2 a8 3e e2 24 a0 3e 09 3f 58 be d9 9d a5 3e
       0.3297297 0.3127814 -0.21117796 0.3234699
000250 be de 12 be 6f 05 84 3e 13 4b 48 bd cd d2 46 3e
       -0.14342782 0.25785396 -0.04889972 0.19416352
000260 c1 e6 ef bd 5e 0c 0a 3e 00 e9 0e bc 00 18 49 be
       -0.11713935 0.1348128 -0.008722544 -0.19638062
000270 3e 72 1f be b0 8f 8e bc 78 d6 36 be 26 a2 a2 be
       -0.15570924 -0.0174025 -0.17855251 -0.31764334
000280 a8 f5 73 be a6 b6 9f be
       -0.23824179 -0.31194037

model.H2X_out_MLP.0.bias f4 [18]
000000 e2 e6 9b be 0c 6c a1 3d 79 2b a0 3e a1 2f 61 be
       -0.30449587 0.078819364 0.31283167 -0.21990825
000010 74 9a 6f 3d 29 ec 1e be e5 6e 2f be 83 3e 53 3d
       0.058496907 -0.15519775 -0.17132147 0.051573288
000020 a9 e1 5c be 4e 47 3b be 5e 49 4c be d2 8b ab be
       -0.21570458 -0.1828892 -0.19949862 -0.33505112
000030 a7 0a 05 be c0 7e 13 be 58 a9 6f 3e 3b 2c 56 3d
       -0.12992345 -0.1440382 0.23404443 0.052288275
000040 83 91 9c 3e d0 4f 00 be
       0.30579767 -0.12530446

model.H2X_out_MLP.2.weight f4 [18, 18]
000000 69 84 01 be 36 87 e6 3d 17 2f 30 3e 27 65 56 be
       -0.12648167 0.11256258 0.17205463 -0.20937024
000010 1c da ab 3c a0 ef 55 3e 6b 77 35 3e 83 4a c3 bd
       0.020978026 0.20892191 0.17721336 -0.09535696
000020 ff c4 25 3e 3c 82 16 3d 2f 9d a6 bd 86 11 ca bb
       0.1618843 0.036745295 -0.08135449 -0.0061666397
000030 67 1e 2a be 0e dd 81 bd 95 d1 11 3e 02 b2 f0 3d
       -0.1661316 -0.06340991 0.14240105 0.11752702
000040 b5 a8 ea 3d 00 90 be b8 c0 1d c7 bc c8 06 62 bd
       0.114579596 -9.086728e-05 -0.024306178 -0.05518225
000050 62 af 92 3d 44 88 32 3d 92 f4 eb 3d 73 82 52 be
       0.07162358 0.043586984 0.115212575 -0.20557575
000060 6d 94 00 3e a8 f4 c0 bd 50 bb 35 be 7c 65 51 3d
       0.1255662 -0.094216645 -0.17747235 0.051122174
000070 2f ca 0b 3e 0e 68 8e 3d 0c a0 aa bd 0a 75 f3 bd
       0.13651346 0.069534406 -0.08331308 -0.11887558
000080 ee f2 06 be 28 68 3f be 64 58 63 be b9 ca 49 3e
       -0.13178608 -0.18692076 -0.22201687 0.19706239
000090 c9 62 18 3e 8b cf 21 3e df 85 63 3e 0a 72 0d be
       0.14881434 0.15801828 0.22219037 -0.13813034
0000a0 38 6a 3b 3e 50 6e cc 3d 52 e5 5f 3e aa 3c 3c 3e
       0.18302238 0.09981978 0.21864823 0.18382517
0000b0 64 1f 48 be 56 de cb 3d bf 9b d0 bd 3a 34 1a 3d
       -0.19543225 0.099545166 -0.10185956 0.037647463
0000c0 25 f7 29 be b3 96 29 3e 8f c7 e8 bb ea 27 51 bd
       -0.16598184 0.16561393 -0.0071038674 -0.051063456
0000d0 13 98 1d be 78 60 c5 bd 91 5f c9 bc c8 2d 10 be
       -0.15390043 -0.096375406 -0.024581702 -0.14079964
0000e0 08 b9 d9 bd 9d 00 6e be 9d 1a 9c 3c 4b 0f 29 3e
       -0.10630995 -0.23242421 0.019055659 0.1650974
0000f0 89 e1 1d 3d 76 33 43 3e c4 75 a9 3d 98 e3 db bc
       0.038545165 0.190626 0.08274415 -0.026841924
000100 08 f4 01 be 6d 4c 13 be b0 36 3a bd 4a 4c d7 bd
       -0.12690747 -0.14384623 -0.04546231 -0.10512598
000110 ad 1b 9d bd 75 74 64 3d 3c 10 15 bd f8 35 58 be
       -0.07671294 0.055775125 -0.036392435 -0.21114337
000120 8b 68 5c 3e e0 4f 1a bd f8 de f5 3c 8f 2c 1e 3e
       0.21524255 -0.03767383 0.030013546 0.15446685
000130 10 5c 62 be b4 aa b9 bd b0 a0 6e be 5e de f3 3d
       -0.22105432 -0.09065762 -0.23303485 0.119076476
000140 9e 94 58 be e5 1c 28 3e 90 0c c6 bc 48 d2 b9 3c
       -0.21150443 0.16417272 -0.024175912 0.022683278
000150 91 c1 20 3e 07 ad 4a 3e 60 53 eb bb fe 02 59 be
       0.1569884 0.19792567 -0.00718157 -0.21192548
000160 35 c2 17 be 6b 3f 2a be 70 33 2e be 3b 0d 20 3e
       -0.14820178 -0.16625755 -0.1701181 0.15630047
000170 18 57 e0 bd 1d 81 48 3e ea 56 35 be 62 64 44 be
       -0.10954112 0.19580503 -0.17708936 -0.19178918
000180 08 5e 0f bd aa 97 ca 3d 6b a5 50 3e 1a 17 99 3d
       -0.035001785 0.09892209 0.20375602 0.074751094
000190 00 8e c4 bc 94 be 53 bd d8 24 42 be 2e 96 df 3d
       -0.023993492 -0.05169542 -0.18959367 0.109173164
0001a0 fe 1e ac bd e2 22 14 be 7b 89 11 3e 2d 32 68 3e
       -0.08404349 -0.14466432 0.14212601 0.2267539
0001b0 49 0e 54 3e 96 34 9a 3d 8d 20 ff bd b0 af 51 bd
       0.20708574 0.07529561 -0.124573804 -0.05119294
0001c0 40 a9 17 3c 3b 15 f4 bd 60 0e c7 bb 18 09 49 bd
       0.009256661 -0.11918112 -0.0060747117 -0.049080938
0001d0 08 1e 8d bc ae 13 3c be 4a df 2f be 20 b8 05 bd
       -0.017226234 -0.18366882 -0.17175022 -0.0326463
0001e0 53 7f 16 be a7 26 42 3e 90 ec ff bc 78 75 f3 bd
       -0.14697008 0.18960057 -0.031240731 -0.1188764
0001f0 40 fe 5e 3c ce 3b cb 3d 64 ac 2b 3d 1e 6d a3 3d
       0.013610423 0.09923516 0.04191245 0.07979797
000200 30 9d 16 be a2 f9 e4 3d f2 3c 4d be 98 0b 93 bd
       -0.147084 0.11180426 -0.2004278 -0.07179946
000210 57 4d 15 3e ce 5d 05 be 1c 0c 47 3d 82 4f 1d be
       0.14580284 -0.13024065 0.048595533 -0.15362361
000220 90 4e 6b bc 3b a9 2f 3e 1a 82 d5 3d dc 76 10 3d
       -0.0143619925 0.171544 0.104252055 0.035269603
000230 91 0b 58 3e 5a ec 0e be 14 dc 2f bd eb 60 07 3e
       0.21098162 -0.13957348 -0.042934492 0.13220565
000240 0a 2a 18 be d9 58 6a 3e 05 54 58 3e 30 1d 3f be
       -0.14859787 0.22885455 0.21125801 -0.18663478
000250 55 07 52 be 87 c8 02 be a0 86 cd bc 8d 96 04 3e
       -0.2051061 -0.12771808 -0.025088608 0.12948056
000260 20 59 08 be 6c 73 0a 3d 04 23 d1 bd ce 0b ae 3d
       -0.13315248 0.03380148 -0.10211757 0.08498345
000270 99 a1 06 3e 98 20 04 be 21 13 fd bd 6e 10 e2 3d
       0.13147582 -0.12903059 -0.12357164 0.1103829
000280 62 de 52 be f5 c3 16 3e 02 f5 80 3d 11 61 2f 3e
       -0.20592645 0.14723189 0.062967315 0.17126872
000290 ff 08 57 3e 2a cf bc 3d 48 b7 f0 bc 04 71 5f 3d
       0.20999525 0.09219201 -0.02938427 0.05455114
0002a0 c0 75 30 bb 84 aa 65 be 88 bd c7 3c 50 b4 93 bc
       -0.0026925653 -0.22428328 0.024382368 -0.018030316
0002b0 e6 c2 a1 bd 5e 16 53 be 33 de 5a 3e e0 4e 61 be
       -0.07898502 -0.20614001 0.21373825 -0.22002745
0002c0 68 e3 f3 bd b0 80 91 bd 34 7f 0a be 3d 2c 41 3e
       -0.11908609 -0.07104623 -0.13525087 0.18864532
0002d0 db b0 6f bc 3e 22 e6 3d 2f 64 6b 3e d0 6c d4 bd
       -0.014629568 0.11237 0.22987436 -0.10372317
0002e0 b6 bd 40 3e c9 2c dd 3d 74 b8 26 3e 57 e0 18 bd
       0.18822369 0.10799558 0.16281301 -0.037323322
0002f0 b3 69 63 3d 87 9d 21 3e ee 5d 3f be d5 77 91 3c
       0.055520725 0.15782748 -0.18688175 0.017757336
000300 d0 f7 02 be e8 c7 d8 bd 87 ea fd bd 1c c4 18 3d
       -0.12789845 -0.10585004 -0.12398248 0.0372964
000310 3b 37 cb bd e0 c1 16 be 8f 65 89 bb 7f a5 0c 3e
       -0.09922644 -0.14722395 -0.004193015 0.13735007
000320 a5 19 22 3e 2d dc 0a 3e de 83 86 bc a0 cd a2 bb
       0.15830095 0.13560553 -0.016420301 -0.00496836
000330 0e 27 d1 bd 2e 8e bb 3d d6 0a 40 be 7e b6 b2 3d
       -0.10212527 0.09157978 -0.18754134 0.08726214
000340 df 6b 4e be 21 a3 23 be c9 e7 52 be be 5e e4 3d
       -0.20158337 -0.15980197 -0.20596232 0.11150883
000350 86 47 b7 bd 79 b1 56 3e 00 a3 f6 bd 72 11 c5 3d
       -0.08949189 0.20966138 -0.120428085 0.09622468
000360 22 70 e1 3d 78 80 62 bd 22 ac 26 be 2a ce 33 be
       0.11007716 -0.0552983 -0.16276601 -0.17559114
000370 dc 67 0f bd 00 26 b1 ba bc b8 e1 bd c8 e0 ea 3c
       -0.035011157 -0.0013515353 -0.110215634 0.028671637
000380 88 48 b3 bc c0 fc 0e be 92 1f f3 3d 2c 6b b5 bd
       -0.021885172 -0.13963604 0.11871256 -0.08858332
000390 1c 9c 11 bd 00 10 73 ba d7 ae 12 be 97 f1 1a be
       -0.035549268 -0.00092720985 -0.14324509 -0.15131222
0003a0 a3 a3 4f 3e 15 57 33 3e aa 61 30 be b8 e8 09 bd
       0.20277266 0.17513688 -0.17224756 -0.033669204
0003b0 09 4e 10 3e b4 73 6e 3d 30 e1 51 bd e8 36 35 be
       0.14092268 0.05821581 -0.051240146 -0.17696726
0003c0 c4 08 43 3d 19 b3 e3 bd e7 35 ed bd a6 a3 f9 3d
       0.04761578 -0.111181445 -0.11582547 0.121894166
0003d0 56 1f 17 be 14 b8 5c be a5 1a 44 3e c1 ed 27 3e
       -0.14758047 -0.21554595 0.19150789 0.1639929
0003e0 18 be ef bc cb a7 19 3e 34 3e 4d be 1b 49 55 be
       -0.029265448 0.15005414 -0.2004326 -0.20828669
0003f0 15 c7 23 3e 57 ba 55 3e 9e 7f 57 be f4 e7 09 3d
       0.15993913 0.20871864 -0.21044776 0.033668473

model.H2X_out_MLP.2.bias f4 [18]
000000 b2 c7 61 be a0 0e 3d bd 32 ef dd bd 93 29 71 3d
       -0.22048834 -0.046156526 -0.108366385 0.05887754
000010 be 4b b8 3d 60 b7 b6 3b a4 ac 5a bd 34 ba e5 bd
       0.08998822 0.005576059 -0.0533873 -0.11217156
000020 48 24 9e 3c ad af 55 3e 2f c4 f7 3d 75 c2 11 3e
       0.01930441 0.20867796 0.12097966 0.14234336
000030 de 5c 11 be f0 c4 72 bd 7d 55 3b 3e 84 7c 3e bd
       -0.14195582 -0.059269845 0.1829433 -0.046505466
000040 85 99 67 3d de d6 3b be
       0.056542892 -0.18343684

model.H2X_out_MLP.4.weight f4 [1, 18]
000000 66 c9 55 3e 70 5b 61 bc 8e 50 17 3e 70 28 67 3e
       0.20877609 -0.013754711 0.14776823 0.2257402
000010 44 ec 3a bd b9 dc 14 3e 20 c1 3e 3c c0 7e d1 bd
       -0.045635477 0.14537324 0.011642724 -0.10229254
000020 18 b9 1d bd 7c 41 76 bd 97 bd f8 bd 5b d4 26 bd
       -0.038506597 -0.060121045 -0.121455364 -0.04072986
000030 bc 77 01 3d b8 37 2f be 7c 8d 7f bd ee e2 11 3d
       0.03160833 -0.17111099 -0.06239079 0.035616808
000040 53 47 51 3e e0 be 4f 3e
       0.20437364 0.20287657

model.inputMLP.0.weight f4 [18, 1]
000000 32 fd 49 3f e6 ed 75 3e 92 89 43 3f df 71 ba be
       0.7890197 0.24016532 0.7638179 -0.36415002
000010 97 53 16 bf 00 1b 21 be 2d 5e 63 bf 13 d2 18 3f
       -0.587213 -0.15732956 -0.88815576 0.5969555
000020 de 22 2b bf 58 db f6 be 6e 00 3f 3f d2 f5 59 3f
       -0.6685008 -0.4821422 0.7461003 0.8514072
000030 dd de 66 3f 90 f9 e2 bd 42 07 89 3e 9d 26 e6 3e
       0.9018381 -0.110827565 0.2676335 0.44951335
000040 25 9d 14 bf d1 2c 35 bf
       -0.58052284 -0.7077151

model.inputMLP.0.bias f4 [18]
000000 28 a0 9a be 11 7c 5c 3f 3c b4 bd be 3c 9e 72 3f
       -0.30200315 0.8612681 -0.3705157 0.94772696
000010 ff ac 05 3f 26 45 65 bf a6 da e2 3e b4 f8 45 3f
       0.52217096 -0.8955864 0.4430744 0.77332616
000020 0a ad 66 bf 20 68 b2 bd 0d 27 2f 3f 40 d8 07 3d
       -0.90107787 -0.087112665 0.6841896 0.033165216
000030 28 a6 65 3e cc 58 ae be 3d 4f 06 3f 37 47 05 3d
       0.22426665 -0.34052122 0.5246466 0.03253862
000040 2f 42 c0 3e 36 0d d9 3e
       0.37550494 0.42392892

model.inputMLP.2.weight f4 [18, 18]
000000 73 5f f2 3d ec 52 50 be 3e 7d b9 3d 55 34 6c bc
       0.11834612 -0.20344132 0.09057091 -0.014416774
000010 a0 7e 97 bb 38 05 f0 3c 18 6d 0f be 81 71 3b be
       -0.004623249 0.029299363 -0.1400646 -0.18305017
000020 36 1e d7 3d 41 de 11 3e 8c 01 b9 3d fc 61 50 bd
       0.10503809 0.1424494 0.09033498 -0.050874695
000030 4a 89 52 3d 80 14 13 be d6 bd 6e be b8 f0 62 3e
       0.05140046 -0.14363289 -0.23314604 0.2216214
000040 de 54 d1 bd 1e c8 8d bd a8 2c ef bc af dd 32 3e
       -0.10221265 -0.06922935 -0.029196098 0.17467378
000050 75 49 2d 3e 9a 79 90 3d ee 5f a4 3d 60 59 22 bc
       0.16922553 0.07054444 0.0802611 -0.009909004
000060 21 3c 6e be a3 a2 47 be 9c 3e 52 bd c0 8a 64 bc
       -0.23265125 -0.19495635 -0.05132924 -0.013949096
000070 b5 39 71 be 7c 01 6e be a8 29 3f bd 0c 78 3f bd
       -0.2355717 -0.23242754 -0.046670586 -0.046745345
000080 4b 1c 63 3e 50 4b 3e bc 4c 90 05 bd c0 52 34 bc
       0.22178762 -0.011614636 -0.032608315 -0.011006057
000090 7a fc 8b 3d fe 3c db bd 8c 83 5c be 14 83 5e bd
       0.068352655 -0.10704993 -0.21534556 -0.054324225
0000a0 3f 38 42 3e ca d9 ff 3d 80 2d 7c bd 90 af 39 be
       0.18966769 0.12492712 -0.06156683 -0.18133378
0000b0 8a 35 d3 3d 97 d8 30 3e 6e e5 4e be 18 51 bc bd
       0.10312946 0.17270122 -0.20204708 -0.09195155
0000c0 9d af 31 3e 0a ae da 3d d6 ba 4c be d3 95 1c be
       0.17352147 0.106777266 -0.19993147 -0.15291528
0000d0 66 cc 91 3d 24 6b 75 bd 4d 5e 0e be a4 01 2e 3d
       0.07119064 -0.05991663 -0.1390316 0.042482033
0000e0 ae 8f 22 3e c8 51 30 3e dd 87 fd bd 55 6b 20 3e
       0.15875122 0.17218697 -0.123794295 0.15665944
0000f0 87 f3 a2 bd cc 9b 4c be 80 bf 05 3c 6c d1 76 3d
       -0.079566054 -0.19981307 0.008163333 0.060258314
000100 62 06 2a 3e c7 56 40 3e 15 e0 54 bd 74 22 2e bd
       0.16603997 0.18783103 -0.051971514 -0.042513326
000110 cc 1c ff 3c 17 d6 34 be 63 ff 1d be f9 d0 3e be
       0.031141661 -0.17659794 -0.15429454 -0.18634404
000120 9f 7a 47 3d 41 54 1e 3e d7 2d 05 3e e6 92 38 3e
       0.048700925 0.15461828 0.13005768 0.18024787
000130 a3 d7 c6 bd 0c 79 1d be a7 15 5b bc 84 25 8b bd
       -0.09709098 -0.15378207 -0.013371862 -0.06794265
000140 60 53 96 bb 36 86 34 be 0c aa 4f be 1e 72 26 3e
       -0.004587576 -0.17629322 -0.20279711 0.1625447
000150 0d 2c 07 3e 36 b3 07 be fc 28 3e be f3 2a 59 3e
       0.13200398 -0.13251957 -0.18570322 0.2120779
000160 5c 27 c5 3d c7 f2 65 bc 25 51 df bd 95 c8 24 3e
       0.09626648 -0.014034933 -0.10904149 0.16092141
000170 75 5b 46 3c 07 71 ca 3d 6d 72 06 bd 70 c5 96 bd
       0.012106766 0.098848395 -0.03282397 -0.07361877
000180 e7 1a 83 bc f0 4c 4e 3d ce ee ea 3d ed b9 6f 3e
       -0.016004039 0.050366342 0.1147133 0.23410769
000190 6e 17 44 3e 52 1f 33 bd 1f 39 2c 3e 20 c5 49 be
       0.19149563 -0.04373104 0.16818665 -0.19704103
0001a0 e2 c6 7c 3d 05 14 92 bd 40 f7 02 3e d6 57 51 be
       0.061713107 -0.07132725 0.12789631 -0.20443663
0001b0 42 9e 4e 3e 29 cf 02 3d b6 db 8b bd ea 6e 1b 3e
       0.20177558 0.031935845 -0.06829016 0.15179029
0001c0 fb 8b c1 bc 79 b6 43 3e 69 32 92 3d 09 2b 5d 3d
       -0.023626318 0.19112577 0.07138521 0.05399612
0001d0 5b 11 21 3e 08 00 db 3c 59 52 d3 3d bf 23 54 3e
       0.15729277 0.026733413 0.10318441 0.20716761
0001e0 e7 a1 5c 3e c3 d0 59 3e d1 e3 28 3e 9f 76 d4 3d
       0.21546136 0.21271043 0.16493155 0.10374188
0001f0 1a 07 79 be 96 f3 15 3e 00 76 91 39 52 8d 28 be
       -0.24319115 0.14643702 0.00027744472 -0.1646016
000200 2a 63 82 3d d7 26 40 be 4e 5c e9 3d 61 9e 19 3e
       0.0636657 -0.18764816 0.11394559 0.15001823
000210 4c 12 40 3d 8c 31 58 3d fc 4c 5f bd 77 e7 4d 3e
       0.04689245 0.052781627 -0.054516777 0.20107828
000220 50 e1 4e be 56 38 5d be 30 ce 03 be 04 4f 90 bd
       -0.20203137 -0.21603522 -0.12871623 -0.07046321
000230 00 8d 5a bd c0 ac ea bb 9c 89 2c bd 20 17 d9 bc
       -0.053357124 -0.0071617067 -0.042123422 -0.026500285
000240 a6 13 dc bd 5a 17 d0 bd ee 97 ef 3d 3e a2 8f 3d
       -0.10745935 -0.10160704 0.116989 0.07013367
000250 9a ef e0 3d eb 6c 2c 3e c5 b9 10 3e 24 85 4a 3d
       0.109832 0.16838424 0.14133365 0.04944338
000260 90 0d 79 3c 43 1f 2b 3e 03 66 64 be 3c cd 6b be
       0.015200987 0.16711144 -0.2230454 -0.2302751
000270 59 78 65 be 21 70 4f 3e 85 63 67 3e af e5 26 be
       -0.2240919 0.20257618 0.22596557 -0.16298555
000280 00 fa 2b 3c 02 ec 09 be b1 39 ce bd 11 78 5e be
       0.010496616 -0.13468936 -0.100695975 -0.21725489
000290 04 4b 49 3d ba 16 f6 3c f6 0c 6b 3e 7c 09 c7 bd
       0.049143806 0.030040134 0.22954163 -0.09718606
0002a0 d3 ff 82 bd f4 a4 59 be 38 f9 35 bd e0 5d a2 bd
       -0.06396451 -0.21254331 -0.044427127 -0.079280615
0002b0 89 a0 38 3e 97 13 f7 bd 95 49 d3 3d 1e 8d d2 3d
       0.1802999 -0.12064283 0.10316769 0.10280822
0002c0 f2 28 5e 3e 63 8c c3 3c 73 e4 b5 bd e0 28 a5 3c
       0.21695307 0.023870653 -0.08881464 0.020161092
0002d0 fd b1 3f 3d 80 e0 8c bd ae 52 2f be a4 13 a4 bd
       0.046800602 -0.068787575 -0.17121384 -0.08011559
0002e0 cd ca 95 bd b1 3e 2c 3e aa 91 1a 3e 6b 5b 2e 3e
       -0.07314072 0.1682079 0.15094629 0.1702706
0002f0 04 b7 68 3d 58 58 e8 3c 45 ab 47 3e 96 ab e0 bd
       0.056815162 0.028362438 0.19498928 -0.109702274
000300 00 5d 26 bb dc 04 c1 bd b9 4f 3d 3e 6c db eb bd
       -0.0025385022 -0.09424755 0.18487443 -0.11516461
000310 7f 4a 2c be 91 e6 22 bd e3 cb bf 3d b0 f8 b8 3d
       -0.16825293 -0.039770667 0.0936506 0.090318084
000320 34 21 28 3e ee 40 5a bc d2 fa 62 3e 00 37 79 3b
       0.16418916 -0.0133211445 0.22165993 0.0038027167
000330 c2 b8 a9 bd 11 68 f8 3d c6 1f 27 be 84 70 ec bd
       -0.08287193 0.12129224 -0.16320714 -0.11544898
000340 ef 20 0a 3e c3 d0 9e 3d 93 fb 27 be 09 a5 10 3e
       0.13489126 0.07754662 -0.16404562 0.14125456
000350 0f 69 86 bd 6f 72 60 be bf c8 36 bd b9 84 91 bd
       -0.06563007 -0.21918653 -0.04462504 -0.07105393
000360 16 d9 b8 bd d2 ad 6e be 38 41 64 bd 30 28 5b 3c
       -0.09025781 -0.23308495 -0.05572626 0.013376281
000370 e8 38 0f be 45 fe 70 3e 12 51 fe 3d b3 7b 61 3e
       -0.13986552 0.23534496 0.12417807 0.22019844
000380 d4 82 5c 3d 0c e4 52 be 76 ef 32 be 2f c9 ff bd
       0.053835705 -0.20594805 -0.1747416 -0.124895446
000390 89 15 2a 3e 2e af be 3d e8 00 4a be 83 62 19 3e
       0.16609778 0.093107566 -0.19726908 0.14978985
0003a0 0c 71 1b 3d 54 46 62 3d bf c7 46 be 72 32 2b be
       0.037949607 0.05524285 -0.19412135 -0.16718462
0003b0 ff d5 89 3d 2a f6 fb 3d 53 02 69 3e 26 4c 14 be
       0.0673027 0.123028114 0.22754793 -0.14482173
0003c0 f2 22 3e 3d 98 74 f6 3d 1b 52 15 3e 3f bc 4e 3e
       0.046420045 0.12033957 0.14582102 0.20188998
0003d0 de 1e 64 3d 5f 7b 30 3e 9f 9f 47 be c6 66 cd bd
       0.0556935 0.17234562 -0.19494484 -0.10029368
0003e0 c0 45 8c bd e3 24 5b bd 08 83 01 3e 99 d1 24 3e
       -0.06849241 -0.053501975 0.1264764 0.1609558
0003f0 a8 2a fe 3c 60 4e f4 3b f4 dc ae bd 8c 52 23 3d
       0.0310262 0.007455632 -0.08538237 0.039873645

model.inputMLP.2.bias f4 [18]
000000 b2 36 59 3e 12 92 33 be ea f4 94 3d c1 16 34 3e
       0.21212271 -0.1753619 0.07273276 0.17586805
000010 90 30 50 bd 79 35 3b 3e fe 43 eb 3c ab e3 53 3e
       -0.050827563 0.18282117 0.028718945 0.20692317
000020 a5 dd 2f be d3 51 02 3e ec 79 3c 3d 71 4d 35 3e
       -0.17174394 0.12726526 0.04601471 0.17705323
000030 e5 ec 0d 3e ba 8c c8 3c ad 06 6b 3e 1d 5b 9a bd
       0.138599 0.024481166 0.22951765 -0.0753691
000040 1c 20 26 3e b6 74 8b 3d
       0.16223186 0.0680937

model.inputMLP.4.weight f4 [9, 18]
000000 d3 dd 2a be bf 63 67 3e 36 a2 ce 3d e0 d1 47 be
       -0.16686182 0.22596644 0.10089533 -0.19513655
000010 19 6e e4 bc 77 25 4e bc eb 8b f5 bd 25 e0 6f 3e
       -0.02788453 -0.0125821745 -0.11989578 0.23425348
000020 a0 83 4f bc f5 52 01 be 70 1c b0 bd 95 2e ed bd
       -0.012665659 -0.12629302 -0.08599174 -0.115811504
000030 c3 5b 5d 3e a3 1e 0a be dd a2 57 be 98 a7 04 3e
       0.21617036 -0.1348825 -0.21058221 0.12954557
000040 7a 57 56 3e ff ea 14 be 17 ae 8f 3d 13 9c 51 3e
       0.20931807 -0.14542769 0.07015627 0.20469694
000050 e0 b7 27 bc c1 f9 31 be 60 82 2b bd 67 00 e3 3d
       -0.01023671 -0.1738043 -0.041872382 0.11084061
000060 b5 59 6e 3b 3d c3 2c 3e 49 06 6e be 14 f1 5a 3e
       0.0036369388 0.16871352 -0.23244585 0.21381027
000070 90 c4 40 be 8f 9d 25 be 97 ef 6f be 89 ff 49 bd
       -0.18824983 -0.16173385 -0.2343124 -0.049315963
000080 56 0e 85 3d 9e 50 2e 3e 82 b6 2b 3e 42 d7 42 3d
       0.06496875 0.1702294 0.1676884 0.047568567
000090 f0 aa 6d 3e 4c 20 3d 3d f0 8d 67 bd 80 72 10 be
       0.23209739 0.04617338 -0.056531847 -0.14106178
0000a0 3c 5b 36 3e 2e 8b 29 3e ae bb 34 be c0 2e 11 be
       0.1780824 0.16556999 -0.17649719 -0.1417799
0000b0 78 c5 e8 3c 68 44 bf 3d 6c 06 61 3e dd 5c 14 3e
       0.028414473 0.09339219 0.21975106 0.1448855
0000c0 17 93 43 3e c8 e0 2d 3e f6 6b e3 bd f2 60 5f be
       0.19099079 0.16980278 -0.11104576 -0.21814325
0000d0 03 56 a9 3d 30 88 b4 bc b8 9a b6 3c 39 29 5a 3e
       0.082683586 -0.022037596 0.022290573 0.21304788
0000e0 19 60 5e be 1e 25 29 3e d7 75 f1 3b d9 60 15 3e
       -0.21716346 0.16518065 0.007368784 0.14587726
0000f0 1e eb 22 3e 21 e1 ee bd 40 f4 f8 bc a4 62 ff 3d
       0.15910003 -0.11664034 -0.030389905 0.12469986
000100 1c 60 21 3d 14 22 e9 3d d2 8e 8f 3d 3f fd ce bd
       0.039398298 0.11383453 0.07009663 -0.101068966
000110 6b 92 3d be 5c 3e 34 3d cd 25 1b be ee 96 62 be
       -0.18512885 0.044004783 -0.15151139 -0.22127888
000120 f6 15 bb 3d 75 50 68 3e b1 6e 68 3e 51 b6 10 3e
       0.09135048 0.22686942 0.22698475 0.14132048
000130 d0 c3 a3 3b 16 b2 e0 3d 86 42 ef 3c af 2d 0a 3e
       0.004997708 0.10971467 0.029206526 0.1349399
000140 04 c8 66 3d 46 c9 39 bd 42 16 a1 bd 89 81 bb 3c
       0.056343094 -0.045357965 -0.078655735 0.022888916
000150 a6 1b b1 3d 80 f5 2d 3e d6 a9 30 be 11 33 3d be
       0.08647852 0.16988182 -0.17252287 -0.18476512
000160 03 cb 37 3e 72 67 03 3c 71 f4 2f 3e 76 b3 87 bd
       0.17948537 0.008020269 0.17183091 -0.06626026
000170 56 0f 54 be 6d f4 60 be 53 2b a4 3d b6 13 13 bd
       -0.20708975 -0.21968241 0.08016076 -0.03590747
000180 34 da 07 be 38 b2 f3 3c de 85 cf 3d a4 4d 4c 3e
       -0.13266832 0.029748067 0.10132955 0.19951493
000190 36 60 06 3e 5e 99 19 be f7 19 13 3e 2d 54 b5 3d
       0.13122639 -0.14999911 0.14365374 0.08853946
0001a0 de 9e 8f 3d c7 3f 21 3c f5 6a 3c be a7 71 6b be
       0.070127234 0.009841866 -0.18400176 -0.22992574
0001b0 08 4c 12 be 70 df fa bc a9 9d 29 be 52 2a 9e bd
       -0.14286816 -0.030624121 -0.16564049 -0.07722916
0001c0 cd a2 d0 3d ea f4 8f 3c 4a 6d 5f 3d a1 6f 50 3e
       0.10187302 0.017572839 0.054547586 0.20355083
0001d0 a8 5d 31 bd 99 91 91 bd 87 e2 01 3e d4 fe 48 be
       -0.04330221 -0.07107849 0.1268407 -0.19628459
0001e0 34 2a 14 be ce 1f 67 be de 93 ce 3d 47 41 03 3e
       -0.14469224 -0.22570726 0.10086797 0.1281787
0001f0 73 8c 5d bd a3 74 61 be 95 d0 46 3e 15 36 10 3e
       -0.05408902 -0.2201715 0.19415505 0.1408313
000200 24 1e 15 3d 29 93 1d bb b2 e8 14 3d 64 ef 12 3b
       0.036405697 -0.0024044013 0.036354728 0.002242052
000210 47 a8 37 be 08 74 04 be ca 01 c1 3d 97 97 a3 3d
       -0.17935286 -0.12934887 0.09424169 0.07987898
000220 55 70 2a be 8e 71 1a 3e ad af 35 3e 95 35 f6 bd
       -0.16644414 0.1508238 0.17742796 -0.12021939
000230 30 a4 04 bc ca db 89 bd e4 dc 4b 3e 02 42 e8 bd
       -0.008095786 -0.067313746 0.19908482 -0.11340715
000240 34 40 34 3e ea 37 16 be b2 f1 89 bd 63 f8 07 be
       0.17602617 -0.14669767 -0.06735553 -0.13278346
000250 a2 c7 68 3d 7b ef 13 be 52 eb 38 3e c4 25 0c 3d
       0.05683101 -0.14446823 0.18058518 0.034215704
000260 ae 0a 0f be 31 69 68 3d 0f 20 33 3c 42 58 40 be
       -0.13968918 0.056740943 0.010932936 -0.18783668
000270 e1 89 23 3e aa 60 5f 3e 23 ad 3f 3e 4e 32 09 3e
       0.15970565 0.21814218 0.1871839 0.13398096
000280 15 1e 48 bd ac 04 4e bc
       -0.048856813 -0.012574356

model.inputMLP.4.bias f4 [9]
000000 0e ba 02 3e 19 b3 51 3e 86 95 30 be b1 64 21 bc
       0.12766287 0.20478477 -0.17244539 -0.009850667
000010 33 6f df 3d 73 91 06 be ce 4e df 3c 0b 5f cb bb
       0.109098814 -0.13141422 0.027259257 -0.0062063984
000020 03 f1 13 be
       -0.14447407

exp_avg f4 [9, 9]
000000 c9 d2 f7 38 e4 70 44 39 31 b2 a4 38 57 37 64 39
       0.000118171396 0.00018734072 7.85332e-05 0.0002176439
000010 99 47 a0 38 60 a0 e2 b8 7a fe 85 36 1f 1b f1 37
       7.6427306e-05 -0.00010806392 3.993334e-06 2.8742068e-05
000020 fe 04 36 b8 ea a8 16 b7 26 f5 19 b9 5b 7d 0e 38
       -4.339683e-05 -8.980025e-06 -0.00014682542 3.3972185e-05
000030 d1 e6 0b b9 f6 df 1b b9 28 63 77 39 2a 09 df 38
       -0.00013342059 -0.00014865384 0.00023592694 0.000106351756
000040 be 4f 3f b8 7c d8 76 38 a0 fd 2d b7 a4 26 79 b9
       -4.5612214e-05 5.8852587e-05 -1.0370655e-05 -0.00023760885
000050 41 9e 5c 38 fb fa 53 b9 41 0f 6e b9 aa 7d c1 39
       5.2599473e-05 -0.00020216026 -0.00022703131 0.00036905456
000060 c1 9c 4e 39 9a fd c7 b8 78 72 e9 38 05 e2 62 37
       0.00019704086 -9.5362964e-05 0.00011131627 1.3523274e-05
000070 52 8c b2 b8 68 35 92 37 fe bf 64 b8 e8 4d d8 b8
       -8.513838e-05 1.7429425e-05 -5.4538243e-05 -0.00010314194
000080 55 f2 17 39 9e 07 93 38 ff 46 89 b6 90 27 3b 38
       0.00014490758 7.010925e-05 -4.091183e-06 4.462112e-05
000090 cd b0 68 38 b5 09 5f 39 7c e8 09 b8 9a c8 65 39
       5.547777e-05 0.00021270553 -3.2879863e-05 0.00021913872
0000a0 64 d4 2e 39 2a 6f 9c b9 5c 43 16 b9 e2 0f f1 38
       0.00016673055 -0.00029837462 -0.00014330208 0.00011494734
0000b0 11 46 a5 b8 af 74 2d b9 d3 55 c8 b9 c8 74 ba b8
       -7.880864e-05 -0.00016542034 -0.00038210917 -8.890923e-05
0000c0 7d 69 d1 b9 42 6c 69 b9 27 03 ad 39 38 d1 bf 38
       -0.0003994218 -0.00022260941 0.0003299948 9.14656e-05
0000d0 8d 08 a0 b8 75 d4 f9 38 11 d4 d4 b8 7f 8f 77 b9
       -7.630987e-05 0.000119128184 -0.00010148448 -0.00023609212
0000e0 b3 e9 41 b7 98 4c 88 b9 17 c0 08 b9 a5 0c 80 39
       -1.1558109e-05 -0.00025997008 -0.0001304153 0.00024423483
0000f0 f4 97 ed 38 01 8c 01 b9 2d 62 a5 38 6a c2 0b 39
       0.00011329344 -0.00012354554 7.8861e-05 0.00013328498
000100 96 f3 a2 39 96 54 dd 36 18 53 b5 39 ae 7e 34 39
       0.00031080534 6.5961603e-06 0.0003458492 0.0001721333
000110 aa f0 ac b9 72 d8 22 b9 a4 80 36 39 6f a2 d3 b8
       -0.00032985705 -0.00015530156 0.00017404795 -0.0001009152
000120 84 92 e8 b7 a7 f2 37 38 ba d7 82 b8 45 b6 24 38
       -2.7724782e-05 4.3856588e-05 -6.239065e-05 3.92704e-05
000130 6e aa 04 38 3d 3e d6 b8 29 bd 07 b9 2c 63 dc 38
       3.1629977e-05 -0.00010215908 -0.00012945071 0.0001050889
000140 fc 36 55 b8
       -5.0834366e-05

exp_avg_sq f4 [9, 9]
000000 08 41 ba 36 05 48 26 37 ee 7a 14 36 4d a6 55 37
       5.5508026e-06 9.911139e-06 2.2125273e-06 1.2734509e-05
000010 8a bd 80 36 0a 55 c5 36 f3 1a 71 36 34 65 f9 35
       3.8367625e-06 5.8809574e-06 3.5927485e-06 1.85814e-06
000020 cb b1 25 35 87 67 30 35 1c 6a ec 36 83 39 2c 34
       6.172601e-07 6.571576e-07 7.045701e-06 1.6039671e-07
000030 14 e7 0a 37 f6 9e 1c 37 04 a8 96 37 98 2c 03 36
       8.279243e-06 9.335336e-06 1.7959632e-05 1.9546478e-06
000040 15 54 a6 35 c9 b9 5d 35 45 11 af 39 be 16 b8 39
       1.2392435e-06 8.259927e-07 0.00033391468 0.0003511216
000050 b2 f9 ab 37 98 22 01 3a 36 6f c8 39 73 12 d9 39
       2.0501062e-05 0.00049261143 0.0003822983 0.0004140321
000060 a0 d6 c8 39 d8 d5 b9 39 e4 eb 8c 38 c7 fd 26 34
       0.0003830688 0.00035445276 6.719658e-05 1.5552278e-07
000070 02 ba 48 36 0f c9 4c 33 27 d8 20 36 ab d8 89 36
       2.9910593e-06 4.7680313e-08 2.3967675e-06 4.1081416e-06
000080 95 a9 02 37 93 c1 98 35 8b 04 f0 33 67 b3 26 35
       7.788088e-06 1.138122e-06 1.1176697e-07 6.2100884e-07
000090 d7 98 1b 37 f7 33 c1 37 9f 73 ba 34 23 6d 40 38
       9.274306e-06 2.303159e-05 3.4729325e-07 4.587801e-05
0000a0 25 1c b6 37 83 a5 47 38 b7 bc 92 36 e0 d7 2e 36
       2.1709197e-05 4.7599442e-05 4.3731084e-06 2.6053676e-06
0000b0 da 69 a9 35 e3 bd 3c 37 fc 7f 1a 38 ee 79 dd 35
       1.2622288e-06 1.1249885e-05 3.6835656e-05 1.6501269e-06
0000c0 cc 60 56 38 e4 84 d3 37 53 0b 4c 38 9a a7 a9 35
       5.1111725e-05 2.5215042e-05 4.8647937e-05 1.264026e-06
0000d0 63 58 1b 35 11 32 01 36 a8 c6 27 36 c3 c7 8d 37
       5.787062e-07 1.925164e-06 2.5000572e-06 1.6901531e-05
0000e0 f1 f2 05 34 a8 75 ab 37 2b 15 2e 37 b2 99 d0 37
       1.2474972e-07 2.0439576e-05 1.0376137e-05 2.4867102e-05
0000f0 bb e3 12 36 77 63 d8 35 c9 ee da 35 c8 78 05 37
       2.1888252e-06 1.6122202e-06 1.6311761e-06 7.955539e-06
000100 ff ad 3a 38 b1 7c 13 34 56 68 8e 38 2b 60 2e 38
       4.4507902e-05 1.3735804e-07 6.790522e-05 4.1574396e-05
000110 af 6c b0 38 38 52 68 36 3c 65 ed 36 19 c3 30 36
       8.412578e-05 3.4618552e-06 7.0749356e-06 2.6339605e-06
000120 db 6c 99 39 0a af aa 39 35 f3 c3 37 f7 58 ea 39
       0.00029263538 0.0003255534 2.3359064e-05 0.00044698242
000130 b9 82 b7 39 84 23 c5 39 10 07 aa 39 cf f2 a4 39
       0.00035001876 0.0003760123 0.0003243019 0.00031461424
000140 d9 6b 4e 38
       4.921467e-05

exp_avg f4 [9]
000000 ee cb e0 b8 7c 05 fa b9 b6 37 7e ba 1e 9d 11 ba
       -0.00010719137 -0.00047687802 -0.00096976326 -0.00055547233
000010 9d 65 f3 39 05 6b a8 b9 88 3e 77 b9 b5 41 7a 39
       0.0004642428 -0.00032123193 -0.0002357905 0.00023866336
000020 e4 66 9b 39
       0.00029640563

exp_avg_sq f4 [9]
000000 33 f2 20 37 9c e3 ba 38 dc 85 6e 39 0d 0a f7 38
       9.593135e-06 8.911567e-05 0.00022747315 0.0001177975
000010 9b 6b 8a 38 fc 13 38 38 44 a8 94 38 10 52 56 39
       6.600396e-05 4.388763e-05 7.088532e-05 0.00020439201
000020 b5 06 b3 37
       2.1341586e-05

exp_avg f4 [18, 9]
000000 c1 45 da b8 44 52 17 b9 f6 5f c9 b8 72 ca 19 b9
       -0.00010408043 -0.00014431129 -9.602301e-05 -0.00014666634
000010 97 3a e1 b8 c3 30 cd 38 9f 48 b6 b8 cd 59 b7 38
       -0.00010739749 9.784244e-05 -8.691963e-05 8.742847e-05
000020 3c 23 c4 35 00 00 00 00 00 00 00 00 00 00 00 00
       1.4613393e-06 0.0 0.0 0.0
000030 00 00 00 00 00 00 00 00 00 00 00 00 00 00 00 00
       0.0 0.0 0.0 0.0
000040 00 00 00 00 00 00 00 00 00 00 00 00 00 00 00 00
       0.0 0.0 0.0 0.0
000050 00 00 00 00 00 00 00 00 00 00 00 00 00 00 00 00
       0.0 0.0 0.0 0.0
000060 00 00 00 00 00 00 00 00 00 00 00 00 d6 79 48 30
       0.0 0.0 0.0 7.2932715e-10
000070 78 0d a5 30 0b 1a 86 30 fe 49 a9 30 48 ba 5c 30
       1.2009158e-09 9.757185e-10 1.2317398e-09 8.0300255e-10
000080 58 99 3c b0 4d cf 0c 30 36 60 a2 af 5f e0 a3 af
       -6.8611916e-10 5.1226295e-10 -2.953599e-10 -2.9808953e-10
000090 71 12 e0 38 8a 37 1a 39 f0 e0 cc 38 48 b3 1c 39
       0.00010684587 0.00014707274 9.769376e-05 0.00014944107
0000a0 78 e3 e6 38 98 1a d3 b8 2c be bb 38 1c f1 bc b8
       0.00011009624 -0.000100662175 8.952277e-05 -9.009449e-05
0000b0 e4 4f 3b b5 45 67 e0 0a 40 bc ec 0a 11 f3 9a 09
       -6.9779185e-07 2.1609261e-32 2.2796785e-32 3.730273e-33
0000c0 e0 76 01 0b 68 86 ef 0a 87 52 f6 8a 79 36 e5 0a
       2.4933928e-32 2.3065421e-32 -2.3719982e-32 2.2072388e-32
0000d0 86 15 e0 8a ee 4f 3d 0a ea ae 2c 0c 03 40 3d 0c
       -2.1578512e-32 9.115052e-33 1.3303034e-31 1.4579293e-31
0000e0 02 dc 93 0b f6 3d 49 0c ee fe 34 0c e6 66 3b 8c
       5.695337e-32 1.5503122e-31 1.3943411e-31 -1.4436921e-31
0000f0 74 33 27 0c 4b 37 1c 8c 44 d6 3d 0b 33 76 bf b7
       1.2880696e-31 -1.2034442e-31 3.6561271e-32 -2.2824015e-05
000100 45 68 09 b8 ba 9b b8 b7 15 cd 0b b8 da ea c6 b7
       -3.2760454e-05 -2.2007025e-05 -3.333118e-05 -2.37128e-05
000110 96 27 b2 37 45 30 9d b7 7b 5b 9d 37 41 b8 9f 35
       2.1237687e-05 -1.8738336e-05 1.8758457e-05 1.1900048e-06
000120 da bf 06 b8 39 1e 36 b8 be 03 f1 b7 97 f4 38 b8
       -3.2126765e-05 -4.342033e-05 -2.8731181e-05 -4.409681e-05
000130 43 5d 0a b8 ba 50 ff 37 00 96 e3 b7 cd 32 e5 37
       -3.298862e-05 3.043596e-05 -2.7130358e-05 2.7322583e-05
000140 b9 5e c9 b4 00 00 00 00 00 00 00 00 00 00 00 00
       -3.7508087e-07 0.0 0.0 0.0
000150 00 00 00 00 00 00 00 00 00 00 00 00 00 00 00 00
       0.0 0.0 0.0 0.0
000160 00 00 00 00 00 00 00 00 a4 eb 38 0b 25 ff 4a 0b
       0.0 0.0 3.5614387e-32 3.9095734e-32
000170 63 bd 9e 0a 75 9f 57 0b f6 a2 41 0b 8b 23 48 8b
       1.5286086e-32 4.1527456e-32 3.7293046e-32 -3.8545338e-32
000180 6a fb 32 0b 9e 3b 28 8b 49 81 4b 0a ed ca 40 38
       3.4470696e-32 -3.2400474e-32 9.79841e-33 4.5965357e-05
000190 4a 70 85 38 4b 9f 31 38 5b 9d 87 38 33 e0 46 38
       6.36285e-05 4.234844e-05 6.4666114e-05 4.741568e-05
0001a0 fe 5b 35 b8 7c 11 21 38 14 e7 21 b8 b6 c4 1f b5
       -4.3239437e-05 3.8401675e-05 -3.86006e-05 -5.951837e-07
0001b0 99 54 cf b9 db e5 0e ba 1f 1c bd b9 f0 2c 11 ba
       -0.00039545147 -0.0005451121 -0.0003606984 -0.0005538007
0001c0 d4 95 d5 b9 ef fd c2 39 b1 e2 ad b9 79 1f b0 39
       -0.00040738157 0.0003719176 -0.0003316603 0.00033592785
0001d0 f5 d8 d2 35 00 00 00 00 00 00 00 00 00 00 00 00
       1.5709362e-06 0.0 0.0 0.0
0001e0 00 00 00 00 00 00 00 00 00 00 00 00 00 00 00 00
       0.0 0.0 0.0 0.0
0001f0 00 00 00 00 00 00 00 00 b5 4d 4f 39 40 62 8d 39
       0.0 0.0 0.00019770006 0.00026966818
000200 4d 71 3b 39 61 9f 8f 39 de 3c 55 39 30 d7 43 b9
       0.00017875918 0.00027393832 0.00020335938 -0.00018676813
000210 86 64 2e 39 96 99 2f b9 d6 b4 0f 35 1c 20 29 39
       0.00016631381 -0.00016746516 5.35348e-07 0.00016129058
000220 b6 b8 6a 39 6b 36 1c 39 eb 8e 6e 39 33 8c 2e 39
       0.00022384789 0.00014897592 0.0002275069 0.00016646161
000230 50 f1 1e b9 32 2e 0d 39 16 00 0e b9 7f 74 22 b6
       -0.0001515795 0.00013464017 -0.00013542207 -2.420769e-06
000240 94 4d 0a 39 3f b6 3d 39 e0 d8 fb 38 73 bf 40 39
       0.00013189606 0.00018092337 0.00012009009 0.00018381867
000250 41 6a 0e 39 ea 6f 02 b9 87 1c e8 38 11 a1 e9 b8
       0.00013581758 -0.00012439457 0.00011067936 -0.00011140307
000260 1e 88 d6 b4 00 00 00 00 00 00 00 00 00 00 00 00
       -3.9959644e-07 0.0 0.0 0.0
000270 00 00 00 00 00 00 00 00 00 00 00 00 00 00 00 00
       0.0 0.0 0.0 0.0
000280 00 00 00 00 00 00 00 00
       0.0 0.0

exp_avg_sq f4 [18, 9]
000000 b6 3d f5 37 2b 1e 1e 38 e0 8a 18 37 45 06 2e 38
       2.9235012e-05 3.769823e-05 9.09224e-06 4.149067e-05
000010 58 72 03 38 07 6f 09 38 e5 4e d6 37 b9 94 bf 37
       3.1339325e-05 3.2766748e-05 2.5547526e-05 2.2838229e-05
000020 a5 c4 d4 35 00 00 00 00 00 00 00 00 00 00 00 00
       1.5852462e-06 0.0 0.0 0.0
000030 00 00 00 00 00 00 00 00 00 00 00 00 00 00 00 00
       0.0 0.0 0.0 0.0
000040 00 00 00 00 00 00 00 00 00 00 00 00 00 00 00 00
       0.0 0.0 0.0 0.0
000050 00 00 00 00 00 00 00 00 00 00 00 00 00 00 00 00
       0.0 0.0 0.0 0.0
000060 00 00 00 00 00 00 00 00 00 00 00 00 62 40 59 2b
       0.0 0.0 0.0 7.7183236e-13
000070 04 8e ff 2b e9 34 a5 2b 24 51 06 2c 4d eb 7a 2b
       1.8158257e-12 1.1738641e-12 1.9087587e-12 8.914439e-13
000080 13 56 47 2b 1e 14 e6 2a 4b e7 42 2a cd db aa 29
       7.0818454e-13 4.0870166e-13 1.7310907e-13 7.587646e-14
000090 6e 6f 97 38 9e 3a bc 38 a7 c9 97 37 2b 9a d5 38
       7.2209965e-05 8.975457e-05 1.8094504e-05 0.000101853475
0000a0 9b 83 a5 38 34 49 ab 38 d3 9f 8c 38 16 f0 84 38
       7.8923265e-05 8.1675505e-05 6.70549e-05 6.33897e-05
0000b0 1b f8 04 37 f7 2e f2 38 c7 cc fb 38 bd 5a 1c 36
       7.92558e-06 0.00011548207 0.000120067554 2.3298628e-06
0000c0 cb 98 21 39 2b 02 0d 39 38 7c 12 39 84 f0 05 39
       0.00015411076 0.00013447615 0.0001396992 0.00012773467
0000d0 31 e3 07 39 be 1b 03 38 9e 10 66 39 63 80 83 39
       0.00012959239 3.125867e-05 0.000219407 0.00025081923
0000e0 1d 37 ea 37 e7 e9 9a 39 2f 41 81 39 67 62 89 39
       2.7920638e-05 0.0002954744 0.00024653363 0.00026203992
0000f0 85 e5 65 39 4c 11 54 39 12 bf 06 38 91 a6 89 38
       0.00021924645 0.00020224339 3.2126038e-05 6.5636945e-05
000100 d8 04 af 38 f8 78 a3 37 be af c0 38 5d d0 93 38
       8.3455525e-05 1.9487445e-05 9.188008e-05 7.048317e-05
000110 3f 03 9c 38 1e 8d 72 38 a8 39 55 38 92 fc 54 36
       7.439264e-05 5.782872e-05 5.0836854e-05 3.1737477e-06
000120 c7 ba f5 36 6b 28 27 37 cd 70 38 36 a9 e3 36 37
       7.3233127e-06 9.963386e-06 2.7483795e-06 1.0901052e-05
000130 17 0f 03 37 ac 85 03 37 7d 08 d3 36 ee 8b ca 36
       7.811722e-06 7.839331e-06 6.289278e-06 6.036359e-06
000140 aa 25 fa 34 00 00 00 00 00 00 00 00 00 00 00 00
       4.6593533e-07 0.0 0.0 0.0
000150 00 00 00 00 00 00 00 00 00 00 00 00 00 00 00 00
       0.0 0.0 0.0 0.0
000160 00 00 00 00 00 00 00 00 98 b2 79 37 87 fa 8d 37
       0.0 0.0 1.4883139e-05 1.692517e-05
000170 9a 73 c9 35 38 bb a7 37 85 00 8d 37 b7 08 95 37
       1.5009311e-06 1.9995132e-05 1.6808752e-05 1.7766242e-05
000180 52 48 7e 37 62 c6 70 37 93 4c 25 36 ef 17 0d 39
       1.5156418e-05 1.4351304e-05 2.4631488e-06 0.00013455724
000190 d5 62 2b 39 ee 8c f0 37 86 b5 42 39 a5 ec 1a 39
       0.00016344649 2.8675855e-05 0.00018568904 0.00014774741
0001a0 bb bd 22 39 0d 1d 05 39 5d 76 f6 38 51 99 70 37
       0.00015520204 0.0001269469 0.00011752241 1.43408115e-05
0001b0 3d b9 74 39 08 7c a3 39 66 f2 a9 38 d6 b1 b2 39
       0.0002333866 0.00031182193 8.103698e-05 0.00034083304
0001c0 16 da 82 39 da d1 85 39 9f 73 53 39 f0 b0 43 39
       0.0002495802 0.00025524088 0.000201656 0.00018662564
0001d0 80 de 58 37 00 00 00 00 00 00 00 00 00 00 00 00
       1.2926408e-05 0.0 0.0 0.0
0001e0 00 00 00 00 00 00 00 00 00 00 00 00 00 00 00 00
       0.0 0.0 0.0 0.0
0001f0 00 00 00 00 00 00 00 00 2a 50 a7 39 23 c9 d5 39
       0.0 0.0 0.0003191245 0.00040776384
000200 b2 a0 ba 38 da 67 ef 39 a7 c3 b5 39 12 f8 b9 39
       8.899103e-05 0.00045663008 0.00034668783 0.00035470776
000210 2e 16 99 39 46 0d 93 39 15 8c 05 38 70 ba 34 38
       0.0002919896 0.00028047914 3.1840133e-05 4.3088978e-05
000220 66 1f 65 38 93 18 4c 37 15 b5 7e 38 06 66 43 38
       5.4627097e-05 1.2165069e-05 6.0726965e-05 4.658664e-05
000230 51 66 4d 38 93 28 21 38 a8 10 0f 38 af 5d 3b 36
       4.89711e-05 3.842318e-05 3.410937e-05 2.7919702e-06
000240 62 ed bd 37 66 e9 09 38 f5 54 2f 37 f1 8d 12 38
       2.2641096e-05 3.2880715e-05 1.0450593e-05 3.4941306e-05
000250 f0 04 c7 37 19 be c3 37 bd 0f 99 37 e2 dd 92 37
       2.3724948e-05 2.3334333e-05 1.824635e-05 1.7507879e-05
000260 d6 4a 15 35 00 00 00 00 00 00 00 00 00 00 00 00
       5.5615726e-07 0.0 0.0 0.0
000270 00 00 00 00 00 00 00 00 00 00 00 00 00 00 00 00
       0.0 0.0 0.0 0.0
000280 00 00 00 00 00 00 00 00
       0.0 0.0

exp_avg f4 [18]
000000 71 72 09 b7 00 00 00 00 00 00 00 00 b4 ea 90 2e
       -8.192482e-06 0.0 0.0 6.5900535e-11
000010 4d 25 0a 37 1c 2a d8 08 1d 14 2a 0a 24 d9 04 b6
       8.234126e-06 1.3009927e-33 8.188985e-33 -1.9795925e-06
000020 2a 54 1d b6 00 00 00 00 59 ee 35 09 fb ab 71 36
       -2.3443813e-06 0.0 2.1899153e-33 3.6011904e-06
000030 8a b6 00 b8 00 00 00 00 f6 d3 78 37 3e 95 55 37
       -3.068758e-05 0.0 1.4831303e-05 1.27305375e-05
000040 89 cc 28 37 00 00 00 00
       1.0061202e-05 0.0

exp_avg_sq f4 [18]
000000 41 e7 fd 33 00 00 00 00 00 00 00 00 b4 2f c4 27
       1.18232954e-07 0.0 0.0 5.445265e-15
000010 2d 67 99 34 d6 c0 dd 34 e4 56 5a 35 51 50 8b 34
       2.857354e-07 4.1304764e-07 8.133777e-07 2.5949205e-07
000020 98 61 06 33 00 00 00 00 47 30 6b 33 03 df 0a 35
       3.1288067e-08 0.0 5.475911e-08 5.173353e-07
000030 70 10 83 35 00 00 00 00 ae 2b ac 35 9b 9f 39 34
       9.765045e-07 0.0 1.2827711e-06 1.7287532e-07
000040 b5 00 da 33 00 00 00 00
       1.0151545e-07 0.0

exp_avg f4 [18, 18]
000000 51 67 d6 39 00 00 00 00 00 00 00 00 b7 e0 25 ae
       0.00040894237 0.0 0.0 -3.7716243e-11
000010 4a ec 95 3a 95 84 fe 09 54 58 ac 0a c5 fc 5a 39
       0.0011438217 6.1272955e-33 1.6596223e-32 0.00020884264
000020 64 ea 34 39 00 00 00 00 3e 3c 70 0a 07 fa 0a 3a
       0.00017253455 0.0 1.156691e-32 0.0005301539
000030 3b 27 27 39 00 00 00 00 93 1e 31 39 89 ba 2c 3a
       0.00015940976 0.0 0.00016891425 0.0006589075
000040 4b b8 2d 3a 00 00 00 00 00 00 00 00 00 00 00 00
       0.0006626888 0.0 0.0 0.0
000050 00 00 00 00 00 00 00 00 00 00 00 00 00 00 00 00
       0.0 0.0 0.0 0.0
000060 00 00 00 00 00 00 00 00 00 00 00 00 00 00 00 00
       0.0 0.0 0.0 0.0
000070 00 00 00 00 00 00 00 00 00 00 00 00 00 00 00 00
       0.0 0.0 0.0 0.0
000080 00 00 00 00 00 00 00 00 00 00 00 00 00 00 00 00
       0.0 0.0 0.0 0.0
000090 92 c1 97 39 00 00 00 00 00 00 00 00 f2 d6 ea ad
       0.00028945185 0.0 0.0 -2.6698175e-11
0000a0 96 3b 54 3a 6f e0 b8 09 0e 8b 79 0a 23 00 1b 39
       0.0008096037 4.4507445e-33 1.2015067e-32 0.00014782003
0000b0 99 0d 00 39 00 00 00 00 93 fb 2d 0a ac bc c4 39
       0.00012212097 0.0 8.376963e-33 0.00037524605
0000c0 bb 9f ec 38 00 00 00 00 7a bb fa 38 42 84 f4 39
       0.00011283109 0.0 0.00011955849 0.00046637846
0000d0 7a eb f5 39 00 00 00 00 6f 2e ba b4 00 00 00 00
       0.00046905485 0.0 -3.4678985e-07 0.0
0000e0 00 00 00 00 00 00 00 00 cd 9c 9c b5 a0 80 02 08
       0.0 0.0 -1.1668541e-06 3.927165e-34
0000f0 e5 ae f1 07 da 27 3e b4 34 0d 1e b4 00 00 00 00
       3.6364444e-34 -1.7709627e-07 -1.47197e-07 0.0
000100 9a a7 c8 07 54 1c 15 b5 cc af c4 b2 00 00 00 00
       3.0191163e-34 -5.554805e-07 -2.2897346e-08 0.0
000110 8d 1a 7c b2 de a1 45 b5 d6 99 37 b5 00 00 00 00
       -1.46743675e-08 -7.3623767e-07 -6.8396673e-07 0.0
000120 00 00 00 00 00 00 00 00 00 00 00 00 00 00 00 00
       0.0 0.0 0.0 0.0
000130 00 00 00 00 00 00 00 00 00 00 00 00 00 00 00 00
       0.0 0.0 0.0 0.0
000140 00 00 00 00 00 00 00 00 00 00 00 00 00 00 00 00
       0.0 0.0 0.0 0.0
000150 00 00 00 00 00 00 00 00 00 00 00 00 00 00 00 00
       0.0 0.0 0.0 0.0
000160 00 00 00 00 00 00 00 00 00 00 00 00 00 00 00 00
       0.0 0.0 0.0 0.0
000170 00 00 00 00 00 00 00 00 00 00 00 00 00 00 00 00
       0.0 0.0 0.0 0.0
000180 00 00 00 00 00 00 00 00 00 00 00 00 00 00 00 00
       0.0 0.0 0.0 0.0
000190 00 00 00 00 00 00 00 00 00 00 00 00 00 00 00 00
       0.0 0.0 0.0 0.0
0001a0 00 00 00 00 00 00 00 00 00 00 00 00 00 00 00 00
       0.0 0.0 0.0 0.0
0001b0 00 00 00 00 00 00 00 00 00 00 00 00 00 00 00 00
       0.0 0.0 0.0 0.0
0001c0 00 00 00 00 00 00 00 00 00 00 00 00 00 00 00 00
       0.0 0.0 0.0 0.0
0001d0 00 00 00 00 00 00 00 00 00 00 00 00 00 00 00 00
       0.0 0.0 0.0 0.0
0001e0 00 00 00 00 00 00 00 00 00 00 00 00 00 00 00 00
       0.0 0.0 0.0 0.0
0001f0 00 00 00 00 00 00 00 00 00 00 00 00 00 00 00 00
       0.0 0.0 0.0 0.0
000200 00 00 00 00 00 00 00 00 00 00 00 00 00 00 00 00
       0.0 0.0 0.0 0.0
000210 00 00 00 00 00 00 00 00 00 00 00 00 00 00 00 00
       0.0 0.0 0.0 0.0
000220 00 00 00 00 00 00 00 00 00 00 00 00 00 00 00 00
       0.0 0.0 0.0 0.0
000230 00 00 00 00 00 00 00 00 00 00 00 00 00 00 00 00
       0.0 0.0 0.0 0.0
000240 00 00 00 00 00 00 00 00 00 00 00 00 00 00 00 00
       0.0 0.0 0.0 0.0
000250 00 00 00 00 00 00 00 00 00 00 00 00 00 00 00 00
       0.0 0.0 0.0 0.0
000260 00 00 00 00 00 00 00 00 00 00 00 00 00 00 00 00
       0.0 0.0 0.0 0.0
000270 00 00 00 00 00 00 00 00 00 00 00 00 00 00 00 00
       0.0 0.0 0.0 0.0
000280 00 00 00 00 00 00 00 00 00 00 00 00 00 00 00 00
       0.0 0.0 0.0 0.0
000290 00 00 00 00 00 00 00 00 00 00 00 00 00 00 00 00
       0.0 0.0 0.0 0.0
0002a0 00 00 00 00 00 00 00 00 00 00 00 00 00 00 00 00
       0.0 0.0 0.0 0.0
0002b0 00 00 00 00 00 00 00 00 00 00 00 00 00 00 00 00
       0.0 0.0 0.0 0.0
0002c0 00 00 00 00 00 00 00 00 00 00 00 00 00 00 00 00
       0.0 0.0 0.0 0.0
0002d0 4b 6b 79 b9 00 00 00 00 00 00 00 00 b3 e1 c0 2d
       -0.0002378646 0.0 0.0 2.1928103e-11
0002e0 65 68 2e ba cb 08 78 89 63 da 2c 8a 6d c0 fe b8
       -0.0006653129 -2.9856049e-33 -8.322573e-33 -0.00012147506
0002f0 4b 76 d2 b8 00 00 00 00 7e 38 f0 89 7b ac a1 b9
       -0.00010035614 0.0 -5.7831023e-33 -0.0003083682
000300 bb 73 c2 b8 00 00 00 00 c5 0b ce b8 19 f0 c8 b9
       -9.272197e-05 0.0 -9.825038e-05 -0.0003832586
000310 49 17 ca b9 00 00 00 00 55 b9 1b 1e 00 00 00 00
       -0.0003854579 0.0 8.2439574e-21 0.0
000320 00 00 00 00 09 04 cf 1c 7f 6b 4e 1f 00 00 00 00
       0.0 1.3699154e-21 4.3711115e-20 0.0
000330 00 00 00 00 dc ca a1 1d 6b eb 5a 1c 00 00 00 00
       0.0 4.2826097e-21 7.243442e-22 0.0
000340 00 00 00 00 f2 ee c7 1e 00 00 00 00 00 00 00 00
       0.0 2.116877e-20 0.0 0.0
000350 00 00 00 00 2d 84 10 1f 61 a9 12 1f 00 00 00 00
       0.0 3.060252e-20 3.105681e-20 0.0
000360 00 00 00 00 00 00 00 00 00 00 00 00 00 00 00 00
       0.0 0.0 0.0 0.0
000370 00 00 00 00 00 00 00 00 00 00 00 00 00 00 00 00
       0.0 0.0 0.0 0.0
000380 00 00 00 00 00 00 00 00 00 00 00 00 00 00 00 00
       0.0 0.0 0.0 0.0
000390 00 00 00 00 00 00 00 00 00 00 00 00 00 00 00 00
       0.0 0.0 0.0 0.0
0003a0 00 00 00 00 00 00 00 00 00 00 00 00 00 00 00 00
       0.0 0.0 0.0 0.0
0003b0 00 00 00 00 00 00 00 00 00 00 00 00 00 00 00 00
       0.0 0.0 0.0 0.0
0003c0 00 00 00 00 00 00 00 00 00 00 00 00 00 00 00 00
       0.0 0.0 0.0 0.0
0003d0 00 00 00 00 00 00 00 00 00 00 00 00 00 00 00 00
       0.0 0.0 0.0 0.0
0003e0 00 00 00 00 00 00 00 00 00 00 00 00 00 00 00 00
       0.0 0.0 0.0 0.0
0003f0 00 00 00 00 00 00 00 00 00 00 00 00 00 00 00 00
       0.0 0.0 0.0 0.0
