GRNN with input mlp/t4cfcm7o/checkpoints/epoch=23-step=240.ckpt (torch, 63489 bytes, 54 tensors)

model.GCNN.graph_convolution.bias f4 [10]
-0.10405633 0.02530649 0.02062843 0.0041118925 -0.0023168304 -0.010383198 -0.03173286 -0.014473387
-0.000768961 -0.031211063
00000000: 7c1b d5bd 8e4f cf3c f4fc a83c 0ebd 863b
00000010: f7d5 17bb 4a1e 2abc 51fa 01bd c921 6dbc
00000020: 1994 49ba 58ae ffbc

model.GCNN.graph_convolution.lin.weight f4 [10, 1]
-0.5979405 -0.52101004 0.20040521 0.17335606 0.6360733 -0.37105593 0.43663168 0.63400376
0.030893622 0.44544807
00000000: a112 19bf ea60 05bf 0637 4d3e 4084 313e
00000010: b3d5 223f 0bfb bdbe 308e df3e 124e 223f
00000020: 9f14 fd3c c511 e43e

model.RNN.weight_ih_l0 f4 [16, 11]
-0.31067693 0.20630838 0.20469272 -0.057739764 0.1668433 0.032834418 0.017702702 0.14301877
-0.13709106 -0.11222198 0.10578537 -0.22456354 -0.0704305 -0.012893869 0.26051846 0.19512734
0.19454302 0.15669547 0.2035005 -0.10731909 0.27025896 0.21221869 -0.038237497 -0.060064897
-0.035678573 0.13458608 0.21016975 0.001656108 -0.21370578 0.074917905 0.02596805 -0.19059585
-0.13453935 0.100827366 -0.039120145 -0.073152676 0.09652689 0.071216725 -0.16634129 0.22787105
-0.008993395 -0.029986216 0.08594531 0.09877984 -0.18841515 0.13720085 0.18430689 -0.02899944
-0.13311371 0.12968187 0.15125716 -0.1663839 -0.03679533 -0.11645027 -0.18942717 -0.17198195
-0.12977555 -0.07591745 0.1467326 0.0927265 0.12366816 -0.16426785 0.21863872 0.10163356
0.11925471 0.15894093 -0.059466626 -0.15184249 0.31231067 0.115184546 0.14538835 -0.13823673
-0.0015556517 0.10057111 0.05454815 -0.1408974 0.12581362 0.08436809 0.22356641 -0.06880532
-0.005753651 -0.030056495 0.21748069 0.042717293 -0.14247188 0.005418596 -0.104361 -0.14328967
0.1686598 0.14041701 -0.1797741 0.17181338 -0.17607558 -0.16029793 -0.23826754 0.23245545
-0.20201242 0.06642557 0.01927856 -0.13768962 0.12564299 0.06282362 -0.099405065 0.11746296
0.030623475 0.09457976 -0.08083581 -0.21505229 0.07352468 -0.058976643 -0.26012304 0.26825953
0.17657925 -0.049453642 -0.17612511 -0.09658799 -0.25162682 -0.20087428 -0.06306859 0.09995501
0.08289344 -0.14850909 -0.1967915 -0.008181007 -0.020476382 -0.018398724 -0.10115211 0.029153086
-0.17124768 0.09590454 0.19302107 -0.03756835 0.10087982 0.048481725 -0.019413084 0.08578678
0.13695478 0.034267057 0.125763 0.052872445 -0.13326119 -0.12025253 -0.22921069 0.039161157
0.08093932 -0.21867648 -0.11341991 0.20783892 0.23585287 -0.19218546 0.10683743 -0.14645104
0.20063277 0.12948997 -0.17134437 0.11494908 -0.007852429 0.3355423 0.08518113 -0.10699875
-0.018661136 0.13297567 0.02990968 -0.16629358 0.070945255 0.0041396194 -0.023771672 0.029595759
0.14008074 -0.04779616 -0.15476418 0.15149419 -0.05181773 0.17226814 0.16254508 -0.06537824
00000000: 0c11 9fbe 8142 533e f89a 513e 8880 6cbd
00000010: f8d8 2a3e 627d 063d 4205 913c 8373 123e
00000020: 9961 0cbe a3d4 e5bd 00a6 d83d fcf3 65be
00000030: de3d 90bd ce40 53bc ad62 853e 76cf 473e
00000040: 4936 473e c774 203e 6f62 503e 1cca dbbd
00000050: 625f 8a3e db4f 593e ec9e 1cbd 9c06 76bd
00000060: b223 12bd efd0 093e bd36 573e c311 d93a
00000070: b0d5 5abe 8f6e 993d f3ba d43c 8f2b 43be
00000080: afc4 09be 947e ce3d 723c 20bd 12d1 95bd
00000090: e4af c53d 13da 913d 5f55 2abe 0757 693e
000000a0: 0859 13bc a7a5 f5bc 1804 b03d 164d ca3d
000000b0: e7ef 40be 617e 0c3e f2ba 3c3e 3c90 edbc
000000c0: f64e 08be 53cb 043e 28e3 1a3e 8b60 2abe
000000d0: b3b6 16bd 7b7d eebd 32f9 41be 091c 30be
000000e0: e2e3 04be 9c7a 9bbd 1241 163e 64e7 bd3d
000000f0: bb45 fd3d d535 28be d4e2 5f3e 4225 d03d
00000100: d03b f43d 69c1 223e 4793 73bd 997c 1bbe
00000110: 2fe7 9f3e e0e5 eb3d afe0 143e ee8d 0dbe
00000120: 02e7 cbba 3af8 cd3d e26d 5f3d 6847 10be
00000130: 49d5 003e 2dc9 ac3d 98ee 643e cee9 8cbd
00000140: 1f89 bcbb 0a39 f6bc 42b3 5e3e 54f8 2e3d
00000150: 26e4 11be 7a8e b13b 38bb d5bd 87ba 12be
00000160: 28b5 2c3e 7ac9 0f3e b416 38be d9ef 2f3e
00000170: 284d 34be 2425 24be 68fc 73be cd08 6e3e
00000180: 58dc 4ebe 210a 883d 12ee 9d3c 82fe 0cbe
00000190: 8ea8 003e aca9 803d e294 cbbd 6c90 f03d
000001a0: 15de fa3c 09b3 c13d 3f8d a5bd ab36 5cbe
000001b0: 1c94 963d 7e91 71bd d92e 85be 5059 893e
000001c0: 31d1 343e e78f 4abd 245a 34be edcf c5bd
000001d0: 3bd5 80be fdb1 4dbe 1b2a 81bd 36b5 cc3d
000001e0: 09c4 a93d c412 18be b683 49be a109 06bc
000001f0: 16be a7bc ecb8 96bc d628 cfbd 74d2 ee3c
00000200: 8d5b 2fbe 9969 c43d 51a7 453e 45e1 19bd
00000210: 149a ce3d c694 463d 3008 9fbc fbb0 af3d
00000220: e03d 0c3e 9d5b 0c3d 04c8 003e c790 583d
00000230: 9f75 08be f546 f6bd 35b6 6abe 7367 203d
00000240: 84c3 a53d baec 5fbe b348 e8bd bad3 543e
00000250: 6a83 713e 44cc 44be 95cd da3d 43f7 15be
00000260: ad72 4d3e 0599 043e e674 2fbe 6c6a eb3d
00000270: 79a7 00bc 33cc ab3e 7273 ae3d 2922 dbbd
00000280: 3ddf 98bc c62a 083e 2505 f53c dd48 2abe
00000290: bf4b 913d a5a5 873b cfbc c2bc ce72 f23c
000002a0: 5371 0f3e e8c5 43bd 807a 1ebe 4b21 1b3e
000002b0: d43e 54bd 0f67 303e 3872 263e 07e5 85bd

model.RNN.weight_hh_l0 f4 [16, 16]
0.06084354 0.17688327 0.15779315 0.08340029 0.102745764 -0.13067769 -0.13897349 0.14916465
-0.11032775 -0.026381865 -0.1390854 -0.06160574 0.12462075 -0.06438665 -0.089381516 0.075563304
0.011971929 -0.19035016 0.18343747 -0.08674266 0.18867485 0.09015163 0.13416055 0.14479363
0.12938823 -0.10577272 0.11530003 -0.17267044 0.1053226 0.07513425 -0.0063915327 0.08881671
0.16673805 -0.14066418 -0.029340921 0.15590185 0.21415588 -0.15254883 0.12820536 0.0007054369
-0.031952184 -0.26486608 -0.11047717 0.10575733 0.03835763 0.104680896 0.15845919 -0.16282392
0.24493064 -0.025391117 0.05215097 0.012639273 -0.17774755 0.14593492 0.17566945 -0.10089544
-0.13442329 0.17258006 0.13975257 -0.051318765 0.03525483 -0.015824243 -0.07518822 -0.024474781
-0.073567875 -0.07375256 -0.2266379 0.011598237 0.18502538 0.16382888 0.12908761 0.09590754
0.17507938 0.153138 -0.1430978 -0.014893682 -0.054795954 -0.10649852 0.18799949 -0.20384441
-0.18640637 -0.11451332 -0.22146955 -0.06474855 0.14423148 0.04661769 -0.12024012 -0.19285391
-0.13961281 0.1883222 -0.14711475 -0.07790173 0.05990543 0.20408687 -0.16653179 0.13155982
0.06543664 -0.14465173 -0.08380474 -0.10345598 0.046711374 -0.21925838 0.16316395 0.24371696
0.19766495 0.1086015 -0.021210657 0.20227881 0.14170013 -0.07220555 0.20394549 0.13785441
0.13701634 -0.18621963 0.029718887 -0.0902173 -0.23851639 0.11653828 -0.05878687 -0.033612564
0.2102264 0.08630779 0.12149756 0.13556154 -0.07606392 -0.019947208 0.015490727 0.3025627
-0.1805042 0.123732835 0.007765128 -0.16262563 -0.08140026 -0.085499085 -0.08409797 -0.0110229375
-0.08479363 -0.19989295 0.15803738 -0.11393621 0.04524262 -0.20563942 -0.06195198 -0.06064965
-0.0051286193 0.20031475 0.060552865 0.1484371 0.19525619 -0.15071587 -0.18847816 -0.039333448
-0.010784964 0.0020205914 0.078978375 0.14306568 0.14494497 -0.0035580841 -0.1019184 -0.20778039
0.22850771 -0.17418331 0.14896986 -0.067947194 -0.20276923 -0.19775178 -0.040088862 -0.19052315
0.025759881 0.19035998 -0.26017275 -0.19109397 -0.057992283 0.060913026 -0.2475405 -0.25444183
0.09483288 -0.0049404968 0.1580788 0.032936614 0.03445732 0.1314113 0.019285282 -0.15825792
-0.014904347 0.17902847 0.096788816 0.036025353 -0.21088888 0.025013277 -0.2399484 -0.03155264
-0.08035648 -0.07756044 0.14670236 0.12636523 0.064143285 -0.26239893 -0.22340974 0.065698184
0.21386808 -0.14596531 -0.03739874 0.19069764 0.01345845 -0.053466603 -0.01856295 -0.11120739
-0.14564168 -0.24937671 0.14411636 0.14989239 -0.2334927 -0.15015195 -0.16728385 0.070149444
0.1716179 0.15705068 0.20337693 0.24228719 -0.076793864 0.01966407 0.04695897 -0.12681216
-0.17545149 0.22081968 0.023380732 -0.09240368 -0.14243482 0.10069889 0.181257 0.049130145
0.18447442 -0.25731087 -0.11272848 -0.0339057 -0.04060994 0.12355061 0.15832014 0.12075329
-0.15812756 -0.08762718 -0.25057796 0.057364453 0.06139553 -0.13246846 0.0520724 0.10173366
-0.16594888 -0.121039726 0.012157684 0.25990698 -0.21464296 0.09163536 -0.0905964 0.10831136
00000000: 1337 793d e320 353e 8794 213e c5cd aa3d
00000010: 5f6c d23d 5fd0 05be 114f 0ebe 9ebe 183e
00000020: 84f3 e1bd c81e d8bc 676c 0ebe 4d56 7cbd
00000030: 2a39 ff3d 26dd 83bd a80d b7bd efc0 9a3d
00000040: e925 443c 27eb 42be 08d7 3b3e 23a6 b1bd
00000050: fb33 413e 6ba1 b83d 6261 093e c844 143e
00000060: 597e 043e 5e9f d8bd 6c22 ec3d 85d0 30be
00000070: 60b3 d73d fcdf 993d 1070 d1bb 89e5 b53d
00000080: 61bd 2a3e 450a 10be 5f5c f0bc bca4 1f3e
00000090: ae4b 5b3e c335 1cbe 4448 033e 12ed 383a
000000a0: 4be0 02bd 879c 87be db41 e2bd 4d97 d83d
000000b0: e41c 1d3d f062 d63d 2043 223e 50bb 26be
000000c0: 19cf 7a3e 0801 d0bc 419c 553d f414 4f3c
000000d0: 7403 36be f76f 153e b1e2 333e 45a2 cebd
000000e0: 42a6 09be d4b8 303e 4c1b 0f3e a033 52bd
000000f0: 5e67 103d d8a1 81bc 48fc 99bd 567f c8bc
00000100: c1aa 96bd 950b 97bd c413 68be 8806 3e3c
00000110: 4b77 3d3e c2c2 273e 8b2f 043e 2c6b c43d
00000120: 0248 333e 35d0 1c3e 3b88 12be a104 74bc
00000130: b971 60bd e51b dabd f082 403e 97bc 50be
00000140: 50e1 3ebe f685 eabd eac8 62be e39a 84bd
00000150: 6bb1 133e 31f2 3e3d 7440 f6bd 7f7b 45be
00000160: a9f6 0ebe 89d7 403e 40a5 16be f18a 9fbd
00000170: 655f 753d 26fc 503e 4f87 2abe 9eb7 063e
00000180: a503 863d 951f 14be d2a1 abbd bbe0 d3bd
00000190: 6d54 3f3d 4585 60be 7314 273e f090 793e
000001a0: ae68 4a3e 776a de3d f9c1 adbc 2d22 4f3e
000001b0: d719 113e 81e0 93bd 16d7 503e b529 0d3e
000001c0: 034e 0c3e 5cb0 3ebe 0675 f33c d9c3 b8bd
000001d0: a43d 74be 9fab ee3d 80ca 70bd 54ad 09bd
000001e0: 9745 573e 23c2 b03d b6d3 f83d a5d0 0a3e
000001f0: 67c7 9bbd 5468 a3bc d1cc 7d3c 80e9 9a3e
00000200: 18d6 38be a467 fd3d 9d72 fe3b 5587 26be
00000210: 2eb5 a6bd 251a afbd 8e3b acbd 8d99 34bc
00000220: 48a8 adbd bdb0 4cbe 8dd4 213e 6357 e9bd
00000230: 5350 393d 2493 52be 5cc1 7dbd c46b 78bd
00000240: fa0d a8bb 4f1f 4d3e 4806 783d e5ff 173e
00000250: 3df1 473e 4355 1abe 6b00 41be 1c1c 21bd
00000260: 6bb3 30bc e66b 043b 6abf a13d cf7f 123e
00000270: 746c 143e bf2e 69bb 98ba d0bd 62c4 54be
00000280: edfd 693e 1c5d 32be 8e8b 183e e627 8bbd
00000290: bda2 4fbe 717f 4abe 3834 24bd 8018 43be
000002a0: 6306 d33c baed 423e 5d35 85be 23ae 43be
000002b0: 5189 6dbd f07f 793d 427b 7dbe 3346 82be
000002c0: be37 c23d e4e3 a1bb 69df 213e 8be8 063d
000002d0: 1e23 0d3d af90 063e 2bfc 9d3c 5d0e 22be
000002e0: 5d31 74bc 3d53 373e 3739 c63d 528f 133d
000002f0: 41f3 57be a5e8 cc3c 09b5 75be 573d 01bd
00000300: f091 a4bd 02d8 9ebd 2539 163e e365 013e
00000310: 8e5d 833d 2759 86be 86c5 64be c58c 863d
00000320: 3c00 5b3e ee77 15be 6c2f 19bd 3e46 433e
00000330: d580 5c3c ccff 5abd 5411 98bc b3c0 e3bd
00000340: 1823 15be 9c5c 7fbe 3d93 133e 647d 193e
00000350: b618 6fbe 6fc1 19be 754c 2bbe 83aa 8f3d
00000360: 9abc 2f3e e5d1 203e 0b42 503e 221a 783e
00000370: 1a46 9dbd 8b16 a13c 0d58 403d 0cdb 01be
00000380: 8ea9 33be 8e1e 623e f388 bf3c 243e bdbd
00000390: 6fda 11be 383b ce3d 6f9b 393e b13c 493d
000003a0: dde6 3c3e 40be 83be 30de e6bd b4e0 0abd
000003b0: 9c56 26bd 1a08 fd3d ad1e 223e 804d f73d
000003c0: 31ec 21be e175 b3bd c14b 80be fdf6 6a3d
000003d0: e179 7b3d d0a5 07be de49 553d bd59 d03d
000003e0: 81ee 29be ade3 f7bd 0631 473c 8712 853e
000003f0: 5dcb 5bbe 52ab bb3d 9b8a b9bd 59d2 dd3d

model.RNN.bias_ih_l0 f4 [16]
0.08960244 0.17754376 0.09584233 -0.18010978 -0.22935604 0.13366781 0.24243663 -0.1017605
0.17434259 0.14627697 -0.0037913986 -0.12766722 0.022103185 -0.098451376 0.1285078 -0.05830254
00000000: 7c81 b73d 08ce 353e fc48 c43d b36e 38be
00000010: 4fdc 6abe 37e0 083e 4f41 783e cf67 d0bd
00000020: dd86 323e a1c9 153e 1d79 78bb 32bb 02be
00000030: bd11 b53c e0a0 c9bd 8c97 033e a5ce 6ebd

model.RNN.bias_hh_l0 f4 [16]
-0.12135988 0.20204866 0.13972838 -0.003261754 -0.042448416 -0.014036885 -0.048233982 0.17702328
-0.045731183 0.22997174 0.06479521 -0.20540035 0.17612681 -0.104094595 0.2594675 0.10056344
00000000: 878b f8bd d8e5 4e3e f514 0f3e 27c3 55bb
00000010: 64de 2dbd f7fa 65bc ff90 45bd 9745 353e
00000020: 9f50 3bbd b67d 6b3e 5ab3 843d 7854 52be
00000030: 965a 343e 8c2f d5bd edd8 843e 34f4 cd3d

model.MLP2RNN.0.weight f4 [20, 10]
0.1310717 -0.06878466 -0.29379553 0.1723603 -0.15444575 0.17366125 0.18691161 -0.2310308
0.25047323 -0.21964695 0.24525228 -0.15623939 0.006426622 0.12307402 0.16650324 0.19760391
-0.026345577 -0.11830415 0.05388097 0.18163133 0.08992156 0.069349445 -0.18949406 -0.31363136
-0.20885722 -0.13242812 -0.044642586 0.22760302 0.061878666 -0.11584382 0.22858676 -0.21749997
-0.2899923 -0.122917175 0.1237804 0.017916203 0.020654768 0.14349172 0.22357956 0.28119335
-0.1499974 0.19664747 -0.2556593 0.2061432 0.23780335 0.031015126 -0.22951853 0.2688611
0.10702291 0.23077805 -0.015863985 0.24957386 -0.16074516 0.19855914 0.19134822 -0.14947985
-0.13248007 -0.31143376 -0.15354764 -0.24178112 -0.07636701 0.09797363 0.24729471 -0.27512693
-0.05569186 0.2115186 0.20529139 0.11713874 -0.19216993 -0.22454032 0.23953912 -0.2549507
0.12642668 -0.24219789 0.0019486895 -0.10940158 -0.096348375 -0.024463225 0.033383124 -0.14277005
-0.21214427 -0.16180441 0.037281603 0.14651093 0.2593111 0.2707049 -0.2728075 -0.04140538
-0.18389939 0.08365756 -0.27071917 0.13457404 0.22718978 -0.009418032 0.28233024 -0.23278314
-0.18690969 0.01256991 0.23417051 0.106211066 0.27300337 0.22289357 -0.01270733 0.18347906
-0.038658608 -0.19337767 0.08647636 -0.15490825 -0.15170555 0.13815491 0.13648877 0.17547318
-0.17793372 0.30323806 -0.10198434 0.11819103 -0.09011109 -0.07082039 0.26047227 0.18120629
0.28048483 0.14887825 0.23431638 -0.05415699 0.24985334 0.26584247 -0.14294317 0.22012088
0.061255127 -0.18289167 0.23668435 0.22172084 -0.1705426 -0.04360655 -0.081876814 -0.31579626
0.039350986 -0.27385464 0.019738823 0.24233869 -0.22966802 -0.273215 0.031859424 -0.06497988
0.08914177 0.09274939 -0.3014804 0.28460437 -0.27461344 0.14500444 0.22702542 0.2847214
-0.13559428 0.27509847 0.20930716 -0.15883526 -0.23837641 -0.11018793 -0.13360853 -0.2901255
-0.25236264 0.09050196 -0.11938467 0.22073321 0.21016255 0.11807992 0.27746198 0.27879947
-0.14274986 0.11740272 0.13412598 -0.10590954 -0.23429447 -0.22260101 -0.05642718 0.21174309
-0.09772527 0.15981877 -0.15742248 -0.24713317 -0.16190533 0.036792796 -0.17540215 -0.06717321
0.26928467 -0.23498477 -0.22553474 -0.016466383 0.28514567 0.14876442 0.19294135 -0.25315636
-0.0034750924 -0.25573796 0.03524427 0.19944206 0.17833273 0.045361098 -0.2152003 0.14347783
00000000: a937 063e f9de 8cbd 5e6c 96be 387f 303e
00000010: 0727 1ebe 41d4 313e c265 3f3e 5793 6cbe
00000020: 073e 803e 21eb 60be 6a23 7b3e 38fd 1fbe
00000030: 6a96 d23b 3b0e fc3d d37f 2a3e ae58 4a3e
00000040: aed2 d7bc 7249 f2bd 4bb2 5c3d 90fd 393e
00000050: cb28 b83d 1507 8e3d bb0a 42be 4a94 a0be
00000060: abde 55be 3d9b 07be 25db 36bd c410 693e
00000070: 7c74 7d3d 863f edbd a612 6a3e 50b8 5ebe
00000080: df79 94be 00bc fbbd 9480 fd3d 00c5 923c
00000090: 3034 a93c 7eef 123e 0af2 643e 93f8 8f3e
000000a0: eb98 19be f45d 493e c7e5 82be 3417 533e
000000b0: b982 733e 6f13 fe3c e806 6bbe 29a8 893e
000000c0: d42e db3d 1551 6c3e 30f5 81bc 4a90 7f3e
000000d0: 619a 24be 1653 4b3e caf0 433e 3f11 19be
000000e0: dba8 07be 3f74 9fbe 983b 1dbe 7895 77be
000000f0: 4f66 9cbd 66a6 c83d d33a 7d3e 70dd 8cbe
00000100: 261d 64bd 5598 583e e837 523e 70e6 ef3d
00000110: 32c8 44be e6ed 65be be49 753e e688 82be
00000120: ff75 013e b902 78be 2b6b ff3a f00d e0bd
00000130: 4c52 c5bd 1a67 c8bc bebc 083d 5032 12be
00000140: 593c 59be 0eb0 25be 98b4 183d f606 163e
00000150: 6dc4 843e d599 8a3e 6dad 8bbe b098 29bd
00000160: 1f50 3cbe a854 ab3d b49b 8abe c7cd 093e
00000170: 70a4 683e 174e 1abc 978d 903e b45e 6ebe
00000180: 4165 3fbe 06f2 4d3c 65ca 6f3e 3085 d93d
00000190: 19c7 8b3e 363e 643e 6832 50bc efe1 3b3e
000001a0: 7d58 1ebd cc04 46be 851a b13d 45a0 1ebe
000001b0: b358 1bbe 7b78 0d3e b6c3 0b3e 3eaf 333e
000001c0: 4234 36be 0542 9b3e 2add d0bd 240e f23d
000001d0: 2a8c b8bd 480a 91bd 9f5c 853e 248e 393e
000001e0: b59b 8f3e 8a73 183e a2f0 6f3e b8d3 5dbd
000001f0: 8ed9 7f3e 811c 883e b25f 12be 5e67 613e
00000200: a8e6 7a3d f447 3bbe 625d 723e ca0a 633e
00000210: b8a2 2ebe c89c 32bd 08af a7bd 0cb0 a1be
00000220: 802e 213d ad36 8cbe 50b3 a13c a227 783e
00000230: 182e 6bbe d6e2 8bbe 077f 023d 2c14 85bd
00000240: f68f b63d 64f3 bd3d a45b 9abe aab7 913e
00000250: 229a 8cbe 0b7c 143e 5a79 683e 01c7 913e
00000260: 3ad9 0abe b5d9 8c3e 9e54 563e b6a5 22be
00000270: f218 74be 36aa e1bd add0 08be 548b 94be
00000280: ad35 81be 1759 b93d f37f f4bd e307 623e
00000290: da34 573e e3d3 f13d 7f0f 8e3e cebe 8e3e
000002a0: 052d 12be d670 f03d 5258 093e 1ae7 d8bd
000002b0: e4ea 6fbe 85f1 63be 3020 67bd 2ed3 583e
000002c0: 3024 c8bd 88a7 233e 5c33 21be 7a10 7dbe
000002d0: 83ca 25be 0bb4 163d 9f9c 33be 1c92 89bd
000002e0: aedf 893e d99f 70be 94f2 66be 82e4 86bc
000002f0: 9dfe 913e b355 183e 6b92 453e b69d 81be
00000300: 60be 63bb 16f0 82be 4c5c 103d 8a3a 4c3e
00000310: db9c 363e 8fcc 393d 785d 5cbe daeb 123e

model.MLP2RNN.0.bias f4 [20]
0.0063256053 -0.0056777755 0.26193357 -0.19352125 -0.12204162 -0.10366148 0.16526009 0.2361255
-0.31073517 0.12435596 0.21932004 0.12612733 -0.3072546 -0.18325171 -0.15510832 -0.18637411
0.27249047 -0.2005435 -0.13283697 0.29845557
00000000: 0647 cf3b a20c babb 281c 863e 6f2a 46be
00000010: f5f0 f9bd 784c d4bd f139 293e e2ca 713e
00000020: ae18 9fbe 56ae fe3d 6f95 603e 8627 013e
00000030: 7a50 9dbe 56a6 3bbe b7d4 1ebe dbd8 3ebe
00000040: df83 8b3e 465b 4dbe 6a06 08be 2bcf 983e

model.MLP2RNN.2.weight f4 [20, 20]
-0.050913967 0.024187993 0.08045235 -0.21525158 -0.10728647 -0.18743157 0.010648463 -0.11742118
0.048481435 -0.03612924 0.16890264 -0.14364083 -0.10976664 -0.06962885 0.18710634 -0.19326589
-0.1918301 -0.11813422 0.08773374 0.040654264 0.06440613 0.071377724 0.20193225 -0.10356624
0.17159605 -0.10903539 0.1594544 -0.2082134 0.11839944 0.0594669 0.15480515 -0.19191688
-0.12385231 -0.21231577 -0.053801075 -0.043627083 -0.12648894 -0.06833571 -0.07976839 -0.14495648
-0.017138407 -0.07227673 -0.030871928 0.044416785 -0.036510915 -0.08852215 0.09306306 -0.21744227
-0.12697577 -0.19767419 -0.03866987 -0.14409009 0.15225023 -0.20520866 -0.090586394 0.19504973
0.0020485967 0.1048854 -0.08667217 0.20587042 -0.122052684 0.111893624 -0.011941284 0.20349455
0.21212992 -0.1359086 -0.064411655 0.1673123 -0.091637164 -0.15005423 -0.011450514 0.102182925
-0.21400778 0.021014184 0.12726146 -0.041510895 0.1153931 -0.07040995 -0.2077735 -0.18918768
0.19901907 -0.22712024 -0.1457975 -0.12741001 0.20580702 0.2136158 0.21583267 0.04361788
-0.15873799 0.19101477 -0.16001701 0.08347938 -0.16965303 0.0839065 -0.06611733 -0.030004889
-0.17187403 -0.043743595 -0.052011605 0.017109502 -0.14700647 0.08673981 -0.16714796 0.107135355
0.20497346 -0.16728911 -0.13414294 -0.21639547 0.11063412 -0.07569274 -0.019339979 -0.10744207
-0.19462238 -0.06936015 -0.022929117 0.16822904 -0.14523026 0.09055787 -0.15206844 0.20285976
-0.02742599 -0.041772544 -0.064292505 -0.05724889 -0.2103529 -0.17065167 -0.19281106 -0.050391287
-0.17460904 0.16809747 -0.21290036 -0.17131315 -0.03897436 0.194924 0.13373828 -0.029759705
-0.21395636 0.074762076 -0.12254753 -0.06503023 -0.103978656 0.21685779 -0.19865537 0.12267557
0.15116611 -0.05286041 -0.22217654 0.14330861 -0.040491775 0.115188 0.027406871 -0.18431261
-0.08292778 -0.21920098 0.103924245 0.11997262 -0.019447744 0.017213538 0.18590221 -0.04141979
0.12720197 -0.12494313 0.026133886 -0.17884634 -0.14276952 -0.09328064 0.08894577 0.10514525
0.11661908 0.11279055 0.013077136 -0.12931554 -0.052512154 0.02119942 0.16055161 0.060878605
0.09764691 0.13313061 -0.10209416 0.031375926 -0.19756553 0.034367766 -0.11907313 -0.04231751
-0.13445729 0.06811708 0.12489941 -0.043272648 -0.21549009 0.12384619 0.11786857 -0.13058595
0.081143886 0.21004197 -0.1982263 -0.1898842 0.15922284 -0.17036265 0.201812 -0.092091985
0.05008757 0.11923304 0.1353139 -0.034709424 0.17949295 -0.08359665 0.050537974 -0.13274482
0.19938418 -0.19799149 0.19287595 0.22134992 -0.13065399 -0.0875334 0.03053236 0.062233865
-0.20547439 0.10920474 0.22265118 0.14348549 0.026460156 -0.05855164 0.14662583 0.13717827
-0.16365716 -0.0690916 -0.027267404 0.11207473 0.17897952 -0.101604074 -0.16244066 -0.01909683
0.07984942 -0.13407287 -0.13001914 0.1995961 -0.08006281 0.21617642 -0.0847013 0.13146137
-0.098389655 -0.028071802 0.22472113 -0.014061943 0.10506267 -0.025684208 0.13786729 -0.17138661
-0.2046583 0.22367303 0.25465444 -0.018836979 0.20044005 -0.20044662 -0.032877192 -0.047869608
00000000: 2a8b 50bd e625 c63c 34c4 a43d e96a 5cbe
00000010: 02b9 dbbd 10ee 3fbe e476 2e3c 847a f0bd
00000020: 7894 463d 41fc 13bd d0f4 2c3e 9516 13be
00000030: 55cd e0bd 9299 8ebd ce98 3f3e 7ee7 45be
00000040: 1c6f 44be 5bf0 f1bd bfad b33d 1685 263d
00000050: 5ce7 833d 7c2e 923d 54c7 4e3e 891a d4bd
00000060: e0b6 2f3e f24d dfbd 0448 233e e535 55be
00000070: 687b f23d 9093 733d 3e85 1e3e dc85 44be
00000080: 48a6 fdbd 4e69 59be 845e 5cbd 50b2 32bd
00000090: 5186 01be 98f3 8bbd 9c5d a3bd 796f 14be
000000a0: d865 8cbc d205 94bd 20e7 fcbc 60ee 353d
000000b0: 788c 15bd 1a4b b5bd d897 be3d 30a9 5ebe
000000c0: f005 02be 1a6b 4abe 4c64 1ebd 5a8c 13be
000000d0: 7ce7 1b3e 3822 52be 5c85 b9bd 1ebb 473e
000000e0: c041 063b 28ce d63d 2e81 b1bd b2cf 523e
000000f0: c2f6 f9bd 7c28 e53d 60a5 43bc e060 503e
00000100: 9638 593e a02b 0bbe 42ea 83bd ea53 2b3e
00000110: 44ac bbbd d1a7 19be f09a 3bbc 4845 d13d
00000120: db24 5bbe f025 ac3c d450 023e 5407 2abd
00000130: 3853 ec3d 1833 90bd 94c2 54be 6aba 41be
00000140: a8cb 4b3e 3592 68be f14b 15be c577 02be
00000150: 13bf 523e 1abe 5a3e 3d03 5d3e aaa8 323d
00000160: 368c 22be 6099 433e 80db 23be 3df7 aa3d
00000170: 86b9 2dbe 2cd7 ab3d 8668 87bd d0cc f5bc
00000180: bfff 2fbe 7c2c 33bd 1f0a 55bd 3a29 8c3c
00000190: dd88 16be a4a4 b13d d628 2bbe c869 db3d
000001a0: 90e4 513e d64d 2bbe c45c 09be c696 5dbe
000001b0: 2494 e23d cc04 9bbd e06e 9ebc 970a dcbd
000001c0: 174b 47be b20c 8ebd d8d5 bbbc 3c44 2c3e
000001d0: 3eb7 14be 6876 b93d d4b7 1bbe 78ba 4f3e
000001e0: 78ac e0bc b019 2bbd caab 83bd d07d 6abd
000001f0: c066 57be 50bf 2ebe 4370 45be 1867 4ebd
00000200: b6cc 32be be21 2c3e 8d02 5abe b76c 2fbe
00000210: 94a3 1fbd 289a 473e b0f2 083e a0ca f3bc
00000220: 6017 5bbe dc1c 993d 33fa fabd 922e 85bd
00000230: c3f2 d4bd f80f 5e3e 506c 4bbe 543d fb3d
00000240: 4acb 1a3e 2884 58bd 3f82 63be 7ebf 123e
00000250: b4da 25bd b0e7 eb3d 6084 e03c 72bc 3cbe
00000260: 0ad6 a9bd 3976 60be 3cd6 d43d 34b4 f53d
00000270: e050 9fbc 6803 8d3c 265d 3e3e cca7 29bd
00000280: 3c41 023e 2fe2 ffbd bb16 d63c 7f23 37be
00000290: 2c32 12be ec09 bfbd 3329 b63d 6556 d73d
000002a0: fcd5 ee3d bbfe e63d 7c41 563c 4b6b 04be
000002b0: fc16 57bd 68aa ad3c a467 243e d85b 793d
000002c0: 1afb c73d 6453 083e be16 d1bd 0b84 003d
000002d0: 9e4e 4abe 37c5 0c3d 9ddc f3bd 2055 2dbd
000002e0: 2caf 09be f880 8b3d 43cb ff3d a93e 31bd
000002f0: 6fa9 5cbe 12a3 fd3d 1465 f13d 53b8 05be
00000300: c42e a63d 3e15 573e d6fb 4abe 0171 42be
00000310: 500b 233e 8c73 2ebe cea7 4e3e b99a bcbd
00000320: a028 4d3d 7430 f43d ba8f 0a3e 782b 0ebd
00000330: 00cd 373e b834 abbd e800 4f3d 42ee 07be
00000340: 5e2b 4c3e 48be 4abe 4681 453e 8ea9 623e
00000350: 29ca 05be b644 b3bd 001f fa3c f0e8 7e3d
00000360: e167 52be bca6 df3d acfe 633e dced 123e
00000370: f8c2 d83c d8d3 6fbd 1525 163e 7678 0c3e
00000380: be95 27be e67f 8dbd e45f dfbc 7087 e53d
00000390: 6846 373e cc15 d0bd d856 26be f570 9cbc
000003a0: 1888 a33d 664a 09be bd23 05be ec62 4c3e
000003b0: f8f7 a3bd 5a5d 5d3e e077 adbd cf9d 063e
000003c0: 8480 c9bd d6f6 e5bc 4c1d 663e 1064 66bc
000003d0: 192b d73d b067 d2bc 152d 0d3e f97f 2fbe
000003e0: f291 51be 8b0a 653e 1162 823e 0250 9abc
000003f0: 2840 4d3e e141 4dbe 3caa 06bd ec12 44bd

model.MLP2RNN.2.bias f4 [20]
0.1192525 -0.09014669 -0.04566209 -0.114709914 0.13490742 -0.16313401 -0.13582781 -0.06940441
-0.14508875 -0.11334115 -0.22130206 -0.029079411 0.19992521 -0.064954855 -0.22014101 0.13914216
0.19572501 0.18919577 0.07743303 0.13512327
00000000: a83a f43d d49e b8bd 2c08 3bbd 08ed eabd
00000010: 2c25 0a3e 9a0c 27be 7216 0bbe e623 8ebd
00000020: 2592 14be 681f e8bd 029d 62be f237 eebc
00000030: 32b9 4c3e 0d07 85bd a56c 61be 487b 0e3e
00000040: 236c 483e 89bc 413e 3595 9e3d c15d 0a3e

model.MLP2RNN.4.weight f4 [10, 20]
-0.19543631 0.1251874 -0.08819759 -0.2187977 -0.03726858 0.18011081 -0.18018557 -0.053099692
0.12582383 0.11773818 0.05918765 -0.1324386 0.1974492 0.13465945 -0.07738529 0.1642687
0.10764001 -0.20559663 -0.16351599 -0.08189706 0.14500535 0.19643721 0.08550936 -0.08493516
0.11373492 0.09091315 -0.02643156 0.120352834 0.16229866 -0.14415593 0.20485476 0.07319802
-0.26225105 -0.13234687 0.06979984 -0.16443203 0.112835 -0.0680286 0.17450325 -0.19640565
0.1467359 0.12303731 0.19407704 -0.17161065 -0.12752925 0.009140536 0.08715916 0.14404532
0.018540692 0.13545188 -0.17254932 0.0010564337 -0.05169611 0.036748048 -0.051202804 -0.13274834
-0.015162532 0.09191836 -0.13803898 -0.05790141 0.054649048 -0.20641455 0.21356261 -0.14543214
0.041705433 -0.022976965 0.019841045 -0.06079763 0.06661174 0.008375026 -0.022860572 -0.05696428
-0.124034435 -0.121915266 -0.21098246 0.020287931 -0.08892297 -0.1784554 -0.16790038 -0.2081293
-0.09504598 -0.22019774 0.15245482 0.024002746 -0.10662065 0.087845445 0.07600877 0.2207514
-0.21963067 0.048334345 0.0032260418 -0.098626204 -0.03409703 -0.07486874 -0.10128923 -0.032008775
0.028480884 -0.12775911 -0.026393678 0.13468964 -0.09801814 -0.17769337 0.16011098 -0.1563645
0.15895149 -0.21098171 0.07102141 -0.21918818 0.027528035 0.14465642 -0.01531139 0.13635634
0.16204308 -0.08085326 0.12904996 -0.15186276 0.17089681 0.108547896 0.012566455 -0.040639404
0.120722145 0.053010225 0.14389467 -0.21035446 -0.1588713 -0.21625108 -0.04510884 -0.097883254
0.1655905 0.036446832 0.18247014 -0.089364864 -0.18703163 -0.14656325 -0.10804522 -0.1963639
0.0013089159 -0.0025879012 -0.0994341 0.12762365 -0.01544871 -0.0028841496 0.046014547 0.06557867
0.029114114 -0.0041170716 -0.086622566 0.013876423 0.11428931 -0.026264016 -0.09505913 -0.15768367
-0.15357955 -0.06272392 0.120898366 -0.20913751 0.14105286 -0.1013861 -0.25969175 -0.023796186
0.12005798 0.01736325 -0.16298082 0.17114982 0.20981029 -0.006457448 0.037956983 -0.0899367
0.11614442 0.0913079 -0.19810681 -0.17821327 0.083801 -0.03672433 0.03491649 -0.017788934
-0.07619786 -0.20331669 -0.02263292 -0.04403898 0.0485594 -0.1598047 0.10232091 -0.19507189
0.09797869 -0.04556255 -0.05247134 -0.08558145 0.20476061 0.07577297 0.062841326 -0.03193902
0.06831064 -0.1303799 -0.025591254 -0.1100837 -0.10007019 0.013117184 -0.035161205 0.027508138
00000000: 7520 48be 2031 003e f0a0 b4bd 810c 60be
00000010: f0a6 18bd f86e 383e 9182 38be 107f 59bd
00000020: f6d7 003e b720 f13d c06e 723d fc9d 07be
00000030: 2030 4a3e 2be4 093e 2e7c 9ebd 0e36 283e
00000040: 5e72 dc3d ec87 52be bc70 27be a5b9 a7bd
00000050: 487c 143e d626 493e 881f af3d 7cf2 adbd
00000060: dbed e83d ac30 ba3d 0087 d8bc 8c7b f63d
00000070: 9f31 263e 9d9d 13be 72c5 513e d8e8 953d
00000080: c545 86be f085 07be 38f3 8e3d df60 28be
00000090: 0916 e73d 9452 8bbd fbb0 323e 901e 49be
000000a0: f041 163e fcfa fb3d 22bc 463e b4ba 2fbe
000000b0: 0797 02be 30c2 153c 8080 b23d 9e80 133e
000000c0: a6e2 973c e6b3 0a3e c5b0 30be 0878 8a3a
000000d0: 4dbf 53bd 1f85 163d 08ba 51bd 2eef 07be
000000e0: 456c 78bc b13f bc3d 175a 0dbe 072a 6dbd
000000f0: aed7 5f3d 565e 53be 28b0 5a3e 2aec 14be
00000100: 51d3 2a3d 303a bcbc b089 a23c f006 79bd
00000110: bc6b 883d 6837 093c 1846 bbbc 6053 69bd
00000120: c405 febd b6ae f9bd c90b 58be e032 a63c
00000130: 3f1d b6bd 03bd 36be 14ee 2bbe d91f 55be
00000140: 77a7 c2bd 847b 61be 1e1d 1c3e 68a1 c43c
00000150: ed5b dabd 50e8 b33d 7caa 9b3d a80c 623e
00000160: dde6 60be 3cfa 453d 006c 533b 89fc c9bd
00000170: 54a9 0bbd c854 99bd ba70 cfbd a21b 03bd
00000180: be50 e93c 49d3 02be 8e37 d8bc 15ec 093e
00000190: bcbd c8bd 40f5 35be 22f4 233e 041e 20be
000001a0: 2ec4 223e 970b 58be ac73 913d de72 60be
000001b0: 7982 e13c d020 143e a0dc 7abc ffa0 0b3e
000001c0: 9fee 253e 6596 a5bd ac25 043e e981 1bbe
000001d0: 93ff 2e3e 5c4e de3d 88e3 4d3c 8175 26bd
000001e0: 2c3d f73d 4021 593d 2059 133e 2967 57be
000001f0: 28af 22be ec70 5dbe 0cc4 38bd 0477 c8bd
00000200: 8e90 293e 4649 153d 74d9 3a3e ed04 b7bd
00000210: 3885 3fbe ad14 16be d046 ddbd 9e13 49be
00000220: ee8f ab3a c799 29bb 1ba4 cbbd c6af 023e
00000230: 961c 7dbc 0004 3dbb c079 3c3d 1c4e 863d
00000240: b980 ee3c 80e8 86bb 2c67 b1bd f059 633c
00000250: 8410 ea3d a227 d7bc 5cae c2bd d477 21be
00000260: f543 1dbe 6675 80bd 9099 f73d 2528 56be
00000270: 2970 103e 84a3 cfbd 51f6 84be 38f0 c2bc
00000280: f5e0 f53d 603d 8e3c 72e4 26be e641 2f3e
00000290: 82d8 563e 0099 d3bb c878 1b3d bc30 b8bd
000002a0: 20dd ed3d a3ff ba3d 83dc 4abe 8a7d 36be
000002b0: dc9f ab3d 406c 16bd 9804 0f3d 19ba 91bc
000002c0: a00d 9cbd 4032 50be ac68 b9bc 3862 34bd
000002d0: 39e6 463d d8a3 23be a08d d13d edc0 47be
000002e0: 0da9 c83d cc9f 3abd 30ec 56bd 5445 afbd
000002f0: c4ac 513e dc2e 9b3d f4b2 803d 7dd2 02bd
00000300: 73e6 8b3d 4f82 05be c0a4 d1bc 9073 e1bd
00000310: 9af1 ccbd 75e9 563c 3205 10bd bf58 e13c

model.MLP2RNN.4.bias f4 [10]
-0.051754896 -0.07222986 -0.048229244 0.10310681 0.1633061 0.15496765 0.059564546 0.15367725
-0.0013704399 -0.15255418
00000000: f1fc 53bd 40ed 93bd 078c 45bd aa29 d33d
00000010: b739 273e d7af 1e3e f4f9 733d 925d 1d3e
00000020: 55a0 b3ba 2a37 1cbe

model.MLP.0.weight f4 [32, 16]
0.22283407 0.13033985 0.2046326 -0.1948385 0.056653846 -0.1561464 -0.03607114 -0.15179648
-0.16864575 0.012493101 0.24616472 0.21390106 -0.026575906 -0.15297087 0.12380453 -0.021858025
0.122677006 0.13813898 -0.19567572 -0.10033745 0.08233432 0.19403207 -0.21132444 -0.13552992
-0.24628955 0.04836174 0.15968153 0.03839104 0.15431711 0.20706663 -0.07138132 0.09910116
-0.11321753 0.032115802 0.19470891 0.17465164 0.011259701 -0.14841743 -0.20228203 -0.054397136
-0.023009269 -0.03634849 0.05894659 0.09393238 0.0032321624 0.16092303 -0.13123251 0.051783204
-0.123174235 0.014511339 0.078932814 -0.13335209 -0.15291554 -0.114852056 0.060028076 -0.06656538
0.19467762 0.21560822 -0.0067332434 0.05240147 0.04257831 -0.16944818 0.20382181 0.04686959
0.13766998 -0.06925786 0.0792029 0.04218816 -0.008562158 0.13319671 0.19483878 0.14442651
-0.033017762 -0.0043578316 -0.15168858 -0.13596989 -0.2506274 -0.13539816 -0.24782227 0.066503055
-0.055109024 0.042657107 -0.20408654 -0.06730053 -0.08758351 -0.23877537 -0.018694997 0.05197853
-0.12381899 0.019895494 0.03105712 -0.02025026 -0.16566008 0.062503934 -0.008811325 0.031104803
0.22851285 0.20440988 0.15896843 -0.09429447 0.020490374 0.039412156 0.024049843 0.08019856
-0.21672246 -0.096123144 -0.21301103 0.13770592 0.033421308 0.21525711 -0.06523316 -0.16844818
-0.027381822 0.1666147 0.049399484 0.1362055 -0.27857113 0.116744325 0.10371195 0.1575842
-0.041213337 0.20284566 -0.054197107 0.08260359 0.15110101 -0.048125125 0.18386038 0.08323134
0.11493525 0.17209168 0.056283917 0.19610955 -0.029232407 -0.06599628 -0.037416838 -0.030827116
-0.13931137 0.13568757 0.2604426 0.16351031 -0.1314648 0.03849751 0.20096669 -0.05816767
0.1668992 0.16611359 0.09060574 0.07576261 -0.21446304 0.18944643 0.049833503 -0.06541406
0.17520563 -0.07536567 0.08468477 0.23989967 -0.1637647 0.12572138 -0.19406068 0.05358871
0.11159143 -0.12200309 0.16756052 -0.22016753 -0.15878916 0.06133655 0.04443282 0.21307056
0.031992845 0.0071456884 -0.15431558 0.2539752 0.117061 -0.046634305 -0.15378988 -0.23829527
-0.06708701 0.028629744 -0.054994874 -0.15160263 0.20129982 -0.17993587 0.23956463 -0.05673933
-0.019355796 -0.11229129 -0.0064240624 0.03348772 -0.06675329 0.019989828 -0.07180686 -0.026693674
0.07722658 0.052689552 0.07826322 0.23643118 0.027353197 0.17374948 0.043251514 0.07998088
-0.015494466 0.15955624 0.20300004 0.19156766 -0.012457937 0.23749128 0.18895867 0.13772917
0.055156082 0.060182434 0.14386481 -0.12680167 0.015600198 0.15348442 0.07778738 -0.2978857
-0.17103745 -0.08064371 -0.06621838 0.18470864 -0.28059673 -0.113412134 -0.17426234 0.20731476
0.19118005 0.12335354 0.03582418 -0.10350904 -0.112764776 0.22709796 -0.055069953 0.14162421
-0.1010738 -0.17707226 -0.23371246 0.15319237 0.22569203 -0.1241065 -0.03723249 0.053580195
-0.15405346 -0.11213347 -0.2205053 -0.026496897 -0.12578233 0.22806421 -0.023663757 0.03423243
0.12113092 -0.3041456 -0.155597 0.2792178 0.05484155 0.010210149 -0.060380522 -0.19215699
00000000: 9d2e 643e cf77 053e 358b 513e be83 47be
00000010: dd0d 683d d8e4 1fbe 55bf 13bd 8970 1bbe
00000020: 79b1 2cbe ddaf 4c3c 9b12 7c3e e108 5b3e
00000030: b7b5 d9bc 65a4 1cbe 3b8d fd3d 9a0f b3bc
00000040: 153e fb3d 4e74 0d3e 375f 48be b97d cdbd
00000050: e59e a83d 58b0 463e 6f65 58be 5bc8 0abe
00000060: 5433 7cbe f616 463d 8e83 233e ec3f 1d3d
00000070: 4e05 1e3e 4609 543e 5f30 92bd 8df5 ca3d
00000080: 98de e7bd dc8b 033d c661 473e e1d7 323e
00000090: 9c7a 383c bdfa 17be 0523 4fbe 88cf 5ebd
000000a0: ef7d bcbc 27e2 14bd fb71 713d 9f5f c03d
000000b0: b0d2 533b 02c9 243e d161 06be a01a 543d
000000c0: c642 fcbd f8c0 6d3c 87a7 a13d 738d 08be
000000d0: e495 1cbe 8e37 ebbd 00e0 753d 6e53 88bd
000000e0: 9259 473e 67c8 5c3e 8aa2 dcbb eca2 563d
000000f0: 9866 2e3d d383 2dbe aab6 503e 54fa 3f3d
00000100: 5cf9 0c3e 11d7 8dbd 2135 a23d 7ecd 2c3d
00000110: 4b48 0cbc b864 083e d183 473e 8be4 133e
00000120: a23d 07bd 24cc 8ebb 4054 1bbe b13b 0bbe
00000130: 3c52 80be d1a5 0abe 1fc5 7dbe c132 883d
00000140: 00ba 61bd 38b9 2e3d 10fc 50be dcd4 89bd
00000150: fc5e b3bd 8881 74be 4026 99bc 70e7 543d
00000160: d094 fdbd e0fb a23c 806b fe3c e0e3 a5bc
00000170: cca2 29be 1002 803d 605d 10bc 80cf fe3c
00000180: 46ff 693e d350 513e 9fc8 223e 761d c1bd
00000190: 6edb a73c a46e 213d 2d04 c53c 253f a43d
000001a0: 7eec 5dbe 36dc c4bd 901f 5abe c802 0d3e
000001b0: c8e4 083d 5c6c 5c3e f798 85bd ae7d 2cbe
000001c0: d84f e0bc 0b9d 2a3e 1d57 4a3d 7479 0b3e
000001d0: e0a0 8ebe a617 ef3d ee66 d43d c15d 213e
000001e0: 51cf 28bd c6b6 4f3e c9fd 5dbd 122c a93d
000001f0: 39ba 1a3e da1e 45bd e545 3c3e 3175 aa3d
00000200: 2c63 eb3d cd38 303e f789 663d f1d0 483e
00000210: cd78 efbc 0f29 87bd 6642 19bd 2689 fcbc
00000220: a4a7 0ebe aff1 0a3e bc58 853e 3f6f 273e
00000230: b59e 06be 91af 1d3d 36ca 4d3e 3941 6ebd
00000240: a0e7 2a3e ae19 2a3e 818f b93d 6d29 9b3d
00000250: 339c 5bbe 3ffe 413e 371e 4c3d cff7 85bd
00000260: 1b69 333e 5159 9abd 356f ad3d 42a8 753e
00000270: efb1 27be 1bbd 003e d8b7 46be d67f 5b3d
00000280: 0c8a e43d c2dc f9bd fc94 2b3e 9973 61be
00000290: a099 22be 093c 7b3d 30ff 353d 2b2f 5a3e
000002a0: ee0a 033d 6126 ea3b e704 1ebe 0a09 823e
000002b0: adbd ef3d 9d03 3fbd 187b 1dbe ad03 74be
000002c0: ea64 89bd ed88 ea3c 4e42 61bd b83d 1bbe
000002d0: 8a21 4e3e 1c41 38be 6e50 753e 8067 68bd
000002e0: 0c90 9ebc faf8 e5bd f180 d2bb 6b2a 093d
000002f0: f3b5 88bd b5c1 a33c 7a0f 93bd b1ac dabc
00000300: f828 9e3d 00d1 573d 7848 a03d 041b 723e
00000310: d013 e03c 62eb 313e 8028 313d 04cd a33d
00000320: 80dc 7dbc b662 233e 3edf 4f3e 502a 443e
00000330: 601c 4cbc ea30 733e 627e 413e e008 0d3e
00000340: 58eb 613d db81 763d 4c51 133e 4cd8 01be
00000350: f997 7f3c 052b 1d3e fd4e 9f3d 7984 98be
00000360: 7124 2fbe 8828 a5bd 819d 87bd 4324 3d3e
00000370: 60aa 8fbe 9f44 e8bd d471 32be 524a 543e
00000380: b4c4 433e c8a0 fc3d 60bc 123d 8cfc d3bd
00000390: 38f1 e6bd 5e8c 683e 0891 61bd f005 113e
000003a0: c8ff cebd 6e52 35be 5252 6fbe 76de 1c3e
000003b0: d01b 673e 8c2b febd 1881 18bd e876 5b3d
000003c0: 31c0 1dbe 3ca6 e5bd 24cc 61be 0510 d9bc
000003d0: 15cd 00be aa89 693e 7fda c1bc 4e37 0c3d
000003e0: 7d13 f83d f9b8 9bbe d254 1fbe a3f5 8e3e
000003f0: 88a1 603d 7848 273c 9151 77bd cdc4 44be

model.MLP.0.bias f4 [32]
0.22483905 0.07772969 0.05611969 0.19299343 0.03432373 -0.126118 0.14926925 -0.113802254
0.08043357 0.16437198 0.055668 0.22893205 -0.1456809 -0.0079241805 -0.21618447 -0.004017108
-0.08960983 -0.14684674 -0.07314976 -0.18239726 0.1174905 -0.075089276 -0.05404965 -0.24806952
-0.22594723 0.14844131 -0.15809011 -0.1449962 -0.1299462 -0.22102436 -0.038563892 -0.23653927
00000000: 353c 663e be30 9f3d c3dd 653d 12a0 453e
00000010: 0a97 0c3d 1425 01be 0ada 183e 2811 e9bd
00000020: 5bba a43d 2151 283e 2104 643d 2a6d 6a3e
00000030: 602d 15be 6cd4 01bc 765f 5dbe f2a1 83bb
00000040: 5c85 b7bd fe5e 16be 8bcf 95bd 59c6 3abe
00000050: dc9e f03d 68c8 99bd 2a63 5dbd f005 7ebe
00000060: b65e 67be 0001 183e 60e2 21be e279 14be
00000070: 9e10 05be 3654 62be 2cf5 1dbd 5a37 72be

model.MLP.2.weight f4 [32, 32]
-0.1739707 -0.15509391 -0.04549122 0.1565186 -0.017453283 -0.15251067 -0.0052479208 -0.07533279
0.17540039 0.16449402 -0.042509124 0.024729267 -0.14270796 0.0076473504 -0.1655483 -0.12353372
-0.055300206 0.08544545 -0.11714329 -0.17253365 -0.13941833 0.10217048 -0.017370299 -0.053246155
0.16191958 -0.049204335 0.12639813 0.09575568 -0.1398331 0.02623257 -0.08467203 -0.121671036
-0.12513897 -0.07840304 -0.117664605 0.114960864 0.086602405 -0.14426166 -0.12568384 -0.1700376
-0.12749813 -0.0713014 0.1310379 -0.16208966 0.12596147 -0.0062939525 0.030194893 0.08044
0.13773783 0.14835055 -0.060863525 0.072974175 0.007685125 0.17300789 -0.12842493 0.13527851
-0.10831129 -0.049560666 0.08006059 -0.13323666 -0.15109874 -0.08963052 -0.16707774 -0.15974715
0.1123928 -0.06179697 0.13174267 0.06542274 -0.07798937 -0.08977618 -0.011886746 -0.10527678
-0.06943837 -0.06780802 0.015940651 0.07232618 -0.11109738 0.006730318 -0.10441009 0.124760255
0.06997441 -0.0007285923 0.042246252 -0.11089619 0.08654277 -0.014423773 0.0485819 -0.16095449
-0.009524658 -0.13782363 -0.041764453 -0.1372619 -0.029812768 -0.13218705 0.021788359 0.14508794
-0.055975206 0.1410244 0.052247807 -0.0140582025 0.0777445 -0.012194499 -0.025376156 -0.14045776
-0.032483757 -0.08840015 0.17612295 -0.12427915 0.09459956 0.044566035 -0.0068225414 -0.06918932
0.102335945 -0.04480654 -0.14815511 -0.15459454 -0.06091191 0.14682819 0.014415696 -0.003702879
0.10243933 -0.062094405 0.100721076 -0.032062665 0.08678572 0.12866352 -0.12467868 -0.15265352
0.1654863 0.12849478 -0.11368803 0.024795642 0.11773641 -0.13203207 -0.13297312 -0.15918787
-0.16739555 -0.15068407 -0.043519534 0.17827964 -0.0743501 -0.123303615 0.031119868 -0.04791794
-0.081846 -0.058399204 0.19526385 0.028385365 -0.025963776 -0.0430675 0.056907885 -0.09689207
0.07497655 0.14961673 -0.12491337 -0.034968436 -0.07071177 0.079125896 0.019771535 0.027735457
-0.17434108 0.003985256 -0.084555134 -0.13867293 0.0717282 -0.17030671 0.08896141 -0.064022705
0.14997451 0.069455385 -0.12960824 -0.15834406 0.1606953 -0.037122563 0.014664531 0.042165413
0.038320586 -0.016460538 -0.057153277 0.066657454 0.019156381 0.10298537 -0.16777238 -0.113753624
0.16006409 0.16816254 -0.14319508 -0.050743133 0.08226572 0.021890417 -0.11145938 0.12009172
0.13361773 0.12477414 0.13127922 0.14424744 -0.13390386 0.038638905 -0.09431303 -0.020365953
-0.071294114 -0.06348839 0.10404243 0.15290359 -0.05734557 -0.0065639797 -0.05457724 0.14697725
0.03021942 0.059950612 -0.019124188 0.18503055 -0.057396285 -0.15512882 0.06995153 0.13298957
0.1370508 0.10435993 0.11524703 0.060116023 0.16017266 0.043588206 0.0028775814 0.14663674
0.13824122 -0.07009126 0.12374921 0.0693708 -0.0060208174 0.12230359 0.16477999 0.0611152
-0.15329675 0.11887567 -0.1680273 -0.13000512 -0.03579904 -0.11726323 0.07682617 0.123633094
-0.1714988 -0.045159996 -0.08923975 0.10620964 -0.04382675 -0.12901768 -0.09422439 -0.005717054
0.023185164 0.021131152 0.08517685 0.110271946 0.020596266 -0.028125837 -0.16786394 0.12900071
00000000: 6025 32be f0d0 1ebe 0055 3abd 6946 203e
00000010: 30fa 8ebc c22b 1cbe c0f6 abbb 1448 9abd
00000020: 299c 333e 1f71 283e 0c1e 2ebd 0895 ca3c
00000030: 0922 12be a096 fa3b 7e85 29be 3fff fcbd
00000040: 7882 62bd 06fe ae3d d2e8 efbd a9ac 30be
00000050: aec3 0ebe c23e d13d 284c 8ebc a418 5abd
00000060: 3fce 253e 7c8a 49bd 836e 013e 8e1b c43d
00000070: 6830 0fbe b0e5 d63c 8768 adbd aa2e f9bd
00000080: 6e24 00be c691 a0bd 24fa f0bd 9a70 eb3d
00000090: 9a5c b13d 54b9 13be 44b3 00be 561e 2ebe
000000a0: df8e 02be 7806 92bd cd2e 063e d5fa 25be
000000b0: 0bfc 003e 803d cebb 485b f73c babd a43d
000000c0: 250b 0d3e 35e9 173e 084c 79bd 7c73 953d
000000d0: 80d3 fb3b fb28 313e d381 03be 7386 0a3e
000000e0: 4fd2 ddbd 2000 4bbd cef6 a33d 316f 08be
000000f0: a1b9 1abe 3590 b7bd 6d16 2bbe c294 23be
00000100: 322e e63d d21e 7dbd 8de7 063e 5cfc 853d
00000110: e4b8 9fbd 93dc b7bd a0c0 42bc 5a9b d7bd
00000120: b435 8ebd eede 8abd f895 823c c01f 943d
00000130: 0687 e3bd 008a dc3b f5d4 d5bd 4e82 ff3d
00000140: be4e 8f3d 00ff 3eba 680a 2d3d 8b1d e3bd
00000150: 563d b13d b051 6cbc d0fd 463d 41d1 24be
00000160: 500d 1cbc a321 0dbe 3411 2bbd 628e 0cbe
00000170: e839 f4bc 0b5c 07be 807d b23c ef91 143e
00000180: 4246 65bd b368 103e cc01 563d 6054 66bc
00000190: 8238 9f3d 70cb 47bc a8e1 cfbc 29d4 0fbe
000001a0: b00d 05bd 230b b5bd 9359 343e 1186 febd
000001b0: 6abd c13d e08a 363d a08f dfbb 21b3 8dbd
000001c0: 8295 d13d 1087 37bd f9b5 17be 084e 1ebe
000001d0: c47e 79bd 215a 163e d02f 6c3c 00ac 72bb
000001e0: b6cb d13d b456 7ebd da46 ce3d 2454 03bd
000001f0: b6bc b13d 5fc0 033e 8957 ffbd 3451 1cbe
00000200: 3e75 293e 2394 033e 45d5 e8bd 3b20 cb3c
00000210: c91f f13d 6a33 07be 1b2a 08be 2502 23be
00000220: bd69 2bbe ed4c 1abe 8a41 32bd f08e 363e
00000230: dd44 98bd 9b86 fcbd 18ef fe3c 9a45 44bd
00000240: e09e a7bd 0134 6fbd 3ff3 473e 6d88 e83c
00000250: fcb1 d4bc 8c67 30bd 3e18 693d 596f c6bd
00000260: 4e8d 993d 2135 193e 95d2 ffbd 103b 0fbd
00000270: 55d1 90bd c20c a23d eaf7 a13c 7835 e33c
00000280: 7886 32be c096 823b 3e2b adbd 4700 0ebe
00000290: 3ce6 923d e264 2ebe 6631 b63d 561e 83bd
000002a0: eb92 193e a03e 8e3d 06b8 04be f224 22be
000002b0: 4f8d 243e d40d 18bd 8043 703c a4b5 2c3d
000002c0: 0cf6 1c3d 40d8 86bc 8e19 6abd b483 883d
000002d0: d8ed 9c3c fee9 d23d 86cc 2bbe a9f7 e8bd
000002e0: d7e7 233e cd32 2c3e bba1 12be 08d8 4fbd
000002f0: ee7a a83d 8853 b33c d144 e4bd a6f2 f53d
00000300: 16d3 083e 9689 ff3d 0f6e 063e 9ab5 133e
00000310: 181e 09be d443 1e3d 3127 c1bd 80d6 a6bc
00000320: a602 92bd 3306 82bd 3314 d53d c292 1c3e
00000330: 30e3 6abd a716 d7bb 628c 5fbd 3481 163e
00000340: b88e f73c c68e 753d 54aa 9cbc a678 3d3e
00000350: 5e18 6bbd 17da 1ebe bf42 8f3d 6b2e 083e
00000360: 0b57 0c3e a9ba d53d a306 ec3d 383c 763d
00000370: 4d04 243e 8c89 323d ce95 3c3b f127 163e
00000380: 1b8f 0d3e 028c 8fbd 3a70 fd3d 4712 8e3d
00000390: 474a c5bb 4e7a fa3d 16bc 283e ef53 7a3d
000003a0: d3f9 1cbe 1675 f33d 590f 2cbe 1020 05be
000003b0: 04a2 12bd b427 f0bd 0a57 9d3d 5933 fd3d
000003c0: 629d 2fbe b0f9 38bd 54c3 b6bd 7184 d93d
000003d0: ae83 33bd 361d 04be b8f8 c0bd 2056 bbbb
000003e0: d0ee bd3c 3d1b ad3c 3371 ae3d 42d6 e13d
000003f0: 80b9 a83c 2868 e6bc 86e4 2bbe c318 043e

model.MLP.2.bias f4 [32]
-0.13137512 -0.16002622 -0.09697676 -0.02496703 0.08575433 0.005369261 0.031546865 -0.0027436952
0.085931435 -0.030180603 0.14098513 -0.12167681 -0.14467736 -0.025439309 0.12999053 -0.072532915
-0.12500277 -0.15132742 -0.090237625 -0.037603173 -0.06255315 -0.028657123 -0.06816515 -0.16651714
-0.13577716 -0.04401582 -0.08416245 0.17183307 -0.12024626 0.09492264 -0.13128102 0.058734145
00000000: 3387 06be eadd 23be c09b c6bd a887 ccbc
00000010: f79f af3d a0f0 af3b 4937 013d 91cf 33bb
00000020: d2fc af3d 503d f7bc 685e 103e b131 f9bd
00000030: 4d26 14be 1966 d0bc 3d1c 053e 238c 94bd
00000040: ba00 00be 93f5 1abe 81ce b8bd c905 1abd
00000050: de1b 80bd 58c2 eabc 2c9a 8bbd 7883 2abe
00000060: 2b09 0bbe ef49 34bd 5d5d acbd 02f5 2f3e
00000070: ac43 f6bd cd66 c23d 886e 06be 3793 703d

model.MLP.4.weight f4 [11, 32]
0.063494116 0.045279562 0.019474521 0.04018396 -0.021602694 -0.1292301 0.12212269 0.025699899
-0.14469354 0.03514862 0.020758566 0.07803051 0.069258004 0.078756325 -0.024309022 0.07956504
0.105750546 -0.13881479 -0.0003875345 -0.058907684 0.06802561 0.06721914 0.045244247 -0.09910426
-0.09863953 -0.094121166 -0.018382847 -0.06337715 -0.009094998 0.11120503 0.06832093 0.10690418
0.12595458 0.031076089 0.089613155 0.16872008 0.017617255 0.13490893 -0.008116394 0.09672941
0.06977329 -0.17636105 -0.1109861 0.14497961 0.107446805 -0.07451852 -0.13102718 0.12237485
0.010724366 0.16873504 0.16085549 -0.101553544 0.10574357 0.009427339 -0.016838193 -0.011441648
0.01949133 0.12580405 -0.011341065 -0.02902107 -0.008426741 -0.030970648 -0.15084985 -0.13164079
-0.018464118 -0.16347761 -0.0803646 0.122892186 0.021064281 0.020859092 0.05149871 0.06408186
0.037817836 0.17225643 0.1389545 0.15922461 -0.14555603 -0.0010238886 0.010466322 0.15518557
-0.119394034 -0.14869975 -0.14345616 0.08339067 0.15703805 0.108138606 0.05378738 0.12086381
0.07687186 -0.09498953 -0.15135302 -0.0073840916 -0.10532068 0.11282559 0.09791951 -0.070744984
-0.016588122 -0.14436135 0.13791917 0.08130933 -0.12430467 0.015364021 0.00630036 -0.106468715
-0.09557525 0.08173783 0.06449543 0.11292358 0.10260449 0.090465054 0.032561406 0.10196383
-0.103139155 0.1421182 -0.056826808 -0.13829376 0.10366903 -0.12852249 -0.1198437 -0.09019166
0.0883459 -0.05485096 0.015609562 -0.1572014 -0.060547322 0.0882047 -0.09814517 0.037506253
0.17298429 0.01592727 -0.14942497 -0.052281015 0.032218456 -0.07126153 0.07186468 0.068046555
-0.06525177 -0.09003117 0.11370964 0.15474896 -0.13338603 -0.038131133 -0.07454663 -0.035246775
0.08330728 0.16395827 0.035705835 0.10362382 0.030667499 -0.1132423 -0.083736785 -0.16504194
0.15812184 0.15364526 -0.14754164 0.036620975 -0.15495518 0.020667002 -0.013337031 -0.012059838
-0.14928785 -0.15581144 -0.056296155 -0.13881 -0.09909095 0.019280687 0.13668703 -0.05204118
0.15168495 -0.09362368 0.16009568 0.16520791 -0.14529142 -0.0403686 0.045574665 -0.122869015
-0.049336568 -0.12087503 -0.11249293 0.086092636 -0.05607853 0.023124143 -0.14389376 -0.08685816
-0.08554 0.16269277 0.14053695 -0.111380845 -0.0039244443 0.062116846 -0.089998946 -0.039591014
0.088794425 0.006702438 0.08838822 0.14857717 -0.09984989 -0.058796264 0.11670472 0.088165775
0.062439054 -0.11037861 0.0762129 0.034508497 0.16785307 0.08294709 -0.13002294 0.1570528
0.15032102 0.061115324 0.088550076 -0.037353024 0.05195944 -0.16177405 -0.055559114 0.16962896
0.02595137 0.044849977 -0.060719155 0.022755042 -0.046430737 -0.16546345 0.0007405132 -0.1516578
-0.1589018 0.039376393 -0.17074439 -0.12703961 -0.061753184 0.0021733046 0.051984802 0.1412829
-0.03435491 -0.04035963 0.08292897 0.10763298 -0.10804496 -0.12713093 0.047007322 -0.005666077
-0.10973535 0.14624514 0.04195057 -0.12749977 0.15314217 0.15986629 -0.106046945 -0.056172475
-0.11126641 -0.12834837 -0.015761808 0.10791735 0.07383697 -0.017173916 -0.09334265 0.1129124
00000000: 3409 823d 1077 393d 0889 9f3c f097 243d
00000010: 22f8 b0bc e554 04be 761b fa3d 9888 d23c
00000020: 8b2a 14be 00f8 0f3d de0d aa3c 76ce 9f3d
00000030: 24d7 8d3d ff4a a13d b723 c7bc fff2 a23d
00000040: be93 d83d 7725 0ebe 002e cbb9 2f49 71bd
00000050: 0351 8b3d 30aa 893d 0852 393d 2df7 cabd
00000060: 8603 cabd 99c2 c0bd a097 96bc e1cb 81bd
00000070: 3003 15bc 76bf e33d d8eb 8b3d 94f0 da3d
00000080: 3dfa 003e 4893 fe3c 1a87 b73d f5c4 2c3e
00000090: 1052 903c 9125 0a3e a0fa 04bc 121a c63d
000000a0: 4ce5 8e3d fe97 34be ae4c e3bd 8975 143e
000000b0: 120d dc3d 2a9d 98bd fd2b 06be aa9f fa3d
000000c0: 40b5 2f3c e1c8 2c3e 4db7 243e 4efb cfbd
000000d0: 1690 d83d 2075 1a3c 40f0 89bc c075 3bbc
000000e0: 48ac 9f3c c7d2 003e e0cf 39bc 98bd edbc
000000f0: 5010 0abc 28b6 fdbc 6278 1abe d8cc 06be
00000100: 1042 97bc ad66 27be 3296 a4bd e6ae fb3d
00000110: 008f ac3c b0e0 aa3c 50f0 523d 5a3d 833d
00000120: e0e6 1a3d fd63 303e 174a 0e3e c70b 233e
00000130: a40c 15be 0034 86ba f07a 2b3c f7e8 1e3e
00000140: dc84 f4bd bf44 18be 2ce6 12be bac8 aa3d
00000150: 95ce 203e c677 dd3d 2850 5c3d 7287 f73d
00000160: fe6e 9d3d df89 c2bd 49fc 1abe 40f6 f1bb
00000170: 5eb2 d7bd 1a11 e73d 068a c83d bfe2 90bd
00000180: d0e3 87bc 76d3 13be af3a 0d3e 8285 a63d
00000190: 7293 febd 60b9 7b3c 4073 ce3b 450c dabd
000001a0: f5bc c3bd 2a66 a73d 2e16 843d 7a44 e73d
000001b0: 4e22 d23d be45 b93d 1c5f 053d 6ad2 d03d
000001c0: 9f3a d3bd 6f87 113e 3ac3 68bd e19c 0dbe
000001d0: 6e50 d43d 669b 03be 9d70 f5bd 68b6 b8bd
000001e0: b2ee b43d 66ab 60bd 40bf 7f3c 67f9 20be
000001f0: 7800 78bd aaa4 b43d 5600 c9bd 28a0 193d
00000200: cb22 313e e879 823c dc02 19be 9e24 56bd
00000210: 80f7 033d 91f1 91bd ca2d 933d fe5b 8b3d
00000220: b8a2 85bd 4362 b8bd 9ae0 e83d 8376 1e3e
00000230: 5996 08be 642f 1cbd e7ab 98bd ec5e 10bd
00000240: 029d aa3d ade4 273e 4840 123d ba38 d43d
00000250: 683a fb3c 94eb e7bd 317e abbd c100 29be
00000260: b1ea 213e 2f55 1d3e 2815 17be e0ff 153d
00000270: 92ac 1ebe d84d a93c 9083 5abc a096 45bc
00000280: eade 18be 098d 1fbe cc96 66bd 3524 0ebe
00000290: 32f0 cabd 88f2 9d3c aff7 0b3e 2229 55bd
000002a0: 4d53 1b3e c6bd bfbd 1ff0 233e 432c 293e
000002b0: 46c7 14be 8c59 25bd 80ac 3a3d c0a2 fbbd
000002c0: 2415 4abd 548d f7bd b162 e6bd 5651 b03d
000002d0: 9ab2 65bd d86e bd3c e358 13be b1e2 b1bd
000002e0: 982f afbd ef98 263e ebe8 0f3e a41b e4bd
000002f0: a098 80bb 3c6e 7e3d 5e51 b8bd 302a 22bd
00000300: dad9 b53d 20a0 db3b e204 b53d 9d24 183e
00000310: 197e ccbd 5ad4 70bd e202 ef3d 4290 b43d
00000320: 18c0 7f3d 2e0e e2bd 8215 9c3d c858 0d3d
00000330: ade1 2b3e 2ae0 a93d bc24 05be 73d2 203e
00000340: c1ed 193e 1054 7a3d be59 b53d 7cff 18bd
00000350: 6cd3 543d 19a8 25be f491 63bd 37b3 2d3e
00000360: f897 d43c 9cb4 373d a6b4 78bd c868 ba3c
00000370: 282e 3ebd 406f 29be 001f 423a 2f4c 1bbe
00000380: 27b7 22be 2449 213d 9ed7 2ebe ac16 02be
00000390: e8f0 7cbd 006e 0e3b 04ee 543d 77ac 103e
000003a0: bcb7 0cbd 2450 25bd aad6 a93d ae6e dc3d
000003b0: ad46 ddbd 9c2e 02be c08a 403d 80aa b9bb
000003c0: edbc e0bd 49c1 153e 5cd4 2b3d 4d8f 02be
000003d0: 4dd1 1c3e fdb3 233e 242f d9bd 1c15 66bd
000003e0: a5df e3bd c16d 03be e81e 81bc c603 dd3d
000003f0: d637 973d 50b0 8cbc 6e2a bfbd 9e3e e73d

model.MLP.4.bias f4 [11]
0.117184 -0.10122743 0.043135256 0.058505327 -0.14433312 -0.16950534 -0.025584564 -0.17087094
-0.10389443 -0.06751887 0.16502218
00000000: 2afe ef3d 5450 cfbd 98ae 303d 48a3 6f3d
00000010: 10cc 13be cf92 2dbe b896 d1bc cbf8 2ebe
00000020: 9ac6 d4bd 5547 8abd 93fb 283e

exp_avg f4 [10]
-5.306403e-09 1.5463197e-08 7.5668694e-10 1.02004405e-08 6.397534e-10 -3.2948748e-09 3.242037e-09 9.368842e-10
-2.4473817e-10 1.3816358e-09
00000000: 9d53 b6b1 eed3 8432 1cff 4f30 033e 2f32
00000010: a5da 2f30 0d6c 62b1 85ca 5e31 afc3 8030
00000020: d68b 86af fde3 bd30

exp_avg_sq f4 [10]
2.2869583e-13 8.648387e-12 2.6687455e-13 3.278966e-11 1.5910823e-12 7.3211775e-12 9.233122e-13 8.2379615e-12
1.031624e-12 6.0562845e-13
00000000: 8bbe 802a df24 182d ad3c 962a e035 102e
00000010: c8ec df2b a7cb 002d d4f1 812b 7bec 102d
00000020: 2c30 912b 2178 2a2b
