Test GCNN RNN/mbohxa51/checkpoints/epoch=5-step=210.ckpt (torch, 250505 bytes, 36 tensors)

model.GCNN.graph_convolution.bias f4 [10]
0	0x3afb6ef2	0.0019182845
1	0xbb1a05eb	-0.0023502063
2	0x3a3bda11	0.00071659783
3	0xba59309d	-0.0008285137
4	0x3ba7d2b1	0.005121552
5	0xba35af49	-0.00069307216
6	0xbad5bff0	-0.0016307812
7	0x3a3f433a	0.00072960893
8	0xbafbaf37	-0.0019201998
9	0x39845f08	0.00025247806

model.GCNN.graph_convolution.lin.weight f4 [10, 1]
0	0x3ebd7002	0.36999518
1	0x3e7a5729	0.24447311
2	0xbf1607dd	-0.5860575
3	0x3efdba38	0.49556136
4	0xbebd76c3	-0.3700467
5	0x3e842f95	0.25817552
6	0xbf18c1ac	-0.5967052
7	0xbf022143	-0.50832003
8	0xbe873b4e	-0.26412433
9	0xbed70502	-0.41996008

model.RNN.weight_ih_l0 f4 [50, 11]
0	0x3c3a1444	0.011357371
1	0xbbdf1e18	-0.0068090074
2	0x3d889b70	0.06670272
3	0xbd4b675b	-0.049659114
4	0x3b98d146	0.004663619
5	0xbc8dd61d	-0.017314011
6	0x3d0e77ae	0.034782104
7	0xbdfb0db8	-0.12258476
8	0x3dd99546	0.10624175
9	0x3d8bc3fd	0.06824491
10	0xbd9f1770	-0.07768142
11	0x3dff574b	0.12467822
12	0x3cbe8018	0.02325444
13	0xbd4861ab	-0.04892127
14	0xbd2bc2eb	-0.041933935
15	0x3d2b920a	0.04188732
16	0x3dc18f33	0.09451141
17	0xbd9ce324	-0.07660511
18	0xbdc78fdc	-0.09744236
19	0x3e06f7b0	0.13180423
20	0x3d987b21	0.0744536
21	0x3d10a24b	0.035311025
22	0xbdb7caf0	-0.08974254
23	0x3d430276	0.04760977
24	0xbdea7710	-0.114484906
25	0x3ded2eba	0.11581178
26	0xbc5eb0df	-0.013591974
27	0xbd92afe7	-0.07162457
28	0xbdcb65ba	-0.09931512
29	0x3d36202c	0.044464275
30	0x3e175ee7	0.14782296
31	0xbd8346bb	-0.06409975
32	0x3c2a7b13	0.01040532
33	0xbd069eff	-0.032866474
34	0x3dabfbee	0.08397661
35	0xbe18992f	-0.14902185
36	0x3d487855	0.048942883
37	0x3d264a25	0.040598053
38	0x3dffbf0e	0.12487613
39	0xbd0e3644	-0.03471972
40	0x3d7a7871	0.061150018
41	0xbd209bb0	-0.039210975
42	0xbdf3e5f1	-0.11909092
43	0x3c0c59b4	0.008566309
44	0x3bc9629f	0.0061457898
45	0x3d4211fb	0.04738043
46	0x3dd97e2b	0.10619768
47	0x3dc47a15	0.09593598
48	0xbdac6faf	-0.084197395
49	0x3d9e9281	0.07742787
50	0x3d8db541	0.06919337
51	0x3d93dc2b	0.07219728
52	0xbd32d6b5	-0.04366179
53	0xbe1ae233	-0.1512535
54	0x3c1d87b0	0.00961487
55	0xbd710b86	-0.05884888
56	0x3d4a7758	0.04943022
57	0xbd0c2489	-0.03421453
58	0x3deda478	0.116036355
59	0x3e001c81	0.12510873
60	0x3d6353e1	0.055499915
61	0x3db4725f	0.08810877
62	0xbd89460a	-0.06702812
63	0x3d8877ee	0.066635
64	0xbd5c229d	-0.053743947
65	0x3c4fe84b	0.01268966
66	0x3db96cdd	0.09053967
67	0x3de91712	0.113813534
68	0xbdab4ea5	-0.0836461
69	0xbe193f33	-0.14965515
70	0xbd002c31	-0.031292144
71	0x3da372f2	0.079809085
72	0x3caf7363	0.021417325
73	0xbe1646d1	-0.14675452
74	0x3dbdfbdc	0.09276554
75	0xbe1a6544	-0.15077692
76	0x3d933b84	0.07189086
77	0xbd581542	-0.052754648
78	0xbd36ff8e	-0.04467731
79	0xbdc2361b	-0.09482976
80	0xbcca6849	-0.02470793
81	0xbd93be0c	-0.07213983
82	0x3dc71b7b	0.09722038
83	0xbdd532cf	-0.104100816
84	0xbd802222	-0.0625651
85	0x3e01d1b0	0.12677646
86	0xbd12e849	-0.035866056
87	0xbc48edcc	-0.012263726
88	0xbc4fc9fd	-0.012682435
89	0xbde1dd7f	-0.11028575
90	0x3e175d72	0.1478174
91	0xbdf58efc	-0.11990163
92	0x3db7cfcc	0.08975181
93	0xbdeb14b1	-0.11478556
94	0x3b64ed6f	0.003493156
95	0x3c8eaa4a	0.017415185
96	0x3da3cc35	0.07997934
97	0x3dc2fa73	0.09520426
98	0x3ce03960	0.027371109
99	0x3d53112c	0.05153005
100	0x3d664f4b	0.056227963
101	0x3c54aa6d	0.012980086
102	0xbdb786d9	-0.08961267
103	0x3de84929	0.11342079
104	0xbe113dd2	-0.14183739
105	0x3db2d224	0.087314874
106	0xbd2de0cf	-0.042450722
107	0x3cfda652	0.030963097
108	0x3d755679	0.05989692
109	0xbddd4399	-0.10803909
110	0xbcf50005	-0.029907236
111	0x3db0cfa3	0.086333536
112	0xbd89b86d	-0.067246296
113	0xbd165cbe	-0.03670954
114	0x3d112eda	0.03544507
115	0x3dbd1bcc	0.092338175
116	0x3dfeed78	0.12447637
117	0x3d72fde8	0.059324175
118	0xba55e538	-0.00081594614
119	0xbd26d02c	-0.040725872
120	0x3cf98683	0.030459648
121	0x3d9ed493	0.07755389
122	0xbd90278d	-0.07038794
123	0xbc9c4c4e	-0.019079354
124	0xbe15cf7e	-0.14629933
125	0x3d3ce624	0.046117917
126	0x3d47e0e2	0.04879845
127	0x3d5da7a9	0.05411497
128	0xbdaac544	-0.08338407
129	0x3d056de6	0.03257551
130	0x3d231fa1	0.039825086
131	0x3d2f039a	0.042728044
132	0x3e13b04f	0.14422725
133	0xbde1b9a8	-0.11021739
134	0xbd759804	-0.059959427
135	0xbdb4920c	-0.08816919
136	0x3d8c3b8c	0.06847295
137	0xba500e08	-0.0007936661
138	0x3e15f0cb	0.14642636
139	0xbd2961bd	-0.041352976
140	0xbdd5b083	-0.104340576
141	0x3cae0ce3	0.02124638
142	0x3de47682	0.11155416
143	0x3dde3720	0.10850358
144	0x3e153607	0.14571391
145	0x3d35fde0	0.044431567
146	0xbe142e2e	-0.14470741
147	0xbd941cb0	-0.07232034
148	0xbd90f963	-0.07078817
149	0xbddb12f6	-0.10696976
150	0xbd314931	-0.04328269
151	0xbd7dfc26	-0.062008046
152	0xbe01affa	-0.12664786
153	0x3d57ba52	0.052667923
154	0xbe02f9f5	-0.12790664
155	0xbdbd9b7e	-0.092581734
156	0x3e097833	0.13424759
157	0xbde1f455	-0.11032931
158	0xbd926524	-0.07148197
159	0x3c298bc7	0.010348267
160	0x3d451771	0.04811806
161	0xbdf3d959	-0.1190669
162	0x3df6ab2c	0.12044367
163	0x3c478a12	0.012178915
164	0x3c8e7b87	0.017392887
165	0x3dab4f67	0.08364754
166	0x3e023ce9	0.12718548
167	0xbd8a6b7f	-0.067587845
168	0xbe01968f	-0.1265509
169	0x3c635ad7	0.013876638
170	0xbd9d7394	-0.076880604
171	0x3e01fe3f	0.12694643
172	0x3cac20a2	0.021011654
173	0xbd21ba54	-0.039484337
174	0xbdc14ff7	-0.0943908
175	0xbdcf0f1f	-0.10110306
176	0x3ce105e3	0.027468627
177	0x3b5269d8	0.0032106545
178	0xbde78356	-0.11304347
179	0x3df45fca	0.11932333
180	0x3d9c5b66	0.0763462
181	0xbd2b9b86	-0.041896366
182	0xbd44c579	-0.048039887
183	0x3e0260d5	0.12732251
184	0xbd8ae7f9	-0.067825265
185	0xbdcb8e5a	-0.09939261
186	0xbd887bc2	-0.0666423
187	0x3dd9664b	0.10615214
188	0xbc8405c0	-0.016116023
189	0x3cfa2e18	0.030539557
190	0x3d75303e	0.05986046
191	0xbd637bf5	-0.055538137
192	0xbdf006a7	-0.11720019
193	0xbdf4d142	-0.11953975
194	0x3e1bbafd	0.15208049
195	0xbdbaec7b	-0.09127136
196	0x3e1bf2a0	0.15229273
197	0x3d44697f	0.04795217
198	0x3dd340e5	0.10315112
199	0x3c96db05	0.018414984
200	0x3df3928c	0.11893186
201	0x3cfa19ef	0.030529944
202	0x3dbb1974	0.09135714
203	0x3d84bb22	0.06481005
204	0xbcd8de3c	-0.026473157
205	0x3d350048	0.04418972
206	0x3da5c7a2	0.080947176
207	0xbdc38fa5	-0.095488824
208	0xbda7e652	-0.08198227
209	0xbd8c8a97	-0.068623714
210	0xbd952c34	-0.07283822
211	0xbe000016	-0.12500033
212	0xbe054221	-0.13013507
213	0x3d24257d	0.040074814
214	0x3e102e4a	0.14080158
215	0xbcfcabcb	-0.030843636
216	0x3d61f2e9	0.055163298
217	0xbde7c60d	-0.11317072
218	0x3db8bae5	0.09020022
219	0xbdbbf10f	-0.09176838
220	0x3cfd6a41	0.030934455
221	0x3dcb2484	0.09919074
222	0x3d349a3b	0.044092398
223	0xbddab709	-0.106794424
224	0x3df94e2a	0.12173112
225	0x3a691577	0.0008891443
226	0x3e03af59	0.12859859
227	0x3de8e5d1	0.11371959
228	0xbd30211a	-0.043000318
229	0xbdf2e6fc	-0.11860463
230	0x3dce5b4a	0.10076006
231	0x3d2726fa	0.040808655
232	0xbd6edf76	-0.058318578
233	0xbcd4f489	-0.02599551
234	0xbdb408fa	-0.08790775
235	0x3d983f30	0.07433927
236	0xbd914c20	-0.07094598
237	0xbc676021	-0.01412204
238	0xbc9786a6	-0.018496823
239	0x3d8bc7e5	0.06825236
240	0x3e04cbfc	0.12968439
241	0xbdffab3a	-0.12483831
242	0x3cdbe262	0.026841346
243	0x3ca77a40	0.020444036
244	0xbd1a3373	-0.037646722
245	0x3d3d9a78	0.04628989
246	0x3d0755a5	0.03304066
247	0x3e0107d7	0.12600647
248	0xbc152d07	-0.009104974
249	0xbdc7e713	-0.09760871
250	0xbd8ddf69	-0.06927378
251	0xbdf1304b	-0.11776789
252	0x3e173578	0.1476649
253	0x3ddc0a0b	0.10744103
254	0xbdd6041c	-0.104500026
255	0x3dffa482	0.12482549

model.RNN.weight_hh_l0 f4 [50, 50]
0	0xbd12a8fa	-0.03580568
1	0x3dec8436	0.11548655
2	0x3b4b8baa	0.0031058588
3	0x3c8b9695	0.017039577
4	0xbdff8fa3	-0.124785684
5	0xbdfb29b3	-0.12263813
6	0x3e0272f2	0.1273916
7	0xbd7c9851	-0.061668698
8	0xbdf283bc	-0.118415326
9	0x3dc14a91	0.094380505
10	0x3d9d185f	0.07670664
11	0xbd00a315	-0.031405527
12	0x3d9f9434	0.077919394
13	0x3e20671e	0.15664336
14	0x3db28ec4	0.08718637
15	0x3dd8a28d	0.10577879
16	0xbd04c33a	-0.032412745
17	0xbe001427	-0.12507688
18	0x3e047f0a	0.12939087
19	0x3da0f477	0.07859128
20	0x3ddbdd95	0.10735623
21	0xbdb89541	-0.09012843
22	0x3e03a55e	0.12856051
23	0x3dd395c4	0.103313
24	0xbd1ae3aa	-0.037814774
25	0xbc8b88cf	-0.017033009
26	0x3db396cb	0.08768996
27	0xbd88b8b6	-0.06675856
28	0xbda68bbc	-0.08132121
29	0x3e06ace2	0.13151887
30	0x3dbbd9b5	0.09172384
31	0x3dd8d401	0.105873115
32	0xbdf28771	-0.1184224
33	0xbd8ee7f5	-0.06977836
34	0x3db53f5b	0.08849975
35	0xbe07c41d	-0.13258405
36	0xbd230483	-0.039799225
37	0xbce20453	-0.027589953
38	0x3d8cf97a	0.068835214
39	0xbdb2e1e2	-0.0873449
40	0xbd6f7e4d	-0.05847006
41	0x3e11a2a2	0.14222196
42	0xbd14018b	-0.036134284
43	0xbd5fa90c	-0.054604575
44	0xbc943b4a	-0.018094677
45	0x3ceceba5	0.028920958
46	0x3d68f20f	0.05687147
47	0xbdd00b56	-0.10158412
48	0xbd33c92e	-0.04389303
49	0xbd7e9165	-0.062150378
50	0x3c5b2167	0.013374663
51	0xbe01e3c6	-0.12684545
52	0xbb318ca6	-0.002709189
53	0xbddfd591	-0.109294064
54	0x3d8ac7c6	0.06776385
55	0x3da2ca54	0.07948747
56	0x3de550d1	0.11197055
57	0x3cd0c502	0.025484566
58	0xbd709866	-0.05873909
59	0x3da15871	0.07878197
60	0xbe14ad51	-0.1451924
61	0x3e09e080	0.13464546
62	0xbd39b9eb	-0.04534332
63	0x3d2782b3	0.04089613
64	0x3e0c15c5	0.1368018
65	0x3e1b5338	0.15168464
66	0x3cd32bcf	0.025777726
67	0x3d1b547d	0.03792237
68	0xbd7a557c	-0.06111668
69	0x3db40d88	0.087916434
70	0x3d954372	0.07288255
71	0x3df73cb0	0.12072122
72	0xbd98e4ee	-0.0746554
73	0x3d80bbe4	0.06285837
74	0xbc9be3b6	-0.01902948
75	0xbdbc05c1	-0.09180785
76	0x3d8beb7d	0.06832025
77	0xbdea8292	-0.114506856
78	0xbe0113dc	-0.12605232
79	0x3b830dae	0.0039994335
80	0x3d9989dc	0.07496998
81	0x3d267557	0.040639248
82	0x3df9df6e	0.12200819
83	0x3cc377e5	0.023860881
84	0xbca43e37	-0.020049198
85	0xbdd51941	-0.104052074
86	0xbd99e2b5	-0.07513944
87	0xbd719447	-0.0589793
88	0xbdcdb2b2	-0.10043849
89	0xbd326b2c	-0.04355924
90	0x3d14150b	0.03615288
91	0x3d8679ea	0.06566222
92	0xba10c96e	-0.00055231794
93	0xbdaf3bd9	-0.08556337
94	0xba9f2e2d	-0.0012144499
95	0xbda1e74d	-0.07905445
96	0xbdc15a64	-0.09441069
97	0xbb741733	-0.0037245273
98	0x3d928f18	0.07156199
99	0x3e0a4575	0.13503058
100	0x3cf08f31	0.029365154
101	0x3dfb442e	0.122688636
102	0x3c51be47	0.012801713
103	0x3d12bfc3	0.03582741
104	0xbddf36a1	-0.108990915
105	0x3d446b97	0.04795417
106	0xbdfb360c	-0.12266168
107	0xbdba1b43	-0.09087231
108	0xbde9dc9b	-0.1141903
109	0x3c96f84f	0.01842895
110	0x3b83a887	0.0040178928
111	0xbd098bab	-0.033580463
112	0x3d22ea13	0.03977401
113	0x3a3a25fd	0.00071009976
114	0xbd547e45	-0.051878233
115	0xbc94fc1a	-0.018186618
116	0x3c82ffa8	0.015991047
117	0xbd9f96f4	-0.07792464
118	0xbd8c30f7	-0.06845277
119	0x3c3ab268	0.011395074
120	0xbe1151d9	-0.14191379
121	0x3d9b8be6	0.07595043
122	0x3dc138a5	0.09434632
123	0xbe1f1607	-0.15535747
124	0x3dbfdd92	0.09368433
125	0xbd6dda94	-0.05806978
126	0x3df28748	0.11842209
127	0x3e04469f	0.12917565
128	0x3e07df80	0.13268852
129	0x3c81848b	0.015810272
130	0xbdc36b88	-0.09541994
131	0xbc37eeb1	-0.011226342
132	0xbde628c3	-0.112382434
133	0xbc743399	-0.01490488
134	0x3dc7621a	0.09735508
135	0xbdc574ed	-0.096414424
136	0xbdce7522	-0.10080935
137	0xbd6ac889	-0.05732015
138	0xbd80061a	-0.06251164
139	0xbdfe44da	-0.12415476
140	0x3ccf4ca7	0.025305105
141	0x3d3c766a	0.046011366
142	0xbe0ee266	-0.13953552
143	0xbc7530c4	-0.01496524
144	0x3d6fbbd1	0.058528725
145	0xbda85acb	-0.082204424
146	0xbcc47d4d	-0.02398553
147	0x3dcc2052	0.09967102
148	0x3d24ac08	0.040203124
149	0x3cfe7ee9	0.031066375
150	0xbdac8d6d	-0.08425412
151	0xbda6afea	-0.08139022
152	0xbde00ec9	-0.1094032
153	0xbcb81253	-0.022469675
154	0xbda67ccd	-0.081292726
155	0x3d6c5118	0.057694525
156	0xbda48cc2	-0.0803466
157	0x3cd0d241	0.025490882
158	0x3d220113	0.039551806
159	0x3e00d0b7	0.12579618
160	0xbac33708	-0.001489372
161	0x3e08d693	0.13363104
162	0x3d54ecd1	0.05198366
163	0xbd021ef6	-0.031767808
164	0x3d16deca	0.036833562
165	0x3df4adc0	0.11947203
166	0x3db37895	0.087632336
167	0xbbd6d2b3	-0.006555879
168	0x3dbb5dfa	0.09148784
169	0x3dfed156	0.124422714
170	0xbcb7de7a	-0.022444952
171	0xbe1bc6cd	-0.15212555
172	0x3d954150	0.07287848
173	0xbe1e3aa4	-0.15452057
174	0xbdfe6f7b	-0.12423607
175	0x39f64887	0.00046974813
176	0xbdfb7957	-0.12279003
177	0x3e0405ea	0.12892881
178	0xbc49cead	-0.012317342
179	0x3d88b457	0.06675022
180	0xbd64a7b6	-0.055824004
181	0x3d2cc59b	0.04218064
182	0x3dddb494	0.10825458
183	0xbddbdf7f	-0.10735988
184	0x3e021880	0.12704659
185	0x3df81b49	0.12114579
186	0x3ded8f9b	0.11599656
187	0x3deee982	0.11665632
188	0xbdfab7c7	-0.12242084
189	0xbe0e6b8a	-0.1390821
190	0x3dd0a3c9	0.101874895
191	0xbdbcc336	-0.09216921
192	0x3de44dd8	0.1114766
193	0xbc5f4696	-0.013627669
194	0x3cc39d03	0.02387858
195	0x3d2564f6	0.040379487
196	0x3dd44dd3	0.10366406
197	0x3d47c348	0.04877022
198	0xbca46cd8	-0.020071432
199	0xbdc32181	-0.09527875
200	0x3e05c33a	0.13062754
201	0xbdf2540c	-0.11832437
202	0xbddc341e	-0.10752128
203	0xbd413b90	-0.047175944
204	0xbdbcd788	-0.09220797
205	0x3b1fa9a0	0.002436258
206	0x3dd57943	0.104235195
207	0x3d7659a7	0.060144093
208	0x3dc6b37b	0.09702202
209	0xba4eab29	-0.0007883781
210	0xbd44f384	-0.048083797
211	0xbde20d1c	-0.11037657
212	0xbc3a13ec	-0.011357289
213	0x3d58b4e5	0.05290689
214	0x3e082288	0.13294423
215	0xbdcbb36b	-0.09946331
216	0x3dbc035e	0.0918033
217	0xbe00707b	-0.12542908
218	0xbd26cafb	-0.04072092
219	0xbe0593d4	-0.13044673
220	0xbc152306	-0.0091025885
221	0xbcfbf6a0	-0.030757248
222	0x3bb0f6c8	0.0054005124
223	0x3dc824c4	0.097726375
224	0x3de92fd3	0.11386075
225	0xbe10e603	-0.14150243
226	0x3de16c83	0.11007025
227	0x3c4a4e77	0.012347809
228	0xbc1946d5	-0.009355267
229	0xbbda0de7	-0.0066544893
230	0xbe15f6b3	-0.1464489
231	0xbd0c73d8	-0.034290165
232	0x3d91866f	0.07105719
233	0xbd9f8dbc	-0.077907056
234	0xbdc2dee8	-0.09515172
235	0x3dc10acf	0.0942589
236	0xbda5f81e	-0.08103965
237	0xbd522586	-0.051305316
238	0xbcd98e7e	-0.026557203
239	0xbcd532a8	-0.026025131
240	0xbda4908d	-0.080353834
241	0x3e09e45b	0.13466017
242	0x3dc1fb13	0.09471717
243	0xbcc04b83	-0.023473507
244	0x3da3a0ff	0.07989692
245	0xbd721111	-0.059098307
246	0xbdfb0c7a	-0.12258239
247	0x3e086d4d	0.13322945
248	0xbde459c1	-0.11149932
249	0xbe0988ca	-0.13431087
250	0x3c94d97b	0.018170109
251	0x3dccf257	0.1000716
252	0x3c8dacfc	0.0172944
253	0x3dacc362	0.08435704
254	0x3d7cfb94	0.06176336
255	0xbd009d52	-0.031400032

model.RNN.bias_ih_l0 f4 [50]
0	0xbda1ee73	-0.07906809
1	0xbdda0f75	-0.106474794
2	0xbda3f755	-0.08006159
3	0x3dbee4d5	0.0932099
4	0x3e048f08	0.12945187
5	0xbdf313ae	-0.11868988
6	0xbd927681	-0.07151509
7	0xbd443d4f	-0.04791003
8	0xbc809a94	-0.015698709
9	0x3d923a2b	0.07140001
10	0x3d624098	0.055237383
11	0x3df7cc22	0.12099482
12	0x3deffcd1	0.11718143
13	0x3da2f09d	0.079560496
14	0x3d42f174	0.04759355
15	0x3e11935c	0.1421637
16	0xbd6d3fd9	-0.057922218
17	0xbde2110e	-0.11038409
18	0xbdc212d5	-0.09476248
19	0xbdcd4283	-0.10022452
20	0xbdc439a2	-0.09581305
21	0xbdb1f889	-0.086899824
22	0x3b0dec04	0.002165557
23	0xbd8ccc43	-0.06874897
24	0x3c240ac1	0.01001233
25	0xbdf2a5d1	-0.11848033
26	0x3cf24d3d	0.029577846
27	0x3e109b3a	0.14121714
28	0xbbb87b69	-0.005629946
29	0xbcf2fc52	-0.029661331
30	0xbd646079	-0.055756066
31	0xbdc8fef1	-0.09814251
32	0x3dee359a	0.116313174
33	0xbe0b6886	-0.13614091
34	0x3de55018	0.11196917
35	0x3dd712a3	0.105016015
36	0x3bc0fa07	0.0058891806
37	0x3da77129	0.081758805
38	0xbdb20c40	-0.08693743
39	0xbdcdb62a	-0.10044511
40	0x3b4eedc8	0.0031574834
41	0xbd66e281	-0.056368355
42	0xbddfc9c5	-0.10927156
43	0x3a5d39c0	0.00084390864
44	0xbd269a2a	-0.040674366
45	0x3e00a7dd	0.12564035
46	0xbd24969c	-0.040182695
47	0x3cfa0407	0.030519499
48	0xbd84f637	-0.06492274
49	0x3b45f5ff	0.003020644

model.RNN.bias_hh_l0 f4 [50]
0	0xbd74b530	-0.059743106
1	0x3d691533	0.056904983
2	0xbcae7458	-0.021295711
3	0xbd47fa2b	-0.048822563
4	0x3c7a1f4c	0.015266251
5	0x3df0557a	0.11735053
6	0x3d90ca59	0.07069845
7	0x3d91bf57	0.07116573
8	0x3d034c23	0.03205503
9	0x3dd66e57	0.104702644
10	0x3b37de88	0.0028056223
11	0x3d41c786	0.04730942
12	0xbddafdb4	-0.10692921
13	0xbde8d1ab	-0.11368116
14	0xbdbaa47e	-0.09113406
15	0x3dce826f	0.10083472
16	0xbdd95e14	-0.10613647
17	0x3b85fa77	0.0040886956
18	0x3e0fc9c0	0.14041805
19	0xbe1419f5	-0.14463027
20	0x3d2e3ffc	0.04254149
21	0xbcda9ac0	-0.026685119
22	0x3c2b9748	0.01047308
23	0xbdd00415	-0.101570286
24	0x3ddb35c9	0.10703618
25	0x3da4357e	0.08018015
26	0xbd882f50	-0.06649649
27	0x3e0cf38b	0.1376478
28	0x3dd0a1d8	0.10187119
29	0xbd82c597	-0.063853435
30	0x3d03de30	0.032194316
31	0xbd995a4b	-0.07487925
32	0xbd3bcf2b	-0.045851868
33	0x3cba21b0	0.022721142
34	0x3d77c0e7	0.0604867
35	0x3defe9dc	0.11714527
36	0xbde1a385	-0.11017517
37	0xbd2111b7	-0.039323535
38	0x3cf25201	0.029580118
39	0xbdd81b89	-0.10552127
40	0x3d167917	0.036736574
41	0x3d55b29e	0.052172296
42	0xbe009937	-0.12558447
43	0xbd2864ad	-0.041111637
44	0x3df1bc42	0.118034855
45	0x3c805745	0.015666613
46	0xbe012f89	-0.1261579
47	0xbdf51cc0	-0.11968374
48	0xbd94db57	-0.07268398
49	0x3ab82677	0.0014049549

model.MLP.0.weight f4 [100, 50]
0	0x3c83f18f	0.016106395
1	0xbe0dd123	-0.1384931
2	0x3e10d0f0	0.14142203
3	0xbe01a94d	-0.1266224
4	0x3e06cd8f	0.13164352
5	0xbae97ca9	-0.0017813641
6	0xbdc841b6	-0.09778158
7	0x3d83f61f	0.06443428
8	0xbda2f58c	-0.079569906
9	0xbc5f72ad	-0.013638181
10	0x3da128f6	0.07869141
11	0xbda41760	-0.08012271
12	0x3de2f05b	0.110810004
13	0x3ddf93aa	0.109168366
14	0xbd7a7e4e	-0.06115561
15	0x3d26bf03	0.040709507
16	0x3db1057d	0.08643625
17	0x3d95f9f4	0.073230654
18	0xbd438ab4	-0.0477397
19	0xbd5924c2	-0.05301357
20	0x3db93b46	0.09044509
21	0x3b74dd2c	0.0037363274
22	0xbd7b0570	-0.061284482
23	0x3cfa7000	0.030570984
24	0xbb8b3679	-0.004248437
25	0x3e0ad4d5	0.13557751
26	0xbdc9bb69	-0.09850199
27	0xbb5e94e8	-0.0033963267
28	0xbd1883b8	-0.03723499
29	0x3daa3797	0.08311384
30	0xbe0ab2d5	-0.13544782
31	0xbce59d53	-0.02802912
32	0xbd808b78	-0.062766016
33	0x3e04e281	0.1297703
34	0x3e0005fa	0.1250228
35	0x3e0ae194	0.13562614
36	0xbdda5ce4	-0.10662249
37	0x3d9def2e	0.077116355
38	0xbc458a4d	-0.012056899
39	0x3dd23d50	0.10265601
40	0xbd477de0	-0.048704028
41	0xbd806daf	-0.062709205
42	0xbc95b6f0	-0.018275708
43	0x3dfdf86b	0.124008976
44	0xbd1a06b3	-0.037604045
45	0x3d14c9b5	0.036325175
46	0x3d9f439c	0.07776567
47	0xbd8ce32c	-0.06879267
48	0x3dbfb732	0.093611136
49	0x3dc3f29e	0.0956776
50	0xbdf3db86	-0.11907105
51	0x3da66205	0.081241645
52	0x3d9b793c	0.07591483
53	0xbd9a3100	-0.07528877
54	0xbda729f4	-0.08162299
55	0xbd92b5b5	-0.07163564
56	0x3dfb8384	0.12280944
57	0x3deeecdc	0.11666271
58	0xbe032395	-0.12806542
59	0xbdca74f2	-0.09885587
60	0x3db60c47	0.088890605
61	0xbd8ab5f0	-0.06772983
62	0xbdd04792	-0.10169901
63	0xbe133ded	-0.14379092
64	0x3d60ab33	0.05485077
65	0x3e107a2a	0.14109102
66	0x3dfae8d5	0.122514404
67	0xbc71a900	-0.014749765
68	0xbdcf8012	-0.10131849
69	0xbd35853e	-0.044316523
70	0xbca08464	-0.019594379
71	0x3c818341	0.015809657
72	0xbd9d52ea	-0.0768183
73	0xbd8c7783	-0.068587326
74	0x3dd57da3	0.10424354
75	0x3d8ad7ea	0.067794636
76	0x3daab860	0.08335948
77	0xbdc111eb	-0.09427246
78	0xbd868525	-0.06568364
79	0xbcaa3ed7	-0.020781917
80	0xbde478fe	-0.1115589
81	0x3deac177	0.11462682
82	0xbc64c1c5	-0.013962214
83	0x3e0016b2	0.12508658
84	0xbb5c1de7	-0.003358716
85	0x3b75cde9	0.0037506765
86	0xbe094ae6	-0.13407478
87	0xbdf0597c	-0.11735818
88	0x3d80c134	0.062868506
89	0xbdc7a0be	-0.09747456
90	0x3dfe3e96	0.12414281
91	0x3ae8418a	0.0017719727
92	0xbb283157	-0.0025664174
93	0x3d36a38c	0.044589564
94	0xbdd03d2b	-0.10167917
95	0xbd966877	-0.07344144
96	0xbe00f4cd	-0.12593384
97	0xbdaf9c2d	-0.0857471
98	0xbda91af9	-0.08257098
99	0x3da62430	0.08112371
100	0x3d908ae4	0.07057741
101	0xbd63a54e	-0.05557757
102	0x3d5c39c7	0.05376604
103	0xbd68ab44	-0.056803957
104	0x3d0b1a74	0.033960775
105	0x3cd04565	0.025423715
106	0xbe10d659	-0.14144267
107	0x3dc33aaa	0.09532674
108	0xbdce5fb2	-0.10076846
109	0xbc0eefe0	-0.008724183
110	0x3bc82791	0.0061082323
111	0xbdae006c	-0.08496174
112	0xbd008e76	-0.03138586
113	0x3d60244e	0.054722123
114	0x3c099fe9	0.008399942
115	0xbdd2ebc0	-0.10298872
116	0x3cc63b93	0.02419833
117	0xbd8f9949	-0.07011659
118	0x3e0d18c9	0.13778986
119	0xbcd3b39d	-0.025842482
120	0x3cac8210	0.021058112
121	0xbdf83f4a	-0.121214464
122	0xbde8ee2c	-0.11373553
123	0xbdf41883	-0.11918738
124	0x3df30f85	0.118681945
125	0xbca986d2	-0.02069417
126	0x3daf9cb2	0.08574809
127	0xbe041775	-0.12899573
128	0xbc9ac2cb	-0.018891713
129	0xbd82884c	-0.06373653
130	0xbc7f837b	-0.015595312
131	0xbdf2c8c1	-0.11854697
132	0x3df9eb7e	0.1220312
133	0x3ded0b80	0.11574459
134	0x3c8676f5	0.016414145
135	0x3d95b5a2	0.07310034
136	0x3cdcbecd	0.02694645
137	0xbd6623d5	-0.056186516
138	0xbd582118	-0.052765936
139	0x3d5ff972	0.05468125
140	0x3ddb848e	0.10718642
141	0xbd8bdf6f	-0.06829726
142	0x3d3d32cf	0.046191033
143	0xbc5992f7	-0.013279668
144	0xbc513a3b	-0.012770231
145	0xbd835513	-0.06412711
146	0xbd13f603	-0.036123287
147	0x3d40446c	0.046940252
148	0x3c3732c5	0.011181538
149	0xbca99e3f	-0.02070534
150	0x3de622ef	0.11237132
151	0x3e0c5fba	0.13708392
152	0x3dcfa101	0.10138131
153	0xbcb989b2	-0.022648666
154	0xbdf46a8a	-0.11934383
155	0x3dda8b47	0.10671096
156	0xbd5a88aa	-0.05335299
157	0x3d774f2e	0.060378246
158	0xbdbd847a	-0.092537835
159	0xbdb1198c	-0.08647451
160	0x3d555d4f	0.05209094
161	0x3d7b9be9	0.061427984
162	0xbcac3437	-0.021020992
163	0x3d02990c	0.031884238
164	0x3db38dfb	0.08767315
165	0x3ddb71a2	0.10715033
166	0xbbcccc9a	-0.0062499763
167	0x3e1613c3	0.14655976
168	0xbdafd37d	-0.0858526
169	0xbdde744f	-0.10862028
170	0x3de75664	0.112957746
171	0x3d57578c	0.052573726
172	0x3dc9e628	0.09858352
173	0x3d31ddbc	0.043424353
174	0xbdc33c20	-0.09532952
175	0x3e025ada	0.1272997
176	0xbcfdb697	-0.030970855
177	0x3cc41491	0.023935588
178	0x3de8c041	0.113647945
179	0x3c9ecf5c	0.019385986
180	0xbe11b948	-0.14230835
181	0x3d01b5cb	0.031667512
182	0x3d8b1fa8	0.06793147
183	0xbda3f9a2	-0.08006598
184	0x3d629a38	0.055322856
185	0xbdba762f	-0.09104573
186	0x3db9caa5	0.090718545
187	0x3da1b5a4	0.07895973
188	0x3ddfc3ea	0.109260395
189	0x3de844f4	0.11341277
190	0xbe0367c4	-0.12832552
191	0xbd972209	-0.073795386
192	0xbd030317	-0.03198537
193	0x3d84e966	0.0648983
194	0x3e11ff83	0.14257626
195	0xbe0010d4	-0.1250642
196	0x3def84ed	0.116952755
197	0x3dc0066f	0.09376227
198	0x3d0a7dd8	0.03381142
199	0x3d6b3da4	0.057431832
200	0x3e0582c3	0.13038163
201	0xbd41d599	-0.047322843
202	0xbc03ab8d	-0.008036506
203	0x3e05ef9c	0.13079685
204	0x3da100c7	0.078614764
205	0x3b1ee614	0.0024246024
206	0x3dc6f4e6	0.097146794
207	0xbc690829	-0.014223137
208	0xbdd5ef5d	-0.104460455
209	0xbc02cc87	-0.007983333
210	0x3e07b289	0.132517
211	0x3db12d26	0.086511895
212	0x3df71916	0.12065332
213	0xbddd3081	-0.10800267
214	0x3d8f923a	0.070103124
215	0x3d6fa4ba	0.058506705
216	0x3dd27722	0.10276629
217	0xbb97a3ef	-0.0046276967
218	0xbe080e27	-0.13286649
219	0x3d7edda5	0.062223095
220	0xbcac9a48	-0.02106966
221	0x3bb14e7a	0.0054109665
222	0x3daa1ca6	0.083062455
223	0xbd69ee64	-0.057112113
224	0xbda72f79	-0.081633516
225	0xbe00ee81	-0.12590982
226	0xbdeb4332	-0.11487426
227	0x3d9d125c	0.076695174
228	0xbd847576	-0.064677164
229	0x3cb2118d	0.021736884
230	0x3e0d80a6	0.13818607
231	0xbdfad3a5	-0.12247399
232	0xbd9c6d37	-0.076380186
233	0x3e01ac1c	0.12663311
234	0x3dd39aaa	0.10332234
235	0xbd351a47	-0.044214513
236	0xbe02ce3a	-0.12773982
237	0x3d3bc30c	0.045840308
238	0xbdb2ffe6	-0.08740215
239	0xbc1cab33	-0.009562301
240	0x3d991771	0.07475174
241	0xbdb40901	-0.0879078
242	0x3c8b84f0	0.017031163
243	0x3d829934	0.063768774
244	0x3c449835	0.01199918
245	0xbc2a8de5	-0.010409807
246	0xbe12ede9	-0.14348568
247	0xbe0c50e7	-0.13702737
248	0xbd88af30	-0.06674039
249	0xbe0dfe99	-0.13866653
250	0x3cd0c5f1	0.02548501
251	0xbdbb8eab	-0.09158071
252	0x3dc42b98	0.09578627
253	0xbce4b9c1	-0.027920606
254	0x3d0bd804	0.034141555
255	0xbca5a894	-0.020221986

model.MLP.0.bias f4 [100]
0	0xbd49381b	-0.049125772
1	0x3db5df16	0.08880441
2	0x3d0130b3	0.031540584
3	0xbdda9472	-0.10672845
4	0xbcc8345d	-0.024439031
5	0xbe04cfa1	-0.12969829
6	0x3d6cde65	0.05782928
7	0x3de9ac56	0.114098236
8	0xbc95fbe9	-0.018308597
9	0xbcb5042a	-0.022096712
10	0x3d774020	0.06036389
11	0xbe0413ba	-0.1289815
12	0x3d371fd7	0.0447081
13	0x3d12030c	0.035647437
14	0x3d0f854e	0.03503924
15	0x3c8c2b52	0.0171105
16	0x3ca63140	0.020287156
17	0x3e0e0536	0.13869175
18	0x3e03712f	0.12836145
19	0xbd2d9465	-0.04237785
20	0xbe01eaba	-0.12687197
21	0x3dc68977	0.09694188
22	0x3e0e916f	0.13922666
23	0x3dd9f1c4	0.10641816
24	0x3de35412	0.111000195
25	0x3bbd5543	0.0057779863
26	0xbdef0c38	-0.116722524
27	0x3bce97a5	0.0063046985
28	0xbd50d04f	-0.05097991
29	0xbdb9e3b4	-0.09076634
30	0x3de4ecdf	0.11177992
31	0xbc812c93	-0.015768325
32	0xbd639960	-0.05556619
33	0xbbc08bb3	-0.0058760284
34	0xbdf3d8d9	-0.11906595
35	0xbdec77a5	-0.11546258
36	0x3da0b9d7	0.07847946
37	0x3df2b9e4	0.11851862
38	0xbda9ee61	-0.0829742
39	0x3d2f20c3	0.042755853
40	0xbda41f54	-0.08013788
41	0xbc93e128	-0.018051699
42	0x3d454b61	0.04816759
43	0xbd369870	-0.04457897
44	0x3d7ecb32	0.0622055
45	0x3e07a743	0.13247399
46	0x3de0d7bc	0.10978648
47	0x3de56aac	0.11201987
48	0xbdac813d	-0.08423088
49	0xbcee44f9	-0.029085623
50	0xbdd26b3f	-0.10274362
51	0xbdfb4131	-0.12268294
52	0xbd8f9ca4	-0.07012299
53	0x3e0a9cc6	0.13536367
54	0x3de57d2e	0.11205517
55	0xbe071bb8	-0.13194168
56	0xbcd0c0eb	-0.025482615
57	0xbc047820	-0.008085281
58	0xbd9f72bc	-0.07785556
59	0xbdeee0d2	-0.11663975
60	0x3caed30c	0.02134087
61	0xbde00399	-0.10938186
62	0x3d9534e0	0.07285476
63	0xbdd42cf8	-0.103601396
64	0x3d8396f6	0.06425278
65	0xbd2916aa	-0.04128138
66	0x3c4d3b04	0.012526277
67	0xbde083c1	-0.1096263
68	0x3dd8fe5b	0.105953895
69	0x3c83e4cc	0.01610031
70	0x3c719ffb	0.014747615
71	0x3d70c4c4	0.0587814
72	0xbdf88d8a	-0.121363714
73	0x3e10e5d7	0.14150177
74	0x3cd69348	0.026193276
75	0x3e071236	0.1319054
76	0x3d1b4d3b	0.03791545
77	0x3d8a2d9f	0.06746983
78	0x3d139fa7	0.03604093
79	0xbd6b9da1	-0.057523374
80	0x3dc71f45	0.09722761
81	0xbdab772d	-0.0837234
82	0xbc8f341b	-0.0174809
83	0x3da20682	0.079113975
84	0x385993fb	5.187465e-05
85	0x3e14d24d	0.14533348
86	0x3dab1e8f	0.08355438
87	0x3e0ca9c8	0.13736641
88	0x3da7af93	0.08187785
89	0x3e0be0b4	0.13659936
90	0x3dd6e64e	0.10493146
91	0xbc6f83fc	-0.01461887
92	0xbdd6edf6	-0.10494606
93	0xbbf89446	-0.007586035
94	0xbdcf386c	-0.101181835
95	0xbd0e916c	-0.034806654
96	0x3dc13233	0.09433403
97	0x3e0ead56	0.1393331
98	0x3cafd5e8	0.021464303
99	0xbd6e3715	-0.058158

model.MLP.2.weight f4 [100, 100]
0	0xbda04cd8	-0.07827157
1	0x3d954836	0.07289164
2	0x3cacc37a	0.021089304
3	0x3d973fef	0.07385241
4	0xbd8f7dfe	-0.07006453
5	0xbd1e61bd	-0.03866743
6	0x3d2ef60c	0.042715117
7	0x3db938ce	0.09044038
8	0xbc476e2f	-0.012172266
9	0x3d0e48ba	0.034737326
10	0xbd7ed169	-0.062211428
11	0x3c93dae7	0.018048717
12	0x3d8bf135	0.06833116
13	0x3bbb9bf2	0.0057253772
14	0xbc19c304	-0.009384874
15	0x3d758f07	0.059950855
16	0xbd03e4ce	-0.032200627
17	0xbd75afcb	-0.059982102
18	0x3c64ba3b	0.013960416
19	0xbc9dadae	-0.019247856
20	0xbdc166c4	-0.09443429
21	0xbd55802f	-0.0521242
22	0xbcb56785	-0.022144089
23	0xbd87713e	-0.06613396
24	0xbc34f152	-0.011043863
25	0xbc890940	-0.016728044
26	0x3d97455f	0.07386278
27	0x3d77b6c2	0.060477026
28	0x3db068c9	0.08613736
29	0x3bab5946	0.005229148
30	0x3cd9dd62	0.026594821
31	0x3bf3541c	0.007425798
32	0xbcdfcb21	-0.02731854
33	0x3d890724	0.06690815
34	0x3dbb1276	0.091343805
35	0xbcb4bcfc	-0.022062771
36	0x3c909f40	0.017654061
37	0x3db88691	0.090100415
38	0xbd9a8c92	-0.07546343
39	0xbd21e122	-0.039521344
40	0x3dae7b58	0.0851962
41	0x3d19c71d	0.037543405
42	0x3c602dcf	0.013682797
43	0xbc4a2226	-0.012337243
44	0xbd840222	-0.06445719
45	0xbd52ac2a	-0.05143372
46	0xbd827706	-0.06370358
47	0xbd75e048	-0.060028344
48	0xbb3cd08f	-0.0028810834
49	0x3b97aa58	0.004628461
50	0xbd9d1ddb	-0.0767171
51	0xbd7c098b	-0.06153254
52	0xbc704e13	-0.014667052
53	0xbd7c9b20	-0.061671376
54	0xbcb4e47b	-0.022081604
55	0x3d7b188e	0.061302714
56	0xbd87d5a8	-0.066325486
57	0xbdb313f9	-0.08744044
58	0xbb9e8319	-0.0048374054
59	0x3cdc42f8	0.026887402
60	0xbd1fd203	-0.039018642
61	0x3d80770e	0.06272708
62	0x3da59802	0.08085634
63	0xbdb0bb9a	-0.08629532
64	0xbdbc0deb	-0.09182342
65	0xbc337302	-0.010952713
66	0xbd47abd2	-0.048747845
67	0xbd43d777	-0.047812905
68	0x3dc8f558	0.098124206
69	0xbdc13b45	-0.09435133
70	0x3d8b3d8d	0.06798849
71	0xbc34f30b	-0.011044274
72	0x3d1499b6	0.036279403
73	0x3d50c44b	0.05096845
74	0x3da10049	0.078613825
75	0xbd724325	-0.059146065
76	0xbdb30a90	-0.08742249
77	0xbc147e91	-0.009063379
78	0x3d2045b3	0.03912897
79	0xbd626a3a	-0.055277087
80	0xbd321678	-0.04347846
81	0xbcd17216	-0.025567096
82	0x3d8cdfbc	0.068786114
83	0x3d7658db	0.060143333
84	0xbd19ecf7	-0.037579503
85	0xbc27ba87	-0.010237343
86	0x3d3cb13c	0.04606746
87	0x3b82f318	0.003996264
88	0xbd978a24	-0.07399395
89	0xbcc75c86	-0.02433611
90	0x3c7eef84	0.015560035
91	0x3da6b200	0.081394196
92	0x3caacd95	0.020849982
93	0x3d05a78b	0.032630485
94	0xbcd49163	-0.025948232
95	0x3c713a79	0.014723414
96	0xbdba7e89	-0.09106166
97	0xbcb9772d	-0.022639835
98	0x3cb7cea5	0.022437403
99	0xbdb2d22b	-0.087314926
100	0xbd99aca4	-0.07503632
101	0xbda1b815	-0.07896439
102	0x3d8bde18	0.068294704
103	0xbcd8c5e3	-0.026461547
104	0x3dc2dc44	0.095146686
105	0x3d1f55ab	0.03890006
106	0x3da66af2	0.08125867
107	0x3c837df3	0.016051268
108	0xbb4d04df	-0.003128342
109	0x3c0dc67c	0.008653279
110	0x3d731639	0.059347365
111	0xbd234d2a	-0.03986851
112	0x3d604ee8	0.05476275
113	0x3bd910af	0.0066243033
114	0x3dc4b198	0.09604186
115	0xbcde5cc6	-0.027143847
116	0x3cff49c7	0.03116311
117	0xbd22729b	-0.039660078
118	0xbd8a1789	-0.0674277
119	0xba1adccc	-0.0005907535
120	0xbd3b6c34	-0.045757487
121	0x3cb7b193	0.022423541
122	0xbcb7792c	-0.022396646
123	0xbabf3c44	-0.0014590104
124	0xbc51dc01	-0.012808801
125	0xbdc89235	-0.09793512
126	0x3c85d2c3	0.01633585
127	0x3dab5b0c	0.08366975
128	0x3c145c59	0.0090552205
129	0x3b4eaf8d	0.0031537742
130	0x3d6f3983	0.058404457
131	0xbdba05e7	-0.09083157
132	0x3cdbf177	0.026848538
133	0x3cdd0d3f	0.026983855
134	0x3da0a892	0.07844652
135	0x3c0b010b	0.008484135
136	0xbd914c24	-0.07094601
137	0xbd35181b	-0.044212442
138	0xbda6486f	-0.08119284
139	0x3cfadbe2	0.030622426
140	0x3d39fd04	0.04540731
141	0xbd1fe49d	-0.039036382
142	0x3c54f899	0.012998723
143	0x3b874519	0.00412811
144	0xbd7a4754	-0.06110318
145	0xbdb0cc99	-0.08632774
146	0xbda171b9	-0.07883019
147	0x3dbefdc2	0.09325744
148	0x3c6c037f	0.01440513
149	0x3cf0f22f	0.029412357
150	0xbda6b8e8	-0.08140737
151	0x3d7a4a83	0.061106216
152	0x3d47bddb	0.048765045
153	0x3d9c44ab	0.07630285
154	0xbd5971af	-0.053086933
155	0x3da5da35	0.0809826
156	0xbbec5659	-0.007212442
157	0xbd179f30	-0.037017047
158	0xbd59f96c	-0.053216383
159	0x3cbf0180	0.023316145
160	0x3da67214	0.081272274
161	0xbd9f7881	-0.07786656
162	0x3da414ca	0.08011778
163	0x3d6aade4	0.05729474
164	0xbdbbf853	-0.091782235
165	0x3c6e29ec	0.014536362
166	0x3de37221	0.11105753
167	0x3d66e88a	0.05637411
168	0x3d4fe881	0.050758842
169	0xbdc03fe8	-0.09387189
170	0x3dae0740	0.084974766
171	0x3b8da301	0.00432241
172	0x3cd69252	0.026192818
173	0x3c9f8dcc	0.019476794
174	0xbd33fddb	-0.043943267
175	0x3d672c65	0.056438822
176	0x3d8f6f2b	0.070036255
177	0x3d4bbc6b	0.049740236
178	0xbd337c7b	-0.043819886
179	0xbd08bdca	-0.033384122
180	0xbd8f4fb6	-0.069976255
181	0xbca470d2	-0.020073328
182	0x3c996394	0.01872424
183	0xbc92174e	-0.017833378
184	0x3cd0e495	0.025499621
185	0x3872bbb2	5.78721e-05
186	0x3db68ba7	0.08913355
187	0xbcea2569	-0.028582292
188	0xbd192c3f	-0.037395712
189	0x3d1e25d2	0.038610287
190	0x3d97e80a	0.07417305
191	0x3d5ff756	0.054679237
192	0x3d7fda4e	0.06246405
193	0xbd97d4f4	-0.074136645
194	0xbcd9acfa	-0.02657174
195	0x3cdd9553	0.027048742
196	0xbcfe6633	-0.031054592
197	0x3d445914	0.047936514
198	0xbd0a6df7	-0.033796277
199	0xbd3b5cac	-0.045742676
200	0xbd962d78	-0.07332891
201	0xbd2004bc	-0.039067015
202	0x3d36ea79	0.044657204
203	0xbdca17de	-0.098678336
204	0xbd00bdf4	-0.031431153
205	0xbd561e04	-0.05227472
206	0xbce34ca4	-0.027746506
207	0xbda29a65	-0.07939605
208	0xbb0945cb	-0.002094614
209	0xbdaebb68	-0.08531839
210	0x3ccbadef	0.024863211
211	0xbdbc1988	-0.09184557
212	0xbda3687d	-0.07978914
213	0xbc6f4e9c	-0.014606144
214	0xbb64ce8d	-0.0034913153
215	0xbc96a926	-0.018391203
216	0x3ce3d323	0.027810639
217	0xbda4c5cb	-0.080455385
218	0x3c28d716	0.010305187
219	0xbbef8e10	-0.0073106363
220	0x3c9c8d57	0.019110365
221	0x3d0aea93	0.033915114
222	0xbca0ca63	-0.019627756
223	0xbc044de1	-0.008075208
224	0xbd093540	-0.03349805
225	0xbb3c24ff	-0.0028708575
226	0x3d3c0340	0.045901537
227	0xbdb0196b	-0.08598598
228	0xbb1ae954	-0.002363761
229	0x3dc3a4af	0.09552895
230	0xbd37c4f3	-0.04486556
231	0x3dbd0602	0.092296615
232	0x3d9ed048	0.0775457
233	0x3d7524c8	0.05984953
234	0x3d848e51	0.06472457
235	0xbcd6456e	-0.026156154
236	0x3cc0f73e	0.023555394
237	0xbcf1d29e	-0.029519375
238	0xbbc79262	-0.0060904482
239	0xbd301f1e	-0.042998426
240	0x3dc481f4	0.09595099
241	0x3da973b9	0.082740255
242	0x3daca5b0	0.0843004
243	0x3d9af73b	0.07566687
244	0xbda6c1bb	-0.0814242
245	0xbdacfec5	-0.08447031
246	0xbd9f8aaa	-0.0779012
247	0x3da90445	0.082527675
248	0x3ce04fae	0.027381744
249	0x3cb66490	0.022264749
250	0xbd98ee80	-0.07467365
251	0x3db54fb7	0.08853095
252	0x3d107e71	0.035276834
253	0xbd279681	-0.040915016
254	0x3dafc6ff	0.08582877
255	0x3d26b77b	0.040702324

model.MLP.2.bias f4 [100]
0	0xbd1a252d	-0.03763311
1	0x3dad3771	0.0845784
2	0xbd5d45ab	-0.05402152
3	0xbd5e2246	-0.054231904
4	0xbdb539af	-0.08848893
5	0x3db724c2	0.08942558
6	0x3bc62b94	0.0060476754
7	0x3ce418c0	0.027843833
8	0x3cadc7c4	0.02121342
9	0xbd225237	-0.039629187
10	0xbcf02cb6	-0.029318195
11	0x3d6dc183	0.058045875
12	0x3d50cb68	0.050975233
13	0xbd22c8b0	-0.03974217
14	0xbc82f2b3	-0.015984869
15	0xbd87f8cf	-0.06639253
16	0xbd8d3f12	-0.06896795
17	0x3d9513b5	0.072791494
18	0xbd4d253a	-0.05008433
19	0x3c7add87	0.015311605
20	0x3d0d7720	0.034537435
21	0xbd1b9bff	-0.037990566
22	0x3bd69753	0.006548801
23	0x3d405ea0	0.04696524
24	0x3d6d3b64	0.057917967
25	0xbc7e11b0	-0.015507147
26	0x3c60afbd	0.013713774
27	0xbd66cc70	-0.05634731
28	0xbd84768d	-0.06467924
29	0x3d955202	0.072910324
30	0xbd051949	-0.032494817
31	0xbdabe188	-0.08392626
32	0xbdc9c70f	-0.098524205
33	0x3d1f8d5e	0.038953178
34	0x3d0cf576	0.034413777
35	0x3a130c5a	0.00056094455
36	0xbc62009c	-0.013794091
37	0xbdae863f	-0.08521699
38	0x3c32b0ad	0.010906381
39	0x3da156ed	0.07877908
40	0x3d3054ce	0.043049626
41	0x3d46f81c	0.04857646
42	0x3d962038	0.07330364
43	0x3da785a3	0.08179786
44	0xbbf7eaab	-0.0075658164
45	0x3d94e2bc	0.07269809
46	0xbd345fac	-0.044036552
47	0xbc73497d	-0.014849064
48	0x3d81b803	0.063339256
49	0x3d816920	0.06318879
50	0x3acc5dc0	0.0015591905
51	0x3cbb007d	0.022827381
52	0xbaa5301e	-0.0012602841
53	0xbdc726ec	-0.09724221
54	0x3dbc8e23	0.09206798
55	0xbd76efff	-0.06028747
56	0x3d9ae8d3	0.07563939
57	0xbd2f3178	-0.042771786
58	0x3d0fe4a0	0.035130143
59	0x3ced5932	0.028973196
60	0xbdcefb0a	-0.10106476
61	0xbd7344ad	-0.059391666
62	0xbd683550	-0.056691468
63	0x3da8a2a8	0.08234149
64	0xbbf84e80	-0.0075777173
65	0xbdbcca50	-0.092182755
66	0x3d59df82	0.05319167
67	0x3da7b11d	0.081880786
68	0x3d3ef042	0.046615846
69	0x3d0bfc21	0.034175996
70	0x3d12482c	0.03571336
71	0x3d8a23d8	0.06745118
72	0xbd87287d	-0.065995194
73	0x39614298	0.0002148248
74	0xbc9386f6	-0.01800869
75	0xbccd37b0	-0.025050968
76	0xbd80f1c7	-0.06296115
77	0xbd0f7730	-0.035025775
78	0x3d60b102	0.054856308
79	0xbc7d8223	-0.015472922
80	0xbbda25d1	-0.00665734
81	0xbd92f894	-0.07176319
82	0x3d0ef192	0.03489835
83	0x3bdb9273	0.0067008077
84	0x3ce23ab5	0.027615884
85	0xbccd8493	-0.02508763
86	0xbc0bb402	-0.008526804
87	0xbd46f4b9	-0.04857323
88	0xbd18f435	-0.03734227
89	0x3c2a46a1	0.010392816
90	0xbdce3758	-0.1006915
91	0x3dc41c4e	0.09575711
92	0x3d39dd70	0.045377195
93	0x3b9bf7cd	0.0047597648
94	0x3cb70adc	0.022344045
95	0xbb22ec50	-0.0024860092
96	0x3d2b1b52	0.0417741
97	0xbc29d97c	-0.010366794
98	0x3ce89eb6	0.028395992
99	0xbd674e2a	-0.056471027

model.MLP.4.weight f4 [11, 100]
0	0x3d6f6037	0.058441367
1	0xbd1377ff	-0.03600311
2	0x3cd03603	0.02541638
3	0x3d2f4309	0.04278854
4	0xbc75db41	-0.0150058875
5	0xbd48f3fe	-0.049060814
6	0x3d9e6d08	0.0773564
7	0xbd61a2da	-0.055086948
8	0x3dbf2abf	0.09334325
9	0x3c88e1fb	0.016709318
10	0x3c8b0cee	0.016973939
11	0xbd1c1c09	-0.038112674
12	0xbda3f9a9	-0.08006603
13	0x3d9305b5	0.07178823
14	0x3d1c10d9	0.038102005
15	0xbd0a8f10	-0.03382784
16	0xbd6d58ba	-0.057945944
17	0xbd966809	-0.07344062
18	0xbd8e2350	-0.06940329
19	0xbca3a65e	-0.019976791
20	0x3d1459ef	0.03621858
21	0xbcc8535d	-0.024453813
22	0x3c8909b9	0.016728269
23	0x3dc3a05b	0.0955207
24	0xbdbd089c	-0.09230158
25	0xbd9910cc	-0.07473907
26	0xbd688ece	-0.056776814
27	0x3da48e27	0.08034926
28	0xbc41a9e4	-0.01182029
29	0xbd3dbf26	-0.04632487
30	0x3d2a0760	0.04151094
31	0x3d684d31	0.05671424
32	0x3d664642	0.056219347
33	0xbb5026d3	-0.0031761422
34	0x3d87c737	0.06629794
35	0x3da74d25	0.08169011
36	0x3d0c86f6	0.034308396
37	0x3dae4e81	0.08511067
38	0x3d46e91e	0.04856216
39	0xbdb73ab2	-0.08946742
40	0xbd73bd40	-0.059506655
41	0xbd60123e	-0.054704897
42	0xbd9b2b77	-0.0757665
43	0x3c9576ff	0.018245218
44	0x3d8c6dcb	0.06856879
45	0xbcd331f4	-0.025780655
46	0x3d9dfb2e	0.07713924
47	0x3db76eb4	0.08956662
48	0x3da3862c	0.07984576
49	0xbc9ba318	-0.018998668
50	0xbd663c5a	-0.0562099
51	0xbc01b168	-0.007915832
52	0x3d40fbe5	0.047115225
53	0x3c5497b2	0.01297562
54	0x3d9d890c	0.07692155
55	0xbdd78fd7	-0.10525482
56	0xbd4386f5	-0.047736127
57	0xbdb25d1d	-0.08709166
58	0xbdd2e47a	-0.10297485
59	0xbdba228b	-0.0908862
60	0xbd14b4d6	-0.03630527
61	0x3d94ceda	0.07266016
62	0x3d3fc071	0.046814386
63	0x3d1a3900	0.037652016
64	0xbdb5ab27	-0.08870535
65	0x3c656a97	0.014002464
66	0xbcc7273c	-0.0243107
67	0xbc2d54f1	-0.010579334
68	0x3be51c19	0.006991875
69	0x3d43170f	0.047629412
70	0x3d9ef9aa	0.077624634
71	0xbd920217	-0.07129305
72	0xbd982c1b	-0.074302875
73	0x3d7f14b9	0.062275622
74	0x3c69e449	0.014275619
75	0xbc514161	-0.012771935
76	0x3d009aa6	0.031397484
77	0x3d92b92f	0.07164227
78	0x3d8bae43	0.06820347
79	0xbb50ff82	-0.0031890576
80	0x3d1fd7c2	0.039024122
81	0x3dbd1cec	0.09234032
82	0x3d209eea	0.039214052
83	0x3d8b217a	0.067934945
84	0x3c681a2f	0.014166399
85	0x3da34372	0.079718485
86	0xbd7030be	-0.058640234
87	0x3d2a4c1a	0.041576482
88	0x3d995774	0.074873835
89	0xbc35dd82	-0.011100175
90	0xbab143e3	-0.001352426
91	0x3d14a8d2	0.036293812
92	0xbb88fa41	-0.004180223
93	0xbc4bf44f	-0.012448384
94	0xbd8d6bc3	-0.069053195
95	0xbdd57eb5	-0.10424558
96	0xbd0a5acd	-0.033778
97	0x3da7cd49	0.08193452
98	0xbbddd359	-0.0067695794
99	0x3d6f97cc	0.058494374
100	0x3cedbc44	0.029020436
101	0xbdc02e65	-0.09383849
102	0x3cbcb1a8	0.023033932
103	0xbc92b758	-0.01790969
104	0xbd8582c8	-0.06519085
105	0x3ad884c0	0.0016519055
106	0xbda8a97d	-0.08235452
107	0x3cb8b5cc	0.022547625
108	0x3c595310	0.013264433
109	0x3d9f83bd	0.07788799
110	0x3d041466	0.032246016
111	0xbd8e7fd5	-0.06957976
112	0x3b94cf50	0.004541315
113	0x3dc32df9	0.09530253
114	0x3d9a5fe1	0.07537819
115	0x3dc9b715	0.09849373
116	0x3d8e0e53	0.06936326
117	0x3dc12d0f	0.09432422
118	0x3d85e231	0.06537283
119	0xbd96bf52	-0.0736071
120	0x3d29375e	0.041312568
121	0xbcb7c220	-0.022431433
122	0xbc634b70	-0.013872966
123	0xbd8830ba	-0.06649919
124	0xbdc87a6d	-0.09788976
125	0xbd42d74a	-0.047568597
126	0x3be44a50	0.0069668666
127	0xbd5c90b3	-0.053848933
128	0xbdbae0ba	-0.091248944
129	0xbd1e12a0	-0.03859198
130	0xbc1bc258	-0.009506784
131	0xbd60a800	-0.054847717
132	0x3d8f0f13	0.06985297
133	0x3db94d01	0.090478905
134	0xbd952f4a	-0.0728441
135	0x3d4d7442	0.0501597
136	0x3da63be9	0.08116896
137	0x3d46cade	0.048533313
138	0xbd78bdd3	-0.060727905
139	0xbd61578d	-0.055015136
140	0xbdcacc95	-0.09902302
141	0xbd12f160	-0.035874724
142	0x3ccc0bd4	0.024907984
143	0x3d81d823	0.06340053
144	0x3bb06fd0	0.005384423
145	0x3d2a3442	0.041553743
146	0x3b28dba0	0.0025765672
147	0xbd6dfada	-0.05810056
148	0xbd85aa2d	-0.06526599
149	0x3be1c4a0	0.0068898946
150	0x3d53cada	0.051707126
151	0xbdc85c92	-0.097832814
152	0xbdbb0f9d	-0.09133837
153	0x3cd9c2c4	0.02658213
154	0x3d9e8e27	0.07741957
155	0x3c96dd94	0.018416204
156	0x3d888b3f	0.06667184
157	0xbd81871d	-0.06324599
158	0xbc39f628	-0.011350192
159	0x3c8245ac	0.015902363
160	0xbc539110	-0.012913004
161	0xbb7d0e60	-0.0038613304
162	0xbdab5dc0	-0.08367491
163	0x3d2cce86	0.042189144
164	0x3c7a3050	0.015270308
165	0xbdb63383	-0.08896544
166	0xbc4e4190	-0.0125888735
167	0xbd8b6276	-0.06805889
168	0xbd19bd67	-0.037534144
169	0xbc74de28	-0.014945544
170	0x3d1fc39a	0.0390049
171	0x3cb22cac	0.021749817
172	0x3d9a493b	0.07533499
173	0xbcbd0e68	-0.023078158
174	0x3d4266aa	0.04746119
175	0x3d0696e6	0.03285875
176	0x3b73fa60	0.0037228093
177	0x3d536612	0.051611014
178	0x3d625472	0.055256315
179	0x3d9e034f	0.07715475
180	0xbd8ce35d	-0.068793036
181	0xbdc1005d	-0.094238974
182	0xbb0ce300	-0.0021497607
183	0xbd0f5d8c	-0.035001323
184	0xbccb84d4	-0.02484361
185	0x3d990001	0.07470704
186	0x3db310a1	0.08743406
187	0x3d4e81ca	0.050416745
188	0xbd82f822	-0.06394984
189	0x3cc8a5b8	0.024493083
190	0x3c14f0d0	0.009090617
191	0x3d07923a	0.033098437
192	0xbc458b50	-0.0120571405
193	0xbd806f65	-0.06271247
194	0xbdb3f907	-0.087877326
195	0xbd64d2ed	-0.055865217
196	0x3d4d67f2	0.050147958
197	0xbd09bb60	-0.03362596
198	0xbc6302d0	-0.013855651
199	0x3d14a632	0.03629131
200	0xbbe57530	-0.007002495
201	0xbd7082c3	-0.058718454
202	0x3dc7d9af	0.09758317
203	0x3da5a243	0.080875896
204	0x3d3ea49a	0.046543695
205	0x3d6eb1a2	0.058274873
206	0x3d16e4f6	0.036839448
207	0xbd5faa5a	-0.05460582
208	0x3db29571	0.0871991
209	0x3d8a94d1	0.06766666
210	0xbc499ae8	-0.012304999
211	0xbda5d3da	-0.08097048
212	0x3c38e528	0.011285104
213	0xbd06d85c	-0.03292118
214	0x3d6e1052	0.058121033
215	0xbdbc54d2	-0.09195866
216	0xbd4324f7	-0.047642674
217	0x3d16ff32	0.036864467
218	0xbd72b43a	-0.05925391
219	0xbc97dae8	-0.018537
220	0x3dae423b	0.08508726
221	0x3d1bb1ba	0.03801129
222	0x3d784df2	0.06062121
223	0xbd91b726	-0.07115011
224	0xbc65da70	-0.01402913
225	0x3dbc1ee7	0.09185582
226	0x3d8c0e55	0.06838671
227	0xbd1d9a7d	-0.03847741
228	0x3dc9c8a3	0.098527215
229	0xbd6111f7	-0.054948773
230	0xbc52b4d8	-0.012860499
231	0xbdb3c0da	-0.08777018
232	0xbdcabff2	-0.09899892
233	0x3c732558	0.014840446
234	0xbd1d3bd3	-0.03838713
235	0xbd964d9a	-0.0733902
236	0x3cbf1f80	0.02333045
237	0x3da84d41	0.0821786
238	0x3d2754be	0.0408523
239	0xbc6cbdb0	-0.014449522
240	0x3dc60c11	0.0967027
241	0x3cccb020	0.024986327
242	0x3d24ad42	0.040204294
243	0xbd9a7a90	-0.07542908
244	0x3c232c50	0.009959295
245	0xbbbc0e80	-0.005739033
246	0x3d1b4f6e	0.037917547
247	0xbd751710	-0.059836447
248	0x3c82614c	0.015915535
249	0x3d82e147	0.063906245
250	0x3d66530a	0.056231536
251	0x3d1b4bf2	0.037914224
252	0xbd0fdec4	-0.035124555
253	0x3d91cb85	0.071188964
254	0x3d3aec36	0.045635425
255	0x3d0a20aa	0.033722557

model.MLP.4.bias f4 [11]
0	0x3d0b3607	0.03398707
1	0x3cbb83c8	0.022889987
2	0xbd53a14a	-0.05166749
3	0x3d85a649	0.06525857
4	0xbd079270	-0.033098638
5	0x3d6864f2	0.056736894
6	0x3ceb7204	0.02874089
7	0x3d86cee3	0.06582429
8	0xbc84cbcc	-0.01621046
9	0xbd9fafc3	-0.07797196
10	0x3be09600	0.006853819

exp_avg f4 [10]
0	0x3aa2d23f	0.0012422277
1	0x3aee81f3	0.0018196687
2	0xbb816f87	-0.0039500627
3	0x3a6e056b	0.0009079787
4	0xba1ef21b	-0.0006063298
5	0x3b097c60	0.0020978674
6	0xbb3f35d0	-0.0029176362
7	0xb95392bb	-0.0002017719
8	0xbad1acc4	-0.0015996923
9	0xb7baca68	-2.226718e-05

exp_avg_sq f4 [10]
0	0x358f27df	1.0665934e-06
1	0x36763115	3.6685426e-06
2	0x3759a701	1.29730915e-05
3	0x34e4ac87	4.259384e-07
4	0x34b6938a	3.400749e-07
5	0x36594a39	3.2378723e-06
6	0x36dc5fe5	6.5676745e-06
7	0x346324fe	2.115448e-07
8	0x36090caa	2.0421962e-06
9	0x33270112	3.888369e-08

exp_avg f4 [10, 1]
0	0x39e7f95b	0.00044245538
1	0xb89d2345	-7.492913e-05
2	0xb97e61a0	-0.00024259696
3	0x39c9da43	0.00038500325
4	0x39bc9137	0.00035966348
5	0x39b74e84	0.0003496298
6	0xb9ea9a58	-0.00044746953
7	0xb8080c55	-3.2436412e-05
8	0xb9a2892b	-0.00031001246
9	0xb91ca509	-0.000149388

exp_avg_sq f4 [10, 1]
0	0x334a39ab	4.708424e-08
1	0x343ba9d5	1.7477517e-07
2	0x352ffb29	6.5558066e-07
3	0x3316ba37	3.5093958e-08
4	0x33882f60	6.341611e-08
5	0x349c2125	2.908138e-07
6	0x34b9d98b	3.461722e-07
7	0x33f11722	1.1226645e-07
8	0x33b11c36	8.247336e-08
9	0x31fd0088	7.3633295e-09
