Test GCNN RNN/nine3olz/checkpoints/epoch=1-step=70.ckpt (torch, 122889 bytes, 36 tensors)

model.GCNN.graph_convolution.bias f4 [10]
0.012397044 -0.05806894 -0.08431511 -0.04197983 0.04769843 -0.07623908 0.03195032 0.06315505
-0.050831117 0.05267765
00000000: f91c 4b3c b2d9 6dbd 67ad acbd 0bf3 2bbd
00000010: 6e5f 433d 3c23 9cbd 57de 023d 6f57 813d
00000020: 4a34 50bd 85c4 573d

model.GCNN.graph_convolution.lin.weight f4 [10, 1]
-0.6379222 0.0036639553 0.018596776 -0.33776438 -0.65417385 0.38013598 -0.17202498 -0.2936599
0.576177 -0.30826512
00000000: df4e 23bf f81e 703b 4458 983c 74ef acbe
00000010: f077 27bf 2fa1 c23e 5127 30be 975a 96be
00000020: 5680 133f edd4 9dbe

model.RNN.weight_ih_l0 f4 [50, 11]
-0.086969964 -0.00037250342 0.12443115 0.06830446 0.0035600364 -0.046787232 -0.033215247 -0.15925343
-0.13751277 0.13784806 -0.081456035 -0.045620386 0.105437696 -0.09573346 0.014375011 -0.17321517
-0.020772787 0.085358046 -0.056646716 -0.15206343 -0.05628003 -0.0015001199 -0.061141886 0.068745926
-0.05342062 -0.20285885 -0.09697336 -0.092577085 -0.051194936 0.050061587 0.036298405 -0.05060331
0.092862904 -0.2423894 0.05308937 0.10558979 -0.18504828 -0.06452774 0.18715923 -0.0010653806
0.21593262 0.1476217 -0.1562043 0.0077755265 0.24424477 0.012084089 -0.04298188 0.07268757
0.062479805 -0.089146 -0.018811109 -0.019729342 0.065511845 -0.038735557 0.064632356 -0.36282885
0.11220433 -0.015916348 0.121584564 -0.03343665 0.18751627 -0.055869002 0.14075425 0.17041987
-0.20481206 0.14194928 0.10810692 0.11755479 0.03693951 0.024622934 -0.032010764 0.062522545
0.066565044 -0.16818333 -0.07105987 -0.0053832904 0.04218715 0.33599424 -0.27438137 -0.038232666
-0.15990908 -0.34850544 -0.37309268 0.25164533 -0.087240465 -0.30191958 0.25487277 -0.3201908
0.14711267 -0.10065262 -0.15588517 -0.070853636 0.001547254 0.11893547 -0.110624574 -0.10324999
0.035279974 -0.1178851 -0.071860716 0.07672637 0.1938441 0.048981972 -0.10904787 0.13833514
0.09522152 -0.10375658 0.2679301 0.16600196 -0.21549247 0.20456661 -0.02335017 -0.1373915
-0.10606487 -0.054625522 -0.2527806 -0.1934783 0.0034486817 -0.13257772 -0.16116305 0.26800987
-0.11038241 0.07790828 0.005131263 0.05676733 -0.060087267 -0.09649291 0.14272645 -0.053353835
0.14360675 -0.071912 -0.08734324 0.08672642 0.010422048 0.028380437 -0.13402787 0.20547435
0.14942679 0.051152427 0.025352892 0.09181771 -0.027598033 0.021143245 -0.09619621 -0.47411177
0.27033028 0.0067443936 -0.03161727 0.315895 0.4062352 -0.3099028 0.38270897 0.39143825
-0.36132395 0.30686206 -0.12149065 -0.13922048 0.020825196 0.016674517 0.034862313 -0.0021321203
0.14156754 0.052686572 -0.056577954 0.109084226 -0.11367641 0.10063595 -0.0856338 0.022368712
0.1464733 0.054312088 -0.03582252 0.15057416 -0.0043907287 0.06308643 0.13621832 -0.1529415
-0.14435144 -0.11211834 0.055754475 -0.07775441 0.018059641 -0.13646598 -0.04870252 0.102193676
0.06800155 0.09611789 0.059281036 0.31659466 0.05779458 -0.060307708 0.0672646 -0.032367192
-0.062548354 -0.059298337 0.14553261 -0.07147674 0.061291765 -0.07449297 0.034217756 -0.042822964
0.0004133665 0.15415415 0.04658121 -0.088909894 0.11965034 -0.14529455 -0.08293029 0.010016791
-0.06890557 0.08187766 0.20987414 -0.03235829 0.0042757657 0.06358707 0.24603973 -0.11343541
0.09607469 0.13768291 -0.29035524 0.091177516 0.1852165 0.16715659 -0.06732341 -0.17619285
0.13712786 0.19514309 -0.044284746 0.19954325 -0.010999675 -0.17401463 -0.040777747 -0.24824144
0.08844004 -0.06707985 0.11292304 0.18319662 0.022509791 0.02706465 0.2194879 0.04503951
-0.055840176 0.22284636 0.28185895 -0.06665686 -0.09391606 -0.20446515 0.10598099 0.21265414
-0.0256904 0.071652174 0.15281512 0.03477629 0.20783594 -0.096426055 -0.040111043 -0.03304856
00000000: 4f1d b2bd 904c c3b9 c2d5 fe3d 35e3 8b3d
00000010: 804f 693b f8a3 3fbd b60c 08bd 5513 23be
00000020: 26d0 0cbe 0b28 0d3e 6cd2 a6bd 71dc 3abd
00000030: b8ef d73d e70f c4bd 2b85 6b3c 515f 31be
00000040: b12b aabc 33d0 ae3d 6306 68bd 84b6 1bbe
00000050: e485 66bd ac9f c4ba ea6f 7abd aaca 8c3d
00000060: 94cf 5abd 3bba 4fbe f899 c6bd 0e99 bdbd
00000070: c8b1 51bd 610d 4d3d a3ad 143d 6b45 4fbd
00000080: e82e be3d ed34 78be 3d74 593d 763f d83d
00000090: 4c7d 3dbe 1f27 84bd aba6 3f3e 3ea4 8bba
000000a0: 711d 5d3e 252a 173e 05f4 1fbe d8c9 fe3b
000000b0: 4d1b 7a3e 58fc 453c c50d 30bd 38dd 943d
000000c0: d3ea 7f3d 2e92 b6bd c119 9abc 6e9f a1bc
000000d0: 132b 863d 2da9 1ebd f85d 843d b4c4 b9be
000000e0: 62cb e53d 0063 82bc 5401 f93d def4 08bd
000000f0: 4404 403e e5d6 64bd e221 103e 8c82 2e3e
00000100: 41ba 51be 275b 113e 2967 dd3d 91c0 f03d
00000110: e24d 173d 09b6 c93c b81d 03bd d20b 803d
00000120: 4153 883d 4038 2cbe d687 91bd 5066 b0bb
00000130: 6fcc 2c3d 7007 ac3e b77b 8cbe db99 1cbd
00000140: 35bf 23be 4e6f b2be 0106 bfbe a8d7 803e
00000150: 21ab b2bd 3495 9abe af7e 823e 0cf0 a3be
00000160: b4a4 163e f622 cebd 5da0 1fbe b61b 91bd
00000170: 3bcd ca3a 7194 f33d 238f e2bd bb74 d3bd
00000180: bc81 103d be6d f1bd b62b 93bd b722 9d3d
00000190: 117f 463e 52a1 483d 7d54 dfbd baa7 0d3e
000001a0: 8003 c33d 547e d4bd 222e 893e 6bfc 293e
000001b0: 0faa 5cbe e979 513e db48 bfbc 5bb0 0cbe
000001c0: 8a38 d9bd 03bf 5fbd 756c 81be 2d1f 46be
000001d0: 4703 623b 74c2 07be ed07 25be 9738 893e
000001e0: 2c10 e2bd 608e 9f3d 2724 a83b dc84 683d
000001f0: 111e 76bd 139e c5bd e226 123e 8d89 5abd
00000200: a60d 133e 9946 93bd 03e1 b2bd 9f9d b13d
00000210: 3dc1 2a3c 177e e83c 9a3e 09be de67 523e
00000220: 5603 193e 3585 513d deb0 cf3c ec0a bc3d
00000230: 4515 e2bc 9934 ad3c 8502 c5bd c7be f2be
00000240: bb68 8a3e 1300 dd3b 1c81 01bd fdbc a13e
00000250: 0ffe cf3e 94ab 9ebe 6ef2 c33e 986a c83e
00000260: 74ff b8be 061d 9d3e 17d0 f8bd d08f 0ebe
00000270: 9a99 aa3c ff98 883c c9cb 0e3d 0bbb 0bbb
00000280: 15f7 103e e0cd 573d 49be 67bd 8d67 df3d
00000290: 2dcf e8bd 391a ce3d c660 afbd 973e b73c
000002a0: 19fd 153e 5a76 5e3d a2ba 12bd 1d30 1a3e
000002b0: 1ae0 8fbb 7533 813d d17c 0b3e b29c 1cbe
000002c0: ddd0 13be 4d9e e5bd ce5e 643d b43d 9fbd
000002d0: d0f1 933c bdbd 0bbe 4b7c 47bd eb4a d13d
000002e0: 6644 8b3d 75d9 c43d acd0 723d b218 a23e
000002f0: 02ba 6c3d 3705 77bd 06c2 893d 7693 04bd
00000300: 5a19 80bd d0e2 72bd 8006 153e 6662 92bd
00000310: 130d 7b3d c58f 98bd eb27 0c3d 2267 2fbd
00000320: 1db9 d839 96da 1d3e f0cb 3e3d 6416 b6bd
00000330: 3d0b f53d 18c8 14be 5bd7 a9bd 771d 243c
00000340: 5d1e 8dbd 79af a73d 3fe9 563e 208a 04bd
00000350: b91b 8c3b f039 823d d7f1 7b3e d350 e8bd
00000360: cfc2 c43d c0fc 0c3e 71a9 94be 47bb ba3d
00000370: 65a9 3d3e 192b 2b3e dbe0 89bd e66b 34be
00000380: 3f6b 0c3e 97d3 473e ec63 35bd 1155 4c3e
00000390: fb37 34bc e430 32be 9106 27bd 0133 7ebe
000003a0: 0d20 b53d 2961 89bd 3244 e73d e597 3b3e
000003b0: 7466 b83c afb6 dd3c 70c1 603e 597b 383d
000003c0: abb8 64bd d631 643e d14f 903e 6483 88bd
000003d0: 1057 c0bd 505f 51be 900c d93d 02c2 593e
000003e0: ac74 d2bc 60be 923d 917b 1c3e 9571 0e3d
000003f0: f2d2 543e 067b c5bd 7a4b 24bd ed5d 07bd

model.RNN.weight_hh_l0 f4 [50, 50]
0.08611382 -0.115269795 -0.11413361 0.033034157 0.030818103 -0.11609862 -0.04429052 0.07402486
0.07982671 0.05114891 0.053512726 0.11824057 0.0109164715 0.03942915 0.10336636 0.055287383
-0.17605238 0.0942469 0.18583657 0.058480978 0.027845483 -0.009300313 0.08678578 -0.13367133
-0.063671805 -0.1833008 0.12702858 -0.03859017 0.037039958 0.038855962 0.08167272 -0.15204042
0.06700865 -0.23435137 -0.03806771 0.086550005 0.07843039 0.118185155 -0.18637645 0.046655368
0.036299903 0.02083316 0.050222892 0.08429341 -0.03612465 -0.015433278 0.039100386 0.08309847
-0.09971549 0.002158706 0.055184335 0.03376575 -0.21940272 -0.088770375 -0.11333854 -0.11767222
0.021719031 0.09609641 0.101867095 -0.012994341 -0.13514079 0.12477484 -0.05095037 0.06972345
0.06103876 0.018554358 0.006312844 -0.091961294 -0.13774152 -0.07033876 0.01383222 -0.08846042
0.13605294 -0.042795237 -0.053355586 0.049469616 -0.08295525 -0.0036023385 0.101783425 -0.03162599
-0.19562455 -0.16739853 0.01206606 -0.13270643 -0.118750244 -0.06445206 0.06628079 0.09938776
0.11188371 -0.1593487 0.07676466 -0.060027096 0.04366463 0.052817233 0.09845542 -0.08770142
0.028052071 -0.07297554 -0.0020298627 -0.055354107 0.046820622 -0.10801999 -0.35698813 -0.12541404
0.04184011 0.1206339 -0.013565632 -0.020756984 -0.038586877 -0.1508933 -0.104052916 -0.14589047
-0.19794706 0.06293542 -0.027474789 -0.036523774 0.12365193 -0.0017454613 0.025815384 -0.0933841
0.1705935 0.029619053 0.0503245 -0.10964829 0.1632702 -0.12853898 0.1259668 0.06635693
0.14078608 0.032014508 0.0154360635 0.09747972 0.14187719 0.15903142 -0.13762803 -0.075082846
0.04631441 -0.056161657 -0.048105463 -0.08776257 -0.13986306 -0.17231269 0.02456887 -0.1467305
0.1950056 0.08824265 0.01801724 -0.10597258 -0.030992398 -0.02110828 0.060539156 -0.012169782
0.06568279 -0.20084155 0.1263031 -0.09081751 0.10342916 0.0011004808 0.11971553 0.13699983
-0.050770335 0.030076899 -0.069601424 0.032568686 -0.35209605 0.1677693 0.058426414 0.14679442
0.25572795 0.106088154 -0.18291728 -0.2845572 -0.043719742 0.068658404 -0.1427835 -0.07376219
0.100428134 0.022774616 0.22240405 -0.15601557 -0.0390584 0.097307794 0.1495999 0.12546834
-0.17440367 -0.11371997 0.117480285 0.028459946 -0.0514395 0.078243665 -0.13141245 0.24998342
0.15205497 0.01564918 0.15056843 -0.10469541 -0.10443092 0.22423051 -0.12578224 -0.11299181
0.09785246 0.008848293 -0.083846256 0.10429332 -0.0127722435 0.18621786 -0.09547419 -0.17065422
0.05420193 -0.16794531 -0.025150154 0.034314588 0.12169868 -0.11575039 0.054279987 -0.054860335
-0.118132055 -0.08406412 -0.08754214 -0.15060844 0.07392317 0.3020783 0.044907205 0.16516863
0.10005059 -0.092201926 0.04684207 0.053069185 -0.07467461 0.07635024 -0.06081764 -0.063303284
-0.021808596 -0.1764725 -0.0280334 -0.012790074 -0.11161187 0.06164835 -0.07787485 0.05437978
0.20692849 -0.03632887 0.0823055 -0.029368175 0.0702568 -0.036223117 -0.11309569 0.049540877
0.19238229 -0.08394514 -0.058495294 -0.060462445 0.058060285 -0.026458275 0.044886943 -0.23209964
00000000: 715c b03d 9212 ecbd e2be e9bd d34e 073d
00000010: 3f76 fc3c 1dc5 edbd fa69 35bd 599a 973d
00000020: 307c a33d 8581 513d 2930 5b3d 1d28 f23d
00000030: 00db 323c 7680 213d beb1 d33d 0675 623d
00000040: 1347 34be 8504 c13d f14b 3e3e c089 6f3d
00000050: 361c e43c 5760 18bc bebc b13d 23e1 08be
00000060: 5d66 82bd 34b3 3bbe c813 023e ba10 1ebd
00000070: 36b7 173d 6e27 1f3d 0744 a73d 7cb0 1bbe
00000080: d53b 893d cef9 6fbe e3ec 1bbd 2141 b13d
00000090: 1da0 a03d 0f0b f23d 78d9 3ebe b319 3f3d
000000a0: 35af 143d 4eaa aa3c 85b6 4d3d 06a2 ac3d
000000b0: 71f7 13bd dcdb 7cbc ba27 203d 882f aa3d
000000c0: a337 ccbd 1479 0d3b f808 623d f44d 0a3d
000000d0: 1bab 60be 3ecd b5bd 091e e8bd 22fe f0bd
000000e0: 1cec b13c 32ce c43d b29f d03d 37e6 54bc
000000f0: 5962 0abe f489 ff3d 56b1 50bd 2bcb 8e3d
00000100: c703 7a3d 4fff 973c f9db ce3b 3456 bcbd
00000110: 1d0c 0dbe c50d 90bd 89a0 623c bd2a b5bd
00000120: 7651 0b3e 0f4a 2fbd 638b 5abd a7a0 4a3d
00000130: 71e4 a9bd 3615 6cbb d473 d03d 418a 01bd
00000140: cd51 48be 856a 2bbe b9b0 453c 32e4 07be
00000150: 5433 f3bd 71ff 83bd 39be 873d cf8b cb3d
00000160: 4923 e53d 4e2c 23be ca36 9d3d f9de 75bd
00000170: afd9 323d e256 583d ffa2 c93d cd9c b3bd
00000180: 75cd e53c 3374 95bd 7207 05bb fdba 62bd
00000190: fbc6 3f3d 9639 ddbd 26c7 b6be 8a6c 00be
000001a0: 8960 2b3d e80e f73d 6242 5ebc 8d0a aabc
000001b0: 460d 1ebd c683 1abe b219 d5bd 5064 15be
000001c0: a2b2 4abe 49e4 803d cf12 e1bc f499 15bd
000001d0: 393d fd3d f6c7 e4ba c97a d33c 2a40 bfbd
000001e0: 10b0 2e3e a8a3 f23c 1021 4e3d 488f e0bd
000001f0: 4e30 273e b99f 03be 71fd 003e 24e6 873d
00000200: 3a2a 103e a521 033d 8be7 7c3c 73a3 c73d
00000210: 4148 113e 22d9 223e 5dee 0cbe 09c5 99bd
00000220: 2eb4 3d3d c409 66bd 3c0a 45bd ddbc b3bd
00000230: 4338 0fbe bd72 30be a844 c93c 8540 16be
00000240: 8caf 473e 90b8 b43d e498 933c 2708 d9bd
00000250: c5e3 fdbc 46eb acbc e8f7 773d c463 47bc
00000260: b384 863d 68a9 4dbe 9a55 013e 88fe b9bd
00000270: abd2 d33d 023e 903a 6a2d f53d af49 0c3e
00000280: 8ef4 4fbd d463 f63c 318b 8ebd be66 053d
00000290: ef45 b4be b7cb 2b3e 8950 6f3d 4751 163e
000002a0: c6ee 823e bf44 d93d ab4e 3bbe 7bb1 91be
000002b0: 7913 33bd c79c 8c3d d635 12be a210 97bd
000002c0: 44ad cd3d d591 ba3c e3bd 633e 8cc2 1fbe
000002d0: b3fb 1fbd 4f49 c73d b730 193e c67a 003e
000002e0: e096 32be 04e6 e8bd 8199 f03d d524 e93c
000002f0: 3ab2 52bd 373e a03d fc90 06be a7fb 7f3e
00000300: 4cb4 1b3e b632 803c 9c2e 1a3e 8c6a d6bd
00000310: e1df d5bd af9c 653e 0fcd 00be 4068 e7bd
00000320: df66 c83d 6ef8 103c 96b7 abbd bc97 d53d
00000330: ac42 51bc e5af 3e3e f987 c3bd fbbf 2ebe
00000340: d802 5e3d dbf9 2bbe b207 cebc 748d 0c3d
00000350: 283d f93d 8a0e edbd b154 5e3d 3bb5 60bd
00000360: 38ef f1bd cf29 acbd 4b49 b3bd 1939 1abe
00000370: 0865 973d 02aa 9a3e 9ef0 373d f721 293e
00000380: 53e7 cc3d 5dd4 bcbd 78dd 3f3d 135f 593d
00000390: 00ef 98bd 845d 9c3d eb1b 79bd 27a5 81bd
000003a0: f1a7 b2bc 35b5 34be 4da6 e5bc 758d 51bc
000003b0: c494 e4bd fb82 7c3d d97c 9fbd 55bd 5e3d
000003c0: 10e5 533e 95cd 14bd c98f a83d 8795 f0bc
000003d0: cce2 8f3d b15e 14bd b79e e7bd 60eb 4a3d
000003e0: ddff 443e 6eeb abbd c398 6fbd 78a7 77bd
000003f0: 9fd0 6d3d 06bf d8bc 5fdb 373d 87ab 6dbe

model.RNN.bias_ih_l0 f4 [50]
0.10072744 0.072001725 0.017253798 0.1366275 -0.116130166 0.044709716 -0.13851705 -0.00412184
0.030817846 0.0365012 -0.035272293 -0.009054704 0.04237064 -0.00827314 0.07786942 -0.1313491
-0.06645601 -0.003554243 -0.054650124 -0.075682744 0.020648621 0.0068377396 0.022521328 0.04144037
-0.09168064 0.026123097 -0.16119258 -0.038407337 -0.001151243 -0.12283007 -0.17005345 0.050591275
0.04802857 0.021072967 -0.022487665 -0.089783 0.0064044544 0.042320773 0.0065363413 -0.004573885
0.019592525 0.15857449 -0.16498397 0.12355798 0.009928124 -0.11391116 -0.15956315 -0.12846817
-0.016862247 -0.04998272
00000000: 304a ce3d a475 933d d657 8d3c 14e8 0b3e
00000010: a7d5 edbd 8921 373d 6ad7 0dbe 8010 87bb
00000020: b575 fc3c 4882 153d ae79 10bd 2e5a 14bc
00000030: d68c 2d3d 108c 07bc 017a 9f3d 6180 06be
00000040: 171a 88bd 4dee 68bb cfd8 5fbd 8eff 9abd
00000050: 4c27 a93c 1e0f e03b a67e b83c 61bd 293d
00000060: 0fc3 bbbd 1b00 d63c ab0f 25be 0351 1dbd
00000070: 4ee5 96ba 558e fbbd 7e22 2ebe cc38 4f3d
00000080: 9bb9 443d 37a1 ac3c 0d38 b8bc 26e0 b7bd
00000090: 75dc d13b 8c58 2d3d ce2e d63b 87e0 95bb
000000a0: 8180 a03c 5a61 223e 8ff1 28be f70b fd3d
000000b0: 92a9 223c 414a e9bd 8664 23be 298d 03be
000000c0: b222 8abc aeba 4cbd

model.RNN.bias_hh_l0 f4 [50]
-0.078787245 0.07202378 0.081317 0.049834736 -0.08604709 0.04573633 -0.143671 -0.101778604
0.11101289 -0.014409073 0.16180411 -0.029500986 -0.13383964 -0.11247816 -0.124027565 -0.097716905
0.09029526 -0.20945229 0.002820646 -0.012844025 0.0031375005 -0.032068845 -0.045583367 -0.0058160806
-0.008329979 0.049724665 -0.04827099 -0.1012798 0.0030546088 -0.10607393 0.0060127527 0.12463249
0.082710914 0.044082053 -0.043292623 -0.12940823 0.17541878 -0.025686545 0.102310136 -0.12009065
0.03445776 -0.052247245 -0.10487711 0.10994229 -0.03173236 -0.12571235 -0.031712774 -0.050362162
-0.08947032 -0.060285266
00000000: 355b a1bd 3481 933d 8789 a63d 821f 4c3d
00000010: 7539 b0bd 0556 3b3d 7e1e 13be 4d71 d0bd
00000020: ba5a e33d 0814 6cbc faaf 253e 0dac f1bc
00000030: 420d 09be f35a e6bd 2a02 febd cd1f c8bd
00000040: b9ec b83d a97a 56be 96da 383b bf6f 52bc
00000050: 869e 4d3b 9f5a 03bd a0b5 3abd d294 bebb
00000060: 777a 08bc 17ac 4b3d cdb7 45bd c96b cfbd
00000070: d52f 483b 4a3d d9bd a006 c53b 523f ff3d
00000080: 5764 a93d 628f 343d 9b53 31bd 9783 04be
00000090: fba0 333e 976c d2bc fa87 d13d 16f2 f5bd
000000a0: 9523 0d3d 3501 56bd cfc9 d6bd 6c29 e13d
000000b0: cbf9 01bd bdba 00be 41e5 01bd 8e48 4ebd
000000c0: 373c b7bd afed 76bd

model.MLP.0.weight f4 [50, 50]
-0.11462345 0.080780156 -0.099119864 -0.16270481 -0.04728286 -0.019912899 0.088209845 -0.06291274
0.033710446 0.007930921 -0.18114851 0.1569361 0.08734874 0.15492128 0.035821594 0.06115642
-0.019699423 -0.096982464 0.07078306 -0.03368548 0.100860134 -0.1458715 -0.06339849 0.04749773
0.034397863 -0.07405672 0.06440563 0.13102144 0.010887902 0.12245399 0.017609617 -0.07061777
0.04906291 0.017331554 -0.00032131508 -0.017713629 -0.03416383 -0.07121402 -0.14986536 -0.018584909
-0.06167641 0.12259636 -0.03815993 0.08551486 -0.08528796 0.0030846104 -0.0019636524 0.076405466
-0.042003624 0.07835193 -2.3281007e-05 -0.17083417 -0.00782898 -0.0110895615 0.16464107 0.055351626
-0.09135514 -0.10180053 -0.03356534 0.07495975 -0.12561911 0.14366664 -0.057985056 -0.074011326
-0.045390677 0.12254345 0.09964695 0.1669384 0.116324134 0.08038614 -0.08418402 0.087682426
0.0062202797 -0.13566804 -0.14916416 0.15297832 0.09614416 -0.0019271557 -0.014401591 0.21066599
-0.015453019 -0.113160096 -0.009926602 -0.032446526 -0.055031106 -0.021602944 0.04861274 -0.29985344
-0.06152542 0.1737466 0.027933462 0.091488756 0.06937071 -0.0007187998 -0.013009104 0.14876151
0.1672619 0.12411476 0.07128498 -0.03135132 -0.046637442 0.15172958 0.09938131 0.034266554
0.15635632 0.19151233 0.012437922 -0.0811082 -0.048972655 0.19413596 0.08570375 0.14388186
-0.04725509 0.011810214 -0.2425222 0.14286414 -0.05152278 0.0140543915 -0.14171211 0.13208851
-0.06895223 -0.096948415 0.12018326 0.10801578 -0.086046785 0.026815735 0.09494264 0.005409119
0.02373725 0.004123837 -0.01521445 0.13101818 -0.10729167 0.13979138 -0.19214286 -0.090561405
-0.042907845 0.0037410867 0.14552203 0.027820447 -0.07487237 0.0150984 -0.040005405 -0.057761308
-0.11496643 -0.009642585 0.13146046 0.010750205 -0.023646688 0.03919909 -0.017307201 -0.22350834
0.041432332 -0.05761808 0.09132195 0.0153386695 -0.104076326 0.019223051 -0.03302064 0.043439873
0.019343084 -0.05714766 0.007652158 -0.037046887 -0.021061886 -0.117740296 -0.086483106 0.08734275
0.061256863 0.07561686 0.0420763 0.11780127 0.0447345 -0.14746605 -0.008038762 0.18518108
0.21039085 -0.02564994 -0.17854732 -0.033986326 -0.040451907 -0.16352618 -0.002639035 -0.071135655
-0.0548431 0.18028732 -0.07538714 -0.020164063 -0.08110545 0.03500274 0.0050349785 -0.045174815
0.04648237 0.044260457 -0.058425926 0.178448 -0.053615436 0.12948829 -0.0050902483 -0.083808765
-0.042054128 0.033285543 0.12798962 0.052748736 -0.010609318 0.12135294 0.06872812 0.11583229
-0.13582946 0.10488028 -0.10161002 0.16019988 -0.12733425 0.16619729 -0.1315067 -0.036651544
0.08317684 -0.14234601 -0.05764317 0.13354664 0.061651584 -0.035979394 0.027745279 -0.19929941
-0.056038436 0.1740658 0.00019599104 0.021259068 -0.1403828 -0.060985416 0.18273436 -0.2091939
0.106275775 0.21842612 -0.005329426 0.15562789 0.16728099 0.05326359 -0.12452217 -0.039745715
0.09588775 0.22166602 0.2229919 -0.27395454 -0.122000016 -0.13461511 0.14162207 -0.08066247
0.13050213 0.09504621 0.16336647 0.005456347 0.004307322 -0.0843969 0.17272353 0.12703674
00000000: b3bf eabd 1170 a53d 5bff cabd 179c 26be
00000010: acab 41bd 6020 a3bc 5da7 b43d 65d8 80bd
00000020: f713 0a3d b2f0 013c ff7e 39be dbb3 203e
00000030: e5e3 b23d afa3 1e3e aab9 123d 277f 7a3d
00000040: af60 a1bc be9e c6bd b5f6 903d c9f9 09bd
00000050: c28f ce3d 575f 15be 11d7 81bd fb8c 423d
00000060: c6e4 0c3d 0dab 97bd 19e7 833d 7c2a 063e
00000070: 2c63 323c 28c9 fa3d 0b42 903c 0da0 90bd
00000080: 31f6 483d e7fa 8d3c 2e76 a8b9 2c1c 91bc
00000090: 5fef 0bbd a8d8 91bd 4e76 19be 613f 98bc
000000a0: 67a0 7cbd cd13 fb3d 964d 1cbd 6a22 af3d
000000b0: 74ab aebd 2d27 4a3b 9fb0 00bb 787a 9c3d
000000c0: fe0b 2cbd fa76 a03d 954b c3b7 27ef 2ebe
000000d0: 1f45 00bc feb0 35bc ab97 283e 63b8 623d
000000e0: 6718 bbbd cc7c d0bd cf7b 09bd 7f84 993d
000000f0: 4ca2 00be 591d 133e bd81 6dbd 4093 97bd
00000100: 93eb 39bd 0ff8 fa3d b313 cc3d e6f1 2a3e
00000110: 593b ee3d 7da1 a43d ac68 acbd d892 b33d
00000120: 7dd3 cb3b 90ec 0abe 7dbe 18be 59a6 1c3e
00000130: 3be7 c43d 9d98 fcba a7f4 6bbc d3b8 573e
00000140: a92e 7dbc 7bc0 e7bd 30a3 22bc a6e6 04bd
00000150: 4c68 61bd a8f8 b0bc 271e 473d 6486 99be
00000160: 1402 7cbd a1ea 313e b7d4 e43c 755e bb3d
00000170: 3b12 8e3d d76d 3cba 2324 55bc f054 183e
00000180: b446 2b3e e12f fe3d dcfd 913d 3e6a 00bd
00000190: e706 3fbd 005f 1b3e 6e88 cb3d 165b 0c3d
000001a0: df1b 203e cf1b 443e 6dc8 4b3c 0e1c a6bd
000001b0: 8d97 48bd 94cb 463e 7385 af3d c455 133e
000001c0: 8e8e 41bd a17f 413c bd57 78be fa4a 123e
000001d0: 8d09 53bd 6444 663c fb1c 11be 3642 073e
000001e0: d436 8dbd e48c c6bd a422 f63d 6137 dd3d
000001f0: 4c39 b0bd acac db3c 4971 c23d fb3e b13b
00000200: 9f74 c23c 4121 873b 0746 79bc a129 063e
00000210: bcbb dbbd 7925 0f3e 19c1 44be 4278 b9bd
00000220: 23c0 2fbd 052d 753b ba03 153e b5e7 e33c
00000230: af56 99bd 485f 773c b5dc 23bd 1f97 6cbd
00000240: 8573 ebbd effb 1dbc 929d 063e a121 303c
00000250: b3b6 c1bc 3a8f 203d d5c7 8dbc 5fdf 64be
00000260: f3b4 293d f000 6cbd 0107 bb3d 0b4f 7b3c
00000270: f825 d5bd a979 9d3c a740 07bd 02ee 313d
00000280: 6375 9e3c aa13 6abd f4be fa3b 7abe 17bd
00000290: fa89 acbc d321 f1bd 0e1e b1bd c1e0 b23d
000002a0: 7ae8 7a3d 03dd 9a3d 3358 2c3d cb41 f13d
000002b0: 863b 373d 5701 17be 03b5 03bc 1ca0 3d3e
000002c0: b370 573e d31f d2bc 1cd5 36be 3f35 0bbd
000002d0: e6b0 25bd 6873 27be a9f3 2cbb 92af 91bd
000002e0: 29a3 60bd 3d9d 383e 9364 9abd 1b2f a5bc
000002f0: 9d1a a6bd 085f 0f3d 76fc a43b 3a09 39bd
00000300: 4c64 3e3d 744a 353d 0650 6fbd 13bb 363e
00000310: dc9b 5bbd 9498 043e 19cc a6bb eea3 abbd
00000320: f340 2cbd 6c56 083d b60f 033e 0f0f 583d
00000330: b4d2 2dbc e487 f83d 54c1 8c3d 7b39 ed3d
00000340: e116 0bbe 79cb d63d ea18 d0bd 700b 243e
00000350: e963 02be 9f2f 2a3e b1a9 06be ee1f 16bd
00000360: 9e58 aa3d 27c3 11be 3f1b 6cbd 73c0 083e
00000370: 5f86 7c3d 215f 13bd 114a e33c 2515 4cbe
00000380: 8f88 65bd 4e3e 323e f282 4d39 7f27 ae3c
00000390: 82c0 0fbe d8cb 79bd b71e 3b3e ed36 56be
000003a0: 1da7 d93d 19ab 5f3e 77a2 aebb eb5c 1f3e
000003b0: b54b 2b3e ec2a 5a3d 7b05 ffbd 67cc 22bd
000003c0: cc60 c43d 6bfc 623e fd57 643e c543 8cbe
000003d0: 25db f9bd 8bd8 09be 6005 113e 5d32 a5bd
000003e0: 5aa2 053e 96a7 c23d 8a49 273e 28cb b23b
000003f0: 7024 8d3b 48d8 acbd 70de 303e eb15 023e

model.MLP.0.bias f4 [50]
0.025502427 0.022038141 -0.061205726 0.043868225 -0.15676428 -0.19728495 -0.19598468 -0.13767973
0.1367287 -0.008244075 0.03254265 -0.23441608 -0.014569956 -0.12565728 -0.07719553 -0.09941087
-0.23681408 -0.10641668 0.067199506 -0.07487763 -0.016389413 -0.063129105 -0.12562074 0.009410306
-0.06942213 0.008145618 -0.21785772 -0.1422955 0.005601916 -0.04828284 -0.16412541 -0.24415132
-0.039419845 0.03905083 0.0992472 -0.20797944 -0.23205917 0.08775663 -0.11418848 0.05999513
0.08059378 0.046903435 -0.06035791 0.07144543 -0.007981576 0.037189122 -0.03918584 -0.081100404
0.06748024 -0.061677705
00000000: 77ea d03c 5589 b43c dbb2 7abd 2baf 333d
00000010: d186 20be 1105 4abe 35b0 48be eafb 0cbe
00000020: 9c02 0c3e 2812 07bc 714b 053d c50a 70be
00000030: d3b6 6ebc 4dac 00be b118 9ebd ed97 cbbd
00000040: 647f 72be fdf0 d9bd e59f 893d 7159 99bd
00000050: 1743 86bc d549 81bd b9a2 00be af2d 1a3c
00000060: 312d 8ebd 3375 053c 1816 5fbe e9b5 11be
00000070: 4790 b73b 3ac4 45bd 7e10 28be ce02 7abe
00000080: b476 21bd c3f3 1f3d 1e42 cb3d 90f8 54be
00000090: eba0 6dbe bfb9 b33d a6db e9bd 74bd 753d
000000a0: 5a0e a53d d11d 403d db39 77bd fb51 923d
000000b0: 28c5 02bc 9f53 183d 5581 20bd f817 a6bd
000000c0: 1433 8a3d c3a1 7cbd

model.MLP.2.weight f4 [50, 50]
-0.047338195 0.11095977 -0.14583267 0.1442035 -0.17084049 0.14357476 -0.05321456 -0.083575614
-0.0126987565 0.01187205 -0.12415 -0.11938287 -0.20716591 -0.1938186 -0.10611689 -0.07905935
0.18165378 0.07501327 0.122442394 -0.09279057 -0.21114337 0.09229307 -0.011327359 0.022955583
-0.17092945 -0.07741791 -0.054098517 -0.010445148 -0.0102689825 0.09432214 -0.0063219196 0.004480871
-0.0049462556 0.058075465 0.0743871 0.030572895 0.08663206 -0.16893949 -0.12405378 0.0630337
-0.023569103 -0.02020062 -0.19421872 0.04806615 0.12947835 -0.22886579 0.055083767 -0.13116157
-0.03253426 -0.011269975 -0.015762791 0.015812235 -0.22094846 0.044425692 0.13350914 0.24332856
0.19508071 0.12925604 0.04912293 0.101570494 -0.06539783 0.15986894 -0.26890934 0.05503173
-0.032529976 0.2590752 0.2593911 -0.10833158 0.00018378039 -0.22035192 0.020518955 -0.300421
0.001402494 -0.1425584 -0.062560394 0.029578 0.054293115 0.05350207 0.0875257 -0.23706232
-0.03936977 0.013465369 -0.017545735 -0.0044761603 -0.16636972 0.06615278 0.19924156 -0.07538474
-0.17262176 -0.14823878 -0.13143316 0.034254845 0.21042836 -0.052354705 0.28379095 0.15961717
-0.08987545 -0.109347746 0.045498155 -0.22490041 -0.013734736 -0.10067502 0.005761045 -0.11292016
-0.13677014 0.07455169 0.046903938 -0.09443039 0.02156139 0.047284957 -0.097208135 0.087170735
0.09325771 0.036018282 -0.094712265 -0.04999749 -0.011815256 0.09694816 0.050129227 -0.1405448
0.0049923807 -0.057873182 0.061935082 -0.021837877 -0.11017401 0.103477895 0.0984555 -0.12537341
0.04334065 0.11814131 0.042027265 0.0779607 -0.084965564 -0.07787471 -0.06262476 -0.0865727
-0.10962119 -0.13624422 0.09528297 0.03009839 -0.0186607 0.04580065 -0.018446952 -0.14737566
-0.09928409 -0.09628311 0.0077213496 -0.07900964 0.06761915 0.01661706 0.11550949 -0.09576282
-0.008779996 0.034020655 0.23354949 0.058243856 -0.32145482 0.10577517 0.04088675 0.028464496
0.035068735 -0.111669466 -0.022645492 0.13344656 0.024619691 -0.0025399558 0.050495815 0.041220844
-0.09768544 -0.021738697 -0.13676801 -0.186615 0.049717862 0.018789742 0.028810479 -0.08455391
-0.073114105 0.08259461 0.0033897636 0.09148075 -0.09101636 -0.18883269 0.0033781752 -0.016249733
0.08101317 -0.017050043 0.17018513 -0.1324591 0.11710411 0.08028604 -0.11356334 0.028939625
0.0710419 0.010075506 -0.04995538 -0.16529232 -0.06935765 -0.019158537 0.10921047 0.111378
-0.07381195 0.049055617 0.060487792 -0.10611714 0.06822 -0.055340577 0.2638288 0.1590221
0.16137463 0.122752085 0.1371476 0.10769772 0.00012728108 -0.046288606 0.14008354 0.12992597
0.2778424 -0.06623447 0.003890043 -0.20111546 -0.013872946 0.012620596 -0.09139921 0.05037243
0.11287378 -0.06921952 0.006783496 0.0030815508 -0.15482214 -0.085230276 -0.13348426 0.014750519
-0.19900893 0.060656305 -0.07074541 0.14546533 0.32961106 -0.09786264 -0.05945697 -0.19712403
-0.09668214 0.18018067 0.2396225 -0.06853497 0.08316734 -0.088605694 -0.35803673 -0.22871359
0.059196115 -0.28720465 0.04466045 0.024126003 -0.08054396 0.30956987 -0.05167917 0.03367695
00000000: b2e5 41bd e03e e33d 2955 15be 15aa 133e
00000010: cff0 2ebe 4305 133e 83f7 59bd b129 abbd
00000020: 720e 50bc fd82 423c 5b42 febd 027f f4bd
00000030: 4d23 54be 6278 46be d053 d9bd dee9 a1bd
00000040: 7303 3a3e 8fa0 993d 14c3 fa3d fb08 bebd
00000050: f835 58be 2604 bd3d 6396 39bc 590d bc3c
00000060: 2108 2fbe 488d 9ebd 6896 5dbd 2022 2bbc
00000070: 3c3f 28bc f72b c13d 1b28 cfbb 45d4 923b
00000080: 3314 a2bb 8ae0 6d3d 4458 983d 0274 fa3c
00000090: 266c b13d 79fe 2cbe e90f febd d017 813d
000000a0: fe13 c1bc c57b a5bc 46e1 46be 03e1 443d
000000b0: f995 043e cb5b 6abe 849f 613d 384f 06be
000000c0: a542 05bd b4a5 38bc f820 81bc a988 813c
000000d0: 5040 62be b7f7 353d 9fb6 083e 1f2b 793e
000000e0: 3dc3 473e b25b 043e 2035 493d 3104 d03d
000000f0: 4cef 85bd afb4 233e 7cae 89be f468 613d
00000100: 273e 05bd 81a5 843e e9ce 843e f3dc ddbd
00000110: 2cb5 4039 efa3 61be 5e17 a83c c8d0 99be
00000120: e4d3 b73a d4fa 11be aa1f 80bd 904d f23c
00000130: 7562 5e3d fd24 5b3d ad40 b33d 77c0 72be
00000140: 3242 21bd da9d 5c3c 13bc 8fbc c1ac 92bb
00000150: d35c 2abe 1c7b 873d fb05 4c3e 5163 9abd
00000160: c2c3 30be e8cb 17be 6a96 06be cf4e 0c3d
00000170: 887a 573e e371 56bd 0c4d 913e af72 233e
00000180: 9f10 b8bd b6f1 dfbd 465c 3a3d 4b4c 66be
00000190: a807 61bc b42e cebd 26c7 bc3b af42 e7bd
000001a0: 790d 0cbe 8eae 983d 581e 403d b864 c1bd
000001b0: 83a1 b03c dfad 413d 0f15 c7bd 9286 b23d
000001c0: e6fd be3d e887 133d 81f8 c1bd 2bca 4cbd
000001d0: c794 41bc c28c c63d 4e54 4d3d faea 0fbe
000001e0: 2097 a33b 6e0c 6dbd a4af 7d3d 59e5 b2bc
000001f0: e9a2 e1bd 38ec d33d 0aa3 c93d e361 00be
00000200: f785 313d 12f4 f13d c824 2c3d dca9 9f3d
00000210: 6d02 aebd c77c 9fbd 6941 80bd 074d b1bd
00000220: 1381 e0bd 9b83 0bbe b823 c33d e690 f63c
00000230: 53de 98bc 7699 3b3d 101e 97bc a5e9 16be
00000240: 7555 cbbd 1430 c5bd 6003 fd3b cecf a1bd
00000250: e97b 8a3d 8020 883c 3d90 ec3d 4c1f c4bd
00000260: f9d9 0fbc 3e59 0b3d 9927 6f3e 1c91 6e3d
00000270: ba95 a4be a7a0 d83d dd78 273d 602e e93c
00000280: 3ca4 0f3d f6b2 e4bd 0a83 b9bc 37a6 083e
00000290: 3caf c93c 6375 26bb b3d4 4e3d 30d7 283d
000002a0: 4e0f c8bd 5a15 b2bc ea0c 0cbe 0118 3fbe
000002b0: f5a4 4b3d f2ec 993c f403 ec3c 9a2a adbd
000002c0: d9bc 95bd 5d27 a93d cc26 5e3b 425a bb3d
000002d0: c966 babd 5b5d 41be 6064 5d3b 291e 85bc
000002e0: 3cea a53d 88ac 8bbc 0345 2e3e 5ca3 07be
000002f0: 48d4 ef3d 026d a43d e593 e8bd cb12 ed3c
00000300: 6a7e 913d bc13 253c 039e 4cbd 6442 29be
00000310: 620b 8ebd 5df2 9cbc bda9 df3d 261a e43d
00000320: b82a 97bd 8bee 483d 0cc2 773d f153 d9bd
00000330: edb6 8b3d cdac 62bd 9214 873e b0d6 223e
00000340: 643f 253e 7265 fb3d 6c70 0c3e 9f90 dc3d
00000350: c176 0539 1f99 3dbd 0f72 0f3e 500b 053e
00000360: 5c41 8e3e f0a5 87bd 17f0 7e3b 36f1 4dbe
00000370: 5a4b 63bc 9ec6 4e3c 822f bbbd 5253 4e3d
00000380: 5e2a e73d f7c2 8dbd 1748 de3b d8f3 493b
00000390: b289 1ebe 368d aebd 19b0 08be 29ac 713c
000003a0: ffc8 4bbe bf72 783d f8e2 90bd ddf4 143e
000003b0: c8c2 a83e 356c c8bd 2789 73bd e2da 49be
000003c0: 4901 c6bd 4881 383e 9a5f 753e 105c 8cbd
000003d0: a353 aa3d e776 b5bd 9750 b7be e533 6abe
000003e0: a077 723d 7d0c 93be e0ed 363d e5a3 c53c
000003f0: 3bf4 a4bd f17f 9e3e 8aad 53bd d7f0 093d

model.MLP.2.bias f4 [50]
0.01237482 -0.007613166 -0.18528454 0.035929658 -0.06635894 -0.05154897 0.063798785 -0.057524383
0.10747468 0.11848407 -0.1826064 0.07566662 -0.17534353 -0.020178597 -0.048725758 0.08445829
-0.016402405 0.12081804 -0.21462725 0.0038096772 0.04975261 -0.17398337 0.06314594 0.059698753
0.06957713 -0.070676036 -0.10424373 0.089473866 -0.12674136 -0.004707917 -0.041357536 0.055798087
0.015868403 0.04606067 -0.1877958 -0.13414948 -0.019208051 0.054596186 0.03757957 0.04627425
-0.12877235 0.041859448 0.034440856 0.025297377 0.042198695 0.087386124 0.003799084 -0.07060032
0.021354575 0.04588119
00000000: c2bf 4a3c dd77 f9bb 3bbb 3dbe fa2a 133d
00000010: 32e7 87bd 0325 53bd f0a8 823d b09e 6bbd
00000020: af1b dc3d c7a7 f23d 2cfd 3abe 1af7 9a3d
00000030: 418d 33be 964d a5bc a994 47bd 78f8 ac3d
00000040: 565e 86bc 736f f73d 3fc7 5bbe c7ab 793b
00000050: 65c9 4b3d b228 32be a952 813d ae86 743d
00000060: 747e 8e3d 99be 90bd bd7d d5bd 133e b73d
00000070: 7dc8 01be df44 9abb 8566 29bd 898c 643d
00000080: 74fe 813c 1daa 3c3d 8b4d 40be 7b5e 09be
00000090: 345a 9dbc 40a0 5f3d 09ed 193d 118a 3d3d
000000a0: e6dc 03be d074 2b3d db11 0d3d 723c cf3c
000000b0: 8ad8 2c3d 7ff7 b23d 0efa 783b e796 90bd
000000c0: caef ae3c eaed 3b3d

model.MLP.4.weight f4 [11, 50]
-0.03151966 0.22874406 0.04153464 0.08534591 0.19923827 -0.12735093 -0.017615238 0.25840908
0.089996785 -0.12663154 -0.0009254647 -0.00744662 -0.2797008 -0.08628425 0.12132618 -0.05191882
0.11398654 -0.10610223 -0.15107255 0.06643879 0.10925353 0.04047103 0.07787311 -0.06738381
0.20892845 0.19248755 0.07080518 -0.046950098 -0.09834353 0.00029772674 0.13849509 0.00062267313
0.12172302 -0.0007145023 -0.044694886 0.06855423 -0.057546526 0.085751265 0.15014623 0.10019649
0.06773963 0.20996872 -0.05524765 -0.13026737 -0.023307346 0.18288262 0.07412098 0.0055843815
0.10917213 -0.065847404 0.0062296093 0.09230314 -0.09658542 -0.10864541 0.031861484 0.05280751
0.035977855 0.07193799 -0.13463582 0.123291954 -0.013554886 -0.13810569 -0.08018017 -0.04739268
0.046742156 0.12062876 0.09317593 -0.013665929 0.06425233 -0.11457792 0.020275295 0.14018612
0.01626949 -0.113717005 0.10846993 0.07673897 0.060164973 0.09928164 -0.054478243 0.035870746
-0.014484033 -0.12606473 0.09888609 -0.1314765 -0.03391958 0.04270953 -0.013517544 -0.10053162
-0.086115286 -0.004420042 0.13126631 0.019193158 -0.10864659 -0.13323124 0.065095216 0.009023219
-0.083904415 -0.111818835 -0.13557586 -0.10395354 -0.051672474 -0.03680133 -0.0801757 -0.107310906
0.0394329 -0.005499065 -0.04276388 -0.109118246 0.07050492 -0.13186698 -0.020801343 -0.11802123
-0.088475734 0.116151705 -0.08925723 -0.0716646 0.0687052 0.0056661367 -0.09022865 0.018923566
0.009050116 0.12049623 -0.08910115 -0.11337949 -0.07369506 0.1238447 -0.08349446 -0.01641886
0.069937676 0.043903947 0.058079585 0.05516933 -0.1392541 0.024124756 0.104614764 -0.11819381
-0.061135083 0.06492221 -0.04894021 -0.013943538 0.02760674 -0.12638527 -0.12772617 0.010022059
-0.017261073 0.009319037 -0.13935226 -0.04948307 -0.035195604 -0.03517335 0.10240501 0.013246283
-0.087577164 0.07442008 -0.09790899 -0.05189587 -0.019561231 -0.009018317 -0.11374927 0.13758098
0.07610163 0.026106656 -0.10907421 0.033043087 0.044222057 -0.07588975 -0.10935804 -0.004237443
0.007563323 -0.011032209 -0.056117535 -0.067413345 -0.02028612 -0.06793624 -0.03583806 0.030888736
-0.096433006 0.000990063 0.14104466 -0.05747512 0.06185919 0.050372005 -0.04308477 -0.07599812
-0.13823931 -0.001402393 -0.14044131 -0.045567825 -0.07173137 0.14075767 -0.04607939 0.14080642
0.037506968 -0.13651362 -0.12935024 -0.11617007 0.10331829 -0.030300722 0.026461765 0.13644667
-0.06357198 -0.05614011 -0.11229401 -0.103429906 -0.10175592 0.07880242 -0.026289381 0.10512693
0.022699147 -0.11503049 -0.033801086 7.018447e-06 0.012326241 -0.12728673 -0.12985453 -0.03826922
-0.1389578 -0.11387337 -0.077899314 -0.033533134 -0.07010616 -0.12144445 0.06837095 0.03650254
-0.11124029 -0.049950913 -0.09799655 -0.072924234 -0.0246801 -0.066477016 0.07957603 -0.019088462
-0.057094567 -0.01583685 -0.09382801 0.11413507 0.050675273 -0.021768816 0.102568716 -0.100247175
0.033360094 -0.09979248 -0.048350662 -0.055918857 -0.11972336 0.043852344 0.13750486 -0.03375221
-0.059785224 0.124879465 -0.005047217 0.09369862 -0.14139804 0.11880688 0.075499 -0.09683165
00000000: c21a 01bd e23b 6a3e 3a20 2a3d d6c9 ae3d
00000010: 1e05 4c3e 4868 02be d54d 90bc 324e 843e
00000020: 3c50 b83d b3ab 01be e29a 72ba c702 f4bb
00000030: f134 8fbe ccb5 b0bd dc79 f83d d4a8 54bd
00000040: c671 e93d 204c d9bd c3b2 1abe 0f11 883d
00000050: 51c0 df3d f3c4 253d f07b 9f3d 8600 8abd
00000060: 57f1 553e 751b 453e 4e02 913d bf4e 40bd
00000070: 5568 c9bd 3518 9c39 a8d1 0d3e e33a 233a
00000080: eb49 f93d 704d 3bba fc11 37bd 2966 8c3d
00000090: e8b5 6bbd 5c9e af3d efbf 193e d133 cd3d
000000a0: 13bb 8a3d 0a02 573e 5c4b 62bd cf64 05be
000000b0: 0cef bebc 9545 3b3e becc 973d 30fd b63b
000000c0: a395 df3d 01db 86bd c021 cc3b 6e09 bd3d
000000d0: 94ce c5bd 7c81 debd 3081 023d b04c 583d
000000e0: 845d 133d 3a54 933d f9dd 09be 7e80 fc3d
000000f0: 5015 5ebc 946b 0dbe 8035 a4bd d41e 42bd
00000100: b474 3f3d 360c f73d 06d3 be3d 10e7 5fbc
00000110: ba96 833d d4a7 eabd 6018 a63c f38c 0f3e
00000120: 9847 853c 76e4 e8bd 7c25 de3d 5229 9d3d
00000130: 8c6f 763d 2c54 cb3d 9424 5fbd 34ed 123d
00000140: 704e 6dbc 1d17 01be ca84 ca3d c7a1 06be
00000150: 42ef 0abd 30f0 2e3d b078 5dbc 86e3 cdbd
00000160: 365d b0bd 00d6 90bb ad6a 063e f83a 9d3c
00000170: 1a82 debd c56d 08be a450 853d 20d6 133c
00000180: 14d6 abbd 4601 e5bd 66d4 0abe 98e5 d4bd
00000190: 84a6 53bd febc 16bd 2833 a4bd d2c5 dbbd
000001a0: 6484 213d 8031 b4bb 2e29 2fbd 6379 dfbd
000001b0: e264 903d 2308 07be 9467 aabc 1db5 f1bd
000001c0: c432 b5bd f2e0 ed3d 7fcc b6bd e4c4 92bd
000001d0: 50b5 8c3d 00ab b93b ccc9 b8bd 9805 9b3c
000001e0: f046 143c bac6 f63d aa7a b6bd 8233 e8bd
000001f0: 70ed 96bd 4aa2 fd3d 25ff aabd d880 86bc
00000200: 7c3b 8f3d a0d4 333d dce4 6d3d 3cf9 613d
00000210: a098 0ebe 48a1 c53c 4440 d63d 990f f2bd
00000220: c868 7abd f0f5 843d 8875 48bd 7073 64bc
00000230: 8827 e23c 246b 01be a6ca 02be 9033 243c
00000240: 1867 8dbc e0ae 183c 5cb2 0ebe c2ae 4abd
00000250: 4429 10bd ee11 10bd b8b9 d13d f006 593c
00000260: a85b b3bd 8e69 983d 8284 c8bd c490 54bd
00000270: e03e a0bc 90c1 13bc 61f5 e8bd 07e2 0c3e
00000280: 2cdb 9b3d a0dd d53c 4d62 dfbd 3058 073d
00000290: 3022 353d 166c 9bbd 1cf7 dfbd 40da 8abb
000002a0: c0d5 f73b 70c0 34bc 80db 65bd 0210 8abd
000002b0: 142f a6bc 2822 8bbd eeca 12bd 600a fd3c
000002c0: ab7e c5bd 00c5 813a 036e 103e 086b 6bbd
000002d0: 1060 7d3d e052 4e3d a879 30bd e7a4 9bbd
000002e0: 9b8e 0dbe 80d0 b7ba d9cf 0fbe 54a5 3abd
000002f0: e6e7 92bd c722 103e bebd 3cbd 8f2f 103e
00000300: e8a0 193d 3aca 0bbe 6474 04be 93ea edbd
00000310: 8a98 d33d 3839 f8bc 58c6 d83c adb8 0b3e
00000320: 0732 82bd 2cf3 65bd 67fa e5bd 0fd3 d3bd
00000330: 6865 d0bd 2a63 a13d d45c d7bc ca4c d73d
00000340: 90f3 b93c 1b95 ebbd 0273 0abd 0080 eb36
00000350: 00f4 493c 7457 02be 96f8 04be 30c0 1cbd
00000360: f44a 0ebe 7136 e9bd ad89 9fbd 0a5a 09bd
00000370: d293 8fbd deb7 f8bd 1206 8c3d b083 153d
00000380: f3d1 e3bd 5499 4cbd 6ab2 c8bd 4d59 95bd
00000390: ec2d cabc 1a25 88bd c2f8 a23d 685f 9cbc
000003a0: fedb 69bd 48bc 81bc e628 c0bd a6bf e93d
000003b0: e090 4f3d 8454 b2bc 8c0f d23d 644e cdbd
000003c0: 98a4 083d 0060 ccbd 580b 46bd 2c0b 65bd
000003d0: 8531 f5bd 849e 333d 13ce 0c3e c23f 0abd
000003e0: 5ae1 74bd cec0 ff3d 2063 a5bb 10e5 bf3d
000003f0: a6ca 10be 0651 f33d 389f 9a3d ac4f c6bd

model.MLP.4.bias f4 [11]
0.06027295 -0.024459772 -0.08006458 -0.058706008 -0.11101072 0.07256323 0.13175006 -0.08804617
-0.07396639 0.026918992 -0.019525796
00000000: c5e0 763d dc5f c8bc e6f8 a3bd b675 70bd
00000010: 9759 e3bd 089c 943d 7de9 063e 8d51 b4bd
00000020: b17b 97bd 3885 dc3c 90f4 9fbc

exp_avg f4 [10]
0.00079779857 0.0003741796 0.0021872676 0.0023580906 0.001464351 0.00040000016 0.0017265059 0.0008610682
-0.0017920227 -0.00020716354
00000000: 5b23 513a 892d c439 4358 0f3b 328a 1a3b
00000010: 77ef bf3a 1db7 d139 ed4b e23a 4fb9 613a
00000020: 4ee2 eaba 0a3a 59b9

exp_avg_sq f4 [10]
2.6371858e-06 2.3275218e-06 6.9937346e-06 2.8364623e-06 2.8420734e-06 4.695545e-06 3.5709352e-06 4.5162274e-06
9.01682e-06 3.3051022e-06
00000000: 82fa 3036 8532 1c36 b9ab ea36 0d5a 3e36
00000010: 73ba 3e36 6d8e 9d36 33a4 6f36 198a 9736
00000020: f246 1737 39cd 5d36

exp_avg f4 [10, 1]
0.0018004338 -0.00018444359 0.0006677669 0.0014585092 0.001887139 -0.00038264124 0.0012573224 0.0015242468
-0.0016591024 0.0014455138
00000000: 89fc eb3a 3367 41b9 140d 2f3a 732b bf3a
00000010: e159 f73a 3d9d c8b9 bdcc a43a 3cc9 c73a
00000020: 3d76 d9ba 6577 bd3a

exp_avg_sq f4 [10, 1]
5.251274e-07 6.574103e-07 2.8125768e-07 3.1283693e-07 4.1750747e-07 4.651331e-07 6.091116e-07 4.7557933e-07
1.0830744e-06 4.1275845e-07
00000000: 7bf6 0c35 e478 3035 c3ff 9634 fbf3 a734
00000010: ca25 e034 68b7 f934 d581 2335 2053 ff34
00000020: 275e 9135 1799 dd34

exp_avg f4 [50, 11]
0.00021643091 -0.00034237516 4.176977e-06 -2.464545e-06 -0.00016857157 -0.00029629833 0.00017900868 -6.64041e-05
-0.00011367869 0.00028317684 -0.0001391698 -0.00055892416 0.0011252217 3.1807913e-06 -3.2894364e-05 0.0005683285
0.0010862586 -0.00063963135 0.00026237604 0.00045204072 -0.0009882429 0.00050192187 -4.548589e-05 -0.0001519922
1.591633e-05 4.3520788e-05 -6.876147e-05 -0.00018762279 0.000121194535 -5.8263056e-05 -0.00010078994 0.00016076365
-9.532025e-05 0.0009804091 -0.00063441833 5.6211848e-05 7.2641196e-05 -0.00031568567 -0.00068439415 0.0004500807
-0.00020549647 -0.00034619743 0.0006158738 -0.00034229198 -0.0008018919 -0.0002611434 -4.0774976e-05 -5.377795e-05
-0.00015076174 -0.00019912487 8.6377084e-05 -2.4409785e-05 -4.0983927e-05 0.00018744462 -7.1846676e-05 0.0010790076
-0.0005160046 -4.4581975e-06 9.365369e-06 -0.000273348 -0.00051370816 0.00029883048 -0.0001269537 -0.00021993746
0.00045936587 -0.00023543178 0.0011436265 -0.0009787825 -4.8963182e-05 -5.158736e-05 -0.0005276361 -0.00088987744
0.0004881347 -0.000190199 -0.000326709 0.00081293803 -0.00038893754 -0.00043848285 0.00027879793 -1.5821853e-07
-1.6791267e-06 0.00014281424 0.00026607586 -0.00015909324 6.259697e-05 0.00011173092 -0.00024350142 0.00012426906
-0.0008787695 0.00015830387 -5.9257927e-05 -6.4986074e-05 2.6693539e-05 0.00012740878 -0.00012402098 4.2391926e-05
7.441293e-05 -0.00014604437 8.725392e-05 0.0011266099 -0.00065217563 -4.129179e-05 -3.413257e-05 -0.0003825084
-0.0006675601 0.00036064824 -0.00016396449 -0.00027238886 0.0005796004 -0.00028766476 -0.00043919118 0.00038858084
4.9523664e-05 6.3356165e-05 0.00023126291 0.00033017836 -0.00015723062 5.303936e-05 9.7457945e-05 -0.00029921895
0.00013043625 0.00010477115 -4.523583e-06 1.4527061e-05 1.6366079e-05 4.3289942e-06 -1.8870525e-05 2.30398e-05
-1.1830459e-05 -2.184947e-05 1.7174927e-05 -1.4520099e-05 5.800824e-06 -0.00065058353 -4.98084e-05 -3.7490445e-05
-0.000358984 -0.00060156995 0.00031703347 -0.000119306176 -0.00021580847 0.00053932774 -0.00025782254 0.0009477663
-0.0012076822 -4.5614546e-05 -4.1178882e-05 -0.00066341955 -0.0011700811 0.0006559861 -0.00027385398 -0.00047033528
0.0010460231 -0.0005218621 -0.00017442832 0.0009626363 -1.6251814e-05 -3.497667e-05 0.00051546865 0.0010064285
-0.0006090655 0.00027963778 0.00045796516 -0.0008958476 0.00047098735 3.7434253e-05 0.00047806764 -9.389067e-05
-0.00015434157 0.00018456555 0.0005624366 -0.00040611374 0.00018472815 0.00032455203 -0.0005068988 0.00030761803
-0.00069015136 0.00092270697 5.521221e-06 -2.0269197e-05 0.0004777775 0.00089768105 -0.0005251316 0.00021568289
0.00037649742 -0.0008109501 0.00041482408 -0.00048633647 -7.58123e-05 -7.945079e-06 -2.010577e-05 -2.9349567e-05
-3.6324154e-06 -1.145026e-06 2.3262051e-05 2.8064742e-05 2.5742014e-05 1.193238e-06 0.00016740432 -0.00072018226
3.7880483e-05 5.413292e-05 -0.0003418029 -0.0006929936 0.00044001886 -0.00018078413 -0.0003092345 0.0006443029
-0.0003386562 -0.00042902882 -0.00047032 4.4862e-05 6.590156e-05 -0.00021386203 -0.0004937709 0.00033046943
-0.00014388697 -0.00024449895 0.00045265723 -0.0002488812 -0.000930164 -0.00042779883 3.7405764e-05 6.2516214e-05
-0.00020048811 -0.00045882192 0.0003037949 -0.00013437535 -0.00023030388 0.0004155983 -0.00023086832 0.0007308577
-0.0005217392 -2.1215967e-06 -2.9007322e-06 -0.00027736727 -0.00049973413 0.0002932768 -0.00011862582 -0.00021156449
0.00045281686 -0.00023090994 -0.001256628 0.0004952611 9.6067015e-05 0.000108744076 0.0003198707 0.00042983078
-0.00017441665 6.449229e-05 0.000111812704 -0.00037299923 0.00015427671 -0.0004162579 0.00087316154 4.696521e-05
00000000: bbf1 6239 d180 b3b9 f627 8c36 9064 25b6
00000010: 96c2 30b9 7d58 9bb9 47b4 3b39 6e42 8bb8
00000020: c866 eeb8 5a77 9439 1cee 11b9 c484 12ba
00000030: 2d7c 933a 9475 5536 0ef8 09b8 e1fb 143a
00000040: ca60 8e3a efac 27ba 848f 8939 e1ff ec39
00000050: ee87 81ba 6893 033a 1ac8 3eb8 1860 1fb9
00000060: 0f84 8537 178a 3638 0834 90b8 9cbc 44b9
00000070: d229 fe38 7b5f 74b8 305f d3b8 aa92 2839
00000080: abe6 c7b8 1281 803a 184f 26ba 03c5 6b38
00000090: f256 9838 9d82 a5b9 ea68 33ba cff8 eb39
000000a0: 8a7a 57b9 d581 b5b9 9772 213a a775 b3b9
000000b0: 0e36 52ba 13ea 88b9 cc05 2bb8 a28f 61b8
000000c0: cc15 1eb9 2dcc 50b9 5825 b538 9dc3 ccb7
000000d0: 28e6 2bb8 c88c 4439 64ac 96b8 7d6d 8d3a
000000e0: 7c44 07ba a097 95b6 f41f 1d37 2650 8fb9
000000f0: 5faa 06ba 59ac 9c39 e01e 05b9 039f 66b9
00000100: 0bd7 f039 3dde 76b9 bde5 953a 7e4a 80ba
00000110: d15d 4db8 825f 58b8 0f51 0aba aa46 69ba
00000120: 55ec ff39 2870 47b9 244a abb9 591b 553a
00000130: 50ea cbb9 2ce4 e5b9 a02b 9239 c7e2 29b4
00000140: 5b5e e1b5 68c0 1539 1980 8b39 44d2 26b9
00000150: 7e46 8338 1551 ea38 6a54 7fb9 394e 0239
00000160: 395d 66ba 5ffe 2539 b78b 78b8 2249 88b8
00000170: f0eb df37 0999 0539 a10b 02b9 fccd 3138
00000180: 230e 9c38 7d23 19b9 17fc b638 c1aa 933a
00000190: c4f6 2aba b930 2db8 9129 0fb8 698b c8b9
000001a0: 33ff 2eba 6315 bd39 e2ed 2bb9 6acf 8eb9
000001b0: 53f0 173a b6d1 96b9 3e43 e6b9 70ba cb39
000001c0: a1b7 4f38 15de 8438 2a7f 7239 ca1b ad39
000001d0: 46de 24b9 9476 5e38 5662 cc38 7de0 9cb9
000001e0: b7c5 0839 95b8 db38 48c9 97b6 40b9 7337
000001f0: e349 8937 c741 9136 254c 9eb7 9845 c137
00000200: 6f7b 46b7 6149 b7b7 e012 9037 5a9b 73b7
00000210: b3a4 c236 ec8b 2aba 5de9 50b8 0f3f 1db8
00000220: 0436 bcb9 adb2 1dba 8337 a639 0434 fab8
00000230: a54a 62b9 ac61 0d3a 5b2c 87b9 8573 783a
00000240: 174b 9eba 3f52 3fb8 7db7 2cb8 55e9 2dba
00000250: 685d 99ba 7bf6 2b3a 0f94 8fb9 5597 f6b9
00000260: b61a 893a 93cd 08ba bfe6 36b9 6e59 7c3a
00000270: 8154 88b7 eab3 12b8 8420 073a 23ea 833a
00000280: b2a9 1fba 599c 9239 0b1b f039 51d7 6aba
00000290: daee f639 b902 1d38 27a5 fa39 2be7 c4b8
000002a0: c0d6 21b9 f087 4139 7b70 133a aaeb d4b9
000002b0: 96b3 4139 a328 aa39 67e1 04ba cb47 a139
000002c0: 46eb 34ba d1e1 713a ed42 b936 c507 aab7
000002d0: 367e fa39 5b52 6b3a fca8 09ba ef28 6239
000002e0: a164 c539 f195 54ba bf7c d939 fafa feb9
000002f0: 6bfd 9eb8 db4b 05b7 d0a8 a8b7 b733 f6b7
00000300: 6cc4 73b6 cbae 99b5 e022 c337 936c eb37
00000310: 8ef0 d737 5827 a035 4189 2f39 9dca 3cba
00000320: dce1 1e38 c80c 6338 0234 b3b9 03aa 35ba
00000330: 55b2 e639 df90 3db9 c120 a2b9 70e6 283a
00000340: aa8d b1b9 46ef e0b9 4895 f6b9 352a 3c38
00000350: a134 8a38 2740 60b9 6770 01ba db42 ad39
00000360: 5de0 16b9 1830 80b9 a052 ed39 457c 82b9
00000370: 40d6 73ba 304a e0b9 22e4 1c38 231b 8338
00000380: 1e3a 52b9 098e f0b9 a946 9f39 1ce7 0cb9
00000390: ba7d 71b9 a9e4 d939 3e15 72b9 0897 3f3a
000003a0: 53c5 08ba c160 0eb6 33aa 42b6 9b6b 91b9
000003b0: 9700 03ba f2c2 9939 c1c6 f8b8 69d7 5db9
000003c0: 0d68 ed39 6a20 72b9 70b5 a4ba 69d4 013a
000003d0: 9677 c938 880d e438 52b4 a739 e95a e139
000003e0: 9de3 36b9 0940 8738 fd7c ea38 1c8f c3b9
000003f0: 57c5 2139 313d dab9 e1e4 643a 83fc 4438
